test/ens_models/ens_model_3_C.pt (torch, 654739 bytes, 6 tensors)

weight f4 [20, 10]
00000000: 602d 29bf b0f9 dd3e e8be 7f3e 8f54 16be
00000010: 3881 21be ab9e 553e 6ab9 6e3f 87cf 853e
00000020: ddb0 4f3e 349c 05bf a5df 933e b318 7cbf
00000030: 8553 d23e f0a9 fabe 4c3f cbbd 932c 41bf
00000040: b99d 2c3f 9ca1 5fbf 9872 0ebf a137 28bf
00000050: 5d5c 8e3c 9f7f 99bf c9c5 2cbf 5a12 2ebf
00000060: d179 d23e 0eda e0bd 9110 553f 9255 953d
00000070: a500 393f 2b7d 85be a916 84bf 409b 3cbe
00000080: 4479 d1be f40b f2be e6ff e73e e4e4 afbe
00000090: 7125 b8bd 8191 483f d21a a9be f837 573f
000000a0: 1593 523e 4fb4 0bbf 94c3 67bf 22d6 a13e
000000b0: b7d4 de3d a245 85bf 2ed6 76bf 877a 9d3e
000000c0: 6ed9 39bf cf92 423e d01d dc3e 7cb9 63bd
000000d0: 589f 343f d436 a5be b282 9a3e 082c b53e
000000e0: de84 03bf 03a2 0bbf 0696 6cbe 2afe f03e
000000f0: 7764 8d3e 0a10 d13e 0f02 f93e 7174 a13e
00000100: d6bd cdbe a061 7d3e c83a 04be cade 4cbf
00000110: cbc4 0ebf d23f da3e 62a6 2abe b606 52bf
00000120: 073f 65be b1b5 b73e b9c2 8e3e ee81 833f
00000130: 6b39 e53d f259 dfbd ab13 2b3e 9798 233f
00000140: 173c a5be 3499 e73e 5cb9 b4be f300 e93e
00000150: da6b 0e3f 8d8a afbd 89c0 a2be eadf 7f3f
00000160: ab18 183e d273 99bf b801 01be f82b 03bf
00000170: 754d febe 06d7 a23e 2fd7 eabe ef5d a8be
00000180: 0705 a2be 98ad e53e 7532 7abf eb64 c43e
00000190: 1381 733e 82bf 2dbe 1cff f93e 4dab 2e3d
000001a0: 9bee d63e aecb 2b3f 9780 c9be 3828 83be
000001b0: 6c64 c1bd fc8d 50bf a3ab f73e 0fc5 d93d
000001c0: 5871 103e d65c b83c e749 afbe 3400 083f
000001d0: 9cb3 9abe 2eef 67bf 81fc 11bf 1ffe d53e
000001e0: cd15 3e3e 6dd4 553d 26cb a73e 3923 193e
000001f0: cedb f0be ad2d 37be 4171 dcbc 139a 36bf
00000200: a246 e3bd 2395 0abf 3d88 803f ae5f 4c3f
00000210: f168 56bf a212 a7bc da84 fd3d cce6 cc3d
00000220: 997f ae3d 90f0 0abf c0bc 803e 2228 3fbd
00000230: 569e d8be 3e3b 653f 2a61 97be 20dd 8c3e
00000240: fd05 c23e 8f7c d33e 3594 be3e 2aa1 89be
00000250: ebfb 78bf bfe5 fc3e deb2 2b3e 5b38 ad3e
00000260: f84a 0dbe 65ec 263f 2e67 d8bd 1b40 86bf
00000270: b019 58bf a4e9 40bf b965 1d3f 152e 0e3f
00000280: 1b85 2a3f 5a31 18bf 8e20 a03d b20d 23be
00000290: eae8 b13e 77a0 22be 5a02 6d3f 8ef3 f63c
000002a0: 2d49 153f d4b9 1dbf 66f3 f9bd 9247 a13f
000002b0: 3606 283e 3931 783d 61bc bcbe 01ab 873e
000002c0: 2e84 efbe fbfb 993d 6d24 58bf 3c5c 9bbe
000002d0: 02a7 873f 4e99 47bf 3ddd 18bf fcdb 313f
000002e0: 1096 4a3e f60a cebe 36ad 29be c1ea adbd
000002f0: bd52 0dbf f6a0 4c3f 3fe8 213f 4fc2 02bd
00000300: 7f66 873d 8e9d de3d 6f7b 7bbe 49e0 90be
00000310: bb57 b33f 27b4 1b3d 0808 07be df71 95be
-0.6608486 0.4335456 0.24975169 -0.14680694 -0.1577195 0.20861308 0.9325167 0.26134893
0.20282312 -0.5219147 0.28881565 -0.9847519 0.41079345 -0.48957777 -0.09924182 -0.7545864
0.67428166 -0.8735597 -0.55643606 -0.6570988 0.017378027 -1.1992072 -0.67489296 -0.6799675
0.41108564 -0.10979091 0.83228403 0.07291712 0.7226661 -0.26072058 -1.0319415 -0.18418598
-0.4091283 -0.47274745 0.45312423 -0.34354317 -0.089915164 0.7834702 -0.33028275 0.84069777
0.2056392 -0.54572004 -0.90532804 0.31608683 0.10880416 -1.0411875 -0.9642056 0.30757543
-0.72597396 0.19001316 0.42991495 -0.055596814 0.7055564 -0.32268393 0.30177838 0.35385156
-0.51374614 -0.54544085 -0.23104104 0.47068912 0.2761571 0.4083255 0.48634383 0.3153415
-0.40183896 0.24744272 -0.12913048 -0.8002745 -0.5576903 0.42626816 -0.16665033 -0.8204149
-0.22387324 0.35880807 0.27882937 1.0274026 0.11192592 -0.109058276 0.16706721 0.6390471
-0.32272407 0.45234072 -0.35297668 0.45508537 0.5563332 -0.08571348 -0.31787518 0.9995104
0.1485316 -1.198847 -0.12598312 -0.51238966 -0.4966847 0.31804675 -0.45867297 -0.32884166
-0.3164446 0.44859004 -0.9773324 0.38358244 0.23779707 -0.16967586 0.48827446 0.042643834
0.41978917 0.67107666 -0.3935592 -0.25616622 -0.09442982 -0.8146665 0.48373136 0.10633289
0.14105737 0.022505205 -0.3423607 0.5312531 -0.30215156 -0.90599334 -0.57025915 0.41795442
0.18563004 0.052204538 0.32772177 0.14954843 -0.47042698 -0.17888518 -0.026909472 -0.7132885
-0.110974565 -0.54133815 1.0041577 0.79833496 -0.8375388 -0.020394627 0.12378855 0.100049585
0.08520431 -0.5427332 0.25144005 -0.046669133 -0.423083 0.8954352 -0.29566318 0.27512455
0.37895194 0.41305968 0.37222448 -0.2688077 -0.97259396 0.49394032 0.16767451 0.33832058
-0.1379813 0.6520446 -0.10566555 -1.0488313 -0.84414196 -0.7535651 0.6148334 0.55539066
0.6660935 -0.59450305 0.07818709 -0.15923193 0.34748012 -0.15881525 0.92581713 0.030145433
0.5831478 -0.61611676 -0.12204628 1.2599967 0.1640862 0.060593817 -0.36862472 0.26497653
-0.46780533 0.075187646 -0.8443058 -0.30343807 1.0597842 -0.779683 -0.5971258 0.69476295
0.19783807 -0.40242738 -0.16569981 -0.084920414 -0.55204374 0.79933107 0.63245004 -0.03192359
0.066113465 0.10869895 -0.24558805 -0.28296116 1.4011148 0.038013604 -0.13186657 -0.2918844

weight f4 [256, 570]
00000000: 5547 babb 87d0 30bc 2fd8 76be a9f0 02be
00000010: 11b3 853d ccc4 773b 8a94 46bc 2a6b 0dbd
00000020: c130 bb3d 236c 6dbd 45cf 8c3c 5233 e8bc
00000030: a66c 2fbd 9d97 dfbd 6061 c7be cbac 68bf
00000040: d7bd 98bd df59 c2bd 123d 30bd bb83 093d
00000050: c1e6 653c 0cd3 ecbc 0d7e 09bd e65c 253a
00000060: 37db 143b 8a36 ff3d 9ef7 7cbc 0912 bc3d
00000070: 9e6b edbd e18c 6dbe dd31 42be c8be a7be
00000080: 53e2 0f3d e26b ecbc 40e4 2ebd e9d2 413c
00000090: 252f 8c3e f436 423e a5f8 b73c c559 263d
000000a0: cc81 823e dce6 1f3c 884f 3a3e 8567 ac3e
000000b0: 5b5f 263e c7ca 6fbe ea0f 0ebf 90e9 b13f
000000c0: 45ee ba3d 765d 5c3d 0e29 1c3b 7c44 bbbc
000000d0: 2548 3f3d ab9c b5be 1e0a 4f3e b98e 59bc
000000e0: 1104 8f3c ea2f d4bd db34 03bd e590 99bb
000000f0: a536 f8bb 8456 893e 6c6c 133e 0e9c 363e
00000100: 2b0f 62bc 2141 cdba 0033 32bc ca1b 17bb
00000110: 8108 a6bc f941 ba3b f878 053e a8ae 4f3f
00000120: 409c 0d3e d372 d5be ec5d b4be 9490 4abf
00000130: fa00 e83e 7b90 5a3e 56b4 403e 809d 043e
00000140: 9c8d 8fbc c965 d43b 5af7 723c e0f7 173c
00000150: db4f 46be 71e5 c7be 0c6b c83d 9a8b 99bd
00000160: 582a b1be 68d0 48be 75bf 9e3d de18 7dbd
00000170: 5595 46bc 231b 06be 5475 323c b3b0 c23d
00000180: c28e 203e ad19 62bd 115a a23c eace 94bc
00000190: e8cc bc3d 78b6 0cbd a4fe 3ebd ad31 503c
000001a0: 1451 05be 0328 2a3d 5a8e 863d 4d42 9b3c
000001b0: 9ac9 d3bd 623c 27be bcfc 083d 2167 dcbd
000001c0: c50a 53be e19a 16be 611a a5ba e367 debd
000001d0: a74f adbd 2eaf 52bd 1ba3 1d3d 86f0 92bf
000001e0: 8da5 21bd 0183 543c d2b4 dd3b 81db febd
000001f0: a628 783c d5f2 033c ccae 7d3d 3efa f93d
00000200: 9355 a1bc b172 cc3b 69f2 3d3c 8603 2d3d
00000210: 2818 813d 013e 1b3d fc58 03bd 9e14 2bbd
00000220: cce1 863b 5953 553d 73ec 4e3d 3c8a e73c
00000230: 35a0 ca3c 4801 c3bc ff0d 33be 532f 223e
00000240: 6f2c 0bbe 8e0f 10be ede1 4a3d 13b5 a2be
00000250: e2f9 39bd e0ed 013e 27b5 3a3d 289f 3cbe
00000260: 91d0 73bc dac4 4a3d b078 33bd 64bf cc3b
00000270: 274e 9b3d ad52 c8bd 72fd d3bc 3a6b 6d3d
00000280: 6e5b 3b3d b828 30bd 711d 14bd f1cc a93d
00000290: 7513 6bbe 7a73 733d 87ba f0bd 9d32 403d
000002a0: 01a9 9fbd c646 463e a636 f6bd b84e 013e
000002b0: 946b a93d 83c2 ab3d 8dc3 4dbe e460 a73d
000002c0: 73d4 94bc 53e7 5cbf 791e 203d bc1e 673d
000002d0: e18d de3e 0281 c7be 2cb0 5c3b 9233 bc3d
000002e0: dcb0 743c 580d cfbb 2cd9 30bc 1a39 0e3d
000002f0: a401 10bc c46e b53d 0c29 de3b fea5 a2bd
00000300: bba8 03bc 1993 f03c 00c5 f43c 384b 38bd
00000310: e1b9 45be 4e79 cdbd 0290 6c3d 7bfd aa3d
00000320: 96a9 b7bc 7664 b3bc 0a7c 9e3d 6ba4 edbd
00000330: 6e71 bfbe 5036 ca3d e7db 463d eb19 33bd
00000340: cb59 05bd 6c04 033d 6580 bb3c 362e c1bc
00000350: fbba 9dbb 4467 ef3b 46dd 12bd 43f2 0ebc
00000360: a680 c53b 3542 edbb dde1 2f3c 0b82 7a3c
00000370: 6c24 b1bc 2332 e83d 8719 393d 602a 4cbc
00000380: 2156 5d3e f133 f13e 30c2 ea3d 9bcf 4cbb
00000390: 15ce bc3e 52cd 463e 825a c4bd 4ff9 8b3e
000003a0: c7d7 973d d49e 75be d51d b7bd eed4 163f
000003b0: 4366 ebbe 30e8 c8be 54eb a83e 31db 313f
000003c0: 1ba1 e93b d6ed 9d3c 627a 653b b75a e2bc
000003d0: d6b0 d7be 278f debe 10d2 c6bc d34b a1bd
000003e0: 55aa 5cbe 38b2 86be 56fd 8bbd a049 b6bc
000003f0: 3b27 64bd 5d42 26bc 91ca 62bd 99e5 483a
-0.005684773 -0.010791904 -0.24105905 -0.12787117 0.06528295 0.003780651 -0.012120375 -0.034526028
0.091401584 -0.057964455 0.017188678 -0.028344784 -0.042828225 -0.1091759 -0.3894148 -0.9088866
-0.07458084 -0.09489798 -0.04302699 0.033572894 0.014032067 -0.028909229 -0.033567477 0.00063080934
0.002271367 0.124615744 -0.015439896 0.091831274 -0.11592792 -0.23198272 -0.18964334 -0.32762742
0.03512795 -0.028860036 -0.042698145 0.01183007 0.27379718 0.18966275 0.02245743 0.040612955
0.25489652 0.009759631 0.18194401 0.3367273 0.16247313 -0.23417197 -0.5549303 1.3899403
0.091274776 0.05380007 0.0023828181 -0.022859804 0.04669966 -0.3547109 0.20218703 -0.013278657
0.017457994 -0.103607014 -0.03203283 -0.004686462 -0.0075748735 0.2682382 0.14396828 0.17832968
-0.013797562 -0.0015659669 -0.010876417 -0.0023057335 -0.020267727 0.005684134 0.13034427 0.8112588
0.13829136 -0.41689166 -0.35227907 -0.7912686 0.45313245 0.21344177 0.18818793 0.12950706
-0.01752358 0.0064818603 0.014829481 0.009275407 -0.193664 -0.39042237 0.097860426 -0.0749733
-0.34602618 -0.1961075 0.07751361 -0.061791293 -0.0121205645 -0.1309629 0.010892231 0.09506359
0.15679458 -0.055200268 0.019818338 -0.01816507 0.0921877 -0.034353703 -0.046629563 0.012707156
-0.1301921 0.041542064 0.0657012 0.018952513 -0.10341187 -0.16331628 0.03344415 -0.10761858
-0.20609577 -0.14707519 -0.0012596363 -0.108596586 -0.08462458 -0.051436596 0.038485628 -1.1479652
-0.039464522 0.012970687 0.00676594 -0.12444211 0.01514641 0.008053501 0.061934277 0.12205933
-0.019694125 0.006239258 0.01159344 0.04223969 0.063034356 0.03790093 -0.032067284 -0.04176771
0.0041162726 0.05208144 0.050518464 0.028264157 0.024734596 -0.023804322 -0.17485808 0.15838365
-0.13591169 -0.14068434 0.049531866 -0.31778774 -0.045404322 0.12688398 0.045582917 -0.18420088
-0.014881269 0.04950414 -0.04381627 0.0062484015 0.07583266 -0.09781394 -0.025877688 0.057963587
0.04574149 -0.043007582 -0.03616089 0.082910426 -0.22956641 0.0594363 -0.11754327 0.04692327
-0.07795907 0.19362935 -0.12022142 0.12627685 0.08272472 0.083867095 -0.20094128 0.08172777
-0.01816771 -0.8629047 0.03909156 0.056425795 0.4346762 -0.38965613 0.0033674343 0.09189524
0.014934745 -0.0063187294 -0.010793965 0.034722425 -0.008789454 0.088590175 0.0067797955 -0.07941817
-0.008035834 0.029367017 0.029879093 -0.04499361 -0.19309188 -0.10032903 0.057754524 0.08349129
-0.022419732 -0.02189849 0.07738502 -0.11603626 -0.37391227 0.098736405 0.04854956 -0.04372589
-0.032556336 0.03198664 0.022888372 -0.023581605 -0.0048135496 0.0073060114 -0.035855554 -0.008724752
0.006027299 -0.0072405585 0.010735002 0.015289794 -0.021623813 0.11337688 0.04519036 -0.012461275
0.21614887 0.4710994 0.114628196 -0.0031251672 0.36875978 0.19414261 -0.095875755 0.27338645
0.07414203 -0.2398637 -0.08941237 0.58918655 -0.45976457 -0.39239645 0.3299204 0.69475085
0.007129801 0.019278448 0.0035015573 -0.027631147 -0.42127103 -0.43468592 -0.024270087 -0.078757904
-0.21549352 -0.26307845 -0.06835429 -0.022251904 -0.055701476 -0.010147658 -0.055368964 0.0007663607

bias f4 [256]
00000000: 14c4 c7bb 81da 433c ea29 1d3d 2b41 4fbc
00000010: f957 84bc 985b 5e3c 2a8d 1e3c db6a 703d
00000020: 51d1 fd3c 6124 b23c 7c85 33ba ec88 843c
00000030: 2fd8 05bd a250 8f3d a7d2 df3c 0780 503c
00000040: e93c a5bc 6df0 573c 7c82 05bd c329 043c
00000050: ce4b b1ba 5f9f 6cbc aeb6 1abd cd66 17bd
00000060: 05ca 073d 19a4 05bc cc11 373d f9cf fa3c
00000070: 8d15 c73c 6319 32bb fcab b33c 9f40 2abd
00000080: 26b1 22bd a6b7 dabc 6bad cc3c 04b2 7dbc
00000090: 9dc5 133d 83db 1d3d e8cc a23c b5fa 34bc
000000a0: dec7 94bb c8bb 9ebc f1bc 3dbc ca0f b63c
000000b0: 0b46 72bc dd88 3f3d f24a a73c 5bff 00bc
000000c0: 5019 853c f8c9 00bd 9d9f 55bc 1b56 7dbc
000000d0: 951c 193d dc92 1dbc 73c7 1ebb c548 913c
000000e0: f492 93bc f0f3 11bd 79a5 223d 8112 393c
000000f0: c613 9bbc 08fa 0cbb 6248 15bb bee2 aabb
00000100: c97d 603d e1e2 e93c 4059 133d a087 7cbc
00000110: 89bb ffbb 8698 b83c ef9b e9bc aabe 283d
00000120: 985d 2abc 7c20 6abc ca47 cbbc da2f f43c
00000130: 43c4 dbbc 859d ee3c 2e1e f73c 9f9b cc3c
00000140: 11a5 7b3c 9e95 593c 6260 26bd 0562 01bd
00000150: bae7 e23c 1580 1a3c c480 ed3c 0f31 763b
00000160: 9f8a 723a 8ca1 d33a fc13 a13c 0afc d13a
00000170: 04de bcba 41de 5c3c 56dc 60bc 6f6e eb3a
00000180: 10c7 903c 6db5 0c3c 5d29 53bd ac3c a1bc
00000190: 3f50 1dbd 2232 5d3b 503e 79bb fb0c d33c
000001a0: 722c 12bd 91c9 4fbb f4ef 32bd 1887 bb3c
000001b0: 2bb3 01bd 1b50 fdbc 8d8e da3c a2f7 c5bc
000001c0: 6832 32bd 5e79 383d f0d1 733a 8086 123d
000001d0: 02b5 2a3d 56d6 7abc 8d63 2fbd 11a6 fabc
000001e0: 103a 55ba 4dea 6abc 85e5 8b3c 64e2 973b
000001f0: 645e ec3b 5b02 10bd c3b5 ba3b 4767 b2bc
00000200: 8f6d 843c 22f8 85bb fec5 df3b 6871 b0bc
00000210: 331c 28bd 14b6 86bc b491 023d 0ead 163c
00000220: 2a5a 47bd cd35 bb3c ee07 ecbb 6c98 ebbc
00000230: 64d5 9ebb 31a6 dabc 7450 ee3c cd43 9d3c
00000240: 6693 29bd 4a0c 1e3d 73bd 20bc 1949 9ebc
00000250: 4276 5c3c d3b0 d3bc 16c3 d8bb 07cc db3c
00000260: 4f49 fa3c 16ef f33c 5109 cebc b4c7 b43b
00000270: 385e f33b 5ae2 38bd defe 6dbc e639 d33c
00000280: cbb1 2fbc 77a8 c53c b5ad 5ebd ae81 e23c
00000290: a27a 343d 10da 21bb 2ecd 04bd a4b2 81bc
000002a0: 575b 9c3c 9248 383c 318f 08bd 0d25 4f3d
000002b0: 646a 193b 6189 02bd e624 ce3c 0db7 b239
000002c0: 3ce9 28bc 45f6 9f3c 651e 9b3c 56ce 0dbb
000002d0: 7bb4 1e3c 0339 f93c 2420 33bc 5fe0 3e3b
000002e0: 7c08 ba3c 84a8 5b3d c3dc be3c 054e acbc
000002f0: 2b24 6cbc 1fba 6b3a 0f92 0e3d 0c0d ed3c
00000300: d9d7 703c bb5e 203d 0553 4c3c faaf ef3c
00000310: 1751 d63c 763b f3bc 4f0c 33bc 6794 08bd
00000320: f30b f0bb af17 613c ba26 ea3c 5d37 9b3c
00000330: dc3b 153a cf62 083d 8b71 6a3c 8141 e1bc
00000340: f171 e33c 5d95 d13b d957 bc3b 7215 7d3b
00000350: 6d1f 883c 4261 98bc c970 0c3c a36d 793c
00000360: 7672 36bc ec20 bf3b abac 17bd d046 17bd
00000370: 5709 5e3c cfa3 c8bc 1f2e a63c c273 3cbb
00000380: edd6 07bd 8c14 dabc f194 d53d 5536 e5bb
00000390: 20c5 dcbb a41c d0bb 2d09 5e3c 9c35 473d
000003a0: a03b eabc 26fc 243d 7f9f 40bc 0bc9 67bc
000003b0: d36a 8a3c a55d 83bb e99d a93c ee8f 5dbc
000003c0: 6ade 973b 1c06 973c cc7f 3c3c 8bd1 ffbb
000003d0: ccae 0cbd ae10 dcbc 374d e9bc 35c4 e83c
000003e0: 5876 183d 218b 8d3b c040 2ebd 6e27 213d
000003f0: face da3c 43d2 60bd 04b1 b43a f3d3 c43c
-0.0060963724 0.011953951 0.03837005 -0.012649815 -0.01615523 0.013571642 0.009677211 0.058695655
0.030983599 0.021745862 -0.0006848199 0.01617857 -0.032676872 0.06997801 0.027322127 0.012725837
-0.020170646 0.013179881 -0.032595143 0.008066597 -0.001352662 -0.014442294 -0.037771873 -0.036963273
0.033151645 -0.0081568 0.044694707 0.030616747 0.024302268 -0.0027175776 0.021932594 -0.041565534
-0.039719723 -0.026698899 0.024985036 -0.015484337 0.03607713 0.03853942 0.019873098 -0.011046101
-0.0045404276 -0.01937665 -0.011580692 0.022224326 -0.014787207 0.046761382 0.020421479 -0.0078733815
0.016247422 -0.031442612 -0.013038543 -0.015462424 0.037380774 -0.009617534 -0.0024227768 0.017734895
-0.018014409 -0.035633028 0.03970859 0.011295916 -0.018930327 -0.0021511335 -0.002277874 -0.005215018
0.054807458 0.028550567 0.035973787 -0.015413195 -0.0078043384 0.022533666 -0.028516738 0.041197456
-0.010398291 -0.014289971 -0.024814505 0.029807974 -0.026826983 0.029127846 0.030165758 0.02497655
0.015359179 0.0132803 -0.04061926 -0.03158762 0.027698386 0.009429951 0.028992064 0.0037565862
0.00092522235 0.0016146167 0.01966285 0.0016020548 -0.0014409428 0.013480724 -0.013724407 0.0017961989
0.017673045 0.008588177 -0.05155312 -0.01968225 -0.038406607 0.0033751805 -0.0038031526 0.025763026
-0.035686918 -0.0031705836 -0.04368587 0.022891566 -0.03166501 -0.030921986 0.026679302 -0.024165932
-0.043505102 0.04503762 0.00093009975 0.0357728 0.04167653 -0.015309891 -0.04281955 -0.030596765
-0.0008133957 -0.014338088 0.017077217 0.004635142 0.0072134007 -0.035158496 0.005697937 -0.021777762
0.016165523 -0.0040884176 0.0068290224 -0.021538451 -0.041042518 -0.016444243 0.031877235 0.009196533
-0.04866997 0.022852803 -0.0072030937 -0.028759204 -0.0048472155 -0.026690574 0.029091097 0.019197369
-0.041400336 0.03858594 -0.009810793 -0.019321965 0.013455929 -0.025841152 -0.006615053 0.026830686
0.030552534 0.029777091 -0.025150927 0.0055169705 0.0074270032 -0.04513774 -0.014526097 0.025784444
-0.0107235415 0.024128182 -0.05436488 0.027649727 0.044062264 -0.0024696626 -0.032422237 -0.015832253
0.019086523 0.011247771 -0.033339683 0.050572444 0.002340936 -0.031869296 0.025164079 0.0003408719
-0.010309514 0.01952661 0.018935392 -0.0021637878 0.009686585 0.030422693 -0.010932956 0.0029125435
0.022709124 0.053627506 0.023298627 -0.021033296 -0.01441292 0.0008992273 0.03480726 0.028936885
0.0146999 0.039152842 0.012470965 0.029258717 0.026161714 -0.02969144 -0.010928228 -0.033344653
-0.007325643 0.013738557 0.02858292 0.018947298 0.00056928187 0.033297356 0.014309297 -0.027497055
0.027764292 0.0063959793 0.005747777 0.0038617519 0.016616547 -0.018601064 0.008571812 0.015223893
-0.011135688 0.005832782 -0.037029903 -0.036932766 0.0135520315 -0.024492173 0.020285664 -0.002875552
-0.033163954 -0.026621126 0.10428799 -0.0069950023 -0.0067373663 -0.0063510705 0.013551992 0.04863511
-0.028592885 0.04027953 -0.011756777 -0.0141470535 0.01689664 -0.004008966 0.02070518 -0.013523085
0.004634668 0.01843553 0.0115050785 -0.007806962 -0.034346387 -0.026863422 -0.028479202 0.028413871
0.037222236 0.004319564 -0.04254222 0.039344244 0.026710022 -0.05488802 0.0013785665 0.024026847

weight f4 [64, 256]
00000000: ed01 3a3d 1dca 99bd 3c45 d63b afd9 953c
00000010: 79ec 3c3e c073 393d d0a4 49be 7ac9 ec3c
00000020: 6832 193d eed4 0b3c 55a7 17bd 69cd 953d
00000030: 76d2 ce3d 7ca1 1a3d 8e08 483d 4097 b9bd
00000040: 1eb8 9abd 8a7f 3bbd 9e50 3cbd 0901 1f3d
00000050: 9124 03bd 4606 1e3d 206b 113c 5d4b e1bb
00000060: 593c c5bd a7e6 0fbe 7b43 d4bd f277 ccba
00000070: b165 9ebd 4f57 5dbc 890e 5ebd 21c7 48bd
00000080: 1dcd e33c ceea 553d 9f54 18bd 86f8 013d
00000090: 840d 66bc c625 363b 026b ddbd a58d b93d
000000a0: 287f 6dbd 7570 d9bc 423d 083e f8a9 70bd
000000b0: 3639 8bbb 5969 a53b 6fb9 78bc e2d3 9fbc
000000c0: 366a b8bc ee0a 133e 1942 873d 4d7c 083d
000000d0: a520 ed3d bddf d0bd 90ba 0b3c ab21 20bd
000000e0: 8b60 d73c f19e 23bd 7701 373d 3de9 e33c
000000f0: cb16 d3bc 9e2c 5abc c455 ff3c 8ff4 e13d
00000100: 2a25 1cbe 8b4c 443c a7bf c23d 3a08 e13d
00000110: 9079 133d 452d 05be b9ec be3c dba9 34be
00000120: 98db 7ebd a79a 2c3c 4cd0 31bd a7fb 3a3e
00000130: 53c1 2fbe 89b4 583d cdab 37be c2f0 2cbe
00000140: eec5 3cbd f8ea 2ebd 5c8b 9a3d 9e6d 283e
00000150: b634 17be ebd6 8e3c af62 883d 3fd6 a0bd
00000160: 5f49 01be acd7 4f3d f4dc f8bc 4986 33be
00000170: ebde a9bc 4705 10bd 7de4 75bd e799 96bd
00000180: d082 053d 2f86 d4bb a66f 0cbe 1237 d2bc
00000190: dc14 e4bc e459 993d 6252 ff3c 1556 3dba
000001a0: cd8a bf3d 2de9 453e c83c 46bc 28d2 f73c
000001b0: 0352 473d 28af 133d a7b4 c8bd 194e 7e3c
000001c0: 780b 15be 1bcb 29bd 01fb f33c 945b 66bc
000001d0: 1162 4abe af39 5f3e 8121 633e ce4a 0dbe
000001e0: fa3a 0bbe c095 9c3d 0aef f2bd a2f6 06bd
000001f0: 6182 c4bc af41 363c 8866 cbbd 928a ce3c
00000200: 630d 223c 3508 a03c 37b7 8c3d a0c3 92bd
00000210: d083 93bb 5c5b ad3d 6052 3dbd 4f09 213d
00000220: 9828 ebbc c03c c43d ef8f 61bc b702 ef3c
00000230: 15d4 4a3d 445a 00bd 1a17 56bd 1ad8 763d
00000240: 50ae 1fbc 1c32 61bd 8b48 b03b bf64 95b8
00000250: 0daf 063e a657 fd3d 6faf 9abd b1d1 a6bc
00000260: 5446 48bd b522 f2bc 24ba a63d c1d4 be3d
00000270: 248e b3bd 9bac 083d 6228 1f3c c4b4 853d
00000280: 471e 3cbd 6c3c 883d 5444 183d dec6 bcbd
00000290: 20de b43d 232e 313d 5241 203d c3f0 b13d
000002a0: a46e a4bd 732b 93bc bce3 9dbb 5fcf 8abd
000002b0: 92c8 c33d f60b b8bd 57f4 793d 1453 4c3d
000002c0: 15a5 e13c f601 333e 567a 4cbe f470 97bc
000002d0: 7a04 943b fdba 113e 8575 febc 420f 083e
000002e0: d69c 7fbd 0b70 21bd 48d8 35bd 2bc2 d73d
000002f0: 86bb 573d fcbb 4e3b 26ce 84bd 8fcd 193d
00000300: 9bc6 c7bd e4cc 0bbc 7e9d 20be 6a5a d3bc
00000310: 3afb 3abe 5c48 413d bbc9 c5bd 2c4c f6bd
00000320: 6116 2ebd 776b 2bbc bc44 80be 0a6c 21bd
00000330: 2cec 74bd 779f 063d 2de6 51bd 2ad0 3abd
00000340: 5a6d fdbc 1059 8d3d 8ab3 a6bd 6b10 babc
00000350: 9efc 233d d7a7 dcbc 1346 8dbc 958a a03c
00000360: fe0a 383d e29a 143e 6faa eb3d e2cd fdbd
00000370: c565 02bc 5f12 f03d 8ea4 313e b79f d53d
00000380: 829f c13d ef61 523d b45b a5bc e58f 063e
00000390: b8a2 bd3d fd6c b2bb bca2 84bc 774e 4d3d
000003a0: 6b3f 383d 4926 b03d b1b6 15bd 01e3 76bd
000003b0: 4a6f 49bd 5f50 b4bc 902e 7e3d 01c3 883d
000003c0: 788b 89bc 119a 60bd 9afc dcbd 845a b43d
000003d0: 7995 003d 0057 84bd 5310 4a3d 25c9 c93c
000003e0: 8cae aebd a950 783d c09b d439 4928 4a3c
000003f0: 4d0e adbd 6e2c 9abd e0f2 9bbd 480a 27be
0.045411993 -0.07509253 0.006539015 0.018292276 0.18449582 0.045276403 -0.19691777 0.028904665
0.037401587 0.008534653 -0.037024815 0.073145695 0.10098736 0.03775166 0.048836283 -0.09062052
-0.07554649 -0.045775928 -0.04597532 0.038819347 -0.032017294 0.0385802 0.008875638 -0.006875439
-0.09630651 -0.1405283 -0.103644334 -0.0015599711 -0.0773424 -0.0135095855 -0.05421308 -0.04901803
0.027807767 0.05222588 -0.037190076 0.03173115 -0.014041308 0.002779351 -0.10811426 0.0906022
-0.057982594 -0.026542882 0.13304618 -0.058755845 -0.0042487634 0.005047959 -0.01518093 -0.019510213
-0.022511583 0.14359638 0.06604404 0.033321667 0.11578492 -0.10198925 0.008528367 -0.03909461
0.026291152 -0.0399465 0.04467913 0.027821178 -0.025767704 -0.013316302 0.031168826 0.11032974
-0.15248552 0.01198114 0.09509211 0.10987897 0.036004603 -0.1300555 0.023306238 -0.1764292
-0.06222114 0.010534919 -0.043411538 0.1826006 -0.17163591 0.052906547 -0.1793663 -0.16888717
-0.046087198 -0.042704552 0.07546112 0.16448066 -0.14766201 0.017436465 0.066594474 -0.07853364
-0.12625645 0.05074279 -0.030378796 -0.17531694 -0.020736178 -0.035161283 -0.060032357 -0.07353573
0.032595456 -0.0064857225 -0.13714465 -0.025661025 -0.027841978 0.074878484 0.031167213 -0.0007222605
0.09352646 0.19327231 -0.012099452 0.030251577 0.048662197 0.036055714 -0.09800082 0.01552155
-0.14555156 -0.041453462 0.029782774 -0.01405992 -0.19763972 0.21799348 0.2218075 -0.13798067
-0.13596717 0.0764575 -0.11861999 -0.03295005 -0.02398795 0.011124059 -0.09931666 0.02521256
0.009890887 0.019535163 0.06870883 -0.07166219 -0.0045017973 0.08464691 -0.046221137 0.039315518
-0.02870588 0.095819 -0.013767227 0.0291761 0.049518663 -0.031336084 -0.052268125 0.060264684
-0.009746149 -0.05497943 0.0053797415 -7.123639e-05 0.13152714 0.12370233 -0.075529926 -0.02036366
-0.048895195 -0.029557565 0.08140972 0.09317923 -0.087673455 0.033367734 0.009714218 0.06528619
-0.045927312 0.066521496 0.037174538 -0.092176184 0.088314295 0.04325689 0.039124794 0.086885
-0.080289155 -0.017965054 -0.004818408 -0.06777834 0.0955974 -0.08986656 0.061024036 0.049883917
0.027544538 0.17481217 -0.19968542 -0.018486477 0.004517135 0.14231487 -0.031061897 0.1328707
-0.06240543 -0.039413493 -0.044395715 0.105350815 0.05266907 0.0031545153 -0.06484632 0.03754955
-0.09754678 -0.008532736 -0.15685079 -0.025799949 -0.18259898 0.047188148 -0.09657618 -0.120262474
-0.04250181 -0.010462633 -0.2505244 -0.039409675 -0.059795544 0.03286692 -0.051244903 -0.045608677
-0.030935932 0.06901753 -0.08139713 -0.022712907 0.040035836 -0.026935501 -0.017245328 0.019597331
0.044932358 0.14512208 0.11507117 -0.12392785 -0.007958834 0.11722254 0.17347929 0.10430854
0.09454252 0.051362928 -0.020185329 0.13140829 0.09259552 -0.0054451213 -0.016190879 0.050123658
0.044982355 0.08601052 -0.03655118 -0.06027508 -0.0491784 -0.02201098 0.062056124 0.06677819
-0.016790137 -0.05483443 -0.107903674 0.08806327 0.03139255 -0.064619064 0.049331974 0.024632046
-0.08529386 0.0606238 0.00040551834 0.012338706 -0.08449993 -0.075280055 -0.07614684 -0.16312516

bias f4 [64]
00000000: 5954 e93c 1c6d 24bd 036e 59bd 2b36 993c
00000010: 5623 0d3c 7bdb 1fbc 81e2 883c 8727 5bbd
00000020: 9b22 48bd 6e72 68bd 8ec6 763d ae4b cd3b
00000030: 621f c8bc bbf6 1a3c 8a8b 6dbd 3354 e7ba
00000040: f994 ee3a 2c4a 0f3c 635e 80bd 3313 babc
00000050: cc7a 113d 6524 a73b 60fa 2fbd 5ce8 90bd
00000060: d017 c73b ad31 49bd a045 163c 3237 bcbc
00000070: 9c7a d3bc b111 85bd c24f 16bd 8ddc acbd
00000080: 75cd 61bc 996f e6bc 36a4 553d d790 09bd
00000090: 34e6 393d aafc 533d d8c4 b63b 60a5 7bbd
000000a0: 94c9 b4bc e3a3 8d3c f609 0ebd 9f06 c73b
000000b0: 1338 3a3c 8920 7dbc 4468 0fbd 9e55 333d
000000c0: 86e6 3abd f83b e03b 1fe5 da3a dcb9 14bc
000000d0: d3e2 0a3d 9beb 853c 2903 bbbd ff4d a6bd
000000e0: f863 acbc e836 9c3c 12a4 f9bc 9a43 16bc
000000f0: c4c7 6ebd abf9 f1bc 4c7e 3c3c 1a11 003d
0.028482603 -0.040143117 -0.05308343 0.018702587 0.008614382 -0.009756918 0.016709568 -0.053504493
-0.048861127 -0.056749754 0.06024795 0.0062651252 -0.024429027 0.009458239 -0.057994403 -0.0017648995
0.0018202356 0.008745711 -0.06268003 -0.022714233 0.0355175 0.005100774 -0.042963386 -0.07075569
0.0060758367 -0.04911964 0.009171873 -0.022975538 -0.0258153 -0.06497515 -0.036697157 -0.08440504
-0.013781895 -0.028129386 0.052158557 -0.033585396 0.045385554 0.05175463 0.005577665 -0.06143701
-0.022068776 0.017290061 -0.03467747 0.0060737873 0.011365908 -0.0154496515 -0.035011545 0.043782823
-0.04563 0.0068430863 0.0016700363 -0.009077515 0.033907723 0.016347697 -0.09131462 -0.08120345
-0.021043763 0.01906915 -0.030473743 -0.009171391 -0.05829598 -0.029537996 0.011504721 0.03126631

weight f4 [1, 64]
00000000: 4ded 15be d6e3 e63e 54b0 893e 080e c2bd
00000010: cb30 b7bd 39eb b73e b964 033e ec15 7dbe
00000020: 45fb 05be 5bdb 2fbe 8fcf 86be 6231 933e
00000030: 3919 a3be 2c9e dbbd 5c7e 07be 26d0 9dbd
00000040: 620b 99be c739 6ebe ce98 8bbe 826c 683e
00000050: b891 7fbe e5a1 9b3e 5395 0cbe a78d 5abe
00000060: 0c6d 1cbe 2090 67be 20cf 37be fcaf 253e
00000070: 4eec d03e 4020 653e 4891 133e d060 8c3e
00000080: a5e2 23be 79ab 113e 51c0 cabd 80bc 11be
00000090: 7d95 2cbd 39bd d1bd c7c3 6b3e 4da5 a0be
000000a0: 4cd5 233e a7f6 2abe 555f 803d 7b07 0ebf
000000b0: 0b7e 89be b1e6 49be e93a 5ebe b94d 2a3e
000000c0: 7ded d53d 64c6 2e3e 47ca a9be 91e4 513e
000000d0: cbd0 033e 3680 59be 8768 8d3e c18b 6d3e
000000e0: 63df 6abe e1a3 0d3e f5d9 443e c2bf 9a3d
000000f0: 5de6 3bbe 64ac 3b3e 40cd 8f3e 4f04 89bd
-0.14641304 0.450957 0.2689234 -0.094753325 -0.089448534 0.35921648 0.12831391 -0.24715394
-0.13084133 -0.17173521 -0.2633023 0.28748614 -0.3185518 -0.10723528 -0.13231796 -0.07705717
-0.29891497 -0.23264228 -0.27265018 0.22697642 -0.24957931 0.30396953 -0.13728838 -0.21343099
-0.15275973 -0.22613573 -0.17950106 0.16180414 0.40805286 0.22375584 0.14410889 0.27417612
-0.16004427 0.14225568 -0.09899963 -0.14232063 -0.04213475 -0.102411695 0.23023902 -0.31376114
0.15999335 -0.16695653 0.06268183 -0.55480164 -0.26853976 -0.19716908 -0.2170216 0.16631211
0.10445688 0.17067868 -0.33162138 0.20497347 0.12872617 -0.21240315 0.2761881 0.23197843
-0.22936778 0.13832046 0.19223769 0.07556106 -0.18349595 0.1832748 0.2808628 -0.06690275
