test/ens_models/ens_model_2_C.pt (torch, 654739 bytes, 6 tensors)

weight f4 [20, 10]
00000000: d2d0 343d d3a2 e3be 607a a23e 1c27 4c3f
00000010: 3a10 32be f874 65be 2b90 20be bb4a c43e
00000020: bcf6 3c3f 9137 3f3f 9198 e13e 2d88 eabe
00000030: 5fc9 d33d 4e25 47bf c26f bd3e 9313 243f
00000040: 8436 d2bc c380 0fbf 8ab5 65be 5387 313d
00000050: 1ca5 8bbe c712 913d f37b a7bc c36e bebe
00000060: 382b b13f 650d 89be 8ffe d63e 4da1 dbbd
00000070: ee65 aebe 36d7 603e 44c3 6b3d 8195 ff3e
00000080: b343 87bc c886 cdbe 3b0c c9be 7cc9 483f
00000090: 67e7 abbe 5c4b 4abf ee28 07bf e0c4 52bf
000000a0: 846b 6e3e dd9c 6dbf 4a5c d6be ff36 053f
000000b0: a0f9 273f 5a67 f63d 64c9 3c3e 819e ac3e
000000c0: 8cbe b1bf fbcc cdbd 9f13 08bf 4384 02bd
000000d0: 0e4e 143e 5090 68bc 3e36 d4be 98f8 8e3f
000000e0: 9ef1 f6be 9d67 f43e 08f4 42be e6ab 37be
000000f0: 7743 e6be f313 fbbe ec1d df3e 8fb7 8a3f
00000100: 5178 1b3e 6c91 9fbe 191e d93d fff1 76bf
00000110: 486d 72bd e002 7bbf 2dce 80be 9b52 6cbe
00000120: e359 6f3d 7282 54bc 784b 3cbe 0fd0 293f
00000130: 237a f53e ea7f 9abe c2fe b3be 6b78 493f
00000140: 0c1b 043f 7454 5ebe cfea 503b a0a7 3bbf
00000150: df12 8f3f ceb1 063f 5d4a 233f 31fa abbe
00000160: 5ca3 753f fea6 dabe 81ba 1a3f c26f 06bf
00000170: 35fa fb3e 723e 13bf 56ca 1bbf e19c 083e
00000180: 1184 083f 33dd 993d 5947 cabe aef2 6cbe
00000190: 3ac4 efbe 15c9 20bf 1326 c53e e000 b43e
000001a0: b6ae 24be ee4c 223f 1a35 6bbd c9de e43e
000001b0: a310 88be 7784 17bf b563 63bd 9100 373e
000001c0: 6ec9 a23d f8ff 35bf 40b6 fe3e dfd2 2d3f
000001d0: 82df 3abe 44ba ad3e e9c8 15bd 7d34 ba3e
000001e0: 3bae 99bc 4d1f 1fbf cc8a bc3d ade7 1fbf
000001f0: 6264 d5be 6cf1 39bf 9edc f0be 7c76 043e
00000200: 3f83 053f 2fe6 9f3e 9b79 e53e 9861 163d
00000210: 81ad 08bf e0f5 81bf b787 b3be 39f5 80be
00000220: 2d92 9dbd 0649 323f da18 f03e c922 133e
00000230: 5584 77be 0d4d 203e eb6e 30bf 1ca8 763f
00000240: 8261 ffbe 824f 003f 00b0 333e ac3b a2be
00000250: 3d83 e8be 84f1 b23e b9f6 453f f784 d83e
00000260: a777 83bd 6472 6b3d cdb9 143f e1f9 7abe
00000270: 12ba aebe f114 96be 90c6 df3d 573e 593f
00000280: 4db1 87be 5004 183f da17 0b3f de40 363f
00000290: 9176 15be 6d3b 6fbf 3b45 c83d b6a8 183e
000002a0: 30e6 0bbf ee08 16bf ac27 33be 24a0 be3e
000002b0: eb9c e33d 8105 6ebe b039 cc3e 2bdf 533f
000002c0: 9ead 4cbe 105d 2d3f 2b07 bebe 2e26 54bf
000002d0: 441e 16bd 8c96 83bf ce8c f93d e2e1 0a3d
000002e0: 8760 81be 6b0f 27bf 8bdf afbe 1bac 2ebe
000002f0: ac3e 9dbf 6918 b93e 1a35 1a3f 7935 00be
00000300: 51fb 9c3e 2c34 073f c350 3fbe d58a ef3c
00000310: 90ed a93f dba0 2a3f 9260 3cbe 7e6f 01bf
0.04414446 -0.44460163 0.3173399 0.79747176 -0.17389002 -0.22407901 -0.15679996 0.38338265
0.73813987 0.7469416 0.4406171 -0.4580702 0.10341143 -0.777913 0.36999327 0.6409237
-0.02566076 -0.5605585 -0.22432533 0.043341946 -0.27274406 0.070836596 -0.020444846 -0.3719388
1.3841314 -0.26768032 0.41991088 -0.10724125 -0.3406214 0.21957096 0.057559267 0.4991875
-0.016511774 -0.40141892 -0.39267144 0.7843244 -0.33574983 -0.7902124 -0.5279683 -0.8233166
0.23283201 -0.9281748 -0.41867286 0.5203704 0.6561527 0.120314315 0.184362 0.3371468
-1.3886275 -0.100488625 -0.5315494 -0.031864416 0.144829 -0.014194563 -0.41447634 1.1169615
-0.48231214 0.477353 -0.19038403 -0.17936668 -0.44973347 -0.49038658 0.43577516 1.0837268
0.15182616 -0.31165636 0.10601444 -0.96463007 -0.05918625 -0.9805126 -0.251573 -0.23078386
0.058435332 -0.012970554 -0.18388164 0.663331 0.47944745 -0.30175716 -0.35155302 0.7869937
0.5160377 -0.21711904 0.0031878238 -0.7330265 1.1177634 0.5261506 0.63785344 -0.33589318
0.9595239 -0.4270553 0.6044083 -0.5251428 0.4921433 -0.5751716 -0.60855615 0.13341095
0.5332652 0.075128935 -0.3950756 -0.2313945 -0.46829396 -0.62806827 0.3850561 0.35156918
-0.16082272 0.63398635 -0.05742369 0.44701222 -0.26575193 -0.591865 -0.05551501 0.1787131
0.07948576 -0.710937 0.4974842 0.6789989 -0.18249324 0.33931172 -0.036568556 0.3636817
-0.018759837 -0.62157136 0.09206161 -0.62462884 -0.41678149 -0.72634006 -0.47043318 0.12935823
0.5215339 0.31230304 0.4481934 0.036714166 -0.53389746 -1.015316 -0.3506448 -0.2518709
-0.076938964 0.69642675 0.4689396 0.14368738 -0.24171574 0.15654393 -0.6891925 0.96350265
-0.4987908 0.5012132 0.17547607 -0.3168615 -0.45412627 0.34949887 0.77329594 0.42288944
-0.06419306 0.05748214 0.5809601 -0.24509384 -0.34126335 -0.29312852 0.10926545 0.8486075
-0.26502457 0.5938158 0.5433327 0.7119273 -0.1459601 -0.9345005 0.0977883 0.14908108
-0.54648113 -0.58607376 -0.17495602 0.37231553 0.11113914 -0.23244287 0.39887762 0.827624
-0.19988105 0.6772013 -0.37114844 -0.8287076 -0.036649957 -1.0280318 0.121850595 0.033906825
-0.25268957 -0.652579 -0.34350237 -0.1705784 -1.2284751 0.36151436 0.60237277 -0.12520398
0.3066049 0.5281398 -0.18683152 0.029241005 1.3275623 0.66651696 -0.18396214 -0.5056075

weight f4 [256, 570]
00000000: 4691 9c3a 0ec9 6e3d 9f09 e03e 558a da3e
00000010: e513 123e 8d68 a6bc 2ee9 f8bc 5ba6 90bd
00000020: d6b2 923d e61a 7bbd b4ef 043e 3d3c e3bd
00000030: 6b1d d03c e3ec 883d 6f44 68bd 300c 6c3e
00000040: 5b3f aebd 4e7f cf3c f75f 8b3d 6929 753d
00000050: 1d55 7dbd b759 49be 1508 973d 25b3 d13b
00000060: 6b19 2fbe 1b63 693d 7427 4a3e 4aba e3bc
00000070: d6f7 973e 1d34 c7be da65 6bbe b118 b2bc
00000080: 2e81 06be 93bd d9bc f6ba e0bb f6c9 143d
00000090: dd71 493f 3c28 f5bc a662 61bd ff01 aa3d
000000a0: ae38 25bd 8b1e 87be 3755 9c3e 6c6c 89be
000000b0: 7cb0 16bd d1f2 1dbf 71c6 023f bc36 c23e
000000c0: 41d3 20be e45f 23bd 384f 2b3d ee50 513e
000000d0: a2af c43e 66e5 ffbd e618 81be c364 ae3d
000000e0: f75a e23d 9f56 81bd 0221 723d 1c9b 08bd
000000f0: faf0 19be 0d27 013f fe02 88be 6a07 603e
00000100: fa97 38bc 8fe7 bf3c 2dcd 473c 6ffc 9b3c
00000110: 1fbd 0b3a 2848 e7bc 5f1e 77be f2dc 08be
00000120: a2ac c63d 6a8f 383e be01 c43e 6be2 d73e
00000130: 2b79 94bf 9e5b d73f 100c dc3f ee46 8d40
00000140: 2d0c 02bd 6c4d b33b b525 003d 9990 c5bc
00000150: 97c7 c83e 17fd 2d3f c372 3cbe d1f6 e7bb
00000160: 5e4a 113f 5314 4a3e 1696 e93c 916f 34be
00000170: 01d7 783e 6813 1a3b d58a 7e3d f4f1 edbd
00000180: cf34 6a3d 8a22 423c 5a4c 2c3d 68d7 44bb
00000190: d667 4b3e 34b2 dbbc 3417 753d 6080 343c
000001a0: 919d a03e eb67 0cbe 598b 2cbe 3050 973e
000001b0: 1fa1 33bf ccd5 653e 3c46 84bd 1b7f e63d
000001c0: 306b d03e 5538 7e3e 6b60 533c 3096 6e3d
000001d0: eb6c c03e 8255 323e 7c5d 4cbc bc70 3f3f
000001e0: 0d76 973d b45f 5d3d c52d 7e3c 2d18 bc3e
000001f0: a9d7 97bc 1988 1e3b 2b49 a73c 640e 5dbb
00000200: 2833 c1bb 0b7e 2c3c f79b 90bc e15f 96bd
00000210: 3583 0fbe 8033 bbbc a8df b4bc c594 b53d
00000220: 2f72 21bd 6517 26be 0e76 853d cff8 21be
00000230: 092d 80bd 61c6 90be 494e 9e3d d89f cfbe
00000240: 902e e93d 3495 8f3e b104 2dbe 9aac 9f3e
00000250: 1928 d93d 51b9 9f3b 390c b33d 4766 8f3e
00000260: 1f91 c33d 3d9f 63bd 5660 003e ae2c 9abc
00000270: fd4d 973c 2132 cb3b c543 913c 542e fdbd
00000280: d65d 27be 536d f63d 4c75 41bd 4ae6 a9bc
00000290: 37bc 1cbd 1d2b e7bc c08d debd 5546 bf3d
000002a0: db24 d5bd 50af ce3d a1e2 a8be a182 6a3e
000002b0: 247d 5bbf cbe5 02bf 4bcf 9abe 3f14 5d3f
000002c0: ed47 38be df06 bdbd 442e 3cbd 1da6 153e
000002d0: c62d c1bf 3016 9e3d f9ec 8f3c 3bb5 833d
000002e0: f6e5 5dbe ff2e 7c3d 82b0 5abb 0737 5f3d
000002f0: e497 35bd 8e31 833d e1d2 5fbd dcbd c8bc
00000300: a92f 4a3d 0a1a a3bd 67f7 233d e2b7 d9bd
00000310: 05fc 843e fe29 b8bb 0cc0 57be 0482 0e3d
00000320: e07c 6c3e ab85 e63d fdc0 173e 952c 3fbf
00000330: 8fb4 ac3e 4a08 07bf 6385 803e cd71 95bf
00000340: f36d 21bc f5b3 e23b b511 0f3c ebc1 82ba
00000350: 68f4 f43c e319 fc3c 42f7 ea3b e8c0 2bbc
00000360: 1e7f a9bb a0ae 613c 7535 e5bc 0417 b03c
00000370: 2ae2 dbbc 0927 13be efeb 40be d7fd eebc
00000380: 570e d03e e5d3 0b3e 4acb 5abf 0ac8 d1bc
00000390: c82d b33e 8432 923e 850e 7ebd 5b41 4abf
000003a0: 4a59 69bf 03ad c4be 6057 fa3e cbfe 30c0
000003b0: 734c 52bf 4543 91bf 7d6f e3be 5af1 cfbf
000003c0: e245 edbc 6bca 9b3c 783e dbbc 6a4b 7a3c
000003d0: 2a02 fbbd ccf7 abbe 7312 673d 6550 24bd
000003e0: 6d83 983d 8194 9ebd 0a1f 18bd c1b5 a9bd
000003f0: 03e0 0f3e 272e 633d b790 7fbd ef5d 75bd
0.001194515 0.05829721 0.4375734 0.42683664 0.14265402 -0.020313526 -0.030384626 -0.0706298
0.071630165 -0.06130495 0.12982064 -0.11095474 0.025404653 0.066858076 -0.05670589 0.23051524
-0.08508178 0.025329258 0.06805413 0.059853945 -0.06184875 -0.1966313 0.073745884 0.0063995295
-0.1709954 0.05697928 0.19741613 -0.02779879 0.2968127 -0.38906947 -0.22988072 -0.02174029
-0.13135216 -0.026579654 -0.006858225 0.036325417 0.78689367 -0.029926412 -0.05502572 0.08301162
-0.040337257 -0.2639049 0.30533764 -0.26840532 -0.036789402 -0.61698633 0.5108405 0.37932384
-0.15705587 -0.03988637 0.041823596 0.20441028 0.38415247 -0.12494926 -0.25214309 0.085153125
0.110525064 -0.0631535 0.05911351 -0.03335105 -0.15033332 0.5045021 -0.26564783 0.21877828
-0.011266703 0.023425845 0.012194914 0.019041268 0.00053306104 -0.028232649 -0.2413268 -0.13365534
0.09700896 0.18023458 0.3828258 0.4216493 -1.1599478 1.6824834 1.7191181 4.4149084
-0.031749893 0.005471876 0.03128596 -0.024116801 0.39214775 0.6796431 -0.18403153 -0.0070789834
0.567541 0.19734316 0.02851395 -0.17620684 0.24300767 0.0023510102 0.06214412 -0.116184145
0.05717927 0.011849055 0.042065002 -0.0030035619 0.19863829 -0.026818372 0.05983658 0.011016935
0.31370214 -0.13711517 -0.16850032 0.29553366 -0.70167726 0.22444838 -0.06458709 0.11254712
0.40706778 0.24826176 0.012901406 0.0582487 0.37583098 0.17415431 -0.01247346 0.74781394
0.07395563 0.054046348 0.015513842 0.36737195 -0.018535452 0.0024190007 0.020420631 -0.0033730501
-0.005895991 0.010528098 -0.017652495 -0.07342506 -0.14014895 -0.022851706 -0.022079304 0.08866266
-0.039415535 -0.16219862 0.06516658 -0.15817569 -0.0625859 -0.2827635 0.077297755 -0.4055164
0.11385834 0.2804352 -0.16896321 0.31186372 0.10603351 0.0048743864 0.08742566 0.2800772
0.09549164 -0.055571783 0.12536749 -0.018820133 0.018469805 0.006201044 0.01773251 -0.12362352
-0.1634439 0.12032571 -0.047231004 -0.020739693 -0.038265433 -0.0282188 -0.108668804 0.09339587
-0.1040742 0.10092032 -0.32985404 0.22901393 -0.85737824 -0.51131886 -0.30236277 0.8635902
-0.17996188 -0.09229826 -0.04594256 0.14614148 -1.5092094 0.07719076 0.017569052 0.06431051
-0.21669754 0.061568256 -0.0033369367 0.054495838 -0.044334307 0.06405936 -0.05464447 -0.024504595
0.04936186 -0.07963951 0.040030863 -0.10630776 0.25973526 -0.0056202402 -0.21069354 0.03479196
0.23094511 0.11255964 0.14819713 -0.746774 0.33731505 -0.52747023 0.25101766 -1.1675354
-0.009852874 0.006918425 0.008732249 -0.0009976005 0.029901698 0.030774062 0.0071705887 -0.010483004
-0.0051726243 0.013774544 -0.027979592 0.02149535 -0.026841242 -0.1437036 -0.18840002 -0.029173775
0.4063594 0.1365505 -0.85466444 -0.025608081 0.34995866 0.28554165 -0.062025566 -0.79005975
-0.9115187 -0.38413247 0.48894787 -2.7655513 -0.821479 -1.1348654 -0.44420996 -1.624553
-0.028963987 0.019017419 -0.026763186 0.015276769 -0.12256272 -0.33587492 0.05641408 -0.040115733
0.074469425 -0.077431686 -0.037138976 -0.0828662 0.14050297 0.055463936 -0.06239387 -0.059904035

bias f4 [256]
00000000: 4025 7f3d e746 04bc 5a4f 1bbc b2f7 9cbc
00000010: 9abd d6bc 1c2b 293d 05ad 78bd cf2b d6bc
00000020: 0962 c53c 6fd7 3abd 5485 9dbd dcef 04bc
00000030: dfb1 f7bb e4dd 9ebc 96f0 56bc 3d6c c7bc
00000040: eade 473d 76e4 bebc 1b7a 1cbd 097a ee3c
00000050: 1eaf acbc f81f 883c 1c1b 13bc 759d e03c
00000060: 23d2 69bd af20 c9ba 84f9 153d 2caa 12bd
00000070: 33a8 58bc 89b3 e43c e579 1a3d 831a 963c
00000080: 66c8 b73c 308e 84bc 2463 3a3c 22ef 04bd
00000090: 6687 09bd b920 8fbc b127 62bd e8f8 143d
000000a0: da3b 1fbc 1f99 12bd d8c4 a43c a6f7 1bbd
000000b0: 8746 66bd 2a02 a9bc 6572 2bbd cf13 aebc
000000c0: 950d 43bd 67ca 3abc c2df 833c b5a7 88bd
000000d0: 4097 31bc c439 01bd acb9 d1bc ae83 0bbd
000000e0: b5b6 c43a 80df db3c d0bf bebc 78cf 6b3c
000000f0: 7a18 6abc 3cb1 6c3c 94aa e8ba da06 17bd
00000100: 1d10 cf39 d360 193c 16af 213c 2518 47bc
00000110: b8ac 653d 0426 0c3d eeb8 d6bb ae6c 53bd
00000120: 76f2 0b3d f4e4 eebb a941 883b 4a21 c9bd
00000130: 741f ee3c 7e1e de3c 7a07 28bd e6f7 23bc
00000140: c9be 5dbb ad2b 4e3d 8f47 25bc f47f c9bc
00000150: 472e 063d cde4 b7bc 052c 0d3d eb43 a13b
00000160: 115f d73b c638 82bc cd99 403d 2e2e 21bd
00000170: c3ff 0e3c 6b5c 20bc 8b4a 1abb de63 2b3d
00000180: e841 bcbc 2ea2 88bd 0a42 88bb beaf fa3b
00000190: 6b62 0a3a 2082 b2bc 8e11 003d 9ccc 11bc
000001a0: 22f6 81bd a579 48bd 8754 043c 359b 3cbc
000001b0: c62b 7c3d 79b7 9ebb 3c77 df3c 5f9d 5dbd
000001c0: 3aac d43c 8cb3 8bbc 9816 0e3c c6a2 14bd
000001d0: d637 10bd b952 573d 5d93 cbbb 857e 8a3b
000001e0: 563d 87bd 266f d8bc d40c e33b 4f2f 3c3c
000001f0: 2c9b 37bb 3af3 8f3c 7bff 2bbd 0b66 84bd
00000200: 3343 173d 2aba 5b3b a81e abbb a29b 823c
00000210: 7517 a2bc 9962 fe3c 89b3 263d e354 cd3c
00000220: 2d32 533c 1716 3b3d 72fc 09bd 9b0c ccbc
00000230: 8eb2 3a3c 4b80 bc3b 63d4 c6bc 178e 983c
00000240: 1557 843c 6c87 16bd e411 4b3d a4c0 8b3c
00000250: ac2d 813c cb5b dfbb 517f 903d 482d d7bc
00000260: 743e 82bc 3e49 f13c c429 d2bc 77f1 85bc
00000270: 26fe e339 7102 6b3d 78d0 69bc c684 5a3c
00000280: be7b a2bc aed5 27bc 478d bd3b 5675 d0bc
00000290: 49c8 7c3d c6dc 1bbd 5b42 adbc 28d8 ccbc
000002a0: cc8a c93c 17f2 74bd 7315 203c 3f85 a63c
000002b0: 040d d23c 9dbb 75bc daa0 533d b770 123d
000002c0: a2ba 5f3c b713 0f3d 3fc6 0abd ad45 db3c
000002d0: a72b 01bd 8350 e93c 6b04 aabc 4fdc 3dbd
000002e0: 860f cbbc d296 123c f3df 103b 24f7 aebd
000002f0: 7ca1 a4bb 0e9b 543c 2a58 983b 54be b93c
00000300: 335d 6d3c 5efd 04bd 3b20 373c b536 5b3d
00000310: cf41 b9bc 12a0 7cbd 1d18 ea3b a3d6 24bd
00000320: b9e0 51bd 7d4e 3dbc 3ef0 1ebd 487c 873c
00000330: 8a51 a9bc 6e09 18bd d942 f6bc f540 7d3d
00000340: b233 803c 224e 7abb 8ab9 35bd 92a0 793c
00000350: 8825 033c 6e4a 603d baf4 763d 1fcc 1abd
00000360: b9f0 38bb 7aac 163d 89e7 b33c e624 263d
00000370: 3907 313c 23bf 223d b5d9 aebc 178b 033c
00000380: 8e26 a63c 89c4 563d aada 9d3c 4425 bdbc
00000390: 1025 103d dc01 8d3c d92e 67bd a6be 083d
000003a0: 8cee 34bc 14fa f63c cbc9 2fbd 0dc6 bcbc
000003b0: 93e0 393d a512 85bb bc16 773c 6a8d e7bc
000003c0: 18b1 02bd 0597 c9bc cc6d 063d ed6e 16bd
000003d0: 6796 0d3d b3cd b43c d5aa 613c 2a78 9c3d
000003e0: 143c 52bd 9943 493d 579e 07bd ee8e 04bc
000003f0: 5ca3 0ebd 733c 363d 4f00 003d 3f85 edbc
0.062291384 -0.008073545 -0.009479368 -0.01916108 -0.026213456 0.041300878 -0.06071188 -0.026143936
0.024094598 -0.04561561 -0.07691446 -0.008113828 -0.0075590457 -0.019392915 -0.013118884 -0.024343604
0.04879657 -0.023302298 -0.038202386 0.029110925 -0.021079596 0.016616806 -0.008978631 0.027418831
-0.057085168 -0.0015344823 0.03661491 -0.03580682 -0.013223696 0.02791764 0.037713904 0.018323189
0.022434425 -0.016181082 0.011376176 -0.032454617 -0.03357639 -0.017471658 -0.055213634 0.036370188
-0.00971886 -0.03579056 0.020113394 -0.038077973 -0.056219604 -0.020630915 -0.041857142 -0.02124968
-0.047620375 -0.011400796 0.016097907 -0.066726126 -0.0108392835 -0.03154923 -0.02560123 -0.034061126
0.0015008064 0.026839972 -0.023284823 0.014392726 -0.014288062 0.014446553 -0.0017751032 -0.03687177
0.00039494122 0.009361464 0.009868404 -0.012151753 0.05607292 0.034215942 -0.006552807 -0.051617317
0.034166776 -0.007290477 0.004158218 -0.098208025 0.029067732 0.02711415 -0.041022755 -0.010007834
-0.003383564 0.05033462 -0.010087862 -0.024597146 0.032758977 -0.022447968 0.03446581 0.0049214265
0.006572612 -0.015896212 0.047021676 -0.03935068 0.0087279705 -0.009787659 -0.0023542966 0.041843288
-0.022980645 -0.06671558 -0.004158263 0.0076503446 0.00052789476 -0.021790564 0.03126674 -0.00889888
-0.06345774 -0.048944134 0.0080767935 -0.011511614 0.061565183 -0.004843649 0.027278535 -0.05410516
0.02596103 -0.017053388 0.008672379 -0.036288045 -0.0352095 0.052569125 -0.0062126354 0.004226508
-0.06603496 -0.026420187 0.0069290195 0.011485889 -0.0028016074 0.017572034 -0.041991692 -0.06464776
0.03692932 0.003352771 -0.0052221604 0.015943352 -0.019786576 0.031052874 0.04069856 0.025064891
0.012890381 0.045675363 -0.033688016 -0.024908355 0.01139511 0.0057525984 -0.024271196 0.018622441
0.016154805 -0.036750242 0.04957761 0.017059632 0.015768848 -0.0068163625 0.07055534 -0.026266709
-0.01589892 0.02945387 -0.025654681 -0.016350491 0.0004348617 0.057375375 -0.014270894 0.01333732
-0.019834395 -0.010243816 0.005784664 -0.025446575 0.061714444 -0.038052343 -0.021149805 -0.025005415
0.024602316 -0.059801187 0.009770739 0.020327209 0.025640972 -0.014998344 0.051667072 0.035752025
0.013655337 0.03493091 -0.03388047 0.026766622 -0.03153577 0.028480774 -0.02075406 -0.04635268
-0.024787676 0.008947091 0.002210614 -0.08543232 -0.0050241333 0.012976421 0.004649182 0.022673763
0.014487552 -0.032468192 0.011177118 0.05351897 -0.022614388 -0.061676092 0.007143988 -0.040243756
-0.051239703 -0.011554358 -0.03880333 0.016538754 -0.020668764 -0.037118368 -0.030061172 0.061829526
0.01564965 -0.0038193543 -0.044366397 0.015236037 0.008004554 0.05475848 0.060291983 -0.03779232
-0.0028219654 0.03678558 0.02196099 0.040562533 0.010804945 0.039733063 -0.021344045 0.008028767
0.020282056 0.052433524 0.019269306 -0.023089059 0.035191596 0.0172128 -0.05644116 0.03338494
-0.011043202 0.030148543 -0.042917054 -0.023043657 0.045380186 -0.0040610605 0.015081104 -0.028265674
-0.03190717 -0.024608145 0.032819554 -0.03672688 0.034567263 0.022070741 0.01377364 0.07640107
-0.051326826 0.04913673 -0.03310999 -0.008090718 -0.03482376 0.044491243 0.031250294 -0.0289942

weight f4 [64, 256]
00000000: cb0a cabd fb47 613e 944d 023c 52ec 81be
00000010: 4618 883e af6d f2bd a70c 8ebc a4cb 09bd
00000020: 5d5a 57be 7ac5 16bf 8c05 5d3c f468 abbd
00000030: ad52 593e 1e2b 853e a650 8b3e 55ac 87bb
00000040: f4a4 873c 4343 223d 3b81 35be e759 883e
00000050: b36f cdbd de61 0f3f c660 1dbd ef1d 773e
00000060: 7270 35be 2bae f53d f990 623e 03e2 b7be
00000070: 51f2 babd 1dd4 10be b73b 453e 33b5 2d3e
00000080: 9d13 f73c 12d0 f3bb dd40 2c3e 4ba4 cd3c
00000090: e392 f13c bbae 29bc 729c c13c c0ee 293b
000000a0: e19f fb3c a741 323f 8f28 d83d f6f5 603c
000000b0: 9a99 2abe 088a f3bd 0d0f 3c3e 95f8 7dbe
000000c0: a147 9e3e d893 633e 67bc d83e e7c8 f4be
000000d0: 0552 ecbd 41ba 053e 9630 16be 6205 b1be
000000e0: d6a5 00be 3ed3 1dbd d003 e9bc b85d cebd
000000f0: 12d4 f13d 8fc0 5ebe f10c c63e c48b 573d
00000100: 234f 5ebc c376 2cbc aa50 e53d dd87 c03e
00000110: b985 67be dfa8 7b3e 30c4 12bd bae8 1dbe
00000120: 10c3 283e 2822 70bd f854 8c3e 6589 afbd
00000130: e2da 903d 5078 aa3d 8338 04be 45ea 343e
00000140: 5ff6 7ebe 9969 58be 3e94 f1bc 0ec4 003d
00000150: ac3e 133e 4335 613d 6343 87be f51a 5fbe
00000160: d70b c3bd 6ae0 35be 4945 19bd 56b8 203e
00000170: 7dc6 5dbd 31b6 9bbe 868e 35be fe66 b93a
00000180: f98a 703e 625a 36be e661 473e ded4 bcbd
00000190: a98b 81be 69ad 49bd 1fa4 4c3e beda 833e
000001a0: cd5c 933e 883c b8bd 6c77 de3d d6b8 5ebe
000001b0: 582b 203e 5082 d1bd b024 553e 99cf 8bbe
000001c0: cce7 05bf 847d e5be 0215 363e 5509 c83d
000001d0: 854f 81be 910e bfbe 0344 79be 771d f4bc
000001e0: 396b 57be e7a0 d6be 12fc 2f3e ce18 d8bd
000001f0: 50a4 c3bb 9deb 1d3e d284 7dbd 5aa0 a3bd
00000200: 8d66 d5bd c646 0dbf c87d 53ba cb31 fa3e
00000210: 319c 463d 0f71 0f3e 04bb e6bd ea13 c13e
00000220: 11b8 703d 4b07 383e 8017 2d3e 50ad 9f3e
00000230: a60e 503d a571 b3bd 6138 2b3e 12ea a13e
00000240: f914 143d 468d d0bd 0a1a a03e f7d5 853e
00000250: 7dd0 09be ce6b 583d cc8c 3abe 1eea ce38
00000260: aff7 143c a5cb 023e 3e74 b5be 8705 bebd
00000270: a56f f4be 696f 98bd 9c46 343e 8b9b a13e
00000280: 2ba3 98bd 3633 9d3d 3500 cc3d 31a1 b13e
00000290: 81f4 c1bd bb6e ecbd 4086 16bd 98a0 55be
000002a0: a0be 833e c66b 2dbe 2ca6 093e fe7a 31be
000002b0: 4099 fcbd f128 cfbe da14 0d3e 7e29 85bd
000002c0: a2a8 fbbc 6370 9d3c 971e be3e b065 52bd
000002d0: 7c1d 243e a0fa 67be 14be 8ebe 8dd2 873e
000002e0: 0c9b 11be 1d49 2cbd 7a30 d8be e12d 513c
000002f0: 2095 973e a00e efbb 3b6e 683d 80de 43bd
00000300: 6d59 c5be 502b 483d a873 b9bd b4d7 893e
00000310: aa67 dbbd 1db2 f4bd d6d3 543d b005 35bf
00000320: af29 d4bc 5a5c 513e 5727 94be 7e80 903e
00000330: 23a5 1c3e aa9f 443d cc98 00be 3e90 debc
00000340: 57cb 323e dca5 9ebd 4966 103d 8292 223e
00000350: 0282 9e3e 3404 bfbd 30ac e13c fdfe b53e
00000360: a204 d9bc 2753 053f 0135 1d3e 907e cc3d
00000370: d0c5 cfbb cafa 03be 98e2 373d 53d0 3b3e
00000380: c337 cfbd 558d bebe f212 093e 42b2 aabd
00000390: a9e9 9dbd 3264 0c3d ea6a 0bbe 392f 7e3e
000003a0: be04 05be b95d 8cbe cbb3 eabd d97b c6be
000003b0: 3a04 7bbd 70ad 213e 6cf0 d23e bec0 abbe
000003c0: 6f40 85bc 8454 2c3e d845 a03d b200 0dbd
000003d0: 92a2 e2bd 71cd 1d3d 36d8 043c efa8 e7bc
000003e0: e209 4bbe 72fd 6bbe be50 6a3e 0392 a93d
000003f0: 0179 36be 7a6e b0be bde7 573e 82d1 afbd
-0.0986534 0.22000115 0.007953066 -0.2537561 0.2658102 -0.11837327 -0.017340017 -0.033641472
-0.21030565 -0.58895075 0.013490092 -0.083696276 0.21222945 0.26009458 0.27209967 -0.0041404166
0.016558148 0.039614927 -0.17725079 0.2663109 -0.100310706 0.5600871 -0.03842237 0.24132513
-0.17718676 0.119961105 0.22125615 -0.3591462 -0.091282494 -0.14143415 0.1926106 0.16963653
0.03016072 -0.0074405754 0.16821618 0.025102755 0.029488986 -0.0103566 0.02363417 0.002592966
0.030715885 0.6963143 0.10554611 0.013730517 -0.16660157 -0.11891562 0.18365116 -0.24801858
0.30914024 0.22224367 0.4233124 -0.47809526 -0.115390815 0.13059331 -0.14666972 -0.3457442
-0.12563261 -0.038531534 -0.0284442 -0.10076469 0.11808027 -0.21753143 0.38681749 0.052623525
-0.013568672 -0.010526362 0.11197026 0.37603655 -0.22609605 0.24576138 -0.03583163 -0.1542081
0.1648066 -0.058626324 0.27408576 -0.08571128 0.070729986 0.08323729 -0.12912183 0.17667492
-0.2489867 -0.21134032 -0.029489633 0.031436972 0.14379376 0.054982435 -0.264186 -0.21787627
-0.09523743 -0.17761388 -0.03741959 0.15695319 -0.05414437 -0.3041244 -0.1773015 0.0014145074
0.23490514 -0.17807916 0.19470939 -0.09220289 -0.25301865 -0.049237642 0.19984482 0.25752825
0.2878174 -0.089959204 0.10862622 -0.21750197 0.15641534 -0.10229933 0.20814776 -0.27306822
-0.5230682 -0.44822323 0.17781451 0.09767405 -0.2525598 -0.373158 -0.2434235 -0.029799206
-0.21036996 -0.41919634 0.17186001 -0.10551606 -0.0059705153 0.1542191 -0.061894245 -0.07989569
-0.10419951 -0.55186117 -0.0008067754 0.48866114 0.0484888 0.14007972 -0.11266139 0.37710506
0.05876929 0.17971532 0.16903496 0.31186914 0.05079522 -0.0876191 0.16720726 0.31623894
0.036152814 -0.10183196 0.31269866 0.26139805 -0.13458438 0.052837186 -0.18217772 9.866453e-05
0.0090922555 0.12772997 -0.35440248 -0.09278398 -0.47741428 -0.07443125 0.1760506 0.31563982
-0.07452997 0.07675783 0.09960977 0.34693292 -0.094704635 -0.11544558 -0.036749125 -0.20862043
0.25731373 -0.16935644 0.13442296 -0.17332074 -0.123339176 -0.40460923 0.13777485 -0.06502055
-0.030720059 0.01921863 0.37132713 -0.051366508 0.16026872 -0.226542 -0.27879393 0.26527825
-0.14219302 -0.042061914 -0.42224485 0.012767286 0.2960596 -0.0072954446 0.05674575 -0.047819614
-0.3854479 0.04886943 -0.09055263 0.2692238 -0.10713132 -0.11948035 0.051959835 -0.70711803
-0.025898783 0.20445386 -0.28936264 0.28223032 0.1529737 0.04800383 -0.12558287 -0.02716839
0.1746038 -0.07746479 0.035253797 0.15876201 0.30958563 -0.093269736 0.027547926 0.35546103
-0.026491467 0.52080005 0.1535225 0.099850774 -0.0063407198 -0.12888637 0.04489383 0.18341188
-0.101180576 -0.37217203 0.13386133 -0.08334781 -0.07710583 0.03427524 -0.13615003 0.24822702
-0.1299009 -0.27415255 -0.11460074 -0.38766363 -0.061283328 0.15788817 0.41199052 -0.33545488
-0.016266076 0.16829115 0.07825822 -0.03442449 -0.11066164 0.038526002 0.008108189 -0.028278796
-0.19827989 -0.230459 0.22882363 0.08279803 -0.17819597 -0.34459287 0.21084495 -0.08584882

bias f4 [64]
00000000: 7fd3 76bd de3c 3cbd 5e11 0dbd 14ee cc3c
00000010: b062 83bd a411 2c3d 440c 19bd 3ddf f53c
00000020: 61f2 5a3d 8dc0 e5bb a098 4fbd 84b6 58bd
00000030: 25b2 2d3a 0aee a8bc 867b b1bb c659 5c3a
00000040: 1abe bebc c6ea b9bc 510c c43b c8a4 25bd
00000050: 677b ab3c f9bb 5d3d fd58 033d 1353 32bd
00000060: 4718 89bd 5a7c a13d 57b2 f5bc 08b4 833d
00000070: 1215 0ebd 188b 7f3c a195 95bc 8aee 6b3d
00000080: 5642 113d a1e1 323c a0f5 efbc 68dd 15bd
00000090: 9e36 72bc 4fae 42bd 22a1 6dbd c33a c13c
000000a0: d8ce 4ebd 57dd 1abc 5fea 63bd 09b6 04bb
000000b0: 2d0b 06bd f547 5ebc cc5f 633c bc3a 863b
000000c0: e596 553d a91d 563d 5cea 15bd 5873 e3bc
000000d0: bb78 05bd 3c49 32bd c460 c6bd 8a24 863c
000000e0: f420 103c a3d3 c93c 1690 83ba 0caa 9cb9
000000f0: 76b4 5bbd 742a 2c3c 83b4 763d f8de 15bd
-0.060260292 -0.045956485 -0.03444039 0.025015868 -0.064153075 0.04200901 -0.037365213 0.030013675
0.053453807 -0.007011479 -0.050682664 -0.052908435 0.0006625972 -0.020621318 -0.0054163365 0.0008405711
-0.023284007 -0.022694957 0.0059829135 -0.04044035 0.020932866 0.054134343 0.032067288 -0.043536257
-0.06694084 0.07885046 -0.029992266 0.064308226 -0.034688063 0.015597127 -0.018259825 0.057600535
0.035463654 0.010918052 -0.029291928 -0.036588103 -0.01478353 -0.047529515 -0.058014996 0.02358759
-0.05049023 -0.009452186 -0.055643436 -0.0020250103 -0.0327255 -0.013566961 0.01387782 0.004096357
0.052145857 0.05227438 -0.036600456 -0.027764961 -0.03258584 -0.043526873 -0.09686425 0.016374845
0.008796919 0.024637049 -0.0010037448 -0.00029881333 -0.053638898 0.0105081685 0.060230743 -0.036589593

weight f4 [1, 64]
00000000: 86af b73e 86b0 a2be cfa8 2f3e 2fae cfbe
00000010: abe3 f3be ab6a 6dbe b7de fbbe d34e 6bbd
00000020: 6b79 89be 51fd 80be ce33 83be b8c5 a5be
00000030: 6382 b13e a8f3 a7be 9c9a ce3e 8c1f a63e
00000040: ed36 8cbe 7c78 ce3e 68b8 f6bd e36e fd3e
00000050: 9793 ebbd f558 90be dccc 4e39 5cb4 c83e
00000060: 9026 89be 17aa b93e 70b8 6ebe 4287 81be
00000070: ca9e ef3e 6c34 253e 6766 f1bd 0722 0b3f
00000080: 98f1 61b9 bb8c c0be 652f 0fbf 3e8f 82be
00000090: 8d30 c03e 360b 683e 4c06 a2be 034a 723e
000000a0: b594 983e d7bd 893e 8bd7 003f dc95 93be
000000b0: 87b9 9fbe bb3e f63e 1c62 dcbd e1d0 803e
000000c0: 1a98 bfbe 4077 95be 7fab ac3e b3c6 753e
000000d0: 5ca5 113e aa6c 64be 906a e5be 0813 92be
000000e0: f4f3 43be 1685 81be 49aa 9fbe d881 4738
000000f0: 2063 9a3e cf9e 8c3e 800d 6b3e e640 ebbe
0.358761 -0.31775302 0.17154239 -0.4056258 -0.47634634 -0.23185222 -0.49193355 -0.05744822
-0.26850447 -0.25193265 -0.2562546 -0.3237741 0.3466979 -0.32803082 0.40352333 0.32445943
-0.27385655 0.40326297 -0.120468915 0.49498662 -0.1150276 -0.2819287 0.00019722007 0.39200103
-0.26787233 0.3626258 -0.23312545 -0.25298506 0.46800834 0.16133279 -0.1178711 0.54348797
-0.00021547673 -0.3760737 -0.55931693 -0.2549991 0.3753704 0.22660527 -0.3164543 0.23661046
0.29800954 0.2690265 0.5032889 -0.2882527 -0.31196234 0.48094735 -0.107609004 0.25159362
-0.37420732 -0.29192543 0.3372459 0.24001579 0.14223236 -0.22307077 -0.44807863 -0.28530145
-0.1913603 -0.2529685 -0.31184605 4.7566224e-05 0.3015375 0.2746491 0.22954369 -0.4594795
