test/ens_models/ens_model_3_CB.pt (torch, 654739 bytes, 6 tensors)

weight f4 [20, 10]
0.3577826 0.24171527 -0.2071312 -0.51954633 0.6967274 0.019610828 -0.12806877 -0.58217907
-0.34979987 0.24206099 -0.17985226 -0.14571775 0.6641486 -0.91470265 0.158724 -0.73026484
-0.37728631 0.53056824 0.39540714 0.44078785 0.29365253 -0.56833524 -0.36313653 0.7985067
0.4220635 0.4083625 -0.13524726 -0.5484397 -0.24458838 0.5751916 -0.37589672 0.025359968
0.33559823 -0.67309594 -0.21294114 0.080631316 0.07732018 -0.19050634 -0.27978823 0.49112463
-0.79413193 0.25633755 -0.603789 -0.11954491 -0.3016864 -0.11453954 -0.82694954 -0.8468305
-0.21514946 0.53593284 -0.19391051 -0.03982838 -0.23656721 -0.64333427 0.030108381 -0.26388514
0.7347791 0.682062 0.5898672 0.47381222 0.5198572 -0.22230716 0.04637624 0.8450941
0.22691952 0.08931523 0.5927099 -0.47234377 -0.4710796 -0.4747317 0.1672402 1.291994
1.1894853 0.39615 -0.9546615 0.6692661 -0.76455057 -0.35102615 -0.22787094 0.48279315
-0.18204796 0.2842847 -0.2518373 1.1275221 -1.1320249 0.049516417 -0.09918861 0.58558565
0.18178582 0.37662333 -0.7992141 -0.5349349 0.080084056 -0.45506403 0.2216921 -0.21185492
-0.08704696 0.6490983 -0.4224917 -0.28035378 -0.0047630123 0.9869334 -1.0397116 -0.3070393
-0.2996123 0.39080396 -0.24988471 -0.1894812 -0.25365645 -0.10903813 0.15910478 -0.36830524
0.21988319 0.7035048 0.8953316 -0.62296516 0.10597502 -0.003234223 0.18898381 0.027941437
0.35065806 0.53302956 -0.298426 -0.44088525 -0.6928469 -0.3982278 -0.19374007 -0.45349944
0.12682296 0.24676026 0.6288774 0.03520539 1.1776072 1.1547241 0.5310077 0.35669756
0.25040644 0.35056517 0.27919394 0.14029913 0.66275066 -0.05296294 -0.65223366 -0.18256657
-1.0113558 0.024669597 -0.75984836 -0.30241105 1.0380795 -0.113992974 -0.15497404 0.12627807
-0.2096434 -0.13720876 -0.67363137 -0.17037888 -0.36502236 0.4936212 -0.21155049 -0.007322441
0.2676024 -0.36499235 -0.34961164 0.0013091585 0.48858097 -0.045510564 -0.21273984 0.09124773
-0.7175512 -0.59321123 1.0472498 0.6681953 0.3275581 -0.5409667 1.2022333 0.5132953
-0.18783107 0.44890925 0.05294217 -0.14506872 -0.16223529 -0.21668491 -0.6614103 0.54670566
0.64154756 0.3718901 -0.09116088 0.048121005 0.11236877 1.2270054 0.6612774 -0.12826611
0.1653244 -0.02198925 -0.7350121 -0.08641582 -0.0866117 0.27093756 -0.7237106 0.34645623
00000000: 482f b73e 3584 773e 341a 54be fd00 05bf
00000010: ba5c 323f e3a6 a03c 7624 03be b009 15bf
00000020: f818 b3be d6de 773e 312b 38be 0937 15be
00000030: a505 2a3f f429 6abf 8b88 223e a3f2 3abf
00000040: ac2b c1be 52d3 073f ce72 ca3e f2ae e13e
00000050: a059 963e 6b7e 11bf 08ed b9be ef6a 4c3f
00000060: b518 d83e e414 d13e 427e 0abe 8b66 0cbf
00000070: 6075 7abe c23f 133f 8975 c0be b5bf cf3c
00000080: 88d3 ab3e 0450 2cbf 3e0d 5abe 0822 a53d
00000090: 0b5a 9e3d 1814 43be 6740 8fbe b074 fb3e
000000a0: 3b4c 4bbf ad3e 833e ea91 1abf f6d3 f4bd
000000b0: a476 9abe b593 eabd f7b2 53bf e2c9 58bf
000000c0: 2450 5cbe e532 093f 7a90 46be 1523 23bd
000000d0: ad3e 72be 8eb1 24bf daa5 f63c f41b 87be
000000e0: 7c1a 3c3f 9d9b 2e3f 8901 173f 8497 f23e
000000f0: 5d15 053f 7da4 63be 03f5 3d3d 1658 583f
00000100: 975d 683e e7ea b63d d6bb 173f 0bd7 f1be
00000110: 5831 f1be 0910 f3be 0441 2b3e 0f60 a53f
00000120: 0e41 983f 2cd4 ca3e b264 74bf 0655 2b3f
00000130: 96b9 43bf b3b9 b3be 0057 69be aa30 f73e
00000140: c86a 3abe c48d 913e d2f0 80be a552 903f
00000150: 31e6 90bf bad1 4a3d 6623 cbbd f1e8 153f
00000160: 1026 3a3e c6d4 c03e 4c99 4cbf 7ef1 08bf
00000170: 1c03 a43d 27fe e8be 4103 633e 7ff0 58be
00000180: ad45 b2bd 4e2b 263f d550 d8be 888a 8fbe
00000190: 0b13 9cbb aba7 7c3f 4515 85bf 4134 9dbe
000001a0: c966 99be 7517 c83e c7e1 7fbe 5c07 42be
000001b0: 42df 81be 624f dfbd 5dec 223e 8192 bcbe
000001c0: 0f29 613e e418 343f 7434 653f a57a 1fbf
000001d0: 6e09 d93d 42f5 53bb f984 413e 71e5 e43c
000001e0: 7489 b33e a074 083f 4bcb 98be b6bb e1be
000001f0: 6a5e 31bf 84e4 cbbe cc63 46be 1431 e8be
00000200: e1dd 013e b9ae 7c3e 1cfe 203f 8733 103d
00000210: d5bb 963f 00ce 933f 1ff0 073f 10a1 b63e
00000220: 4635 803e 477d b33e 82f2 8e3e 93aa 0f3e
00000230: 07aa 293f abef 58bd c9f8 26bf bbf2 3abe
00000240: 1b74 81bf e517 ca3c 6c85 42bf 9fd5 9abe
00000250: cadf 843f 2675 e9bd 84b1 1ebe 0a4f 013e
00000260: c2ac 56be 7480 0cbe 1b73 2cbf cd77 2ebe
00000270: 36e4 babe ebbb fc3e b1a0 58be 16f1 efbb
00000280: 2f03 893e 47e0 babe 4c00 b3be 1298 ab3a
00000290: 4927 fa3e 4969 3abd 79d8 59be 17e0 ba3d
000002a0: 6fb1 37bf b1dc 17bf 480c 863f d90e 2b3f
000002b0: b2b5 a73e cb7c 0abf c8e2 993f 5267 033f
000002c0: ca56 40be 6fd7 e53e e4d9 583d e58c 14be
000002d0: 0221 26be a6e2 5dbe 2f52 29bf e7f4 0b3f
000002e0: 763c 243f 6168 be3e 8eb2 babd 881a 453d
000002f0: 9921 e63d 830e 9d3f 7a49 293f 3158 03be
00000300: cd4a 293e cd22 b4bc c129 3cbf c7fa b0bd
00000310: 7a61 b1bd 54b8 8a3e 1945 39bf b662 b13e

weight f4 [256, 570]
-0.004421806 0.03448932 0.025659366 -0.13766322 -0.0703948 -0.039763544 -0.025226323 0.02383238
0.021278184 0.078449056 0.052456345 0.051276 0.07998048 -0.008729662 -0.04438816 -0.093350835
-0.5267446 -0.060705617 -0.01235113 -0.027290136 0.010962803 -0.039161343 0.09241122 -0.036081813
-0.073597394 -0.16448696 -0.032301355 -0.15535831 -0.13350762 -0.06009051 -0.022396034 0.03360572
-0.022158578 -0.009607262 -0.011901788 -0.5206017 -0.14325535 0.17315862 0.05041638 -0.15901582
0.08291312 0.044598144 0.014632073 -0.09911664 0.032948136 -0.064635694 -0.08424343 0.501962
0.4825166 0.16415301 -0.016038232 -0.04413901 -0.09328126 -0.039754085 -0.0014102579 0.01237705
0.066386305 0.021925038 -0.13100769 0.070299104 -0.027589416 -0.14417928 0.21648163 0.29581568
0.019746112 -0.022633573 -0.11793589 0.037600473 0.031597685 -0.23589228 -0.22074853 0.049500357
0.03692099 0.63881296 -0.049326528 0.034712233 -0.37594476 0.1790575 0.1729149 -0.33805564
-0.016594114 -0.018425887 0.008272838 -0.015401899 0.02372765 -0.030024357 0.01601976 -0.010248995
0.0507992 0.042466972 -0.037700977 0.04504074 0.071083196 0.02396622 0.009974976 0.05270385
-0.120507285 0.0354711 -0.016111016 -0.0542917 -0.12696072 -0.044658706 0.004044312 -0.105047956
-0.10896053 -0.08660379 0.012130746 0.037007198 -0.7653921 0.14752169 -0.02645246 -0.032300986
-0.38403514 -0.01195539 0.0068902387 0.012959755 -0.042757235 -0.034369055 0.033295207 -0.011818745
0.054578796 -0.018444734 0.025172712 0.03814151 -0.0082784295 -0.0060806014 -0.051090308 -0.0073812203
-0.032921486 -0.04065293 0.037924487 0.008237438 0.124198236 -0.04826458 -0.059784763 -0.011629817
0.07202949 -0.11941128 0.057126645 -0.054242846 0.39350873 -0.57773125 -0.19808167 -0.33748627
-0.19572179 -0.025325289 0.07237568 0.08565235 -0.2485642 0.09974704 0.12320656 0.0646271
0.24935447 0.052440878 0.09846189 0.023924569 0.04604811 -0.010998467 0.016557554 -0.021210628
-0.15761112 -0.013198848 0.05775388 -0.012168126 -0.10022191 -0.007898171 -0.009581322 0.066943154
0.18721783 0.00028912688 -0.08236173 -0.13697642 0.16782528 0.28807282 0.09138573 0.06284399
0.05611555 -0.07997802 -0.04725625 0.012374237 -0.05181304 -0.06507654 -0.07202165 0.0010579984
0.014290764 -0.009558022 -0.0326726 0.049487438 0.06266233 -0.040921282 -0.049891014 -0.052080646
-0.063312106 0.037546422 -0.019467333 -0.053093385 -0.066943265 0.032002356 0.02541973 -0.021308772
0.080268756 0.21300918 -0.0025720452 0.10281203 -0.24057928 0.075326815 -0.014140322 0.063966215
-0.0033883117 0.051516883 0.0645553 0.08569511 -0.0769883 0.008253484 0.039932545 0.01615037
-0.19387856 -0.09833023 -0.02993662 -0.024077997 0.07341675 0.033968017 -0.0017345821 0.032608382
-0.081780374 0.100919865 -0.0024371159 0.08889785 0.011423639 0.035514172 -0.30939484 0.17174467
-0.2965133 0.10176201 0.29851955 -0.09476072 -2.257482 -0.030049648 1.0089157 0.6878439
0.17197178 0.01410909 -0.04588418 -0.04028576 -0.078361504 0.053465925 -0.018416509 0.011214797
-0.1359891 0.04830959 0.0011377017 0.011087064 -0.054328788 0.075911984 0.011306245 0.014321419
00000000: cce4 90bb ac44 0d3d 9733 d23c 96f7 0cbe
00000010: 262b 90bd 19df 22bd 6fa7 cebc 203c c33c
00000020: 964f ae3c e6a9 a03d 77dc 563d c806 523d
00000030: cecc a33d db06 0fbc 5cd0 35bd b92e bfbd
00000040: bcd8 06bf 74a6 78bd 655c 4abc 908f dfbc
00000050: 549d 333c a567 20bd 1842 bd3d 86ca 13bd
00000060: 3bba 96bd 456f 28be 6d4e 04bd 4016 1fbe
00000070: 39b6 08be 7721 76bd e377 b7bc 27a6 093d
00000080: e885 b5bc c767 1dbc b8ff 42bc 2746 05bf
00000090: 88b1 12be 7e50 313e 6881 4e3d 0bd5 22be
000000a0: 5bce a93d 8bac 363d 5dbb 6f3c aafd cabd
000000b0: a0f4 063d b85f 84bd d287 acbd 9580 003f
000000c0: 6a0c f73e ba17 283e 9c62 83bc 1bcb 34bd
000000d0: 3f0a bfbd 2ed5 22bd 67d8 b8ba 1cc9 4a3c
000000e0: 8bf5 873d 239c b33c e126 06be faf8 8f3d
000000f0: 3303 e2bc bca3 13be 5cad 5d3e 2775 973e
00000100: 99c2 a13c 0b6a b9bc 5f88 f1bd f402 1a3d
00000110: 936c 013d bf8d 71be e70b 62be e3c0 4a3d
00000120: 773a 173d 3f89 233f 9d0a 4abd 6a2e 0e3d
00000130: d57b c0be d95a 373e 9b10 313e a115 adbe
00000140: 61f0 87bc e3f1 96bc cc8a 073c 3f58 7cbc
00000150: 7d60 c23c a4f5 f5bc df3b 833c 67eb 27bc
00000160: d212 503d d9f1 2d3d 576c 1abd a47c 383d
00000170: 1194 913d ce54 c43c 156e 233c fedf 573d
00000180: 86cc f6bd 254a 113d 40fb 83bc f960 5ebd
00000190: fe01 02be 0cec 36bd 2686 843b 6223 d7bd
000001a0: b326 dfbd 545d b1bd 09c0 463c dc94 173d
000001b0: bdf0 43bf ed0f 173e d4b2 d8bc 0a4e 04bd
000001c0: 41a0 c4be 8ae0 43bc 83c7 e13b 2755 543c
000001d0: 3622 2fbd 91c6 0cbd 8e60 083d 69a3 41bc
000001e0: 048e 5f3d 6919 97bc 0137 ce3c 463a 1c3d
000001f0: 40a2 07bc c83f c7bb 1244 51bd 2ade f1bb
00000200: aed8 06bd b083 26bd b556 1b3d 52f6 063c
00000210: a55b fe3d 15b1 45bd dee0 74bd fd8a 3ebc
00000220: 3284 933d e78d f4bd a1fd 693d bf2d 5ebd
00000230: fa79 c93e 32e6 13bf ecd5 4abe 00cb acbe
00000240: 4b6b 48be fb76 cfbc b339 943d 806a af3d
00000250: 9d87 7ebe 2d48 cc3d b953 fc3d 375b 843d
00000260: c756 7f3e 3fcc 563d 63a6 c93d 75fd c33c
00000270: f19c 3c3d ea32 34bc b5a3 873c e9c1 adbc
00000280: cf64 21be fb3f 58bc 558f 6c3d d25c 47bc
00000290: 2541 cdbd 5567 01bc fafa 1cbc 7e19 893d
000002a0: 08b6 3f3e f495 9739 44ad a8bd 8c43 0cbe
000002b0: 64da 2b3e 487e 933e 7128 bb3d 5ab4 803d
000002c0: 6bd9 653d 84cb a3bd c58f 41bd 50bd 4a3c
000002d0: e939 54bd d946 85bd 1680 93bd 89ac 8a3a
000002e0: cf23 6a3c 4099 1cbc b4d3 05bd 57b3 4a3d
000002f0: 1c55 803d 139d 27bd 855a 4cbd 8452 55bd
00000300: c7a9 81bd 47ca 193d f579 9fbc 7378 59bd
00000310: 8d19 89bd e714 033d 0a3d d03c bc8f aebc
00000320: f263 a43d 141f 5a3e c28f 28bb 1d8f d23d
00000330: 6a5a 76be f244 9a3d cfac 67bc b800 833d
00000340: 700e 5ebb 5e03 533d 9235 843d eb80 af3d
00000350: 0bac 9dbd 9f39 073c 4f90 233d c84d 843c
00000360: 1a88 46be 5c61 c9bd a43d f5bc 383f c5bc
00000370: 855b 963d 0c22 0b3d eb5a e3ba 5e90 053d
00000380: 787c a7bd 13af ce3d 05b8 1fbb 1310 b63d
00000390: 372a 3b3c 4f77 113d 0069 9ebe d6dd 2f3e
000003a0: 97d0 97be 9a68 d03d 8ed7 983e e911 c2bd
000003b0: 967a 10c0 ae2a f6bc 2624 813f 8a16 303f
000003c0: 5f19 303e d029 673c 0df1 3bbd ae02 25bd
000003d0: ff7b a0bd 16ff 5a3d 38de 96bc 45be 373c
000003e0: ba40 0bbe 47e0 453d ef1e 953a 84a6 353c
000003f0: dd87 5ebd be77 9b3d d43d 393c 63a4 6a3c

bias f4 [256]
-0.031495836 0.025970684 -0.011878248 -0.03507588 0.0070056343 -0.008602564 -0.033903025 -0.0054944996
-0.098339036 0.072935715 -0.024116976 -0.016612634 0.024894753 0.005032254 0.028816376 0.015362506
-0.031274516 -0.05826018 -0.013063139 -0.018406434 0.0028531912 -0.04092116 -0.014663078 0.012373178
-0.026900444 0.021773033 0.007161731 -0.0069487086 0.00012980713 0.024969796 0.03992207 6.318007e-05
-0.02111629 0.02230185 0.030244606 -0.04184416 -0.020946132 0.022513023 0.011285512 -0.040558923
0.006307225 -0.040405594 -0.018747954 -0.016389946 0.007356821 -0.012167529 0.0068372195 0.03070716
-0.054806147 0.006814407 0.07204777 0.020231027 -0.003416046 0.032984227 -0.0061363867 -0.04117132
0.030275015 -0.025865905 0.03571223 -0.024926092 0.02570859 0.034361895 0.010907975 0.019725773
-0.014993661 0.0055421633 0.00082784833 0.014124162 0.077597074 0.028919084 -0.041710887 0.03103622
-0.036461417 -0.015965562 0.05824789 0.024325913 -0.032201264 0.007979937 0.01845414 -0.03909701
0.02634409 0.087224506 0.003287059 -0.020169355 -0.043679602 0.08625966 0.019942928 0.0009956226
-0.03130521 -0.026963927 0.10352473 -0.015134151 -0.05185216 0.0011788032 -0.06951442 0.008320053
0.0025421984 -0.033578448 -0.018916314 -0.024899624 -0.0005205435 -0.011062418 0.035894707 -0.013189038
-0.0044728937 -0.038927115 0.018252062 -0.0043351217 -0.0073017217 0.020975763 0.019829262 0.023862517
0.0043908367 0.007477535 -0.0068708695 0.0024828264 0.10396689 -0.012332724 -0.008562648 0.023596393
0.03010435 0.051654164 -0.022469167 -0.0011197858 0.0304593 0.013808702 0.0059375255 0.012464856
0.037112247 -0.0138738295 -0.04428714 -0.01141926 -0.008327911 -0.0050782193 0.011929723 -0.0033909054
-0.14585112 -0.08889114 0.0068517667 -0.028104141 0.016311344 -0.047629356 0.009565826 -0.035821468
0.05758733 0.023812518 -0.08963988 0.011728579 -0.012332465 -0.019360228 0.01985863 -0.043322068
0.018408498 0.014231876 0.03416686 0.028222237 -0.04444203 -0.054026116 -0.085332505 -0.018910704
-0.06554574 0.083102085 0.033956945 0.030141236 0.025738595 0.0297417 0.0052359663 -0.004342478
-0.011277175 0.06268762 -0.038687386 0.053054344 0.0110183405 -0.020492038 0.003988012 0.004607774
-0.018760506 0.010032409 -0.052339643 0.008443606 -0.017560259 0.009481473 -1.184581e-05 -0.008845968
-0.03222843 0.022563165 -0.0037205366 -0.015738692 0.011684555 -0.009341447 0.00928286 0.062878124
0.05397105 -0.0273982 -0.03773849 0.0049030655 0.03467946 0.06388065 -0.0011661758 -0.00580138
0.017061781 0.20289414 -0.04893705 0.024546875 -0.012687318 -0.025220005 0.02019776 -0.03134591
0.026508445 0.018193293 0.0008199728 -0.02485034 -0.08211813 -0.034262706 0.008124001 0.0361083
0.006423027 -0.022912819 0.07511775 -0.02318932 -0.03263925 0.065831915 0.038849905 -0.023555756
-0.01862223 0.004496376 0.003818085 0.015256924 -0.0018221412 -0.03428443 0.01543445 -0.041240368
-0.012430314 0.06480451 0.06801787 -0.026385998 -0.032357402 0.004336279 -0.0045501827 -0.033506766
0.022768348 -0.0434607 0.008157144 0.019642595 0.040848877 -0.06202388 -0.015533939 0.027896786
0.020633558 -0.09274108 0.0921235 0.03622859 0.005069719 -0.018430721 0.12371834 -0.02076521
00000000: c701 01bd 79c0 d43c fc9c 42bc baab 0fbd
00000010: 858f e53b c5f1 0cbc e6dd 0abd 340b b4bb
00000020: fa65 c9bd 525f 953d f790 c5bc 3817 88bc
00000030: 15f0 cb3c 9be5 a43b 5210 ec3c 05b3 7b3c
00000040: b519 00bd 3aa2 6ebd c706 56bc 17c9 96bc
00000050: 9bfc 3a3b f29c 27bd 683d 70bc dfb8 4a3c
00000060: 525e dcbc 5c5d b23c f4ac ea3b feb1 e3bb
00000070: d61c 0839 758d cc3c 5385 233d 8b7f 8438
00000080: 12fc acbc 5fb2 b63c 89c3 f73c c864 2bbd
00000090: 3997 abbc 3b6d b83c dee6 383c 1d21 26bd
000000a0: d7ac ce3b 5680 25bd 4f95 99bc 3544 86bc
000000b0: 7d11 f13b 515a 47bc c10a e03b 958d fb3c
000000c0: 697c 60bd 644b df3b c88d 933d 8abb a53c
000000d0: bedf 5fbb 781a 073d be13 c9bb 42a3 28bd
000000e0: 4f03 f83c bce4 d3bc fd46 123d ce31 ccbc
000000f0: d29a d23c 0fbf 0c3d 5db7 323c f297 a13c
00000100: f9a7 75bc 099b b53b f603 593a 0769 673c
00000110: 37eb 9e3d b7e7 ec3c 09d9 2abd ac3f fe3c
00000120: 9158 15bd 36ca 82bc 5795 6e3d 2347 c73c
00000130: 79e5 03bd 48be 023c 232d 973c 3024 20bd
00000140: 90cf d73c c3a2 b23d b36b 573b 343a a5bc
00000150: 62e9 32bd e8a8 b03d 5a5f a33c 8d7f 823a
00000160: e439 00bd 74e3 dcbc c604 d43d 3bf5 77bc
00000170: ee62 54bd 1282 9a3a 945d 8ebd d550 083c
00000180: 039b 263b 8e89 09bd 63f6 9abc 4cfa cbbc
00000190: 1575 08ba 253f 35bc 5406 133d d616 58bc
000001a0: 5a91 92bb 0a72 1fbd 5985 953c a30d 8ebb
000001b0: 4843 efbb 5dd5 ab3c fa70 a23c 537b c33c
000001c0: 02e1 8f3b 1c06 f53b 0825 e1bb eab6 223b
000001d0: 98ec d43d 320f 4abc 594a 0cbc 394d c13c
000001e0: 669d f63c 5193 533d 4211 b8bc c7c5 92ba
000001f0: c885 f93c e53d 623c 938f c23b 6539 4c3c
00000200: 0303 183d 0f4f 63bc 6f66 35bd d917 3bbc
00000210: ca71 08bc 3167 a6bb e374 433c f439 5ebb
00000220: ff59 15be 8f0c b6bd c984 e03b a83a e6bc
00000230: 5e9f 853c 0017 43bd fbb9 1c3c 88b9 12bd
00000240: b1e0 6b3d 7812 c33c 1d95 b7bd 3a29 403c
00000250: 1b0e 4abc 5799 9ebc 91ae a23c 7b72 31bd
00000260: 6bcd 963c d02c 693c 8df2 0b3d 5232 e73c
00000270: d908 36bd 7d4a 5dbd cfc2 aebd 9fea 9abc
00000280: d83c 86bd 6d31 aa3d 7016 0b3d c1ea f63c
00000290: bfd9 d23c dea4 f33c 7892 ab3b 584b 8ebb
000002a0: e6c3 38bc 5e62 803d aa76 1ebd 834f 593d
000002b0: 4586 343c ebde a7bc dfad 823b cffc 963b
000002c0: a2af 99bc f95e 243c 1862 56bd 0d57 0a3c
000002d0: 88da 8fbc 2e58 1b3c 5ebd 46b7 aeee 10bc
000002e0: f501 04bd 63d6 b83c 3fd4 73bb 6eee 80bc
000002f0: 9370 3f3c de0c 19bc 2317 183c 3fc6 803d
00000300: bf10 5d3d 3172 e0bc ad93 1abd e5a9 a03b
00000310: 0d0c 0e3d dcd3 823d 5eda 98ba 8119 bebb
00000320: 26c5 8b3c 7bc3 4f3e 3772 48bd 8716 c93c
00000330: 78de 4fbc 2f9a cebc c675 a53c 9264 00bd
00000340: 3d28 d93c 1a0a 953c 71f3 563a f192 cbbc
00000350: 8d2d a8bd 0d57 0cbd 881a 053c 4ce6 133d
00000360: 4178 d23b aab3 bbbc 56d7 993d 87f7 bdbc
00000370: bcb0 05bd e2d2 863d 1421 1f3d 00f8 c0bc
00000380: a68d 98bc 5656 933b d638 7a3b 2df8 793c
00000390: ead4 eeba d56d 0cbd c6e0 7c3c a9eb 28bd
000003a0: 84a8 4bbc 3ab8 843d f44c 8b3d 7327 d8bc
000003b0: 3289 04bd 5817 8e3b b319 95bb 643e 09bd
000003c0: b084 ba3c d903 32bd 8ba5 053c 82e9 a03c
000003d0: 2751 273d c10c 7ebd 1082 7ebc cd87 e43c
000003e0: b507 a93c 09ef bdbd 3fab bc3d 6e64 143d
000003f0: e31f a63b 06fc 96bc 0b60 fd3d cd1b aabc

weight f4 [64, 256]
0.14835194 -0.22861357 -0.32172582 -0.0038879528 -0.030736655 -0.23079145 0.24555975 0.072349764
-0.028113894 -0.024769472 -0.02199026 0.09205444 0.036703873 -0.014272035 0.25971362 -0.088149436
-0.062326055 0.055360463 0.30082822 0.08647913 0.21515521 -0.15106687 0.16819856 -0.2775133
-0.030721078 0.028852437 0.06449557 -0.13009284 -0.046559364 0.36493132 -0.25333259 0.040883586
-0.19283299 0.046057377 -0.015681263 -0.1435843 0.25639609 0.030493233 -0.02952352 0.15188639
0.18735196 -0.058643274 0.16423732 0.060301635 0.109459 -0.41569003 -0.2309851 0.097772576
0.051911056 -0.044106256 0.18438683 -0.20498614 0.044648346 0.13356006 -0.13722497 0.06590992
-0.02174481 0.33252206 -0.061467428 0.2633809 0.033513125 0.05662379 -0.09160129 -0.14979556
0.021437977 0.034399778 0.17106082 0.05727788 -0.04935483 0.027683634 -0.06998916 0.06750566
0.23220545 -0.1257514 0.030471796 -0.007111811 -0.104385786 0.12500699 0.020201733 -0.18021752
0.10069478 0.08784482 0.13567606 0.02527097 0.0002773985 -0.19332339 -0.04063278 0.056514774
-0.24988177 -0.21355067 -0.16012758 0.015467453 0.11125813 -0.036739174 0.0037494227 0.08185782
0.039975706 0.1312482 0.09470789 0.38384944 -0.024818595 -0.015742434 -0.08853975 -0.08025272
-0.013189404 0.09185024 -0.35757822 -0.06335591 -0.02027773 0.06885523 -0.01249682 -0.13449621
0.20468009 0.0009816269 0.24476127 -0.12016658 0.19460897 0.22004691 -0.05600567 -0.07432322
0.066037804 0.012859967 0.23195602 0.29871 -0.05050152 0.08309199 0.25102365 -0.28567678
0.25041157 -0.3290144 0.08844939 -0.187906 0.092425406 -0.012962139 -0.15440731 0.11620094
-0.075724475 0.028402882 0.081033826 0.13293187 -0.037495274 0.085454434 0.0007926638 -0.058442853
0.2038452 0.09824008 0.14420784 -0.14641427 -0.24014336 -0.21433698 -0.29145417 -0.18892123
-0.043714907 -0.47785956 0.14312726 -0.03270161 0.3849509 0.10731417 0.11484959 -0.028798297
0.23925531 -0.036716186 -0.18665363 -0.057262998 0.058824517 -0.018913541 0.03695921 -0.071053095
0.144883 0.15655808 0.15606742 -0.2763178 0.042082276 0.23566642 -0.29887232 -0.10777
0.09755563 -0.10741799 0.1696479 -0.042740572 0.4298416 -0.029682701 -0.1476468 0.15889543
-0.20150886 -0.100846566 0.037974305 -0.15483154 0.023406625 -0.52638716 0.14003411 0.14584045
-0.16218694 0.1225239 -0.024290172 -0.030632501 -0.17649265 -0.31799006 -0.14493182 0.05248629
-0.1872787 -0.109817035 0.08562471 0.008686573 -0.21072033 -0.065451115 -0.048502106 -0.1989696
-0.027702402 0.19133534 0.18048283 0.2042706 -0.023474209 0.034005724 -0.1582574 -0.14521839
-0.108540565 -0.053689368 -0.03260165 -0.13942961 0.03991446 0.14994799 0.056292176 0.031424467
0.13352036 -0.110595144 0.04718699 -0.06945909 -0.08964684 0.057350066 0.124183364 0.30353978
0.032872222 -0.23345558 0.09684123 -0.15103815 -0.08612849 0.020146176 -0.21934347 -0.0018261486
-0.062680475 0.1794299 0.13192058 -0.003896053 0.21778278 0.2612907 -0.05249215 0.06594518
0.010797587 0.37622923 -0.11176981 0.1400807 0.13420735 -0.0081233615 0.001598336 0.031468235
00000000: 92e9 173e ad19 6abe 3fb9 a4be 06cd 7ebb
00000010: 70cb fbbc 9854 6cbe 0474 7b3e 1d2c 943d
00000020: 1c4f e6bc 59e9 cabc eb24 b4bc 0a87 bc3d
00000030: cd56 163d 41d5 69bc 2ff9 843e b187 b4bd
00000040: 9b49 7fbd a7c1 623d 2806 9a3e f81b b13d
00000050: a651 5c3e 46b1 1abe 3e3c 2c3e 3916 8ebe
00000060: c5aa fbbc f25b ec3c 4116 843d 0f37 05be
00000070: 08b5 3ebd 47d8 ba3e cfb4 81be 8c75 273d
00000080: 0376 45be a9a6 3c3d fe75 80bc c307 13be
00000090: 5946 833e f2cc f93c 4fdb f1bc 1b88 1b3e
000000a0: 31d9 3f3e ee33 70bd d42d 283e d9fe 763d
000000b0: 0a2c e03d 53d5 d4be 5c87 6cbe fd3c c83d
000000c0: b0a0 543d c3a8 34bd e7cf 3c3e e3e7 51be
000000d0: 2fe1 363d f8c3 083e b484 0cbe c8fb 863d
000000e0: 2c22 b2bc 5540 aa3e 45c5 7bbd dcd9 863e
000000f0: 0f45 093d 59ee 673d 7599 bbbd 0264 19be
00000100: b29e af3c c8e6 0c3d 912a 2f3e 369c 6a3d
00000110: 4a28 4abd cac8 e23c 7a56 8fbd 6840 8a3d
00000120: 44c7 6d3e fac4 00be fd9f f93c 320a e9bb
00000130: 37c8 d5bd d501 003e 1b7e a53c f18a 38be
00000140: 1139 ce3d fce7 b33d aaee 0a3e 1105 cf3c
00000150: cc6f 9139 91f6 45be 8f6e 26bd 097c 673d
00000160: 02e1 7fbe 07ad 5abe 7cf8 23be 336b 7d3c
00000170: 4ddb e33d d17b 16bd e0b8 753b 13a5 a73d
00000180: 91bd 233d ee65 063e 36f6 c13d ea87 c43e
00000190: 5e50 cbbc 47f6 80bc 5454 b5bd 8a5b a4bd
000001a0: 5f18 58bc fb1b bc3d 7e14 b7be bec0 81bd
000001b0: 7b1d a6bc f903 8d3d 76bf 4cbc 60b9 09be
000001c0: a897 513e efa9 803a b3a2 7a3e e519 f6bd
000001d0: 9347 473e fa53 613e 3466 65bd c636 98bd
000001e0: d43e 873d 9cb2 523c e185 6d3e 84f0 983e
000001f0: afda 4ebd 222c aa3d 2c86 803e 3a44 92be
00000200: f235 803e 9374 a8be f424 b53d 6e6a 40be
00000210: 8849 bd3d 275f 54bc f31c 1ebe c2fa ed3d
00000220: 6f15 9bbd 29ad e83c 10f5 a53d 4b1f 083e
00000230: a594 19bd bc02 af3d c4ca 4f3a c661 6fbd
00000240: ccbc 503e 1832 c93d 38ab 133e 9fed 15be
00000250: 24e8 75be 277b 5bbe 7b39 95be 9174 41be
00000260: 670e 33bd 02aa f4be f48f 123e 20f2 05bd
00000270: 4918 c53e 88c7 db3d 4336 eb3d 68ea ebbc
00000280: 58ff 743e b663 16bd 2122 3fbe 9b8c 6abd
00000290: faf1 703d 92f0 9abc 8a62 173d 4984 91bd
000002a0: 365c 143e c350 203e 23d0 1f3e 8779 8dbe
000002b0: 775e 2c3d 8a52 713e cb05 99be 85b6 dcbd
000002c0: 3fcb c73d f7fd dbbd 2eb8 2d3e bd10 2fbd
000002d0: 3314 dc3e 2329 f3bc b930 17be 7cb5 223e
000002e0: 5758 4ebe a588 cebd f28a 1b3d 298c 1ebe
000002f0: 40bf bf3c 4fc1 06bf 1a65 0f3e 3357 153e
00000300: 5514 26be cfed fa3d 2ffc c6bc 03f1 fabc
00000310: 7dba 34be 98cf a2be 0269 14be ddfb 563d
00000320: fdc5 3fbe c1e7 e0bd 025c af3d 2152 0e3c
00000330: 12c7 57be 3c0b 86bd 25aa 46bd b0be 4bbe
00000340: 26f0 e2bc 69ed 433e 7ed0 383e 502c 513e
00000350: fc4c c0bc 9649 0b3d 3a0e 22be 21b4 14be
00000360: 844a debd 62e9 5bbd 4f89 05bd a3c6 0ebe
00000370: 587d 233d f78b 193e a092 663d f1b6 003d
00000380: 90b9 083e b57f e2bd 2547 413d 9140 8ebd
00000390: c398 b7bd e7e7 6a3d d953 fe3d 9169 9b3e
000003a0: 06a5 063d fb0e 6fbe b254 c63d bfa9 1abe
000003b0: 2264 b0bd 9809 a53c 939b 60be 615b efba
000003c0: 9f5e 80bd 79bc 373e 3016 073e ec54 7fbb
000003d0: 7302 5f3e e5c7 853e 0202 57bd 440e 873d
000003e0: 5de8 303c 1ea1 c03e 92e7 e4bd 5171 0f3e
000003f0: a76d 093e d917 05bc 427f d13a d6e4 003d

bias f4 [64]
0.010661979 0.034112807 -0.047500826 -0.031317256 0.017746484 -0.071870886 0.011704821 0.04860152
0.032282297 -0.032507572 -0.065207936 0.0024924602 0.02093151 -0.037433557 0.044802293 0.0149532985
-0.004145841 -0.041473478 0.018320583 -0.0010806432 -0.061213247 0.016570233 -0.042345904 -0.015350378
0.020145733 -0.009832496 0.028753098 -0.0053419746 -0.04436802 0.04417783 -0.024746139 -0.079168305
-0.035194654 0.03437096 0.00056482817 0.0055420157 -0.049438115 -0.049713973 0.029865663 -0.07206161
0.008193612 -0.06227296 -0.07138801 0.0031544105 -0.03793827 -0.052315123 0.020794883 -0.02497732
0.006132702 -0.05209066 -0.0931584 0.0002130542 -0.032332953 0.008682721 -0.008860699 -0.0044420296
0.007598577 -0.04477487 -0.046804227 0.029831287 -0.07825062 -0.013725875 -0.04897434 -0.061966877
00000000: 95af 2e3c dfb9 0b3d 3a90 42bd 8646 00bd
00000010: 1361 913c 0b31 93bd 94c5 3f3c 6312 473d
00000020: 713a 043d a926 05bd bd8b 85bd 8b58 233b
00000030: 8f78 ab3c ee53 19bd 9c82 373d aefe 743c
00000040: d6d9 87bb 18e0 29bd 0c15 963c 5ea4 8dba
00000050: beba 7abd 4cbe 873c e672 2dbd 2780 7bbc
00000060: aa08 a53c 7a18 21bc 9e8b eb3c bb0b afbb
00000070: 3ebb 35bd d0f3 343d 6ab8 cabc fe22 a2bd
00000080: 4528 10bd 90c8 0c3d fa10 143a cc99 b53b
00000090: 9f7f 4abd e1a0 4bbd d6a8 f43c 0a95 93bd
000000a0: 803e 063c ee11 7fbd e133 92bd 3aba 4e3b
000000b0: 2965 1bbd 6248 56bd 085a aa3c 3d9d ccbc
000000c0: d5f4 c83b 045d 55bd d5c9 bebd 4d67 5f39
000000d0: 8f6f 04bd f941 0e3c 772c 11bc 728e 91bb
000000e0: 7cfd f83b db65 37bd cab5 3fbd be60 f43c
000000f0: dc41 a0bd 7ee2 60bc 5199 48bd fbd0 7dbd

weight f4 [1, 64]
0.4037796 -0.22067286 0.28888145 -0.14598304 0.31658483 -0.39279166 -0.41993445 0.07725431
0.2496219 0.38363564 -0.2686112 -0.41857782 -0.45326954 -0.25966775 0.42466706 0.39529073
0.22907344 -0.3078744 -0.18135123 -0.17182806 -0.31734473 -0.23008387 -0.27083868 0.5964443
-0.42930913 0.47424418 0.3182253 -0.28856543 0.43389696 0.35009855 0.33144647 -0.35108995
0.32234374 -0.24966685 0.2867626 -0.24770465 -0.18941912 -0.2578045 0.46713275 -0.2752963
-0.18475986 -0.27177176 -0.3183463 -0.25083432 0.40428197 -0.08671569 0.38785058 -0.3023317
0.35623255 0.3455893 0.210693 0.27341136 -0.20702688 0.37513277 -0.36618116 0.30347964
-0.12287756 -0.34500602 0.42290032 0.4171537 0.22497278 0.37517315 -0.34395945 -0.29980275
00000000: 33bc ce3e 11f8 61be 45e8 933e 947c 15be
00000010: 6817 a23e fd1b c9be a601 d7be 8237 9e3d
00000020: e29c 7f3e e46b c43e 6887 89be d54f d6be
00000030: f212 e8be 2cf3 84be f66d d93e 8c63 ca3e
00000040: 3a92 6a3e b7a1 9dbe 23b4 39be b2f3 2fbe
00000050: 027b a2be 1b9b 6bbe 5eab 8abe 93b0 183f
00000060: 68ce dbbe 22d0 f23e 6dee a23e d9be 93be
00000070: be27 de3e 1e40 b33e 5ab3 a93e 10c2 b3be
00000080: 3d0a a53e aba8 7fbe 8cd2 923e 4aa6 7dbe
00000090: 16f7 41be f4fe 83be 062c ef3e a3f3 8cbe
000000a0: b031 3dbe ab25 8bbe 49fe a2be 5b6d 80be
000000b0: 0cfe ce3e ff97 b1bd 5a94 c63e 38cb 9abe
000000c0: 1d64 b63e 15f1 b03e e8bf 573e 93fc 8b3e
000000d0: dbfe 53be 6711 c03e 197c bbbe af61 9b3e
000000e0: 3ba7 fbbd a1a4 b0be 6486 d83e 2b95 d53e
000000f0: 445f 663e b216 c03e 741b b0be bf7f 99be
