test/ens_models/ens_model_5_CA.pt (torch, 654739 bytes, 6 tensors)

weight f4 [20, 10]
000000 3e 0e 4f 3d 4f 09 52 3e c3 f7 4c bd 07 e2 59 be
       0.05055069 0.20511363 -0.05004097 -0.21277629
000010 98 c6 1c bf e2 cf 1b 3e f0 50 d1 bd 24 f9 18 3f
       -0.6124053 0.1521602 -0.10220516 0.5975516
000020 dd 15 13 bf 97 ef 0a bf 93 87 0a be d5 ba 79 bf
       -0.57455236 -0.54271835 -0.1352828 -0.9755071
000030 7a 8c 46 3f 91 7f 41 3f 67 39 31 bf 76 fc 88 3e
       0.775581 0.75585276 -0.69228214 0.26755112
000040 3b cc c5 bc 2f 9e ea be e7 9e 5b 3e 0f b4 67 bf
       -0.024145236 -0.4582381 0.21447335 -0.9050912
000050 a5 8f 33 be b2 9b 48 3f 91 3d e8 be ac b6 d2 be
       -0.17535265 0.7836257 -0.4535947 -0.41154993
000060 89 be ad be f3 54 a6 3e d7 66 c7 be fa 96 59 bf
       -0.3393443 0.32486686 -0.38945648 -0.84995997
000070 91 68 07 bf a2 b5 3b 3f 53 d8 ca be 8f 08 d6 3d
       -0.5289393 0.73324025 -0.39618167 0.10450851
000080 18 53 c9 3e 79 66 3f be 75 2e 3d be 57 3a 2e bf
       0.39321208 -0.18691434 -0.18474753 -0.6805777
000090 fc 25 e3 3e c3 71 52 bf 73 2f 04 3f ae 9a 9a 3e
       0.44364917 -0.82204837 0.516349 0.30196136
0000a0 7d 9c 4c bf cc 68 5a bf f6 7e fe 3e 90 8c 1d 3d
       -0.7992628 -0.8531616 0.49706239 0.03846413
0000b0 d0 39 06 be fb a4 26 bd 52 c5 81 3c d0 b8 93 3e
       -0.13107991 -0.04068468 0.01584116 0.28851938
0000c0 29 ca 02 bf e4 74 13 3f be 3b b7 3d 9b d6 d7 3d
       -0.5108972 0.57600236 0.08946942 0.105389796
0000d0 54 18 d4 bd 9b f8 9c 3f 1b 05 13 be cc 2a 89 3e
       -0.10356203 1.2263368 -0.14357416 0.26790464
0000e0 5f 79 49 bf e9 b8 03 3f bc 21 04 be 46 17 00 3e
       -0.7870082 0.51454026 -0.12903494 0.12508878
0000f0 03 61 05 3e 41 7a 5e 3f 65 af e9 be 7f 29 f3 3e
       0.13025288 0.86905295 -0.45641628 0.47492597
000100 df e2 9a bd 60 f4 59 3f ac 29 9d 3c f8 14 83 3e
       -0.075628035 0.8513851 0.01918491 0.25601935
000110 35 d7 46 be 2f d2 92 3e a3 06 92 be 00 d9 d4 bd
       -0.19418032 0.28675982 -0.28520688 -0.10392952
000120 2a ba 5d bd 22 b9 aa be 07 54 45 3d fd 61 43 be
       -0.054132618 -0.3334437 0.048175838 -0.19080348
000130 38 a3 22 be cd 2a 72 3e 81 50 81 3e 81 19 55 be
       -0.15882576 0.2364914 0.25256732 -0.2081051
000140 17 ab 53 3f d7 f9 ab 3e b0 16 5c 3f 82 77 03 be
       0.8268294 0.3358905 0.8597212 -0.12838557
000150 a3 e3 f6 3e 2c 9f a7 3e 61 2b 22 be d7 e1 12 bf
       0.48220548 0.32738626 -0.1583686 -0.57375854
000160 76 a4 af 3e 50 01 83 3e 4f a0 a2 be 1b e0 ba bf
       0.3430516 0.2558694 -0.3176293 -1.4599642
000170 af de 87 3e 3d a5 5b 3e 64 b5 c6 bd 26 b4 19 3f
       0.26537082 0.21449752 -0.09702566 0.6004051
000180 36 3a a5 3e b3 13 aa be 11 12 2b bf a3 65 36 bf
       0.32270974 -0.33218154 -0.6682444 -0.71248835
000190 3c 39 21 3f c1 e5 4f 3e 11 5a 0b bf cf 71 17 be
       0.6297796 0.20302488 -0.54434305 -0.14789508
0001a0 53 37 89 3f 69 31 08 3e 6b 31 c4 be 60 a3 6c 3d
       1.0720009 0.13300098 -0.38318953 0.057772994
0001b0 5c f5 82 be 7e 46 c4 be 31 b5 08 bf 9c 66 8e be
       -0.2557782 -0.3833503 -0.53401476 -0.2781266
0001c0 dc 17 3e bf 49 d2 e7 be 7e ed 13 be 92 7e 83 be
       -0.74255157 -0.45277622 -0.14446065 -0.25682503
0001d0 b4 ac 09 be 91 c1 ea bc bd eb 9f be a4 50 0b bf
       -0.13444787 -0.028656753 -0.31234542 -0.5441992
0001e0 b1 5c 10 3f 12 39 e6 be 47 0f 76 bf 53 2e 30 bd
       0.56391436 -0.44965416 -0.9611706 -0.04301293
0001f0 38 b1 94 3e b0 37 fb 3e bb 77 c5 3e aa 27 93 bf
       0.29041457 0.49065924 0.3856791 -1.149648
000200 64 2e aa be 24 73 42 bf b8 4a c3 3e b8 8a 76 be
       -0.33238518 -0.7595694 0.38142943 -0.24076355
000210 0b 9a a0 bd 6a 73 48 bf b5 08 25 bf eb ae fc bc
       -0.07841881 -0.7830111 -0.6446641 -0.030845126
000220 33 58 2a 3f 6e 9c 36 3f 99 e4 12 3f 15 2d 07 3f
       0.6654083 0.7133244 0.5738006 0.52803165
000230 0e f0 0f be 90 1e c2 3e f3 44 95 3e 1e 1c a3 be
       -0.14056417 0.37913942 0.29154167 -0.3185739
000240 fc fc c9 3e d9 d8 0c 3f 0a 44 31 bf 95 11 da bd
       0.39450824 0.55018383 -0.69244444 -0.10647885
000250 bf 00 1e 3f 2f 04 e2 be 81 81 66 3e 9f 48 3d bd
       0.6171989 -0.44143817 0.2251034 -0.046211835
000260 df 64 c9 be 82 ce 6d 3f 48 b1 60 bd e4 1a 03 bf
       -0.3933477 0.9289323 -0.05485657 -0.51212907
000270 8d 3a 6b 3f 2e 76 4d 3d 97 2b 8d 3e bc 87 f8 be
       0.91886216 0.050161533 0.2757232 -0.48541057
000280 da 01 8f 3e e4 ea 1a 3f 2f fc 63 3e 42 43 ba 3e
       0.279311 0.60514665 0.22264169 0.3637944
000290 88 74 24 3f 85 e0 63 bf c2 c3 bc 3c fb ce 6d bc
       0.6424031 -0.89014465 0.023042563 -0.01451468
0002a0 e0 82 10 be f4 e8 13 3f 3d 43 b5 3f 29 0e 71 bf
       -0.14112425 0.57777333 1.4161144 -0.9416223
0002b0 53 2a 26 be ba 6d de be 85 5a f7 be 6b 92 99 3b
       -0.16227083 -0.4344309 -0.48311248 0.004686644
0002c0 fe 78 42 be bf 0d d3 be 80 23 00 bf 53 7b 8a 3d
       -0.18991467 -0.41221425 -0.5005417 0.067618035
0002d0 4f 45 96 3e 67 34 58 bf 6d fe 60 3e 4e a7 a1 be
       0.29349753 -0.8445496 0.21972056 -0.31572956
0002e0 6b e5 37 bf 23 fa 22 bf d4 17 db 3b 50 a8 b8 3e
       -0.7183444 -0.6366293 0.00668619 0.36065912
0002f0 3c b1 ed bd df 08 d5 3e a2 44 fe bb 61 d5 20 3f
       -0.116060704 0.4160833 -0.0077596465 0.6282559
000300 36 30 12 3f 85 20 22 bc 79 09 d3 be 06 93 9b be
       0.57104814 -0.009895449 -0.41218165 -0.30385607
000310 ca e8 ba 3e db d6 44 3f 54 ff 0b bf 25 5d 08 be
       0.3650573 0.76890343 -0.54686475 -0.13316782

weight f4 [256, 570]
000000 b2 ee 51 3b f1 b5 02 bd 80 d1 1d bd a3 d3 23 be
       0.0032033143 -0.031911794 -0.038529873 -0.15998702
000010 b9 ce 43 be 5a 62 39 3d 24 95 5f 3e 1c f1 54 3d
       -0.19121827 0.04525981 0.21834236 0.051987752
000020 43 d3 9b bd a6 e3 f0 3c 75 d4 e1 3e 34 3b 21 3f
       -0.07608654 0.029405426 0.44107404 0.6298096
000030 90 b7 e5 3c bb 02 0c 3f a8 9d 5a 3f b6 da 54 3f
       0.028041631 0.54691666 0.85396814 0.83146226
000040 e0 72 1f 3e 68 99 c9 3d 5a ae 82 bc 31 0c 17 3b
       0.15571165 0.09843713 -0.015952278 0.0023048038
000050 4b e2 87 bc 49 b1 3c 3e a3 8d d5 bd a0 8a 72 ba
       -0.016587397 0.18427004 -0.10427406 -0.0009252224
000060 4b 5e 6c 3d 2d 54 c7 3d 44 da f0 3e 81 a1 b6 bc
       0.057707112 0.09732852 0.47041523 -0.022293808
000070 1e da 45 3f c2 bb a7 3e 5a 58 e7 3e 57 05 01 3e
       0.77285945 0.32760435 0.45184594 0.12599693
000080 af 8a 1a be 03 fb b5 bd 79 6a 5f bd e9 d0 d8 bc
       -0.15091966 -0.08885767 -0.0545449 -0.026466804
000090 f2 63 a8 ba 64 32 da 3d 0b 21 f6 bd 55 c9 18 3e
       -0.0012847169 0.106541425 -0.12018021 0.14920552
0000a0 9a fe 64 3f 4b 6b 90 be 24 2d 24 3f d8 74 a8 be
       0.8945099 -0.28206858 0.6413138 -0.32901645
0000b0 1f d0 1b bf 3a 6f a6 be 1d a6 d6 3d e0 ce 0f 3f
       -0.6086444 -0.32506734 0.10480902 0.5617504
0000c0 9f 7e ad 3c 6a 98 bd bc 5b fb 2f 3d ee c5 6a 3f
       0.021178542 -0.023143966 0.04296432 0.91708267
0000d0 80 3a 03 3e 81 de 34 3c 6f e6 6b bc 54 22 cb bb
       0.12815285 0.011039377 -0.014398201 -0.0061991606
0000e0 42 bf 5e be 2e cd cf 3e 52 1d 0a 3c ee c6 91 3d
       -0.21752647 0.40586227 0.008429842 0.07118021
0000f0 00 87 9d be c3 23 0d bf 65 e8 16 be eb 93 83 bf
       -0.3076706 -0.55132693 -0.14737089 -1.0279516
000100 cc 6d 83 3c 3c f2 d6 3c dc 4b 25 3c ed a0 64 bc
       0.016043566 0.026238553 0.010088887 -0.013954383
000110 7e ac 9c bc 1d 49 98 bc 7b 2f e6 3d d2 b3 05 3e
       -0.01912522 -0.01858955 0.11239525 0.13056877
000120 5c 1e 3d be 75 e3 0c bf 7c d4 04 c0 24 e4 e3 bf
       -0.18468612 -0.5503457 -2.075469 -1.7803998
000130 e3 e5 8e 3d 9c 94 95 3d a6 1e 02 40 52 f6 b1 3d
       0.06977441 0.073037356 2.0331206 0.0868956
000140 06 9b 05 bd 52 ff e0 bd 68 f6 17 bc 7d 20 a0 bd
       -0.032618545 -0.109861985 -0.009275056 -0.07818697
000150 1c 84 95 bd ad 1b fa bd f2 9c 72 bc 9b 56 a1 3d
       -0.073005885 -0.1221231 -0.0148079265 0.07877847
000160 d0 1e 9f 3c 36 f4 22 bd a9 39 be bd 20 52 1f 3e
       0.019423872 -0.03978368 -0.092883416 0.15558672
000170 33 a4 6b 3e 29 de de bd 64 5c 01 3d a5 4c ee 3d
       0.23011856 -0.108822174 0.03158225 0.116357125
000180 60 08 2b be 2e e2 74 be 85 94 b9 bd ff e2 81 3c
       -0.16702414 -0.23914406 -0.09061531 0.01585531
000190 57 36 33 bd 62 c5 d2 3d 17 c8 8a 3c 0c b0 4a 3e
       -0.043752994 0.10291554 0.016941113 0.19793719
0001a0 9d a0 4e 3e c6 b2 b7 3e 0c 10 e1 3c a6 55 4f 3e
       0.20178457 0.3587858 0.027473472 0.20247516
0001b0 b9 7a 18 3f fc dd 93 3e e0 d2 3d bf e7 91 96 bf
       0.5956226 0.28880298 -0.74149895 -1.1763276
0001c0 eb e0 fb 3f 56 c8 03 be 97 55 de 3d 38 7c 90 3e
       1.9678015 -0.12869391 0.10856169 0.2821977
0001d0 ad e9 c3 3e 7c 8f 25 be d5 d2 27 3d e0 c3 8b 3e
       0.38264218 -0.16168016 0.04097255 0.27297878
0001e0 2f c4 9a bd 3f b4 d1 bd 7e 7b d6 3b 34 89 0e 3e
       -0.0755695 -0.10239457 0.006545483 0.13919526
0001f0 d4 9f 85 3d 8f 15 4a bb 1e 6c 00 bd 88 ae c9 3c
       0.065246254 -0.0030835604 -0.03135311 0.024619356
000200 6f b1 8c 3d e1 d2 51 3b 58 b6 8e 3d 78 48 ad bd
       0.0686978 0.0032016563 0.06968373 -0.08461088
000210 5d a1 f6 bc 2a da 9f bc 33 45 ef 3d 7d 8c a1 3d
       -0.03010624 -0.019513208 0.116831206 0.07888124
000220 0c d9 c0 3e a5 db 72 3e 37 ac 82 bd 8e 4f 14 bf
       0.37665594 0.237166 -0.063805036 -0.5793389
000230 ae 25 60 3f 6e a3 5c 3f 53 2e 22 bf bb d2 8a bf
       0.87557495 0.86186874 -0.63351935 -1.084556
000240 a4 36 0b 3e e3 aa 80 bd 19 f4 1c bd 59 18 11 3d
       0.13595062 -0.06282594 -0.038318727 0.03542361
000250 71 45 a5 bd af 75 8d bc 40 9c d8 bc 3a 58 34 3d
       -0.080698855 -0.01726803 -0.026441693 0.044029452
000260 23 1c 93 bd a1 15 11 3d a9 b2 67 bd d2 76 9a be
       -0.07183101 0.035421018 -0.056566868 -0.30168778
000270 96 a9 a4 bd 44 f6 aa 3d 02 05 2b bc 09 20 4a be
       -0.080401585 0.08347753 -0.010438206 -0.19738783
000280 a2 54 8e 3e 5e 5f df bc 75 e1 9d 3d d2 d7 91 bd
       0.27798945 -0.027267154 0.07709018 -0.071212426
000290 1a 8c 90 3d 18 02 28 be 47 6a 47 3e f8 b5 53 3d
       0.07057972 -0.16407049 0.19474135 0.05168721
0002a0 79 b6 81 bd 5a 21 4c bd ec 26 d9 3c 9e 87 1b 3e
       -0.06333632 -0.049836494 0.026507817 0.15188453
0002b0 76 2e b9 be 36 60 eb be 85 6c 10 bf 63 e6 5c 3f
       -0.3616826 -0.4597184 -0.5641559 0.8628904
0002c0 20 04 24 3d 52 30 24 3e ea 05 a1 bc bd 49 33 be
       0.040042996 0.16034058 -0.01965614 -0.17508598
0002d0 b2 fb 4a bf cb b7 66 bd 0d e0 aa 3a a2 aa 56 be
       -0.79290307 -0.056327622 0.0013036743 -0.20963529
0002e0 f2 72 5d be 80 e4 43 be 68 a0 29 3d d2 22 cf bd
       -0.2162588 -0.19130135 0.04141274 -0.10114063
0002f0 ec 0e a0 3e 32 55 f0 bd 23 c3 87 3d 6c a8 de bd
       0.31261384 -0.11735 0.06629016 -0.10871968
000300 37 32 0b 3d 5d af 19 bd fc fd 03 3c 19 e2 08 bf
       0.033983435 -0.037520755 0.00805616 -0.5347
000310 4b 3d 03 3f 55 d6 95 3d 3f f4 a0 3d 05 e3 ca bd
       0.512654 0.07316271 0.07859086 -0.09906582
000320 87 00 ad 3e fa 09 1d be 2e fa e4 3d 7a 1b ac 3e
       0.33789465 -0.15335837 0.111805305 0.33614713
000330 a7 77 a5 be 4d 0f 00 be da 07 24 be 3e ff d5 be
       -0.3231785 -0.12505837 -0.1601862 -0.41796297
000340 25 2c d7 3c 81 9b 7c 3c b7 82 a8 bc a8 b1 94 bc
       0.026266167 0.015417934 -0.020570142 -0.01815112
000350 1a 2e 4a 3c 92 61 39 3e b2 60 d7 bd 3e cf 24 3c
       0.012340093 0.18103626 -0.1051649 0.010059176
000360 bb a2 c5 bd 14 8a f4 3e 05 b2 e2 be 70 0f a1 3f
       -0.09650179 0.47761595 -0.44276443 1.2582836
000370 24 7e 82 3e 11 6d 5c 3e da a8 eb be 0a a1 d5 3f
       0.25486863 0.2152598 -0.4602726 1.668977
000380 6e ca 5f bc 02 67 c0 3d 8e 51 0c bf f4 1c cc 3f
       -0.013659103 0.09394647 -0.5481194 1.5946336
000390 99 37 93 bc 67 22 a8 3e 50 b5 cb bd 9d ea 27 bf
       -0.017970847 0.32838747 -0.09946692 -0.65592366
0003a0 a4 96 3c 3f b5 bb a5 3e af b2 96 be 1d 99 58 bf
       0.7366736 0.32369772 -0.294332 -0.8460863
0003b0 a0 5a 31 3f 18 a6 83 3f c6 81 05 3e 9c 78 3d bf
       0.6927891 1.0285063 0.13037786 -0.7401216
0003c0 00 f9 4f 3d e9 d4 2c 3e fa 94 27 be fd 8d 2f be
       0.050774574 0.16878094 -0.16365424 -0.17144008
0003d0 f8 2a 54 3f 35 ef 6e 3e 85 4f 90 bd c8 0d 1a be
       0.82878065 0.23333438 -0.07046417 -0.1504432
0003e0 32 05 8f 3e f0 39 88 3e 4f 46 8b bd 83 24 1b be
       0.2793365 0.26606703 -0.0680052 -0.15150647
0003f0 68 f6 11 3c d5 e4 37 bd d2 a6 88 3d 8f 03 55 be
       0.0089088455 -0.044895966 0.066724434 -0.20802139

bias f4 [256]
000000 fd b5 26 3a ab 60 66 3c b6 4a 6b bb ce af 86 3d
       0.0006359516 0.014061133 -0.0035902685 0.06576501
000010 e5 05 db bb 33 3e cc bc 38 cb 99 3a ba 99 70 3c
       -0.0066840523 -0.024932003 0.0011733538 0.014685089
000020 05 24 f6 3b e8 a2 15 3d 83 46 20 3a dd 00 1f 3b
       0.007511618 0.036532313 0.00061140227 0.002426199
000030 3c 53 bb 3c da 2d 09 3c e3 8d bb bc 3a a0 c4 3c
       0.022866838 0.008372748 -0.022894805 0.024002183
000040 c2 7b 0d 3d e9 13 be 3c b2 f5 10 bb c3 aa 1d 3d
       0.034541853 0.023202853 -0.0022119102 0.03849293
000050 04 40 a6 bc 38 19 8c bc 3d 9b e3 3c e8 c7 9e 3d
       -0.020294197 -0.017101869 0.027783984 0.07752973
000060 20 ab e1 3c 71 ef 3f 3c 1d a5 23 3d 0c 9a 92 ba
       0.02754742 0.011714802 0.039952386 -0.0011184826
000070 82 79 ac 3a 75 fd 2e bd db 3a 35 3d 98 c0 19 bd
       0.0013158771 -0.042722184 0.044245582 -0.037537187
000080 fa f5 6d bc c9 8d 9b bc b5 48 18 3c 70 97 89 bc
       -0.014523977 -0.018988507 0.009294678 -0.016795844
000090 1a a7 18 3d b9 24 32 3d 8a 96 ae 3c f8 af 98 bc
       0.037268735 0.043492053 0.021312017 -0.018638596
0000a0 6a a0 68 bb f2 74 34 bc e8 5e 3e bb ba 6f 4f b9
       -0.0035496005 -0.01101421 -0.0029048268 -0.0001978268
0000b0 71 e2 a4 3b 32 f2 0c bb 6b 7c 1f 3d 44 ea 30 3c
       0.0050318767 -0.0021506664 0.038937014 0.010798041
0000c0 0a 5b 86 3d 19 eb b3 bc 20 28 2e bd 39 e2 58 bc
       0.06560333 -0.02196269 -0.042518735 -0.013237529
0000d0 5a 8f 00 bc c7 9e 0f 3d 4d 85 7b bb e8 ca 17 3b
       -0.007846678 0.03506353 -0.0038379014 0.0023161713
0000e0 12 0e 67 bc 77 52 0f 3d 44 98 06 bd 6c 51 23 3d
       -0.014102476 0.034990754 -0.032860056 0.03987257
0000f0 3a a4 18 3d a6 6a 06 3d a9 12 33 3d e5 d4 fd bc
       0.037265994 0.03281655 0.043718968 -0.030985305
000100 9e 88 89 3c 7f d1 88 bb 20 f4 0f 3d fe 41 9d 3c
       0.016788777 -0.0041753645 0.035144925 0.019196507
000110 ec 69 9f 3b 9d f3 28 bc b5 70 45 3c 4e df 21 3d
       0.004864922 -0.010311988 0.012050797 0.0395196
000120 1f 24 41 3d cd c3 81 3c a3 bd 00 3c a5 22 70 bc
       0.04715359 0.015840435 0.007857713 -0.014656697
000130 e7 1f fc 3b 34 84 c3 3c 1e fa ab bc 28 53 4d 3c
       0.0076942327 0.02386675 -0.020993289 0.012532033
000140 7f ae a4 bc 20 91 8f 3c 79 23 cb bc db 59 82 3b
       -0.020102737 0.017525256 -0.024797188 0.0039779968
000150 3f 02 92 bd 02 8b 63 3c 44 f2 dd 3c 62 91 a4 3c
       -0.07129335 0.0138881225 0.02709306 0.020088855
000160 f3 9c 07 3d be ea a0 3c 00 cb 7c 3c 05 17 a3 3c
       0.033108663 0.019643184 0.015429258 0.019908438
000170 8f 65 d3 bc b9 f2 91 3c bd e9 86 bc b3 62 96 bc
       -0.025805263 0.017815934 -0.016468877 -0.01835761
000180 67 3c 38 3d e3 0f 32 bd e5 6f 87 3c e9 2f e2 3c
       0.04497948 -0.043472182 0.016532848 0.027610736
000190 89 62 12 3d ac 0b 80 bd 04 5b 4a bc 44 09 4a 3c
       0.0357385 -0.06252226 -0.012350801 0.012331311
0001a0 3e 5c 9c bc e2 be 88 3b a4 50 91 bc 22 a9 3d bc
       -0.019086953 0.0041731456 -0.017738648 -0.011575969
0001b0 70 37 e1 b8 ae af da bc 97 fd 4f bd 3e 7b d1 3a
       -0.00010739162 -0.026695099 -0.05077895 0.0015982164
0001c0 8b 7c 90 3c fc b8 8b 3d 40 74 90 bc cc 5f a8 b9
       0.017637512 0.06822392 -0.017633557 -0.0003211483
0001d0 30 ad f9 37 a0 4c a1 3c 6a b0 fe 3b af 07 90 bb
       2.976376e-05 0.019689858 0.007772495 -0.004395447
0001e0 99 fd 9e 3d 95 e4 9a bc 5d 56 b9 3c 5a 4a 2e bd
       0.07763214 -0.018907825 0.022624189 -0.042551376
0001f0 04 d6 4d bc 96 28 11 3d 24 a2 ab 3c f4 17 7e 3b
       -0.012563232 0.035439096 0.020951338 0.0038771601
000200 80 13 16 bc ed c1 20 3d 53 69 a3 3c 1c 10 8f bc
       -0.009159923 0.039247442 0.019947683 -0.017463736
000210 32 58 e3 3c cb bd 0e 3d 61 54 fa ba 3c 8b 85 bc
       0.027752016 0.03484897 -0.0019098633 -0.016301744
000220 e6 3a 4f bc 80 6d 2c bd 8b 52 0c bd 24 aa 8c bd
       -0.01264832 -0.042096615 -0.034258407 -0.06868389
000230 1c 13 31 3d 4b 4c bd 3b 99 b2 9f bc 4e e9 7a bc
       0.043231115 0.005776917 -0.019494342 -0.015314413
000240 cd 9c 92 bc 4e 35 08 3d f6 0b b8 bc 3b a6 8b 3c
       -0.017897034 0.03325396 -0.02246664 0.017047038
000250 43 a6 ae bc a6 0b 36 3d 83 0a 85 3c b8 7b 14 3c
       -0.021319514 0.044444703 0.016240364 0.0090627
000260 10 e9 d6 3c fb 41 80 39 6e 5b b2 3d c3 83 a2 3c
       0.02623418 0.00024463222 0.08708845 0.01983822
000270 e7 4a cb 3c ee 16 1c 3d cd 0a af 3b 83 cc 01 3c
       0.02481599 0.038107805 0.0053418637 0.007922295
000280 43 1c 22 bc 2d 57 09 3c 0a 71 96 3c a2 0e c5 bc
       -0.009894433 0.008382601 0.018364448 -0.024054829
000290 17 c0 e1 bc 90 1b fe bc d9 6c 40 bd 06 03 22 bd
       -0.027557416 -0.031019002 -0.046978805 -0.039553665
0002a0 06 56 eb 3c 19 66 a6 3c a1 32 01 3d 8b d4 a2 3c
       0.028727543 0.020312356 0.031542424 0.019876739
0002b0 9a ce 5b bc f8 b2 bb bc 1a 5b 8d 3c bc 2e 2a bc
       -0.013415957 -0.022912487 0.017255355 -0.010387119
0002c0 72 f6 45 3b ee 1e 74 3d 86 95 39 3c 81 5b 59 3c
       0.0030206707 0.05959981 0.011327153 0.013266445
0002d0 53 88 21 3c 36 c2 da bb 0d b6 01 bd 7c 13 54 3c
       0.009859162 -0.006675984 -0.031667758 0.012944099
0002e0 dd 27 1c bb e9 b7 0b bc a0 01 7e bd 68 9b ae bb
       -0.0023827471 -0.008527734 -0.06201327 -0.0053285845
0002f0 ba bd 71 bc eb cf 08 3d 8c e6 11 3a 07 4d 00 3d
       -0.014754707 0.03340141 0.0005565665 0.03132346
000300 b5 31 23 3a 6f ed e9 3c 60 26 02 3c c7 c4 0e bc
       0.00062253635 0.0285556 0.00794372 -0.008713908
000310 7d cd 2d bd 03 ab ac 3b 23 44 e5 bb f3 3a 8f ba
       -0.042432297 0.0052694096 -0.006996648 -0.0010927602
000320 a6 09 6a bc 0c 58 1f 3d be d6 23 3c 45 b8 c7 3c
       -0.014284527 0.038902327 0.009999929 0.024379859
000330 9f f5 2b bc eb 0a e9 bc 6c bf 78 bb 47 b2 48 bd
       -0.010495572 -0.028447589 -0.0037955893 -0.048998144
000340 f0 4b 3d 3d fa c3 34 3d 0d 8c 84 bc 96 6d c5 bc
       0.046214998 0.04413221 -0.016180063 -0.024100106
000350 44 f4 f1 bb 96 dc 39 3c 2b d4 8b 3b fd 4f 03 bd
       -0.007383855 0.011344096 0.0042672358 -0.032058705
000360 7e 3d 37 bd d6 09 b0 bc d6 f1 b2 3c f5 70 69 3d
       -0.044736378 -0.021489065 0.021843832 0.05699249
000370 d2 f7 a3 3b 1f 36 01 bd 35 02 7d 3b ee dc a9 bc
       0.0050039077 -0.031545755 0.0038606052 -0.02073523
000380 d6 12 22 bd 8a 60 56 3b 34 51 21 bc f3 a5 4b bc
       -0.039568745 0.003271135 -0.0098460205 -0.012429702
000390 40 36 09 3d a2 f0 72 3c 7d d4 55 3c 29 3d 2b 3d
       0.033499002 0.014827879 0.013051149 0.041806374
0003a0 5e d5 33 3d 0c 54 3a 3b e9 0c 5a 3d 0e 43 06 bd
       0.043904655 0.0028431443 0.05323497 -0.032778792
0003b0 87 76 d4 bc 88 a4 ed ba a4 aa 95 bc 0e 71 38 3c
       -0.025935424 -0.0018130699 -0.018269844 0.011257423
0003c0 7a df 9c bc 75 29 06 3d 03 06 b8 3c 01 08 05 3c
       -0.01914953 0.03275438 0.022463804 0.008119584
0003d0 93 24 c1 bb f4 d7 8b 3d b7 84 61 bc 78 76 79 3c
       -0.0058942526 0.06828299 -0.013764552 0.015225999
0003e0 06 8d a3 3c dd ee c6 bc cb e7 76 3c a1 54 99 3c
       0.019964706 -0.02428382 0.015069912 0.018717112
0003f0 0f e7 07 bd a7 53 bc 3c b0 70 31 3d 79 0c d0 3c
       -0.03317934 0.022989107 0.043320358 0.025396572

weight f4 [64, 256]
000000 a8 0f 25 be 00 d7 ad be 6f 1e 48 bc 2f e1 1f 3e
       -0.16119254 -0.33953094 -0.012214287 0.15613244
000010 de 9b ef be 69 7d 35 3e 20 31 75 be ef 9b c1 3e
       -0.46798605 0.17723621 -0.23944521 0.3781428
000020 84 57 b4 bd 47 36 6a bd ce b7 7c 3e 1b fd c6 3c
       -0.08805755 -0.05718067 0.24679491 0.024290612
000030 17 ca 1c 3f f4 1a 4d be c7 a6 37 be 02 eb 38 3c
       0.61245865 -0.20029813 -0.17934714 0.011286499
000040 24 1b 71 3e 94 d0 7b 3d 8a 9d bc be 33 9b 0a bd
       0.2354551 0.061478212 -0.36838943 -0.033839416
000050 42 c6 14 be 36 37 83 3d 42 fc 51 3e c4 bd 52 be
       -0.14528754 0.06407015 0.20506385 -0.20580202
000060 b5 70 af bc e7 c2 66 ba 35 34 a4 bd e2 3e b3 3d
       -0.021416048 -0.00088028464 -0.0801777 0.08752228
000070 21 17 6c bd 77 01 6b 3e e0 81 8c 3d 32 25 2b 3d
       -0.057639245 0.22949778 0.06860709 0.04178352
000080 f8 8e d7 bd 2b 5c 03 3d ab 2f 48 3d 70 06 34 3e
       -0.10525316 0.03207032 0.048873585 0.1758058
000090 96 b5 d5 ba c4 ef a0 3e e2 4b 87 3e 3b f0 4a bd
       -0.0016304727 0.31432927 0.26425081 -0.049545508
0000a0 34 aa 98 3e 07 46 bd bc 73 63 a7 3b 80 2c 67 bd
       0.29817355 -0.02310468 0.005108291 -0.056438923
0000b0 b0 13 7c 3d ab 2a 2a be f6 63 f0 3d e0 7c 36 3d
       0.061542213 -0.16617839 0.11737816 0.044552684
0000c0 4b 57 13 bc 2e 22 86 3d bb 19 7d bd d4 e9 9e be
       -0.00899298 0.06549488 -0.061792117 -0.31037772
0000d0 42 5e 3b 3d 3c 7e db bd a8 2d 5a 3e 4e 15 c3 3d
       0.045744188 -0.10717437 0.21306479 0.09525548
0000e0 f7 84 f5 3e c5 ed fe 3c b6 8b 75 be d8 6a e9 be
       0.47953007 0.031119237 -0.23979077 -0.45589328
0000f0 c5 e5 11 bf 86 3a e0 3c 93 23 c6 bd 9f 71 2c bd
       -0.56991225 0.027371656 -0.09674754 -0.042100545
000100 dd e3 3d be cb 23 65 bc 01 ab 1e 3e 55 0d 14 3d
       -0.18543954 -0.0139855845 0.1549492 0.036145527
000110 56 3d bd 3c 45 71 90 3d f1 6c e3 3d 58 e2 8e 3d
       0.023100536 0.070528544 0.11104763 0.069767654
000120 51 cb f9 3d 65 13 7c 3d a9 21 fa 3e c0 70 11 be
       0.12196983 0.061541934 0.48853806 -0.14203167
000130 8c f6 f4 3d 64 25 ba bb 0e c2 d2 3d da 97 1b be
       0.119610876 -0.005680727 0.10290919 -0.15194646
000140 dd 20 65 3e 18 62 67 3d d6 fe 58 3c 65 e1 1f bd
       0.22375818 0.056490034 0.013244351 -0.039033312
000150 22 d7 88 bd db 53 43 bd fe 36 f5 3d aa 3a a5 be
       -0.06681658 -0.047687393 0.119733796 -0.3227132
000160 0a 55 d4 bc ea bd 4e 3d 25 9b f2 3d 00 30 b2 3d
       -0.025919456 0.050474085 0.11845998 0.087005615
000170 fc 6c 32 bc ae 55 3c 3e 8e 25 29 3c e0 b8 81 bd
       -0.010890242 0.18392059 0.010323895 -0.0633409
000180 af d4 cb bd 87 33 81 be 03 1b 8d bc 83 30 c9 3b
       -0.099526756 -0.25234625 -0.017224794 0.0061398163
000190 e3 65 f7 3d 2c 1b 33 3e c9 c9 51 bd 18 e6 f7 3c
       0.1207998 0.17490834 -0.051217828 0.030261084
0001a0 36 86 0f be 6e 1c cd bd c1 df 1c 3e e0 37 b9 3d
       -0.14016041 -0.10015188 0.1531973 0.090438604
0001b0 56 d0 b3 3d c6 5a c4 bc 81 fd 63 3e e0 7c a2 be
       0.08779971 -0.023969065 0.22264673 -0.31735897
0001c0 e5 93 a0 3e ab a1 d2 bb 65 6e d9 3e a6 1d 77 3e
       0.31362835 -0.0064279637 0.42467037 0.24132404
0001d0 99 96 d2 be 99 1c 94 bd b7 b1 97 be 8d b2 11 be
       -0.41130522 -0.07232017 -0.29627773 -0.14228268
0001e0 cc 6c 74 3f 0a 6c 79 3d 1f ab f9 3d e2 b4 84 bd
       0.9547851 0.06089405 0.12190842 -0.06479813
0001f0 e3 35 8c be 67 85 31 be 04 62 3c be 89 95 f3 be
       -0.27384862 -0.17336045 -0.18396765 -0.47575024
000200 18 0d 2a 3d aa 62 10 3e 47 42 c5 bd f0 bb 70 3d
       0.041516393 0.14100137 -0.09631782 0.05877298
000210 a6 0c 29 3e 55 9f 60 3e 2e 12 83 be 1f ec 79 bc
       0.16508731 0.2193578 -0.25599808 -0.01525405
000220 ec 6d 2a 3e 94 cf 80 3d 89 38 d0 bd 44 8a 80 be
       0.16643494 0.062895924 -0.10167033 -0.25105488
000230 54 8c 6f be e3 78 bd 3e 6d e1 a8 3d 4b 86 41 3e
       -0.23393375 0.37006292 0.082461216 0.18898885
000240 c5 1b 8e bd 67 17 24 3e d9 44 e6 be 11 1b fd bd
       -0.0693889 0.16024552 -0.44974402 -0.12358678
000250 75 f6 d4 bc 79 c2 47 bd ee 26 ab 3d 60 b6 2b 3b
       -0.025996426 -0.048769448 0.083570346 0.0026201233
000260 66 13 dd 3d 9e 54 49 3d 1a bc 88 3c 7e e2 ca bc
       0.107947156 0.049152963 0.016691256 -0.024766203
000270 ee e1 70 3e 14 39 43 bf 27 4a ea 3d 49 f3 8f be
       0.23523685 -0.7625897 0.11439925 -0.281153
000280 90 74 66 3e 87 f7 bd bb 18 64 06 bf 16 f7 04 3b
       0.22505403 -0.00579733 -0.5249648 0.0020288876
000290 3e 49 dd 3b 62 1f d0 bd d9 d9 36 bd 26 9b 49 bd
       0.006753116 -0.10162236 -0.04464135 -0.049220227
0002a0 a4 42 5b be d3 d1 15 3e 15 0b 8f 3d 64 67 9b bc
       -0.2141214 0.14630823 0.069845356 -0.018970199
0002b0 d7 0f fa bc d1 8a e6 bc 93 35 90 be bb 56 19 bd
       -0.030525131 -0.028142365 -0.28165874 -0.03743623
0002c0 1c 77 ca bb 96 40 0b bf d5 37 66 3c a3 e6 9a be
       -0.0061787497 -0.54395425 0.014051397 -0.30254087
0002d0 6d 14 e1 3e 28 43 ff 3b f9 7a f2 bb bc 66 9c 3e
       0.43960896 0.007789988 -0.0073999134 0.3054713
0002e0 a9 ab 73 3d 36 bb 04 bd de 1b 6d be c4 0f 7f 3c
       0.05948988 -0.0324051 -0.23155162 0.015567724
0002f0 45 8c 8f bd 03 98 dd be 24 e9 ff 3d 8c f6 ca 3c
       -0.07009176 -0.43280038 0.1249564 0.024775766
000300 aa c9 b2 3d d4 ae 00 be be 22 87 3e 20 79 e2 bd
       0.087298706 -0.12566692 0.26393694 -0.11058259
000310 f7 b5 bf bd 2d ba e9 be 27 f1 f6 3c e5 cb 87 bd
       -0.09360879 -0.45649853 0.030144287 -0.06630687
000320 eb 11 b2 3b 6d d8 0d bf 17 57 0f 3f c9 8e 97 bd
       0.005434265 -0.55408365 0.55992264 -0.07400281
000330 8e 8b 93 3e aa c8 0e 3c 1a 78 dc be c9 ab 8f bd
       0.2881741 0.008714834 -0.4306038 -0.07015187
000340 18 4f bd 3e 1b ae 49 3e c3 65 9f be 0b e1 7e bd
       0.36974406 0.19695322 -0.31132326 -0.062226336
000350 a4 2b bc bd 0a 4d 08 3f 3b 69 e6 3c ea d4 f0 be
       -0.09188011 0.5324255 0.02812635 -0.4703744
000360 26 5e 11 be 43 50 93 bd 60 be c3 bb aa fa 96 bd
       -0.14196071 -0.07193043 -0.005973622 -0.07372029
000370 30 dc c4 3b d5 d7 56 bd 87 40 f7 bc 66 e5 e8 3c
       0.0060076937 -0.052451927 -0.030182136 0.028429698
000380 ba b7 0d be 4f fc 0f 3f f9 ea c6 be 19 69 bb bb
       -0.13839617 0.5624437 -0.38851145 -0.0057193157
000390 cd 55 91 3d 4c 35 db bd 59 9e 9b bc ac 29 86 bc
       0.07096443 -0.10703525 -0.018996404 -0.016377293
0003a0 9f 3e 65 be a4 08 e2 be 5d 25 1d 3f aa 82 84 3d
       -0.2238717 -0.44147217 0.61385137 0.06470235
0003b0 2f f4 d1 be 7c 37 01 3e 3d 78 01 3e 34 18 5c 3e
       -0.4100661 0.12618822 0.12643524 0.21493608
0003c0 56 a6 2c be 89 6b 49 be 40 37 38 3e 94 16 d1 be
       -0.16860327 -0.19669928 0.17989826 -0.40837538
0003d0 e8 6a da 3e 47 45 d6 3e c7 1b 43 bc 2d c9 80 bd
       0.42659688 0.4184973 -0.011908478 -0.06288371
0003e0 b3 8c 41 bf b1 c8 25 3c cf 05 4a 3e 69 24 ae 3d
       -0.75605315 0.010118649 0.19728778 0.085030384
0003f0 4e 64 02 bc 2c 62 28 be 9b fa 84 be c4 a3 1f 3d
       -0.007958485 -0.164437 -0.25972447 0.03897454

bias f4 [64]
000000 fa 43 2a 3c 0e f8 04 be 63 68 1a bd 0e 00 c8 3a
       0.010392183 -0.1298525 -0.037697207 0.0015258805
000010 a2 f5 eb bc 17 91 24 bc f5 37 29 bd b1 e9 2d bd
       -0.02880365 -0.010044358 -0.04131313 -0.042459194
000020 1a ed a3 3c 30 c9 2a bd 47 c2 3d 3c 46 69 ff bc
       0.02001052 -0.041695774 0.011581964 -0.031178128
000030 98 3a b0 bc 4c 1c 5e 3c 81 9a 71 bc 50 15 40 bb
       -0.021512315 0.013556551 -0.014746309 -0.0029309578
000040 e8 cf 6c bd 1a e8 66 bd 98 7a 64 bc 1a a4 b8 bd
       -0.057815462 -0.056373693 -0.013945244 -0.09015675
000050 ce 47 4d 3d 4e f4 ec 3c 81 15 dd bc 8e 43 11 bd
       0.050117306 0.028925087 -0.026987793 -0.035464816
000060 76 76 95 bd dc b0 d0 3c bd 71 fe 3c 43 9d e0 bc
       -0.07297985 0.025474958 0.031060094 -0.027418738
000070 57 9b 1b 3b c9 aa fa 3c 96 e5 0a bc 06 94 4e 3c
       0.0023743713 0.030599015 -0.008477589 0.012608534
000080 07 c9 8a 3d 23 84 03 bc e9 b5 01 bd 92 16 62 bc
       0.06776624 -0.008027109 -0.031667624 -0.0137993265
000090 43 64 3d 3d 62 0f ad bd 33 53 59 3b 78 6d 5b bc
       0.046238195 -0.084502 0.0033161163 -0.013392799
0000a0 dd 29 1c bc 2a 12 88 bd 5d c2 f6 bc 64 cc 6e 3b
       -0.009531465 -0.066440895 -0.030121977 0.0036437744
0000b0 70 dd 6b 3c cb bb 7d bb 2c 1b 77 bb d9 4d 46 3d
       0.0143960565 -0.003871667 -0.0037705405 0.048414085
0000c0 e2 63 92 3b 69 c7 b7 bc 20 6a 07 bd c0 13 12 3c
       0.0044674734 -0.022433953 -0.033060193 0.008915842
0000d0 32 ef 82 bd 4c f2 90 bd 04 ee ad bc c5 c1 8c bd
       -0.06393279 -0.070774645 -0.021231659 -0.06872896
0000e0 0b 8f 51 3b 28 97 01 be c4 c7 64 3c 68 48 94 bd
       0.003197613 -0.12655318 0.013963643 -0.07240373
0000f0 30 fc ba bd 3a 56 81 bd 50 e7 e5 bc 8c 19 65 3c
       -0.09130132 -0.063152745 -0.0280644 0.013983142

weight f4 [1, 64]
000000 f4 36 be 3e b3 0c 50 be 94 cd 59 be 3f d6 48 be
       0.371513 -0.20317344 -0.21269828 -0.19612978
000010 30 36 cb 3d e8 b0 d8 3e 33 78 80 be 28 f7 84 3e
       0.09922445 0.4232247 -0.25091705 0.25969815
000020 4d 04 5b be 2a 91 73 3e 9b d1 40 be d0 31 c5 be
       -0.2138836 0.23785844 -0.18829958 -0.38514566
000030 88 a3 3b 3e 2c 0e 52 3e 4d 37 53 3e 72 db 66 3e
       0.18324101 0.20513219 0.20626564 0.22544649
000040 49 aa 48 3e 9f 8e 6b be a0 c1 54 be 0c 4c 41 3e
       0.19596209 -0.23003624 -0.20776987 0.18876666
000050 cb ff 8e 3e 2e b6 5e be 38 88 8d 3e 0f 56 7f be
       0.2792953 -0.21749184 0.2764299 -0.24935172
000060 fb ac 91 3e 9d 4a d6 b8 c7 61 81 be 83 09 8e be
       0.28452286 -0.00010218213 -0.2526991 -0.27741632
000070 be 5a 70 be e5 92 97 be 42 23 53 be 4d 56 9c 3e
       -0.23472115 -0.2960426 -0.20618919 0.30534592
000080 b1 36 28 be 22 69 a0 3e 87 61 4d 3e 4d 6b 50 be
       -0.16427113 0.3133021 0.20056735 -0.20353432
000090 a2 78 31 be a7 6a 90 3e 86 c2 57 be 62 1a 79 3e
       -0.17331174 0.2820637 -0.21070299 0.2432647
0000a0 db a2 83 be 49 22 4b be 34 6e a2 3e 5b 2b 84 be
       -0.25710186 -0.19837297 0.31724703 -0.25814328
0000b0 7a 77 19 be 2a 50 7d 3d d3 26 91 3e a3 b8 a1 3e
       -0.14986983 0.06184403 0.28349933 0.3158618
0000c0 66 7c 25 be d6 eb 8e 3e 3a f4 8c 3e 88 51 2a be
       -0.16160735 0.27914304 0.2753008 -0.16632664
0000d0 80 07 ac 3e 34 69 4a be ea 81 a1 be b7 ca 62 be
       0.33599472 -0.19766694 -0.3154443 -0.22147642
0000e0 5f d8 91 be 19 31 5a 3e 4d 36 4d be d0 bc fd bd
       -0.2848539 0.21307792 -0.20040245 -0.12389529
0000f0 ed ac 37 3e 96 b5 83 be c9 28 7d be 14 a3 2b 3e
       0.1793706 -0.25724477 -0.2472259 0.16761428
