test/ens_models/ens_model_4_CB.pt (torch, 654739 bytes, 6 tensors)

weight f4 [20, 10]
00000000: 27c3 0f3b 602e 3b3e 780a d23e 9b0e 43be
00000010: e7b3 a03e 01d7 133f 4bc6 093d f5de 57bf
00000020: 14c1 4abe b9d9 003e 3b2f b4bd 20bd 3b3e
00000030: fb19 143f daba 3e3f 7dfc 6a3e 7fe6 4ebf
00000040: 00f5 29bf 4cb1 9f3d 24b2 4bbf 34cb c73e
00000050: 22e9 1b3f eaf8 ba3e cedf 4ebf 0a7e 3fbf
00000060: a125 643e 0d70 9a3e 96e2 95be c25b 35bf
00000070: 7831 653b 6152 0ebf d039 093d 154c 153c
00000080: 333d b63d 1b76 04bf a0bd f73d 39ef c6bd
00000090: d080 263e 8f52 b0be 0a90 cfbe 6cf1 723f
000000a0: 7fd4 d0be fd85 c8be 2903 863e 9976 a1be
000000b0: 0333 343e 6cc1 ad3d 6b68 003f c3aa 443e
000000c0: c8c4 27bf 0170 883f 7396 cd3e 58a2 10be
000000d0: d2f6 fbbc 5963 6fbe 1981 50bf ad2a 8cbe
000000e0: 15d3 23bf 9cb9 9d3e 85c2 003f ca85 2fbc
000000f0: fc48 a83d a87a 063f 8d1e f5be f84b 643c
00000100: 1a3f 43bf a1c6 433f 440a b33d e285 403f
00000110: 3810 2abf 31d6 4b3f 2318 cebe 7d31 a13f
00000120: cec4 a93e 6686 b73d 7ee6 88bf b017 ba3d
00000130: 2e00 733f d8f2 fb3e 0977 a1bc 86a3 2f3f
00000140: 35c7 66bf 795d 5b3c d117 4ebf 1e3f 4b3f
00000150: cbc3 213c dfa1 b53e ad70 3cbf e17e 443f
00000160: d3c5 123f 55e6 493d 2250 ecbe faf6 00bf
00000170: 4e39 a9be 3866 533e 0e2d 8d3e a22a e83e
00000180: 1273 653e 9b3a 273f 759b b0bd a871 543e
00000190: 5b2e 3cbc 7fee ec3b de0b 44be a1c8 24bf
000001a0: 1614 073e 2ce8 ddbe 7538 cc3e 29f5 dd3e
000001b0: 3faf a33e 1860 11bd a16c 89be 93dd c7be
000001c0: 1e5f 3dbf 51e7 a63d 2066 12be c257 1d3f
000001d0: df26 213e d350 833e e168 5fbf 76b6 eabe
000001e0: 5ef5 3e3e df91 96be 3ff3 02bd cfb6 11bd
000001f0: 082c 34bf b3f1 19bf b6e8 6b3e 8c2f 1ebf
00000200: 9c24 453e b0eb 57be 02dc 993d f907 83bd
00000210: 2408 64be 1daa 493e 390b c2bf c897 5bbe
00000220: 58a4 043e 6591 7bbe 5617 2d3d 601c 22bf
00000230: a07d 61be d39b 353e 4a7e 50bf 6726 4d3f
00000240: 010c 023f 8f0b 1bbe 6913 bf3e f3fe 3e3f
00000250: 2e8d 523e a9d2 883e 248d 843c 0aae 0cbf
00000260: b4b9 3f3f 4684 9eba a090 bdbe b518 a2bd
00000270: ec9f a6bd 5372 fe3e 01b1 67be 15ca a0be
00000280: 937b b13d e66e 023e 3f3d 913f 6208 0f3d
00000290: a6bf e63e 15bc 61be ee66 1a3e aeb9 58be
000002a0: 0c80 53bc b127 7e3e 0b2e 42bf c0b4 47bf
000002b0: a5bf 43bf 3da1 e2be 1f58 cebd 95ed bf3e
000002c0: 767c b9be 17df 15bf 8063 7f3f cfbb c23e
000002d0: 308d 893d 9e6d 3b3f ba1a 253f 5bb7 94be
000002e0: 94a7 cd3d cb60 103f 1181 2c3f 90b8 3dbf
000002f0: b508 82bc 02ad 9cbe f9a2 d8be 5e2f c33e
00000300: f4d2 47bf 3a6b 023e de47 5fbf 485c aebe
00000310: 2db8 bcbc 3b88 6dbe bb8c bc3e 366b 6d3c
0.0021936388 0.1827941 0.41023612 -0.1904854 0.31387255 0.57749945 0.033636373 -0.8432458
-0.19800216 0.12583055 -0.08798071 0.18333864 0.57852143 0.7450386 0.22947879 -0.8082046
-0.66389465 0.077974886 -0.79568696 0.3902222 0.6090261 0.3651803 -0.8081025 -0.74801695
0.2227998 0.30163613 -0.29274434 -0.70843136 0.0034972113 -0.5559445 0.0335024 0.009112378
0.088983916 -0.51742715 0.12096715 -0.09713597 0.16260076 -0.34437987 -0.4053958 0.9489963
-0.40787122 -0.39164725 0.26174286 -0.31535795 0.17597584 0.08484158 0.5015933 0.19205765
-0.6553464 1.0659181 0.40153846 -0.14124429 -0.030757342 -0.23377742 -0.8144699 -0.2737631
-0.6399396 0.3080567 0.50296813 -0.01071305 0.08217046 0.5253091 -0.4787487 0.013934128
-0.7626816 0.7647496 0.087421924 0.7520429 -0.66431 0.79623705 -0.4025279 1.2593228
0.33157963 0.08961181 -1.0695341 0.09086549 0.9492215 0.49208713 -0.01971008 0.6860889
-0.90147716 0.013388985 -0.8050509 0.79393184 0.009873341 0.3547506 -0.7360943 0.767561
0.57333106 0.049291927 -0.46154886 -0.50376856 -0.33051533 0.20644462 0.27573436 0.45345026
0.22407177 0.653238 -0.08623401 0.20746481 -0.011485661 0.0072305794 -0.19145152 -0.64368635
0.13191256 -0.43341196 0.39886823 0.43351105 0.3196964 -0.035492033 -0.2684069 -0.39036235
-0.7397326 0.08149589 -0.1429677 0.6146203 0.15737484 0.256476 -0.8726941 -0.45842332
0.18648288 -0.29408166 -0.03197026 -0.03557473 -0.70379686 -0.6013443 0.23037991 -0.617913
0.19252247 -0.21086001 0.07512666 -0.06398005 -0.2226873 0.196938 -1.5159675 -0.21444619
0.12953317 -0.24567182 0.042258583 -0.63324547 -0.22020578 0.17735223 -0.814427 0.8013672
0.50799567 -0.15141128 0.37319496 0.7460777 0.20561668 0.2672322 0.016180582 -0.5495306
0.74892735 -0.0012093864 -0.37024403 -0.07914869 -0.081359714 0.49696597 -0.22626115 -0.31404176
0.08666148 0.12737617 1.1346816 0.034920104 0.4506809 -0.22044404 0.15078327 -0.21164581
-0.012908947 0.24819829 -0.75851506 -0.7801018 -0.764643 -0.4426364 -0.100754015 0.37485948
-0.3622777 -0.58543533 0.997612 0.38033912 0.067163825 0.7321414 0.64493906 -0.2904614
0.100417286 0.56397694 0.6738444 -0.74109745 -0.015873292 -0.30600744 -0.42311838 0.38122076
-0.78056264 0.12736216 -0.87219036 -0.3405478 -0.02303704 -0.23196499 0.3682612 0.014490893

weight f4 [256, 570]
00000000: a555 49bc 3478 a83b 9ae4 6b3d 4e6d fc3d
00000010: 145c b5bd 47c0 01bd 1648 f1bd 294d 523e
00000020: 5aa3 283e 898a 093e 9457 173e 1b24 0dbf
00000030: 8efd 393e 8947 ab3d 3cb7 26be cb09 423e
00000040: a738 c5bf ade1 dcbe afa3 27bd a932 ba3d
00000050: 0afa 283e b3e1 6a3e 0a63 6cbd e5b9 9fbc
00000060: 18c5 733f 3638 97bf d258 4abe 170c 363e
00000070: b835 b4bc ed43 febe a60e 00bf d7c9 21bd
00000080: 8912 68bc f642 8c3c 42da 583b 76c8 33be
00000090: 2ed4 f83e 2891 073e 3b2d ad3d 5621 033e
000000a0: 4ba8 283e 261f 1dbf 7d14 163d 8df3 c1bf
000000b0: 10aa bfbf ada1 c13f 24f9 973f a1e3 553f
000000c0: 74f5 e33e 0e85 963e 37dc 593d 0bfe cabd
000000d0: ef4a a7bd 31f6 613d 2387 013e 3c1c 8dbe
000000e0: d86e b1bc b4d2 e03e 0d48 2fbe 8091 1abe
000000f0: 3e52 5c3f 8715 c93f 2a53 7c3f 0754 f83e
00000100: df75 c7bc cbb5 d73c 5afa 323e 979c 0b3e
00000110: c192 9cbd e515 f8be 7fc0 643e 13fb 103e
00000120: 6bf2 183e b80e cebd 00a1 6ec0 27f7 0fc0
00000130: aa62 1540 fd13 a940 4d51 6440 ab38 b03f
00000140: e349 853c 79b8 c83d d91c 653d c130 a3bd
00000150: 174d 68bc d46b c53d 8709 133d b7ed 283d
00000160: 404c c7bd 75e1 dc3d 2054 60be b38e 353e
00000170: 3397 abbd 4e7d 463d ab05 f3bd e258 f33d
00000180: b6ae 88bd b26a a93d 56a8 8c3d 82d4 8dbe
00000190: 571b 8ebe 92be 0fbd 0a97 9b3d 9a8b 4fbd
000001a0: 830b 14be e754 443c 190f 9d3d 273c d23d
000001b0: 592a ddbe cf2c f33e cfe8 25be 9d65 9ebe
000001c0: dda8 13bd 6792 debd 8d71 e5bd 4119 acbd
000001d0: 167b 98be 5d74 ecbc 4f3a 50bd 8f52 1cbd
000001e0: b7d1 36be 408c 413d ee16 ba3b a253 bbbd
000001f0: 57f3 cebc fcb0 0a3d ec56 e4b8 5349 02be
00000200: 6f4c 8d3c 49a9 4ebd d4c5 303d 6517 2c3e
00000210: 1b37 17bd 0a1d 1bbe 69f4 90bd 2dcd f03e
00000220: ac8f 6c3e a908 f8bd fbb6 803d 2131 b6bd
00000230: fc9d 793f bf6b 0abf 12f8 91be a08c 2ebe
00000240: dc57 afbd 1987 303e 0341 1c3d e6df 183d
00000250: 1304 cdbe b775 ac3d d81d f33d dd83 54bb
00000260: 7f48 34bf 7c26 0bbe 1093 ba3d ff74 01bb
00000270: 5f90 89bf f491 2cbe 301e 3d3e 631b 743d
00000280: a640 b5be bf93 0e3e 087e ab3d 993b b23d
00000290: efee 8fbe 32ce a1bd 0a04 48be c36f e53e
000002a0: 0ddd 003f a600 0ebe 9788 e4be ba8c 073f
000002b0: 730d 583e 0d3e 8dbe 2201 03bf 6ec6 6b3e
000002c0: 820e 47be 93ac 1bbc c049 dd3d d2fa 2f3e
000002d0: 57b4 87bb ef34 88bd 7f30 283d 9c71 c03d
000002e0: c809 183d 05e7 07bd 433f 50b9 846d 803d
000002f0: 68a6 2f3d 7897 a0be f654 e6bd 66b3 2e3d
00000300: f7ca ec3d 0d92 15be 81ba 7e3e 361a f23d
00000310: 2ea0 623e a755 82bd cc78 cc3e 4802 053f
00000320: cedb a33e 74cd 0a3f 263a 4bbe 615b a63d
00000330: b65d a2bb 590f 3e3f 0dfb b6be b3ee 6d3e
00000340: 9379 d93c a6aa 253e c5b8 0b3e 936c 5d3d
00000350: 3e49 993c 0349 2e3e 7f03 e83d c665 2b3d
00000360: 4d74 c4be e811 203e 3cbf 493d 980e 4abd
00000370: 76e5 afbf ec19 553e db17 ac3d 385c 863c
00000380: 8f90 abbf 7e95 11bb 0895 bbbd 96cd c13d
00000390: 60d8 54be dda3 40be 3665 af3e 192d 9f3e
000003a0: e069 2dbf deea 00bf 3e35 3d3f 5242 a53e
000003b0: 00bb 0fc0 1a39 b6bd 91ef 8e3f 50fa 0cbf
000003c0: 348e b7bb 3ab9 c2be aa21 8bbe fe50 93be
000003d0: 434c acbd 4427 92bd abe9 35bd 1e25 d7bd
000003e0: 1c1e 2cbe 9599 033e 0da0 6e3d cc3c e53c
000003f0: 8bde 11be 0698 89bd f3e1 49bc b837 993e
-0.012288486 0.0051412825 0.05759106 0.12325536 -0.08855453 -0.03167751 -0.117813274 0.20537247
0.16468564 0.13431753 0.14779502 -0.5513322 0.1816313 0.083632536 -0.16280836 0.18949048
-1.5407914 -0.43140927 -0.040927585 0.09091694 0.16501632 0.2293766 -0.05771164 -0.019497821
0.95222616 -1.1814029 -0.19760445 0.1777805 -0.021998271 -0.49661198 -0.5002235 -0.03949913
-0.014164575 0.017121773 0.0033089076 -0.17556939 0.4859938 0.13238966 0.08455893 0.12805685
0.16470449 -0.61375654 0.036640633 -1.5152451 -1.4973774 1.5127465 1.1872907 0.8355046
0.44523203 0.29398388 0.05318853 -0.09911736 -0.08168589 0.055166427 0.12649207 -0.27560604
-0.0216593 0.43910754 -0.17117329 -0.15094566 0.8606299 1.5709695 0.985644 0.48501608
-0.024348198 0.026331803 0.17478314 0.13633953 -0.076451786 -0.48454204 0.22339056 0.14158277
0.14936225 -0.10061401 -3.7285767 -2.24946 2.334147 5.28369 3.5674622 1.3767294
0.016270583 0.0980081 0.055935714 -0.079682834 -0.014178536 0.09639707 0.035897758 0.041242328
-0.097313404 0.1078519 -0.21907091 0.17730217 -0.08378448 0.048459344 -0.118663155 0.118821874
-0.066739485 0.08272304 0.06868045 -0.27701193 -0.27755234 -0.03509385 0.07597168 -0.050670244
-0.14457516 0.011983133 0.07668895 0.102653794 -0.4319637 0.47495124 -0.1620209 -0.309369
-0.036049712 -0.10867768 -0.11203299 -0.08403254 -0.29781407 -0.02886408 -0.050836857 -0.03816467
-0.17853437 0.047252893 0.005679003 -0.09146811 -0.025262518 0.03386019 -0.00010888078 -0.12723283
0.01724836 -0.05045441 0.043157414 0.168058 -0.036917787 -0.15147796 -0.070778675 0.47031537
0.23101681 -0.12111027 0.06284901 -0.08896089 0.9750669 -0.5407066 -0.28509575 -0.17045832
-0.0856168 0.17239036 0.038147938 0.0373229 -0.4004217 0.0842089 0.118709266 -0.003242723
-0.7042312 -0.135889 0.09110081 -0.0019753573 -1.0747184 -0.16852552 0.18468547 0.05959643
-0.35400885 0.13923548 0.08373648 0.087027736 -0.2811198 -0.07900657 -0.19532791 0.4481183
0.50337297 -0.13867435 -0.4463546 0.52949107 0.2109888 -0.27586403 -0.51173604 0.23024914
-0.19439128 -0.009501594 0.10805082 0.17185524 -0.004141371 -0.06650721 0.041061874 0.09396669
0.037118703 -0.0331793 -0.00019859993 0.062708884 0.042883307 -0.3136556 -0.11246674 0.042651556
0.1156215 -0.14606495 0.24875833 0.118214056 0.22131416 -0.06363993 0.3993591 0.51956606
0.32003635 0.54219747 -0.198464 0.08122898 -0.004955019 0.7424217 -0.35738412 0.23235588
0.026547229 0.16178378 0.13644703 0.054058623 0.018711682 0.1702004 0.11328792 0.041845106
-0.3836998 0.1563183 0.04925464 -0.049330324 -1.3741901 0.2081067 0.084029876 0.016401395
-1.3403491 -0.0022214348 -0.09159285 0.094630405 -0.20785666 -0.18812509 0.34256905 0.31089094
-0.6773968 -0.5035838 0.73909366 0.3227716 -2.2457886 -0.0889761 1.116686 -0.55069447
-0.0056016687 -0.38031942 -0.2717412 -0.2877273 -0.08412983 -0.071363956 -0.044412296 -0.105051264
-0.16808361 0.12851556 0.058258105 0.027983092 -0.1424505 -0.06718449 -0.012321937 0.29925323

bias f4 [256]
00000000: e04e b93d 7f1d 4e3c 1a81 19bd 9fe7 0e3d
00000010: c197 243d 0767 d8bd cbf8 f2bb 4c58 a9bb
00000020: ba0f 713a 79b1 d93c 1f1a d7bc 09f2 333c
00000030: 956b c63c 9226 9cbd 9849 77bc 31b0 8c3c
00000040: 5537 a9bd 8eaa 7bbd 5083 a83a bff3 863c
00000050: 2610 a7bc 5bec 153e 734e 7cbc b990 9c3b
00000060: d7a0 033d 1b53 883c e54a a4bc 9122 feba
00000070: 3592 0a3c 4d02 6b3c 1be1 cc3c b715 c93b
00000080: fe47 f73c d698 7e3b 98ec 863c bd8e dcbc
00000090: d394 29bc ce57 e2bc b4df 423c fb59 3b3c
000000a0: 6b09 46bd d7e3 1d3d f686 ae3c e04f 8f3c
000000b0: 9784 85bd d892 f8bd 2cce 8cbc 6255 313d
000000c0: 5730 20bd afeb 4abd 4959 f13c 5819 8f3d
000000d0: 0631 1cbd fb97 003d ac5c 573d 49a4 f1ba
000000e0: 90d0 1f3d 8a77 6ebc bee7 5cbc 0e81 5bbc
000000f0: af2d 71bd ecb7 e73d 0903 043c 3e9a e73c
00000100: 74d6 c6bd 413b a63d e0e5 d4bd b189 2b3c
00000110: 2355 9bbc f002 1cbc 1cba 783b ded7 57bd
00000120: 03f1 363d ae4a 13bd afa2 953c c95a 6cbd
00000130: 3391 47bd 5ec0 763c a101 88bc 2424 093d
00000140: 11a8 6a3b b38a 083c 8738 5d3d e55c 353d
00000150: 55b1 293d 779c a43d ebb9 39bb b15e 183c
00000160: 1a82 523a 270d d33b 153b 203d b7d8 733d
00000170: 2295 993d f8ee 9cbc 7ccd af3c d13e ae3d
00000180: 93ae 36bd 507a ecbb bda4 103e fc30 22bd
00000190: 6556 503b 7e94 8e3c d681 9abc 0f70 e23b
000001a0: 421b fcbb 18be 80bb b51d b0bd b775 7f3c
000001b0: e2ea 9b3d 9486 ffbd 6a38 643b 389c faba
000001c0: ac78 b23c e14e 3c3d 87f6 f5bc 1395 3b3d
000001d0: 3cee 24bd c4a5 443d 1a40 3bbd e81a 333d
000001e0: 473a 5ebd 223c 4fbd 536e b83c 1fb3 d43c
000001f0: 6f04 753d 508f 32bc 9c27 463d 6dde 033c
00000200: c3a9 0f3b 2c5c 183d fb92 a5bc 7565 3cbb
00000210: 9cfe eabc 8b6f e0bc c02a a63d 08bd 373c
00000220: 7258 b0bb 5ba0 293d 9d92 31bd 18b0 703c
00000230: 67a4 973b a5f7 f73c ca3c 023d 29b2 97bd
00000240: 38c6 4e3d 667e 963c 8204 d839 a9f3 603c
00000250: 9025 b53c 1780 343b 9d94 56bc f988 acbc
00000260: 14b4 d63c 54df 64bd 7bdb d53d ea93 9c3d
00000270: 2ebb 5b3b 59bc b1bc 57aa 053d a644 0b3c
00000280: 4562 dcbc ff6d 3a3c 2f9a 2e3d 1439 163d
00000290: b00e 10bc 2cf6 993d a1c6 bc3c 16e6 77bc
000002a0: 9736 003d 46c0 353c 0f8e 38bc 06df 85bb
000002b0: de7e 853c 1e4e 94bd 3890 d83c 71f0 823d
000002c0: ef40 e23a c6ec 1abd 5d9d 9b3c be64 4cbd
000002d0: d9ec 993d e503 c13c 4f97 2d3a 7acf b63c
000002e0: fcbd 82bc bc79 00bd 3829 e43c 5472 f93c
000002f0: 9c86 87bc 3e5e 493d 9cac 8f3c e82c b6bc
00000300: 7d2d 5e3c 2d1c af3c 3f0a 97bc 54f2 d23d
00000310: d952 983d 9aa5 05be 2255 e1bb 8f28 e1bd
00000320: 2f4d 5a3d 0e1a e438 af6d c6bc f3ad f1bc
00000330: 62cc e4bc ced7 20be a268 b0bd 5504 09be
00000340: 411a ffbb 2085 523b 8f2c 913c 6da0 3e3d
00000350: 9598 17be caa4 843c 39f0 393d a033 51bd
00000360: a945 973c 7070 1f3c 64a7 16bd 37c7 1f3d
00000370: d06a 863c 0ace a8bc 0eb2 373c f55b c3bc
00000380: e5ea 953d 592c 76bc f6cf b93b fa80 253d
00000390: 18d0 b73b b294 f83c 4953 94bb 4fd5 60bc
000003a0: 6ebe 38bd 463d 5f3c afac 143d b784 c03b
000003b0: a2f6 99bc c292 8d3c aa34 d4bc a10c c03c
000003c0: 7c2f 18bd 121f adbc ea51 4e3d 7c0a 723c
000003d0: 4b99 033d 2c74 dfbc 10d9 3c3a 03f9 8c3c
000003e0: 3cbb 163e c114 c23c a77e ddbb 4f9f ae3c
000003f0: d042 debc 6b7f 453d ae83 aebc b9d1 95bc
0.09048247 0.012580275 -0.037476636 0.03488886 0.040183786 -0.10566526 -0.0074149123 -0.0051679965
0.0009195764 0.026573883 -0.026257573 0.010982999 0.024221221 -0.07624544 -0.01509323 0.017173858
-0.08262507 -0.06144195 0.0012856517 0.01647365 -0.020393442 0.14640944 -0.015399563 0.0047779945
0.03213581 0.01664119 -0.020055244 -0.0019388964 0.00845771 0.01434381 0.025009682 0.006136622
0.030185696 0.0038848422 0.016470239 -0.026923532 -0.010350424 -0.02762976 0.011894155 0.011435027
-0.048348825 0.038547363 0.021304589 0.017494142 -0.0651943 -0.12137383 -0.017188154 0.043294318
-0.0391086 -0.04954117 0.02946152 0.06987256 -0.03813269 0.03139494 0.052578613 -0.0018435802
0.03901726 -0.0145548675 -0.013482986 -0.013397468 -0.058881458 0.11314377 0.008057364 0.02827179
-0.097088724 0.081167705 -0.10395408 0.01046984 -0.018961495 -0.009522185 0.0037952727 -0.0526961
0.04466344 -0.035959892 0.01826605 -0.057703767 -0.048722457 0.015060512 -0.01660234 0.033481732
0.0035805742 0.00833385 0.054008987 0.044278044 0.041428883 0.08037656 -0.0028339576 0.00929992
0.0008030251 0.006440777 0.039118845 0.059532847 0.07499148 -0.019156918 0.021460287 0.08508075
-0.04460008 -0.007216729 0.14125343 -0.039597496 0.0031789776 0.017404791 -0.018860739 0.006910331
-0.007693679 -0.003928911 -0.08599416 0.01559203 0.0761316 -0.124768406 0.0034823664 -0.0019120043
0.021786056 0.045973662 -0.03002478 0.045796465 -0.04026626 0.04800965 -0.04571543 0.04372683
-0.054254796 -0.050594456 0.022513544 0.025964318 0.05981868 -0.010898426 0.04837762 0.008048636
0.0021921254 0.037197277 -0.020211687 -0.0028746997 -0.02868586 -0.027396938 0.08113623 0.011214502
-0.0053816373 0.041412693 -0.043352712 0.0146904215 0.0046277526 0.030269453 0.031796254 -0.07407028
0.050482005 0.018370818 0.0004120209 0.013729968 0.022112638 0.0027542168 -0.013096956 -0.021061407
0.026208915 -0.055877045 0.10442253 0.076454 0.0033528316 -0.021696256 0.03263315 0.008500254
-0.026902327 0.011378764 0.04262751 0.036675528 -0.008792564 0.07517657 0.023043932 -0.01513054
0.03130206 0.011093205 -0.011264338 -0.0040854244 0.016295847 -0.07241462 0.026435956 0.06393517
0.0017261783 -0.03782346 0.018995935 -0.049900763 0.07515878 0.023561427 0.0006621973 0.02231573
-0.015959732 -0.031366095 0.027851686 0.030450024 -0.016543679 0.049162142 0.017538361 -0.02223821
0.01356065 0.02137574 -0.018437503 0.10300127 0.07437677 -0.13051453 -0.0068766037 -0.10994064
0.053296264 0.0001087674 -0.024222223 -0.02950189 -0.027929489 -0.15707323 -0.08613707 -0.13380559
-0.007785112 0.0032122806 0.017721443 0.046539713 -0.14804299 0.016191859 0.04539511 -0.051074624
0.018465834 0.009731397 -0.03678073 0.039008345 0.016408354 -0.02060606 0.011211885 -0.02384756
0.07320193 -0.015025222 0.005670543 0.040406205 0.0056095235 0.030344341 -0.00452653 -0.013722732
-0.045103483 0.013625449 0.036297496 0.005875196 -0.018794362 0.017281894 -0.025904018 0.023443522
-0.03715466 -0.02113298 0.050371088 0.0147730075 0.032128613 -0.027277075 0.00072039757 0.017208582
0.14719862 0.023691537 -0.006759483 0.021316199 -0.027131468 0.04821722 -0.021303024 -0.01828848

weight f4 [64, 256]
00000000: 31c5 01be c190 4dbe 463d 0f3e 86f6 a03d
00000010: c1c7 25be d7fb fb3e 77b9 b53c d591 6d3e
00000020: 61d4 633e 265c 1ebe 3d98 503e 397d 233e
00000030: 91b0 b23e afcb 29bd 62e1 ddbc ad65 40bf
00000040: 0d3b 193f a780 773f 25f3 4fbd a578 653e
00000050: a9f5 7bbe d42f 9dbe 0768 413e 69a2 0a3e
00000060: 0555 293e 330f 443e 95bf f6be 1858 8dbe
00000070: 3a6a 87bc b9ef 8fbe 105b 65be ff68 bc3d
00000080: f2b3 18be d8d2 f23d 1918 dd3d 8d00 5abc
00000090: 3088 063d 1244 d5be 20f4 44bd 4f40 36bc
000000a0: 7464 b63e 2d03 523e 71bd 05be cc9c 693e
000000b0: 1fc7 4e3e 6690 133f 349b 94bc c511 75be
000000c0: 740c 17be aa54 2b3e d490 e5be 51dc 7fbe
000000d0: e768 473e 0290 11bf 71f2 e8bd 996f 063d
000000e0: 1bc1 703d eb01 a43e 1f47 103e c091 91bd
000000f0: 3c84 92be bf7b e1be 9386 4ebf 766d b1bd
00000100: bd4f 443f c9e7 dc3d f447 523f cd8b 7dbc
00000110: 9c6c 933d 2b5e e53e 52c0 c1bd 824f de3d
00000120: a66f 69be ce39 4c3d 645d 4c3e 3154 003f
00000130: 6848 533d 1b3f b23e c54b eb3e 3df1 ed3e
00000140: f52f 20be 26fc 2f3e feaa a1be 3755 953d
00000150: 8f35 243e 6b12 1abe fd31 8ebc 9360 8abd
00000160: 72e1 fd3d 2a1a be3e abd5 243e ad2f 1a3f
00000170: dcb4 043e 30de c6be 0b94 3a3b 2dd7 1c3e
00000180: 8d03 67be b881 bf3c 2d25 193d 948f 8ebd
00000190: 2e68 2dbe e1dc bdbd 1102 853e 52a7 6f3e
000001a0: 5287 d23d bc23 493e cd44 ef3e a61a 3e3d
000001b0: 7f73 99be 480f c63e b3e7 0dbe e06b b8be
000001c0: 8b27 363e c427 37be 3c19 cb3c 8f02 02bf
000001d0: 8673 d23e 585c c5bd 167c dabe 16f9 93be
000001e0: 6b98 e9ba 5c20 a1bd 05eb 8e3e 4314 793e
000001f0: a159 acbe f782 0a3e 573b 3abe fdc0 1d3d
00000200: aa35 153e 817f a4bd c49c 083e ec63 0bbe
00000210: 7d49 bdbb 7cbe 4a3b 9534 d9be 57ee 85be
00000220: 905e a3bd 4583 32be c3f5 cfbb c5ca 213d
00000230: 2237 553e 8e75 a33d 0340 d9bb 8801 a83e
00000240: 71be f13d bc31 343e 8d8e 4dbb 098b b53e
00000250: 8014 29be 44ce 64be 8bef 503e c74c ddbd
00000260: 5a22 ba3c 6640 293e 49d7 25be 77ad 6ebe
00000270: 0b8b a6bd 5ebc 9fbe b418 d9be f2f8 2bbd
00000280: 6147 c13e db08 0ebe 06e7 7cbd eff7 923c
00000290: 1120 61be 0349 b8bd d287 c43d 6bf6 85bc
000002a0: c3c2 373d 9e51 f1bc 0bf8 4abd 8b74 7eba
000002b0: 9675 4bbe 7ce7 1f3e 6acc e73a 438f 063f
000002c0: 9598 76bd 1eda 6fbc e069 c4be 3ddc dd3e
000002d0: c313 9abe 2a8a 93be 0445 6b3d b13d 45be
000002e0: a1ff 12bd 3a63 87bd 319a 10bd 1341 163e
000002f0: 35a3 e2bd d991 77bd c4b5 113c d1bf 5d3d
00000300: bf98 673e 3883 53be a11b cb3c 9032 01be
00000310: 1821 90bd a6bb ac3e bd43 09be 7a80 343f
00000320: e3b8 c1bd 8848 73bd 9253 a33d 8be5 5d3c
00000330: 5cff c3bd 872d cd3e 56c8 333e 7e8a f53e
00000340: 72ea ccbd 21ae b23d 62c1 8fbe 0d86 34bc
00000350: faa0 df3e 0d1b e1be 18e8 34be b723 0d3e
00000360: c032 6bbc a320 7d3e a7e2 a03d 2d22 56ba
00000370: 26a9 e63d 93b9 053e b365 083f 4ab1 943e
00000380: 2203 ebbd 7de8 883d c673 953d d515 3fbe
00000390: cc7e 453e 1182 9d3d 993a ef3d 61d4 f6bd
000003a0: c3d2 27be 2460 a03e 76f5 82be f1c1 233d
000003b0: b03c 5b3d 56ed 933e 90b6 88bd f3f3 c03d
000003c0: abb2 893e 64c2 723e ec74 3ebe 9797 2b3e
000003d0: 8bcb ccbc d194 af3d dd0b 4cbd 9d41 fc3d
000003e0: 459b 9ebe 3f34 253e fb16 e7bd a5d1 6f3d
000003f0: 4133 e33d e9f4 1dbe 0189 913e 196d 373e
-0.12672879 -0.2007475 0.13988218 0.078595206 -0.16189481 0.49215576 0.022183163 0.23200162
0.22248985 -0.1546484 0.20370574 0.15965737 0.34900334 -0.041454013 -0.02708501 -0.75155145
0.5985573 0.9668068 -0.05076899 0.22409303 -0.2460543 -0.30700552 0.1888734 0.13538517
0.16536339 0.19146423 -0.4819304 -0.27606273 -0.016530145 -0.2811258 -0.22398019 0.09199714
-0.14912394 0.118566215 0.10795612 -0.013305795 0.032844722 -0.41653496 -0.04808438 -0.011123731
0.35623515 0.20509024 -0.13060547 0.2281372 0.20193146 0.5764221 -0.018140413 -0.2393256
-0.14750844 0.16731516 -0.44837058 -0.24986388 0.19473611 -0.56860363 -0.11374367 0.03282127
0.05877791 0.32032713 0.1408963 -0.07107878 -0.28616512 -0.44039723 -0.80674094 -0.08663456
0.7668417 0.10786397 0.8214104 -0.015475226 0.0719845 0.44798407 -0.0946051 0.10855009
-0.22796497 0.049859814 0.199575 0.50128466 0.051582724 0.3481377 0.45956245 0.46473113
-0.15643294 0.17186031 -0.3157577 0.07291644 0.16036056 -0.15046088 -0.01735782 -0.06756701
0.12396516 0.37129337 0.16097133 0.60229 0.12959617 -0.3884139 0.0028469588 0.15316458
-0.22559948 0.023377284 0.03738897 -0.06960979 -0.16934273 -0.09270645 0.2597814 0.23403671
0.102797166 0.19642538 0.46732178 0.046412133 -0.2997093 0.38683534 -0.13857917 -0.36019802
0.17788522 -0.17886263 0.024792306 -0.50785154 0.41103762 -0.09636754 -0.42672795 -0.28900975
-0.0017821913 -0.078675 0.2791368 0.24324135 -0.3366213 0.13526522 -0.18186699 0.038514126
0.14571252 -0.08032132 0.13341051 -0.13612336 -0.0057765828 0.0030936291 -0.4242293 -0.261584
-0.07977021 -0.17432888 -0.0063464358 0.039500017 0.20821813 0.07981406 -0.0066299452 0.32813668
0.11803902 0.17597097 -0.0031365484 0.35457638 -0.16511726 -0.22344309 0.20403878 -0.1080566
0.022721458 0.16528472 -0.16195406 -0.23308359 -0.08131989 -0.311984 -0.4240166 -0.04198546
0.3774977 -0.13870566 -0.06174376 0.01794049 -0.21984889 -0.08998301 0.09596218 -0.016352853
0.044863474 -0.029457863 -0.04955296 -0.00097066973 -0.19869074 0.15615648 0.0017684822 0.5256235
-0.060204107 -0.0146394055 -0.38362026 0.4333209 -0.30093202 -0.28816348 0.057438865 -0.19261815
-0.035888318 -0.06610723 -0.0353033 0.14673261 -0.110662855 -0.060441826 0.008893434 0.05413801
0.22616862 -0.20655525 0.024793448 -0.12616944 -0.07037562 0.33736914 -0.13404746 0.7050854
-0.094590925 -0.059395343 0.07974924 0.013543497 -0.0957019 0.40073797 0.17556891 0.47957224
-0.100056544 0.08724619 -0.28077227 -0.011018288 0.43677503 -0.4396595 -0.17666662 0.13783155
-0.014355361 0.24719481 0.078557305 -0.0008168545 0.11262731 0.13059072 0.5328018 0.2904151
-0.11475207 0.066849686 0.07297473 -0.18660672 0.1928665 0.07690824 0.116810985 -0.12052227
-0.16388993 0.3132335 -0.25577897 0.03997988 0.053524673 0.2889201 -0.06675446 0.094215296
0.26894125 0.23706967 -0.1859929 0.16757046 -0.0249994 0.08573306 -0.049816 0.12317202
-0.30977836 0.16133212 -0.1128368 0.058549542 0.1109376 -0.15425457 0.28424838 0.17912711

bias f4 [64]
00000000: fb91 92bd 56d9 75bd 9079 1f3d 5a74 90bb
00000010: b374 9dbd a16e f6bb e236 d23c 9802 c1bc
00000020: 54bf babd a35b 343d 937c 55bc 7a58 07bd
00000030: 15cc e0bc 036f 3039 1693 093c f456 dc3c
00000040: d9b7 1a3d 29e4 57bc f089 edbc c8d0 16bd
00000050: b3c9 07bb f4a4 bf3c bfa9 5dbd 6d92 c2bc
00000060: 3d63 8abd 7bd6 0c3d 0a7d d0bc 0eea e73c
00000070: 88c0 363d e2b2 06bd 3c06 dc3b 2c27 46bd
00000080: 94a9 83bd 490c 393d 992e c7bd 279e cdbc
00000090: db0e 053d 9158 ac3d 4fd6 c3bd 8e3d c8ba
000000a0: 1f6f 7e3d 44d7 953a 820f 293d d9e5 233b
000000b0: 5ff5 16bd cf19 3ebd aac2 78bd 3657 5dbc
000000c0: fd90 8e3b 6956 14bd f377 84bd 1adc 57bd
000000d0: 6d6b 22bc b555 2e3d f873 75bc 5bf0 a0bb
000000e0: 8d5e a3bd 23bb c5bc 3423 a3bd a5ac 9b3a
000000f0: d92a a6bc f7e3 ccbc 7bf8 5f3c c2a9 44bd
-0.0715675 -0.06002172 0.03893429 -0.0044084014 -0.07688274 -0.007520512 0.025660936 -0.023560807
-0.09118524 0.044032704 -0.013030189 -0.033043362 -0.027441064 0.00016826023 0.008396884 0.026896931
0.037772987 -0.013176956 -0.028996438 -0.036820203 -0.0020719587 0.023394085 -0.05411696 -0.023751462
-0.067572095 0.034384232 -0.025450248 0.028309848 0.044617206 -0.03288544 0.0067146104 -0.0483772
-0.06428829 0.04517773 -0.09725685 -0.025099827 0.03248487 0.0841533 -0.095623605 -0.0015277134
0.062117692 0.0011431952 0.041274555 0.0025008826 -0.036855098 -0.04641133 -0.06073252 -0.013509562
0.00435078 -0.03621522 -0.06468191 -0.05270014 -0.009913308 0.042562205 -0.014981262 -0.004911465
-0.079770185 -0.024137085 -0.07965699 0.0011877014 -0.020284103 -0.025011046 0.013670082 -0.048013456

weight f4 [1, 64]
00000000: 3fbd ccbe bb86 d2be d0a0 9a3e c5a2 703e
00000010: a6e1 c83e 432f 993e 156f c0be 0fe2 963e
00000020: 4996 aebe b2c0 a63e e189 cabe ab2d 683e
00000030: c08f bc3e a25b a73e 52da 02bf 3e4c 91be
00000040: 84b0 85be 929f a03e c06b 96be c74a ef3e
00000050: 6854 01bf 5ede 7c3e 1280 03bf 6e28 86be
00000060: aa11 d2be 401f 023f 21de ab3e 3267 b3be
00000070: c804 0b3f 92c2 2abe ec5a cb3e 8b64 a33e
00000080: 8015 9dbe 2321 d43e ce9c b2be c5e3 d13e
00000090: f03f 383e 57f7 d53e 2a8d d7be ea3e c8be
000000a0: 866f a9be 4172 c5be 155b c1be 9f2d ab3e
000000b0: 80a4 c33e 64d2 aa3e a0e1 bd3e df77 11be
000000c0: a134 e2be 29c3 b9be 9c1d 8b3e c742 9a3e
000000d0: 9296 c0be 0806 ad3e 59db d2be 7c9f 65be
000000e0: d086 b2be 8345 74be 0fd2 d13e 25a9 ee3e
000000f0: e0fe 813e 6397 84be c94c 043f 5836 933e
-0.39988133 -0.41118416 0.30200815 0.23499592 0.39234656 0.2991887 -0.3758475 0.29469344
-0.34099033 0.3256889 -0.39558318 0.22673671 0.36828423 0.32687098 -0.5111438 -0.2837848
-0.26111233 0.31371742 -0.29379082 0.46736738 -0.5051942 0.24694201 -0.51367295 -0.2620272
-0.41029102 0.50828934 0.33567908 -0.3503967 0.5430417 -0.16675785 0.39717805 0.31912646
-0.30680466 0.4143153 -0.34885257 0.40994087 0.1799314 0.41790268 -0.42099887 -0.391105
-0.33092898 -0.3856373 -0.37764803 0.33433244 0.3821144 0.3336364 0.370862 -0.14205883
-0.44180778 -0.36281708 0.27171028 0.30129072 -0.37614876 0.33793664 -0.41182974 -0.2242412
-0.3486848 -0.23854642 0.40980574 0.46613422 0.25389767 -0.2589675 0.51679665 0.28752398
