test/ens_models/ens_model_2_N.pt (torch, 654739 bytes, 6 tensors)

weight f4 [20, 10]
0.46027705 -0.08195936 -0.06826915 -0.048373055 0.30040973 -0.056836493 -0.40890685 -0.10102123
0.30944905 -0.22430313 -0.37268484 0.52859694 0.34235728 0.56538296 -0.5904076 0.4067486
-0.41795647 -0.12736253 0.006900273 -0.40547696 0.09070529 -0.053779267 -1.166872 -0.20227177
-0.48629132 -0.08390764 0.41422054 0.039387368 0.1704423 -0.39905173 -0.12242734 -0.83027595
-0.886909 0.38348833 0.085273 0.37522057 0.39938417 0.24207681 -0.10058769 0.4175865
-0.3195639 0.24525048 -0.4436005 1.1398101 -0.20203194 -1.2164357 -0.23281908 -0.07154854
-0.35303214 -0.798307 0.037899446 -0.10879977 0.012334019 -0.113801114 -1.0411448 -0.50947225
-0.30149752 0.4414732 0.20573895 -0.12494906 0.46509832 -0.44817728 0.14265934 -0.05288549
-0.26961988 -0.5308796 0.03981304 0.017466271 0.3755514 0.10819138 -1.238175 -0.115205966
0.15730637 -0.025228007 0.2913045 -0.2259551 0.05404467 -0.031461135 -0.2737742 -0.086419694
-0.14643708 -0.81729335 0.26561034 0.9702008 0.34683347 -0.6442988 0.1103919 -0.043621983
-0.58960265 0.22115168 0.26125854 0.70271796 0.17473042 0.08390415 0.3683532 0.33606896
0.09856131 -0.6297298 -0.12322473 0.42989188 0.055530336 -0.073346175 -0.0668997 -0.10389694
-0.31643668 1.1181204 0.61341697 -0.19848108 -0.101933904 -0.00056674395 0.46888557 -0.28943527
0.08732093 -0.43517488 -0.108527794 -0.4621399 0.46315783 0.0036784054 0.24508512 0.05077124
-0.18541689 0.0282826 0.19090256 -0.18999067 -0.031465303 -0.17629847 0.6696484 -0.5288411
0.9949238 0.2162859 0.263993 0.41442275 0.6626486 0.80060315 0.3908761 0.0064447555
-0.85299623 0.22671542 -0.31973493 -0.062486593 0.1870554 1.5857861 0.34383675 0.37792563
0.39524627 0.5496094 -0.26319832 0.6738053 0.40573445 0.20735672 0.21546586 0.2119744
-0.22171314 -0.0326009 0.018433578 -0.0003624267 0.6424846 0.33883932 0.07814608 -0.6854232
0.45696047 1.0680858 -0.13159128 -0.70206743 -0.24316594 0.07268075 -0.16351706 0.43413818
-0.29076612 0.5926529 0.46309575 -0.32658848 0.04661698 0.06889288 -0.119748585 0.27720696
-0.39310074 -0.7927651 -0.8347365 -0.29198885 0.6674428 -0.37978673 -0.14357144 -0.2575728
-0.038167134 0.4853011 -0.3740662 -0.04259222 -0.7404483 0.21815051 -0.058887947 1.0374581
0.49252367 0.23361576 0.2686033 -0.19123511 0.569608 0.39281917 0.047391523 0.82618386
00000000: 6fa9 eb3e 4fda a7bd b2d0 8bbd d322 46bd
00000010: 4ecf 993e 62cd 68bd 3d5c d1be 38e4 cebd
00000020: 1b70 9e3e b8af 65be 8cd0 bebe 2152 073f
00000030: 7449 af3e f0bc 103f f424 17bf 5a41 d03e
00000040: 64fe d5be 536b 02be af1b e23b ad9a cfbe
00000050: b2c3 b93d a647 5cbd 105c 95bf 5520 4fbe
00000060: 2dfb f8be c5d7 abbd b714 d43e a654 213d
00000070: 6d88 2e3e 8250 ccbe 2fbb fabd f78c 54bf
00000080: 780c 63bf 9558 c43e 9ca3 ae3d e91c c03e
00000090: 157c cc3e fce2 773e eb00 cebd e6cd d53e
000000a0: e19d a3be f122 7b3e 9b1f e3be 4ce5 913f
000000b0: 76e1 4ebe 2ab4 9bbf 2068 6ebe 0a88 92bd
000000c0: a1c0 b4be d95d 4cbf 733c 1b3d 6ad2 debd
000000d0: a014 4a3c 8f10 e9bd 3c44 85bf c66c 02bf
000000e0: e25d 9abe c608 e23e 3bad 523e 4be5 ffbd
000000f0: 5e21 ee3e 7e77 e5be 4a15 123e 759e 58bd
00000100: 9e0b 8abe bae7 07bf 0013 233d 6d15 8f3c
00000110: 4648 c03e 7193 dd3d 857c 9ebf 1bf1 ebbd
00000120: ec14 213e f7aa cebc dd25 953e c660 67be
00000130: f25d 5d3d 64dd 00bd 222c 8cbe cffc b0bd
00000140: 9af3 15be 233a 51bf 14fe 873e 145f 783f
00000150: 2894 b13e c4f0 24bf 2615 e23d f7ac 32bd
00000160: 33f0 16bf 9675 623e aec3 853e 53e5 333f
00000170: 88ec 323e f0d5 ab3d ca98 bc3e 3b11 ac3e
00000180: 83da c93d f935 21bf 3f5d fcbd ca1a dc3e
00000190: c773 633d 8536 96bd b602 89bd ebc7 d4bd
000001a0: fd03 a2be 921e 8f3f e508 1d3f a03e 4bbe
000001b0: b9c2 d0bd 8b91 14ba c511 f03e dc30 94be
000001c0: 51d5 b23d 3ecf debe d243 debd 9a9d ecbe
000001d0: 0623 ed3e 6711 713b 98f7 7a3e 81f5 4f3d
000001e0: eddd 3dbe e9b0 e73c f67b 433e ea8c 42be
000001f0: c3e1 00bd 9687 34be 146e 2b3f 2162 07bf
00000200: 53b3 7e3f 0d7a 5d3e 172a 873e 382f d43e
00000210: 57a3 293f 54f4 4c3f ea20 c83e 872e d33b
00000220: f65d 5abf 1628 683e 4cb4 a3be f1f1 7fbd
00000230: 738b 3f3e 0afb ca3f 5f0b b03e 787f c13e
00000240: b85d ca3e 34b3 0c3f eec1 86be 817e 2c3f
00000250: 6dbc cf3e 5255 543e 15a3 5c3e d10f 593e
00000260: c508 63be 8588 05bd 0402 973c 1704 beb9
00000270: df79 243f 597c ad3e 0d0b a03d e577 2fbf
00000280: b9f6 e93e 09b7 883f ddbf 06be b1ba 33bf
00000290: 7e00 79be a5d9 943d 0471 27be 5c47 de3e
000002a0: 4cdf 94be 1ab8 173f e31a ed3e 9b36 a7be
000002b0: 72f1 3e3d b617 8d3d bf3e f5bd 12ee 8d3e
000002c0: 8044 c9be a7f2 4abf 4bb1 55bf 907f 95be
000002d0: 88dd 2a3f 6873 c2be 6404 13be 95e0 83be
000002e0: 2455 1cbd 6379 f83e 9b85 bfbe 2e75 2ebd
000002f0: 058e 3dbf d962 5f3e 7d34 71bd 6dcb 843f
00000300: 102c fc3e f838 6f3e 5f86 893e 23d3 43be
00000310: d4d1 113f 981f c93e 9d1d 423d c980 533f

weight f4 [256, 570]
-0.009450961 0.041368313 -0.00097487157 -0.332397 -0.021337217 0.06797669 0.08591153 -0.10833082
-0.07389962 0.15094838 0.09532254 0.0875859 0.058111116 -0.06551889 0.0311816 0.07346897
-0.07405404 0.022283856 0.002099327 0.01563627 0.075633444 0.08498295 -0.021833163 -0.1423405
0.044878036 -0.13180292 -0.043119516 -0.011510852 -0.090912804 0.29985166 -0.05020498 0.6076602
-0.011136778 -0.008410298 0.005687161 0.034797978 1.0297571 0.25254717 0.06085007 -0.07826055
-0.053660516 -0.22608319 -0.2346245 0.05145713 -0.12345186 0.3591655 -0.2595337 -0.33404657
-0.01608001 -0.006355964 0.7043916 0.46314362 0.015253158 0.066025294 -0.05893232 0.04730948
0.023548152 -0.21505219 0.1128845 -0.1597796 0.11263001 0.15306781 -0.22237284 0.24569802
0.0053409324 0.0142845735 0.028869806 -0.01462423 -0.007294614 -0.0032361492 0.6785931 0.5924209
0.20348714 -0.20666784 -0.3225305 -1.2218575 0.42561516 0.68974215 1.0044382 -0.7238295
-0.049049333 -0.016321743 -0.14679573 -0.2793635 -0.095580325 0.05059598 -0.050982583 -0.036974426
0.019708347 0.05493762 -0.014522634 0.07929174 -0.05699106 -0.07211775 0.04900719 0.13103768
0.12963302 -0.08472648 0.048387144 0.19749399 -0.43723968 -0.19492996 -0.039830096 0.17433248
0.19281003 -0.0799144 0.11970245 -0.12582012 -0.07882019 -0.030789912 0.04188777 -0.09525119
-0.04724357 -0.012843573 -0.025992436 -0.0033117877 -0.013505305 0.008719779 -0.024183784 -0.008499358
-0.0014191237 0.013329657 -0.03366934 0.021810086 0.026055763 0.0047058547 0.039827827 -0.01805877
-0.15354545 -0.03693273 -0.011456356 0.1256701 -0.1357093 -0.039232705 0.06129393 -0.0977686
-0.19917066 0.07266127 0.18885675 -0.28412038 -0.32675335 0.022268046 0.46200097 0.07330102
-0.056163754 0.08186209 0.08883961 0.02904233 -1.1233726 0.35455653 0.119941644 -1.1067188
-0.395829 0.17323981 -0.071159616 -0.9443102 -0.35247132 -0.11794438 0.119757615 0.31649905
-0.17177182 -0.13280223 0.25409952 0.43656948 -0.32031068 0.37774605 -0.0747082 0.09889057
-0.41860586 -0.6761741 -0.08090125 -0.44231498 -0.72598463 -0.8942006 0.19127113 -1.0049623
0.8268965 2.5062542 0.11413058 -0.09272323 0.46021152 1.5272206 0.08336823 -0.04630704
-0.19311845 0.052650698 0.080645554 -0.030563463 -0.0142186 0.021451669 0.024672823 0.024225965
0.1095335 0.017116163 0.0143253375 0.19558766 -0.34214604 0.15300375 -0.13188626 -0.0730354
0.28132576 -0.026620794 -0.14616548 0.08791849 -0.0562137 -0.14966597 0.31142572 -0.32713428
-0.029984435 0.015986636 -0.021738892 0.014697015 0.018853335 0.08401489 0.0016043548 0.006519418
0.55834043 1.5010765 -1.4992784 -0.61981875 0.47698617 0.6504437 -0.83445966 -1.498157
1.098211 -0.39443278 0.23819938 -0.7794422 1.3760576 -0.70260555 0.08006551 -1.9140613
-1.1301899 -0.82679725 -0.3852938 -0.87322927 0.055490542 0.19159555 0.08452586 0.5062707
-0.01100903 -0.16362874 -0.033895906 -0.0125458 0.35015154 -0.14097695 0.013082469 -3.5786958e-05
0.14265826 0.048939213 0.0515768 -0.029408982 0.033921625 -0.032023586 0.006319171 0.032204047
00000000: 34d8 1abc d271 293d 868e 7fba f12f aabe
00000010: 63cb aebc 5d37 8b3d 62f2 af3d 8ddc ddbd
00000020: af58 97bd 3692 1a3e 7738 c33d 3d60 b33d
00000030: ec05 6e3d c52e 86bd 8e70 ff3c e676 963d
00000040: a5a9 97bd a28c b63c dd94 093b a317 803c
00000050: b5e5 9a3d 8a0b ae3d 76db b2bc b5c1 11be
00000060: 08d2 373d 58f7 06be 179e 30bd 0398 3cbc
00000070: 7e30 babd 2886 993e bda3 4dbd 9e8f 1b3f
00000080: 0877 36bc 59cb 09bc 5d5b ba3b 5388 0e3d
00000090: 15cf 833f dd4d 813e ec3d 793d 1147 a0bd
000000a0: 21cb 5bbd 5a82 67be 6841 70be b6c4 523d
000000b0: 54d4 fcbd 8ae4 b73e 9ae1 84be 2708 abbe
000000c0: 3aba 83bc b145 d0bb 0253 343f 2921 ed3e
000000d0: 62e8 793c 4538 873d 0463 71bd 96c7 413d
000000e0: 0ee8 c03c a436 5cbe fd2f e73d 439d 23be
000000f0: 90aa e63d cfbd 1c3e b5b5 63be 4398 7b3e
00000100: fd02 af3b d809 6a3c 5f80 ec3c 779a 6fbc
00000110: a807 efbb 9315 54bb 47b8 2d3f e5a8 173f
00000120: ef5e 503e bca0 53be b822 a5be d465 9cbf
00000130: 3bea d93e f192 303f 6e91 803f e44c 39bf
00000140: f4e7 48bd 2db5 85bc 9f51 16be bc08 8fbe
00000150: 9ebf c3bd bb3d 4f3d 1dd3 50bd 7f72 17bd
00000160: 6673 a13c 4506 613d 58f0 6dbc b563 a23d
00000170: 756f 69bd 79b2 93bd c3bb 483d be2e 063e
00000180: 85be 043e 1485 adbd 9931 463d dd3b 4a3e
00000190: e1dd dfbe b89b 47be e224 23bd 3784 323e
000001a0: fe6f 453e 29aa a3bd 8f26 f53d fdd6 00be
000001b0: 7b6c a1bd 203b fcbc 8392 2b3d 0e13 c3bd
000001c0: 7982 41bd d96d 52bc 17ee d4bc 940a 59bb
000001d0: 5b45 5dbc 67dd 0e3c 121d c6bc e440 0bbc
000001e0: e401 baba a264 5a3c dde8 09bd 11ab b23c
000001f0: e572 d53c 9233 9a3b 8122 233d fcef 93bc
00000200: 053b 1dbe c646 17bd 71b3 3bbc aaaf 003e
00000210: 61f7 0abe 79b2 20bd 580f 7b3d e73a c8bd
00000220: 65f3 4bbe 6fcf 943d aa63 413e 3a78 91be
00000230: 374c a7be 7a6b b63c 648b ec3e d81e 963d
00000240: f70b 66bd 50a7 a73d 8bf1 b53d 2eea ed3c
00000250: acca 8fbf 6f88 b53e f7a3 f53d f6a8 8dbf
00000260: 19aa cabe c765 313e 22bc 91bd 50be 71bf
00000270: 1f77 b4be d38c f1bd 7b43 f53d 2a0c a23e
00000280: f4e4 2fbe 4ffd 07be 5519 823e 0986 df3e
00000290: c3ff a3be ee67 c13e 9d00 99bd 2487 ca3d
000002a0: 8253 d6be bf19 2dbf 8eaf a5bd 1c77 e2be
000002b0: 21da 39bf 55ea 64bf 94dc 433e 9ba2 80bf
000002c0: 7daf 533f 7866 2040 4bbd e93d ade5 bdbd
000002d0: d8a0 eb3e f77b c33f f6bc aa3d 73ac 3dbd
000002e0: d8c0 45be 42a8 573d 7f29 a53d 3a60 fabc
000002f0: 21f5 68bc 69bb af3c a91e ca3c 8875 c63c
00000300: 1a53 e03d 3237 8c3c d2b4 6a3c 2248 483e
00000310: c42d afbe 04ad 1c3e 310d 07be 9593 95bd
00000320: ee09 903e da13 dabc 67ac 15be 9c0e b43d
00000330: 5640 66bd 0942 19be 3173 9f3e 257e a7be
00000340: eba1 f5bc 68f6 823c c315 b2bc c0cb 703c
00000350: 4f72 9a3c 0010 ac3d 3749 d23a d8a0 d53b
00000360: 66ef 0e3f 4623 c03f 5be8 bfbf 71ac 1ebf
00000370: 8837 f43e 7a83 263f 269f 55bf 9cc3 bfbf
00000380: 2e92 8c3f 18f3 c9be 8aea 733e 8689 47bf
00000390: a822 b03f f5dd 33bf 63f9 a33d f6ff f4bf
000003a0: 10aa 90bf fca8 53bf 3b45 c5be f48b 5fbf
000003b0: 0d4a 633d a031 443e e51b ad3d f59a 013f
000003c0: 385f 34bc 4b8e 27be 6fd6 0abd e68c 4dbc
000003d0: 1047 b33e 435c 10be da57 563c f419 16b8
000003e0: 0215 123e 7c74 483d 3242 533d 1beb f0bc
000003f0: 67f1 0a3d 2a2b 03bd 0c11 cf3b 64e8 033d

bias f4 [256]
-0.010779948 -0.006664489 -0.050633598 -0.01490675 0.044331808 0.01744471 0.011408772 -0.0070202164
0.04314845 0.037777364 0.061008338 0.0011857001 -0.045342293 0.050034184 -0.044829257 -0.0040589515
0.0026559976 0.055509184 -0.017633751 0.10734987 -0.05252714 0.0336773 0.030651532 0.045681514
-0.047353823 -0.0024748698 0.038245197 -0.0010926306 0.06770347 0.008033636 -0.016587775 0.01634006
0.02491492 -0.022040274 0.018177655 -0.088441126 -0.07097655 -0.0283511 0.0018101756 -0.00545723
-0.0076472256 -0.0181797 -0.03862644 0.001990419 -0.042379748 -0.010895162 0.06702089 0.017649138
0.0043112068 0.0862285 -0.05079736 0.041858688 0.022667207 -0.017128235 0.011273401 -0.032925613
0.03329149 -0.02638516 -0.09593087 -0.008040831 -0.011705176 -0.02185703 0.028792268 0.020852875
0.00498537 0.029863777 0.058442347 0.05588505 -0.011782479 0.019712193 -0.060941912 0.019612323
0.08077587 -0.016199807 0.020773882 -0.041447286 0.011801682 0.029938757 0.031862676 -0.011626498
0.01045258 0.06832674 0.028599396 -0.0072926325 -0.028512103 -0.018670255 -0.024668159 -0.072194465
-0.026382668 -0.030468587 -0.08676494 -0.040918116 -0.04114026 -0.010764514 -0.039796505 0.004775608
-0.02032972 0.067806296 -0.060915936 0.06452837 0.034738738 0.007249533 -0.0042557153 -0.044133883
0.04968579 0.026325129 -0.030308366 0.012346684 -0.011356547 -0.014010293 -0.010313388 0.006158048
0.05348738 0.015071182 -0.068121634 0.06405863 -0.0648512 0.036279112 -0.037126116 -0.027730305
0.03121411 0.027032908 -0.011619864 -0.074613765 -0.009522014 -0.113819286 0.008593353 -0.01102468
-0.029905718 0.017666265 -0.028282305 -0.039711893 -0.010296896 -0.015257619 -0.05166753 -0.05858597
0.07016216 0.013357087 0.004584072 -0.010462014 0.017690081 -0.028635621 0.061396193 -0.01930344
-0.038236253 0.049538884 0.008182257 0.07787849 -0.034596507 0.011793158 -0.0013709178 0.03266214
0.06969395 -0.070093505 0.099820554 0.060390603 -0.06379066 -0.039841227 -0.04857784 -0.020907095
-0.015581333 -0.063175835 -0.01703902 -0.06508206 0.07054289 -0.016043555 -0.0069257086 -0.01233751
-0.012802714 0.007350473 -0.017807638 0.01605496 0.0035931948 0.017309582 0.01862203 -0.072317526
-0.0039031417 0.0008181375 0.0050981366 -0.027471699 -0.013254213 0.028543293 0.055757012 0.04572139
-0.026920907 -0.055496544 -0.041569196 -0.020199602 -0.0009419921 -0.0681131 0.012163365 0.0040185596
-0.03464804 -0.010686499 0.051776823 0.028984394 0.005019277 -0.032829896 0.03706109 -0.021571059
0.049192537 -0.07010413 -0.030098729 -0.020370685 -0.057755623 -0.03429877 -0.043233387 -0.034916017
-0.018670525 0.048626345 0.0013255922 -0.029675996 0.028810244 0.041909296 0.040785536 0.0089171035
-0.034837335 0.005778088 -0.00050080277 -0.00028371252 -0.018366959 0.03452138 0.010925771 -0.03870831
-0.025708647 0.062457528 -0.050013427 0.027564637 0.010958968 -0.06387111 -0.053678572 -0.007843477
-0.04499771 0.10212054 0.0027511742 -0.035481952 0.0028789784 0.035076246 0.042423803 0.043005623
0.035727262 0.11872355 0.022780526 0.016693741 -0.007329594 -0.0070156343 0.07790897 0.017777918
-0.0061721215 0.008411685 0.012438823 0.027324103 0.015280273 0.0137348 0.025314216 -0.05431225
00000000: 619e 30bc c961 dabb 2d65 4fbd 713b 74bc
00000010: 4595 353d 35e8 8e3c dceb 3a3c d809 e6bb
00000020: 6ebc 303d 70bc 1a3d e1e3 793d 7e69 9b3a
00000030: d7b8 39bd a5f0 4c3d e29e 37bd f400 85bb
00000040: 3f10 2e3b 995d 633d a874 90bc 40da db3d
00000050: b326 57bd 35f1 093d ec18 fb3c 8a1c 3b3d
00000060: 15f6 41bd 6d31 22bb ffa6 1c3d 9936 8fba
00000070: 1ea8 8a3d 839f 033c 16e3 87bc 97db 853c
00000080: 601a cc3c ce8d b4bc 4ee9 943c 9f20 b5bd
00000090: 275c 91bd 9140 e8bc 6a43 ed3a 90d2 b2bb
000000a0: 9495 fabb 98ed 94bc c236 1ebd b171 023b
000000b0: 6396 2dbd 9f81 32bc 4042 893d ed94 903c
000000c0: 0645 8d3b 9198 b03d e410 50bd 0474 2b3d
000000d0: 94b0 b93c 8350 8cbc 12b4 383c 02dd 06bd
000000e0: a85c 083d b125 d8bc 6777 c4bd b1bd 03bc
000000f0: 11c7 3fbc 840d b3bc c3dd eb3c a6d3 aa3c
00000100: 515c a33b e1a4 f43c 3e61 6f3d b9e7 643d
00000110: 4c0b 41bc 777b a13c 3a9e 79bd 06aa a03c
00000120: d26d a53d 75b5 84bc fd2d aa3c a1c4 29bd
00000130: d85b 413c 2042 f53c 7082 023d 117d 3ebc
00000140: 4c41 2b3c e4ee 8b3d 4849 ea3c 09f7 eebb
00000150: 3792 e9bc 5df2 98bc e114 cabc b1da 93bd
00000160: 7720 d8bc 4299 f9bc d1b1 b1bd c199 27bd
00000170: b082 28bd a55d 30bc a901 23bd b47c 9c3b
00000180: 838a a6bc 07de 8a3d fd82 79bd 7327 843d
00000190: 354a 0e3d 7e8d ed3b 8773 8bbb bbc5 34bd
000001a0: 5483 4b3d cca7 d73c 4049 f8bc bf49 4a3c
000001b0: cf10 3abc 6e8b 65bc 7cf9 28bc 73c9 c93b
000001c0: 9515 5b3d 1eed 763c 5b83 8bbd 2c31 833d
000001d0: b5d0 84bd 6899 143d 8e11 18bd aa2a e3bc
000001e0: bcb4 ff3c 1e74 dd3c 3e61 3ebc 1acf 98bd
000001f0: 3902 1cbc 161a e9bd 23cb 0c3c dca0 34bc
00000200: d6fc f4bc d8b8 903c 4bb0 e7bc f0a8 22bd
00000210: 50b4 28bc 18fb 79bc 55a1 53bd d8f7 6fbd
00000220: 2eb1 8f3d afd7 5a3c fc35 963b de68 2bbc
00000230: caea 903c 4095 eabc 937a 7b3d 3f22 9ebc
00000240: 9e9d 1cbd 49e9 4a3d e00e 063c c27e 9f3d
00000250: 11b5 0dbd 1738 413c 5eb0 b3ba bcc8 053d
00000260: b4bb 8e3d 2f8d 8fbd b86e cc3d 235c 773d
00000270: ada4 82bd 8e30 23bd 8ff9 46bd 5b45 abbc
00000280: d948 7fbc 5562 81bd 6a95 8bbc be49 85bd
00000290: ca78 903d c66d 83bc 0ef1 e2bb 4423 4abc
000002a0: 79c2 51bc 3ddc f03b 53e1 91bc b185 833c
000002b0: ce7b 6b3b d3cc 8d3c 3a8d 983c 361b 94bd
000002c0: dacb 7fbb 4778 563a 450e a73b 540c e1bc
000002d0: 3328 59bc a0d3 e93c 7761 643d 5a46 3b3d
000002e0: 3c89 dcbc 5850 63bd 7644 2abd a379 a5bc
000002f0: 05f0 76ba e27e 8bbd da48 473c 1fae 833b
00000300: 1aeb 0dbd 6d16 2fbc ef13 543d ae70 ed3c
00000310: bf78 a43b a478 06bd 5fcd 173d cab5 b0bc
00000320: 1d7e 493d c192 8fbd 9c91 f6bc 6ce0 a6bc
00000330: 2991 6cbd de7c 0cbd 7e15 31bd 1904 0fbd
00000340: eef2 98bc 6b2c 473d 7ebf ad3a 131b f3bc
00000350: 7603 ec3c 15a9 2b3d bc0e 273d 0b19 123c
00000360: 98b1 0ebd 1d56 bd3b 4e48 03ba 40bf 94b9
00000370: 4e76 96bc 4a66 0d3d 0102 333c 9b8c 1ebd
00000380: f19a d2bc 77d3 7f3d e1da 4cbd 3ccf e13c
00000390: 3e8d 333c dbce 82bd 10de 5bbd ed81 00bc
000003a0: 854f 38bd 9324 d13d 0b4d 343b 8655 11bd
000003b0: 3ead 3c3b 1cac 0f3d 95c4 2d3d aa26 303d
000003c0: c056 123d 5525 f33d 3a9e ba3c 50c1 883c
000003d0: 172d f0bb 68e3 e5bb bd8e 9f3d ffa2 913c
000003e0: 823f cabb 2ad1 093c 34cc 4b3c ccd6 df3c
000003f0: 1c5a 7a3c ed07 613c c25f cf3c 8676 5ebd

weight f4 [64, 256]
0.35039967 0.28599676 0.09043876 0.2821348 -0.07909804 0.17961346 -0.05397321 -0.18240596
-0.023199018 0.14865308 0.01202264 0.17918822 -0.11995536 0.12661074 0.1201369 -0.27176377
0.02601829 -0.30004066 -0.024088377 -0.16759695 0.38739783 0.076944366 -0.041454043 0.26755735
0.10278927 -0.25240418 -0.043484505 0.025420992 -0.3076817 0.3057512 0.2951421 -0.094679795
0.22772104 0.17524163 0.17215055 0.36691245 -0.032787114 0.0038711699 0.13399112 0.019703511
0.23431939 0.25403127 0.039375436 0.2931791 0.013760714 0.07467483 -0.27601343 -0.12136967
-0.047004618 -0.24543136 0.15175137 0.061542522 -0.43018153 -0.0025683262 0.07957054 -0.048164338
-0.18735442 0.09788421 -0.05208927 0.029098423 -0.021232866 0.15958153 0.012088229 0.17526434
-0.20790203 -0.052170478 0.010937579 0.17297833 -0.08459802 0.0437521 0.122254044 0.06674166
-0.10096584 0.13664158 0.109490104 0.059475627 -0.17707963 -0.051503766 -0.29305267 0.20803812
-0.100458436 0.27257782 0.088731706 -0.019129287 -0.16153413 0.06878755 0.018808464 0.057037473
-0.2655877 0.014658442 0.43648428 0.16053456 0.21002525 0.31298336 0.022688737 0.06094814
-0.14225653 0.043835115 0.14360444 0.28240842 0.1713205 0.16412264 0.14197934 0.4285362
-0.15817691 0.5003839 -0.00058589183 0.31864014 -0.083566524 0.038143378 0.54289776 0.023800036
0.20742127 -0.092327185 0.09527806 0.024575418 0.1503044 0.054115225 -0.03444435 -0.03928849
0.06737487 -0.23003094 0.26034093 -0.022531271 0.29334378 0.6157244 0.02323556 -0.11244225
0.1808386 0.02240734 0.08735154 -0.2671835 -0.2104065 -0.184508 -0.01561108 -0.15377212
0.15779674 -0.077100664 -0.3189998 0.015302561 -0.0351602 -0.008675354 0.08732349 -0.15314034
-0.039809946 -0.06428573 -0.100035004 0.05738332 0.3544305 -0.01730492 0.3144178 0.0745732
-0.06781231 -0.2478631 -0.39712232 0.4640653 -0.018509628 -0.14454655 0.011391419 0.19803756
0.071427256 -0.06279843 -0.12711996 0.15210451 -0.35680223 0.009196647 0.26898375 0.24439293
0.18211037 -0.0470744 -0.29199967 0.030048177 0.113149166 -0.08280291 -0.0007788486 0.069144264
-0.10579563 0.036494244 -0.40207276 0.21196228 0.0039966805 -0.33818868 0.32502952 -0.41068348
-0.0725925 0.033573665 0.45213196 0.28032538 0.37527192 -0.061053507 0.037710693 0.4050029
0.06652619 -0.040436357 -0.16069275 -0.075151585 -0.08136681 -0.25329846 -0.1261505 -0.02801869
-0.103094995 -0.007261793 -0.15521385 0.19140539 0.17359649 -0.26279956 0.27036148 -0.32403037
-0.0059732115 0.47962356 -0.37059718 -0.027551793 0.10998839 -0.04172195 -0.12184069 0.17674948
0.039640147 -0.19711842 0.056449562 -0.09310323 -0.09051915 -0.35830298 -0.007873075 -0.17126124
-0.03923273 0.37076354 0.15995544 0.09110623 0.098319836 0.29309115 -0.05047009 0.18852155
0.05877264 -0.12850328 -0.20717932 -0.12492585 0.14937003 -0.34700727 0.13005319 0.11145043
0.16250883 -0.115758896 0.034775227 -0.103407316 0.22309121 0.16672319 0.30849686 -0.23987854
-0.18630289 0.46068507 0.4742639 0.45133975 0.24903488 0.16568974 -0.25164962 -0.07165813
00000000: 9667 b33e 2b6e 923e f537 b93d f973 903e
00000010: 27fe a1bd 97ec 373e 0313 5dbd a1c8 3abe
00000020: de0b bebc 8338 183e 9bfa 443c 1e7d 373e
00000030: 28ab f5bd 3fa6 013e 560a f63d 9f24 8bbe
00000040: 4f24 d53c ee9e 99be fd54 c5bc 899e 2bbe
00000050: 0259 c63e 0295 9d3d b7cb 29bd 47fd 883e
00000060: 2e83 d23d 1f3b 81be cf1c 32bd af3f d03c
00000070: 7588 9dbe 6c8b 9c3e de1c 973e 7be7 c1bd
00000080: b42f 693e 8b72 333e 3c48 303e f3db bb3e
00000090: c84b 06bd 74b3 7d3b f834 093e 4269 a13c
000000a0: 6cf1 6f3e 6310 823e 2348 213d 921b 963e
000000b0: 9e74 613c 1eef 983d a251 8dbe a990 f8bd
000000c0: ea87 40bd 5c52 7bbe b664 1b3e 0314 7c3d
000000d0: c140 dcbe 5d51 28bb e1f5 a23d f847 45bd
000000e0: d6d9 3fbe 8477 c83d 8f5b 55bd d15f ee3c
000000f0: 8cf0 adbc 5769 233e b50d 463c 7f78 333e
00000100: 45e4 54be b6b0 55bd 8833 333c 3b21 313e
00000110: ba41 adbd 6735 333d 5460 fa3d daaf 883d
00000120: 2ec7 cebd c5eb 0b3e 593c e03d b79c 733d
00000130: 5d54 35be 9df5 52bd 000b 96be f207 553e
00000140: 27bd cdbd 528f 8b3e f8b8 b53d 06b5 9cbc
00000150: 3469 25be 7de0 8c3d 3514 9a3c 20a0 693d
00000160: 1cfb 87be f629 703c de7a df3e 2c63 243e
00000170: dc10 573e 5b3f a03e bbdd b93c c2a4 793d
00000180: b2ab 11be 738c 333d 0b0d 133e d697 903e
00000190: a46e 2f3e c40f 283e 0863 113e 1969 db3e
000001a0: 21f9 21be 2919 003f 8996 19ba cd24 a33e
000001b0: ed24 abbd 3b3c 1c3d 59fb 0a3f 4bf8 c23c
000001c0: 3e66 543e 0916 bdbd 2521 c33d 6352 c93c
000001d0: 66e9 193e eda7 5d3d 8515 0dbd f8ec 20bd
000001e0: d6fb 893d 3b8d 6bbe 684b 853e 8093 b8bc
000001f0: 2831 963e 1da0 1d3f 8058 be3c 1f48 e6bd
00000200: c12d 393e 998f b73c 5de5 b23d 47cc 88be
00000210: cd74 57be aaef 3cbe 9ec5 7fbc 7076 1dbe
00000220: 7895 213e f4e6 9dbd f153 a3be 98b7 7a3c
00000230: 2404 10bd 1223 0ebc a8d6 b23d d2d0 1cbe
00000240: c10f 23bd 3da8 83bd 27df ccbd c60a 6b3d
00000250: ea77 b53e 0cc3 8dbc 5ffb a03e d5b9 983d
00000260: 2ee1 8abd d3cf 7dbe 9e53 cbbe f899 ed3e
00000270: 81a1 97bc 0304 14be 13a3 3a3c 5cca 4a3e
00000280: 7448 923d 779c 80bd bc2b 02be 49c1 1b3e
00000290: c8ae b6be 89ad 163c 3db8 893e 2442 7a3e
000002a0: 247b 3a3e 16d1 40bd fb80 95be 9827 f63c
000002b0: c0ba e73d 9294 a9bd a52b 4cba 829b 8d3d
000002c0: 61ab d8bd fd7a 153d 7bdc cdbe a40c 593e
000002d0: 96f6 823b 1127 adbe 456a a63e 1b45 d2be
000002e0: 60ab 94bd 8a84 093d d77d e73e cf86 8f3e
000002f0: a423 c03e 3e13 7abd 8776 1a3d 8a5c cf3e
00000300: e23e 883d 98a0 25bd a48c 24be 13e9 99bd
00000310: a4a3 a6bd 56b0 81be 992d 01be 7487 e5bc
00000320: 7823 d3bd 56f4 edbb 61f0 1ebe c6ff 433e
00000330: 47c3 313e aa8d 86be d26c 8a3e 4fe7 a5be
00000340: eeba c3bb 3891 f53e eabe bdbe 4cb4 e1bc
00000350: 9841 e13d a3e4 2abd 9d87 f9bd d1fd 343e
00000360: b55d 223d 69d9 49be a837 673d e8ac bebd
00000370: 1b62 b9bd 7d73 b7be 12fe 00bc 1b5f 2fbe
00000380: 80b2 20bd b8d4 bd3e 5ccb 233e e795 ba3d
00000390: e95b c93d 0b10 963e bab9 4ebd cb0b 413e
000003a0: 94bb 703d 5d96 03be d126 54be 20d9 ffbd
000003b0: 75f4 183e f0aa b1be aa2c 053e 1f40 e43d
000003c0: b768 263e 0013 edbd 7870 0e3d 37c7 d3bd
000003d0: 0672 643e 7cb9 2a3e 4df3 9d3e b8a2 75be
000003e0: 2fc6 3ebe eade eb3e b8d2 f23e 0116 e73e
000003f0: 0003 7f3e 92aa 293e 38d8 80be 7fc1 92bd

bias f4 [64]
-0.04721696 -0.0054095862 -0.03747629 -0.061166935 0.0019015656 -0.054819867 -0.06328229 0.056801684
-0.015711373 -0.0077158785 -0.028436322 -0.06720611 -0.06376104 0.008797965 0.017860182 -0.008669413
-0.050841562 0.024768332 -0.028338071 -0.055831116 0.021872794 -0.022129577 0.03811547 -0.007767678
-0.07423391 -0.14379853 0.0027926944 -0.050226375 -0.100049846 -0.024665928 -0.008189571 -0.060899027
0.04138386 0.007056798 0.020884 0.021610282 -0.05975254 -0.015321913 -0.027606072 -0.07107736
-0.031632595 -0.06905554 -0.035295077 -0.028267683 -0.05290919 -0.014934543 -0.09142322 -0.016245332
0.02299647 -0.0753798 -0.059694655 -0.057446245 -0.06070224 0.039009906 -0.02264727 -0.0057938024
-0.008617781 -0.07354677 0.016710883 0.02846738 0.027186131 -0.0021907347 -0.062885374 -0.002589633
00000000: 9266 41bd e642 b1bb bd80 19bd 2e8a 7abd
00000010: f43d f93a cc8a 60bd 259a 81bd e2a8 683d
00000020: 23b5 80bc 7bd5 fcbb 4af3 e8bc 5ba3 89bd
00000030: 2695 82bd 5725 103c 844f 923c 270a 0ebc
00000040: 3e3f 50bd f5e6 ca3c 3e25 e8bc 2baf 64bd
00000050: 932e b33c 1649 b5bc f81e 1c3d 0188 febb
00000060: f307 98bd ec3f 13be a305 373b 2cba 4dbd
00000070: efe6 ccbd 3310 cabc 8d2d 06bc 4271 79bd
00000080: 1f82 293d b63c e73b ec14 ab3c 0c08 b13c
00000090: 14bf 74bd c308 7bbc 2126 e2bc 0291 91bd
000000a0: 2e91 01bd fe6c 8dbd 9291 10bd a191 e7bc
000000b0: 4fb7 58bd 03b0 74bc 193c bbbd ee14 85bc
000000c0: 1863 bc3c b960 9abd 6282 74bd c14c 6bbd
000000d0: e9a2 78bd dac8 1f3d c486 b9bc f0d9 bdbb
000000e0: 9831 0dbc b09f 96bd 43e5 883c 6c34 e93c
000000f0: 73b5 de3c 6e92 0fbb 0cca 80bd d5b6 29bb

weight f4 [1, 64]
-0.24808955 -0.306846 0.37050548 -0.5072409 0.23183683 -0.3941938 -0.25968406 -0.56325144
0.30438972 -0.4296173 0.22589722 0.32128614 -0.22426562 0.33145234 0.31301552 0.34020483
-0.35575485 -0.43565306 0.29630443 -0.25419703 0.3094633 0.35715565 -0.28619793 0.21267575
0.30710828 0.3721514 0.35523555 -0.456717 -0.43817505 0.4051884 -0.37915128 0.45182416
-0.30182105 0.33212012 -0.28241113 0.38402936 -0.38183498 -0.32777375 0.375673 -0.31597754
-0.22706427 -0.38460857 0.11119212 0.08614421 0.39107984 0.26819435 0.23673853 -0.3583241
-0.47746047 0.22209115 -0.16982496 0.40253884 -0.38849267 -0.25975898 0.07263609 0.2881647
0.57414013 0.34985903 -0.0005882192 -0.4188805 0.43896478 -0.28395817 0.3785141 0.23420347
00000000: 300b 7ebe eb1a 9dbe e5b2 bd3e 8ada 01bf
00000010: a266 6d3e c5d3 c9be 4ff5 84be 3f31 10bf
00000020: f8d8 9b3e ccf6 dbbe 9a51 673e 9e7f a43e
00000030: e3a5 65be 1fb4 a93e 9243 a03e 542f ae3e
00000040: 8025 b6be eb0d dfbe 37b5 973e 1d26 82be
00000050: f971 9e3e 1bdd b63e 8988 92be acc7 593e
00000060: 4c3d 9d3e a18a be3e 6fe1 b53e d0d6 e9be
00000070: 7b58 e0be db74 cf3e 1e20 c2be 7f55 e73e
00000080: 4a88 9abe a60b aa3e 3198 90be 7f9f c43e
00000090: e07f c3be f6d1 a7be 3658 c03e cfc7 a1be
000000a0: 8983 68be 6aeb c4be b2b8 e33d 606c b03d
000000b0: 9e3b c83e c550 893e 966b 723e 4276 b7be
000000c0: b375 f4be dd6b 633e 98e6 2dbe 9219 ce3e
000000d0: 83e8 c6be 21ff 84be 3bc2 943d 538a 933e
000000e0: d9fa 123f b920 b33e b932 1aba 8177 d6be
000000f0: febf e03e f762 91be 9acc c13e 09d3 6f3e
