test/ens_models/ens_model_1_CA.pt (torch, 654481 bytes, 6 tensors)

layer0.weight f4 [20, 10]
-0.014846227 0.49880853 0.31670263 0.7120003 -0.4542696 0.13132265 0.120800085 -0.4679055
-0.61396956 0.104591414 0.057885364 -0.44894645 0.22708024 0.48438135 -0.07805189 -0.08575512
0.25765744 -0.62072235 0.030404828 0.08859461 -0.85632616 0.37104857 -0.56075406 0.6046773
-0.40105948 -0.5979115 0.29967883 0.2917602 0.0220244 0.30934536 -0.65927404 -0.3055923
-0.3323993 0.2699722 0.9426024 0.41244075 0.014086775 -0.33264554 -0.5413785 0.24279104
-0.028544504 0.31793523 -0.350882 -0.3555063 -0.5084933 0.9125388 -0.03365577 -0.2409826
0.18313694 -1.0085888 0.19981052 0.80039376 0.254321 1.3215404 -0.4446437 0.2241735
0.30857608 0.050849292 -0.55835766 0.14499229 -0.16631931 0.7814912 0.35323888 0.050706297
-0.83833545 -0.2187491 0.41214046 -0.34491888 -0.55013466 0.17736465 -0.21580312 0.8829761
0.52595794 -0.03388473 -0.04147715 -0.0014135806 -0.008710103 -0.10610812 -0.20292707 -0.43342996
0.023401232 -0.054978985 -0.035229757 0.5188193 0.08602716 0.369189 -0.9143895 -0.5631986
0.610254 -0.0817444 0.29382905 0.01301837 0.37957734 -0.6084921 0.2883786 -0.8449962
-0.035845254 0.0028185293 -0.29767674 -0.20608287 0.370275 1.0373508 -0.04063117 0.1603266
0.27823374 0.21820335 -0.1042859 1.034325 -0.20351444 0.050171953 0.2591416 0.31973854
0.28029543 -0.15908882 -0.8584182 0.3563296 0.027059708 0.025732495 0.407089 0.85942906
0.36662126 -0.60744506 -0.2685357 0.37357193 0.0051881247 0.5408606 0.66908616 1.0389532
0.22984685 -0.20459157 0.10385728 -0.7294879 -0.08604296 0.6720067 -0.97185993 0.2962223
-0.57837725 0.32196754 0.75557345 -0.7186582 0.103411295 0.26304555 0.46378338 0.1899025
0.0149011295 0.048457656 0.05760042 0.19897626 -0.8505273 1.2127345 0.3294448 -0.84669125
0.47518152 -0.21075131 0.79331386 0.009473064 0.5270227 -0.2783691 0.5542008 -0.5722051
0.07043515 0.36094803 -0.08031841 -0.3138973 0.8218665 0.06860502 -0.18234058 -0.033887822
0.56602055 1.0770615 1.4660295 -0.13624734 -0.36356047 0.0575485 -0.6436952 -0.09750407
-0.19138435 -0.44636294 -0.6832854 0.25036174 -0.15223342 -0.6836412 -0.26388597 -0.07048551
-0.3368184 1.1327863 0.15081641 0.31993577 -0.15205385 -0.3904765 -0.1503972 -0.87441045
-0.012281477 -0.23235749 0.203824 -0.21662565 0.18530172 0.004269098 -0.055027004 0.73891413
00000000: 973d 73bc d563 ff3e d926 a23e a745 363f
00000010: 0696 e8be 7279 063e 0966 f73d 4f91 efbe
00000020: 1c2d 1dbf 0634 d63d 3419 6d3d 4fdc e5be
00000030: b987 683e d500 f83e abd9 9fbd 61a0 afbd
00000040: adeb 833e a9e7 1ebf 8c13 f93c 1771 b53d
00000050: 3138 5bbf 14fa bd3e 948d 0fbf 22cc 1a3f
00000060: ab57 cdbe ba10 19bf 816f 993e 9861 953e
00000070: 846c b43c 8462 9e3e 2fc6 28bf 9876 9cbe
00000080: 3e30 aabe cc39 8a3e 644e 713f 6f2b d33e
00000090: 37cc 663c 8450 aabe c897 0abf 379e 783e
000000a0: 2ad6 e9bc 68c8 a23e cea6 b3be ec04 b6be
000000b0: 9e2c 02bf 259c 693f a2da 09bd 25c4 76be
000000c0: 4088 3b3e 7019 81bf 219b 4c3e 9be6 4c3f
000000d0: 5d36 823e 3c28 a93f 57a8 e3be bd8d 653e
000000e0: affd 9d3e 5947 503d 87f0 0ebf dc78 143e
000000f0: 9c4f 2abe cf0f 483f badb b43e 68b1 4f3d
00000100: 279d 56bf c4ff 5fbe 1304 d33e 3599 b0be
00000110: a0d5 0cbf 149f 353e 7efb 5cbe b90a 623f
00000120: 2ea5 063f b7ca 0abd f2e3 29bd e547 b9ba
00000130: d2b4 0ebc 374f d9bd 1dcc 4fbe 88ea ddbe
00000140: f1b3 bf3c a531 61bd 144d 10bd 57d1 043f
00000150: 022f b03d 5706 bd3e 6e15 6abf c92d 10bf
00000160: 9b39 1c3f 9c69 a7bd c370 963e 004b 553c
00000170: f657 c23e 23c6 1bbf 5ca6 933e ac51 58bf
00000180: 79d2 12bd 13b7 383b 1669 98be 6307 53be
00000190: af94 bd3e e9c7 843f df6c 26bd a82c 243e
000001a0: a774 8e3e b370 5f3e d993 d5bd c364 843f
000001b0: 1766 50be 1b81 4d3d 35ae 843e c5b4 a33e
000001c0: e282 8f3e 2ee8 22be 4cc1 5bbf d570 b63e
000001d0: 52ac dd3c f4cc d23c f86d d03e 8b03 5c3f
000001e0: c8b5 bb3e 8581 1bbf 837d 89be d244 bf3e
000001f0: 2501 aa3b d775 0a3f 3b49 2b3f 6bfc 843f
00000200: f95c 6b3e 7480 51be 20b3 d43d b8bf 3abf
00000210: 4b37 b0bd a208 2c3f d0cb 78bf 73aa 973e
00000220: 8810 14bf eed8 a43e 436d 413f fcf9 37bf
00000230: 4dc9 d33d e8ad 863e 0475 ed3e cd75 423e
00000240: de23 743c 897b 463d 6bee 6b3d 6fc0 4b3e
00000250: 28bc 59bf e23a 9b3f fdac a83e c2c0 58bf
00000260: fe4a f33e 31cf 57be 9e16 4b3f e934 1b3c
00000270: f6ea 063f 6586 8ebe 1be0 0d3f 097c 12bf
00000280: 4e40 903d 2ece b83e fb7d a4bd 26b7 a0be
00000290: d865 523f ca80 8c3d 7db7 3abe f5cd 0abd
000002a0: b9e6 103f 27dd 893f dba6 bb3f 6c84 0bbe
000002b0: 9924 babe fab7 6b3d 35c9 24bf 37b0 c7bd
000002c0: 42fa 43be af89 e4be cbeb 2ebf 6a2f 803e
000002d0: 14e3 1bbe 1c03 2fbf 101c 87be b55a 90bd
000002e0: 7673 acbe 24ff 903f 9e6f 1a3e 9fce a33e
000002f0: 01b4 1bbe 89ec c7be b901 1abe 5dd9 5fbf
00000300: 4038 49bc 1fef 6dbe 3db7 503e 1dd3 5dbe
00000310: bcbf 3d3e cae3 8b3b ff63 61bd 7a29 3d3f

layer1.weight f4 [256, 570]
-0.035205126 -0.010463247 -0.010562908 0.085713774 0.058541372 -0.003524214 0.010013516 -0.053549286
-0.104281105 0.0850153 0.044035695 0.23622048 0.091477014 0.17553023 0.3282627 0.26019108
0.11275771 0.032461178 -0.011344575 -0.018984659 -0.054445498 0.00020629283 -0.04563896 0.0495635
0.10941113 -0.30450067 0.09228855 0.042913366 0.3231934 0.49984926 0.18036297 0.065871336
-0.23243885 -0.0604289 0.0045504817 0.037189 0.074423574 -0.048005633 0.024911473 0.17865865
-0.03201928 0.28348798 0.038447186 0.1798913 0.31907475 0.27704546 0.36807165 -0.1159092
-0.021355046 -0.021834727 0.02928174 1.8410952 0.105521254 -0.010583529 -0.048259582 0.0031961217
0.051641405 0.03887438 -0.06956111 0.14952098 -0.14223848 0.14891 0.38815185 -0.21314543
0.014980696 -0.00873793 -0.019186124 -0.01650664 0.012804238 0.25561297 -0.018933708 -0.043962188
-0.12659732 0.57338405 0.9121096 -0.64896977 0.8352563 0.101437174 0.7809077 0.6395083
0.05284196 0.0056412253 -0.006418698 -0.0027067189 0.01609823 -0.024177797 -0.030225338 0.25375292
-0.084266454 0.0100780865 -0.0007592503 0.029315982 0.053277098 -0.059286635 0.059037156 -0.123860724
0.051392518 0.0020757013 -0.017374266 -0.07387025 -0.005784541 -0.02943388 0.025955187 0.017233334
0.063357264 0.047762416 0.11467046 -0.32271495 -0.10142712 -0.32784817 0.20155463 -0.3527442
-0.02625865 -0.0439712 0.031081028 0.016030323 0.010531936 -0.023761936 0.020654632 0.008446148
-0.017660499 0.01574613 -0.0051397774 -0.119923905 0.027677491 -0.03201255 -0.05485233 0.055467933
-0.07464463 0.050506953 -0.06973992 -0.026763223 -0.031804834 0.018496176 -0.061718423 0.04695291
-0.077147685 0.08086517 -0.029427443 0.058891747 0.2324157 0.19471581 0.3958251 -0.23803821
-0.26643917 -0.07037279 0.009427397 0.15300164 -0.038086247 -0.08643006 -0.020706229 0.15064399
-0.028703922 -0.08585502 0.02712146 -0.032352384 0.0184358 0.02259459 0.004802003 0.052979697
-0.039581906 0.037060674 -0.03666984 0.026794061 -0.0336908 0.035595987 0.09896115 0.0012824188
0.03847865 0.22222102 0.077465594 -0.16740471 -0.9467072 -0.5041332 0.4106999 0.41384387
0.214636 0.3849496 -0.078950174 -0.4937876 0.03510256 0.1357285 -0.010869903 -0.7572476
-0.620314 -0.05655659 0.0703496 -0.2770816 -0.09640975 -0.046194218 0.004838059 0.012961001
0.2274631 0.08759259 -0.00194154 -0.07556992 -0.1939098 0.079387054 -0.009858764 -0.0073536173
-0.35616842 0.005950287 0.048878465 -0.068989865 -0.84016424 0.20932251 0.3582237 -0.26573178
0.023684891 0.013077811 -0.022727614 0.004781896 0.14709884 0.08935547 -0.15670511 -0.018506305
1.2261353 0.015052761 -0.20781673 -0.39981377 1.0812985 -0.03427316 -0.012498155 -0.46057454
0.32528728 -0.2823955 -0.034400955 -0.45450458 0.12003171 0.017922191 0.0019313126 0.2790778
0.18235467 0.09806522 0.21990408 -0.030842207 -1.8004636 0.425229 0.11180485 -0.6677717
0.029046578 -0.025464593 0.0729871 0.25095794 0.102490686 0.03392491 0.008598879 0.17939931
0.15642816 0.020905508 0.02427838 0.09558642 0.056322902 -0.07679251 0.04582149 0.017295696
00000000: 4033 10bd 0a6e 2bbc 0c10 2dbc b48a af3d
00000010: 14c9 6f3d 80f6 66bb bb0f 243c 7f56 5bbd
00000020: 5591 d5bd 801c ae3d c65e 343d c8e3 713e
00000030: 4d58 bb3d 32be 333e 0c12 a83e c437 853e
00000040: 84ed e63d 03f6 043d 99de 39bc b785 9bbc
00000050: 3e02 5fbd 4f50 5839 ebef 3abd 1903 4b3d
00000060: f112 e03d 83e7 9bbe c801 bd3d edc5 2f3d
00000070: 9b79 a53e 3eec ff3e 12b1 383e 8de7 863d
00000080: 7304 6ebe 4b84 77bd 351c 953b 7e53 183d
00000090: 636b 983d 8ea1 44bd 2513 cc3c 4bf2 363e
000000a0: a626 03bd 5625 913e cc7a 1d3d 6d35 383e
000000b0: c45d a33e e7d8 8d3e e373 bc3e cd61 edbd
000000c0: c7f0 aebc bede b2bc 42e0 ef3c 02a9 eb3f
000000d0: 871b d83d 8a66 2dbc d7ab 45bd 0676 513b
000000e0: f085 533d be3a 1f3d 0e76 8ebd 071c 193e
000000f0: f7a6 11be dd7b 183e d7bb c63e cc42 5abe
00000100: 9871 753c 8929 0fbc 382c 9dbc ef38 87bc
00000110: dec8 513c b4df 823e dd1a 9bbc b211 34bd
00000120: baa2 01be 4cc9 123f 0480 693f e222 26bf
00000130: 5bd3 553f 4bbe cf3d 91e9 473f d1b6 233f
00000140: d070 583d 07da b83b f153 d2bb 3563 31bb
00000150: 6fe0 833c 8410 c6bc 219b f7bc e7eb 813e
00000160: e493 acbd 8f1e 253c 6d08 47ba 1228 f03c
00000170: 1639 5a3d 8bd6 72bd f2d0 713d b1aa fdbd
00000180: f680 523d 7d08 083b 7a54 8ebc 4949 97bd
00000190: 3f8c bdbb 521f f1bc f99f d43c ec2c 8d3c
000001a0: 74c1 813d 86a2 433d 59d8 ea3d e53a a5be
000001b0: 06b9 cfbd b7db a7be 5664 4e3e e39a b4be
000001c0: 611c d7bc 251b 34bd a49d fe3c 0652 833c
000001d0: 248e 2c3c 64a8 c2bc e733 a93c b661 0a3c
000001e0: c0ac 90bc 07fe 803c 946b a8bb aa9a f5bd
000001f0: e8bb e23c 971f 03bd d6ac 60bd 5832 633d
00000200: 49df 98bd 61e0 4e3d ced3 8ebd 8c3e dbbc
00000210: c945 02bd 4b85 973c 75cc 7cbd b251 403d
00000220: 9bff 9dbd a39c a53d d211 f1bc 7938 713d
00000230: 62fe 6d3e 9563 473e 96a9 ca3e 4ac0 73be
00000240: b76a 88be 9c1f 90bd 5e75 1a3c 76ac 1c3e
00000250: 5300 1cbd 3e02 b1bd 1ca0 a9bc 6b42 1a3e
00000260: 7d24 ebbc c2d4 afbd d32d de3c ef83 04bd
00000270: ad06 973c 4a18 b93c 1f5a 9d3b 3d01 593d
00000280: a320 22bd efcc 173d 1d33 16bd 387f db3c
00000290: 5dff 09bd 19cd 113d 25ac ca3d d616 a83a
000002a0: ca9b 1d3d e88d 633e 48a6 9e3d 246c 2bbe
000002b0: 675b 72bf e00e 01bf 4247 d23e 58e3 d33e
000002c0: 8ac9 5b3e 1d18 c53e a1b0 a1bd bad1 fcbe
000002d0: b4c7 0f3d 69fc 0a3e ad17 32bc fbda 41bf
000002e0: e6cc 1ebf e2a7 67bd 7313 903d a4dd 8dbe
000002f0: 7a72 c5bd 2636 3dbd 9588 9e3b 615a 543c
00000300: 16ec 683e be63 b33d 467b feba 67c4 9abd
00000310: 4a90 46be ae95 a23d a786 21bc 9df6 f0bb
00000320: b55b b6be a0fa c23b c934 483d 8f4a 8dbd
00000330: 0115 57bf a458 563e 1969 b73e ff0d 88be
00000340: d106 c23c 5144 563c 432f babc 73b1 9c3b
00000350: 14a1 163e 0000 b73d 4e77 20be 899a 97bc
00000360: 00f2 9c3f db9f 763c e9cd 54be 64b4 ccbe
00000370: fd67 8a3f 0362 0cbd 10c5 4cbc 6dd0 ebbe
00000380: 0e8c a63e 2596 90be 04e8 0cbd d3b4 e8be
00000390: 2fd3 f53d 8fd1 923c 1924 fd3a 49e3 8e3e
000003a0: 2fbb 3a3e 6bd6 c83d 892e 613e cca8 fcbc
000003b0: 9775 e6bf 9eb7 d93e f1f9 e43d 16f3 2abf
000003c0: 17f3 ed3c 1f9b d0bc 437a 953d 8f7d 803e
000003d0: a3e6 d13d d9f4 0a3d 50e2 0c3c 74b4 373e
000003e0: b42e 203e 0742 ab3c 74e3 c63c d0c2 c33d
000003f0: d8b2 663d 6445 9dbd 51af 3b3d b4af 8d3c

layer1.bias f4 [256]
-0.01264346 0.06698717 0.028134132 -0.011709301 0.025994873 0.023434388 -0.004332403 0.0075401226
0.02942292 -0.036497854 -0.002214957 -0.0022632591 0.0143892905 0.02555576 0.054328773 0.061826948
-0.04560218 0.019224286 0.03495149 0.029475791 -0.008006259 -0.028517732 -0.05505622 0.018976228
0.010109398 0.020781368 -0.040067777 -0.0007753679 -0.007613486 -0.0039214636 -0.03553995 -0.015646296
0.05072158 0.033542708 -0.03903951 -0.034850623 0.03724215 -0.029460803 0.042824052 -0.011577613
0.013354089 0.018180138 0.004130813 0.045892734 -0.062645994 -0.016309498 0.030284049 0.020534262
0.018933017 0.015446155 -0.008551726 -0.012970453 0.01912776 -0.007893266 -0.016774228 0.03794413
-0.021150282 -0.011972142 -0.0074733417 0.061025854 0.019694937 0.048835106 -0.008932493 0.021093983
-0.019718165 -0.006292308 -0.029885093 -0.03219903 0.0128134675 0.036148738 0.0148407845 -0.013468733
-0.016298534 -0.0188284 0.02551883 -0.00025891853 -0.05412325 -0.011289041 -0.014171683 -0.02131034
0.029732672 0.015577117 -0.04595572 0.029411409 0.009870985 -0.024328964 0.0052746595 0.0031724111
-0.008547089 -0.003334979 0.05695855 -0.00048529397 -0.0177911 0.024558468 -0.034762714 -0.0638714
0.038768165 0.0065782447 -0.03266014 -0.017790008 -0.022265116 0.03311797 -0.0124012465 0.04040416
-0.016888648 0.023556048 -0.024122281 0.03747418 -0.024775214 0.0041754907 0.031096801 0.026555115
-0.010389804 0.025537843 -0.048800547 0.008202348 -0.020796865 -0.016168112 -0.028381076 0.0442569
-0.029215708 0.04715478 0.018645035 -0.01427986 0.027685449 0.01674261 0.0043915873 -0.021600923
0.050983984 -0.010907231 -0.016684107 0.022358688 0.018435564 -0.021603111 -0.013605293 0.01383194
-0.017653216 -0.014123927 0.015281516 -0.010897604 -0.0044002417 -0.03621829 0.0305025 0.053055756
0.015189994 0.032516167 0.013831676 -0.02680438 0.072803184 0.0019135862 0.026695339 -0.027951065
-0.0009525978 -0.017217936 -0.024439003 0.033610914 0.01266221 0.053524125 -0.0012311265 0.009324738
0.0868019 0.020451505 -0.023619242 -0.03939122 0.012613701 -0.012613617 0.028972508 0.01169355
-0.008301753 -0.024656216 -0.0152958445 0.024790587 -0.015890218 0.047662452 0.011299288 0.0005771188
-0.034482528 -0.021649227 0.021228194 -0.022013275 0.030515935 0.008125352 -0.0136363525 0.013204117
-0.018864501 -0.054139763 0.047414705 -0.0046795555 0.040639453 -0.013657534 0.059546042 -0.058407184
-0.0303982 -0.006431352 0.0062611788 0.025419118 -0.0031068537 -0.031224761 -0.031446036 0.02374754
-0.020393854 -0.0055024726 -0.019199396 -0.056259 -0.015824871 -0.0069199004 -0.003030176 0.02417981
-0.0061440337 0.06990605 -0.009211371 0.024286602 0.021939518 -0.039661836 0.0074883527 -0.038123004
0.002171574 0.04903422 -0.0016491062 0.0067329668 -0.021551682 -0.015820703 -0.02396525 0.00043630216
-0.019671943 0.0075076493 0.005203532 -0.054878797 -0.008056744 -0.015262547 -0.01079589 0.0187145
-0.01792704 -0.0007050625 -0.004190187 -0.0359872 -0.007830613 -0.018888522 -0.034334965 -0.008243314
-0.0060703675 -0.013889861 -0.01474043 -0.011971206 -0.053102307 -0.006185166 0.0014631345 0.022685861
-0.0071844268 0.022174027 0.026765408 0.030932127 0.009703478 0.036613956 -0.058417946 -0.017113565
00000000: 8426 4fbc 9230 893d 8d79 e63c 5ed8 3fbc
00000010: 33f3 d43c 79f9 bf3c d5f6 8dbb 2213 f73b
00000020: 5608 f13c c67e 15bd d028 11bb 3053 14bb
00000030: 0fc1 6b3c 505a d13c d987 5e3d 413e 7d3d
00000040: 5ac9 3abd 407c 9d3c 4b29 0f3d 3777 f13c
00000050: af2c 03bc 059e e9bc a282 61bd 0974 9b3c
00000060: e3a1 253c b03d aa3c 1c1e 24bd 0f42 4bba
00000070: 8d7a f9bb 9f7f 80bb 5792 11bd a92c 80bc
00000080: 6ec1 4f3d 1464 093d e5e7 1fbd 87bf 0ebd
00000090: 3a8b 183d c857 f1bc 4668 2f3d 07b0 3dbc
000000a0: 1ccb 5a3c 83ee 943c c55b 873b 05fa 3b3d
000000b0: 8b4c 80bd 7f9b 85bc 4116 f83c 7837 a83c
000000c0: 6a19 9b3c df11 7d3c 8a1c 0cbc 0682 54bc
000000d0: d2b1 9c3c c252 01bc 1b6a 89bc 4e6b 1b3d
000000e0: 5b43 adbc ce26 44bc efe2 f4bb 3ff6 793d
000000f0: 4757 a13c 5207 483d 9759 12bc 4acd ac3c
00000100: fd87 a1bc b52f cebb 95d1 f4bc 21e3 03bd
00000110: 94ef 513c b310 143d c326 733c f6ab 5cbc
00000120: 8184 85bc 043e 9abc de0c d13c 75bf 87b9
00000130: 57b0 5dbd abf5 38bc 5930 68bc 0693 aebc
00000140: ef91 f33c 2a37 7f3c 113c 3cbd 32f0 f03c
00000150: e9b9 213c 894d c7bc 0dd7 ac3b 3ae8 4f3b
00000160: 1709 0cbc aa8f 5abb 5e4d 693d 0e6f feb9
00000170: a4be 91bc d72e c93c 5963 0ebd 02cf 82bd
00000180: 5ecb 1e3d 518e d73b a4c6 05bd 5abc 91bc
00000190: 5565 b6bc b5a6 073d 992e 4bbc d57e 253d
000001a0: 105a 8abc 9df8 c03c 179c c5bc 877e 193d
000001b0: 64f5 cabc 8ed2 883b b8be fe3c 1d8a d93c
000001c0: ff39 2abc bd34 d13c 15e3 47bd 2463 063c
000001d0: 305e aabc fd72 84bc 6e7f e8bc b946 353d
000001e0: c855 efbc 5f25 413d 79bd 983c 13f6 69bc
000001f0: 98cc e23c cc27 893c 4ee7 8f3b 6bf4 b0bc
00000200: 95d4 503d 3eb4 32bc 1cad 88bc 9129 b73c
00000210: 2e06 973c 02f9 b0bc bce8 5ebc 5c9f 623c
00000220: 7a9d 90bc 0b68 67bc 535f 7a3c dd8b 32bc
00000230: e72f 90bb a159 14bd 61e0 f93c fe50 593d
00000240: 74df 783c ac2f 053d 419e 623c dc94 dbbc
00000250: d619 953d 4cd1 fa3a 2fb0 da3c a2f9 e4bc
00000260: c2b7 79ba a10c 8dbc 4e34 c8bc 99ab 093d
00000270: 2875 4f3c 1d3c 5b3d c05d a1ba c9c6 183c
00000280: 32c5 b13d ea89 a73c 247d c1bc b058 21bd
00000290: b2a9 4e3c 58a9 4ebc c157 ed3c 4e96 3f3c
000002a0: 1304 08bc d5fb c9bc 6c9b 7abc a115 cb3c
000002b0: 342c 82bc b439 433d a620 393c c949 173a
000002c0: 8d3d 0dbd b859 b1bc c0e6 ad3c 2f55 b4bc
000002d0: 8efc f93c 3220 053c 026b 5fbc 1556 583c
000002e0: ba89 9abc a8c1 5dbd ec35 423d f556 99bb
000002f0: 8e75 263d d9c3 5fbc 8de6 733d 5f3c 6fbd
00000300: a505 f9bc 17be d2bb 932a cd3b c13b d03c
00000310: 5b9c 4bbb 12cb ffbc 8fcd 00bd 338a c23c
00000320: 0311 a7bc 164e b4bb 0d48 9dbc d66f 66bd
00000330: 29a3 81bc 55c0 e2bb eb95 46bb bd14 c63c
00000340: e453 c9bb e72a 8f3d 4aeb 16bc b2f4 c63c
00000350: 81ba b33c 7374 22bd db60 f53b de26 1cbd
00000360: f750 0e3b 1bd8 483d d226 d8ba 38a0 dc3b
00000370: 278d b0bc 6b9a 81bc c652 c4bc 7cbf e439
00000380: 0e27 a1bc ba02 f63b 6482 aa3b 97c8 60bd
00000390: 6f00 04bc c30f 7abc 3fe1 30bc 274f 993c
000003a0: badb 92bc f2d3 38ba d64d 89bb 5067 13bd
000003b0: f94b 00bc 1abc 9abc d2a2 0cbd f70e 07bc
000003c0: efe9 c6bb 4d92 63bc d881 71bc e122 44bc
000003d0: ce81 59bd efac cabb a6c6 bf3a b3d7 b93c
000003e0: 576b ebbb 4ea6 b53c 2143 db3c 5f65 fd3c
000003f0: 56fb 1e3c 84f8 153d a847 6fbd bf31 8cbc

layer2.weight f4 [64, 256]
0.17760542 0.35199055 -0.16858308 -0.026901305 -0.012357203 0.035350006 0.22232506 0.036847968
-0.26875514 -0.08886159 0.11602553 0.15055275 -0.03957296 -0.023956174 0.12951584 0.2865113
-0.28571397 -0.015588112 -0.1890382 0.24858995 0.046727587 -0.18480551 0.1864699 0.12944317
-0.004583664 0.05098792 0.04338863 -0.08624866 -0.21306616 0.13012289 0.19669811 -0.10042087
-0.21518123 0.0023305279 -0.1785163 0.014539967 0.2373553 -0.2750491 -0.03101622 0.4589149
-0.15587975 -0.24840152 -0.10524381 0.21329415 0.31463218 0.07916532 0.14995238 -0.060697764
-0.3497752 0.2747328 -0.029561413 0.023995169 -0.11950852 -0.09717664 0.099008895 0.20288233
0.15332615 0.07040087 -0.022986386 -0.35472894 0.1525343 -0.20286429 0.14372274 0.14648014
0.035973445 -0.1492099 -0.07602195 -0.14917617 0.014448382 -0.05411253 -0.082143344 0.04879188
-0.11369167 0.14276825 -0.16161385 0.08961282 0.10282853 -0.24225894 0.043218706 -0.2839089
-0.04870657 0.20274778 -0.25021315 -0.026991583 0.050419148 -0.22282977 2.5479483e-05 0.32806352
0.09954641 -0.28204554 0.18134835 -0.15123247 0.012784627 0.2718112 -0.01907303 0.089986704
0.17006673 0.2286521 0.1243245 0.058424417 0.13933738 -0.13684984 0.17853834 -0.09472953
-0.18642502 -0.34117556 -0.18376362 -0.11806155 0.10544407 -0.0062009576 -0.077327594 -0.04059793
0.09485013 -0.13052008 0.50544715 0.058987286 0.27070665 0.06955181 -0.009935509 0.0422965
-0.14761811 0.07094581 -0.008566877 0.38285562 -0.076025106 0.11016394 -0.13173284 -0.08967483
0.0441577 0.15236361 -0.06548062 0.20801698 0.18031779 0.22877575 0.021721153 -0.18617274
0.13934699 -0.68264246 0.0608955 -0.108516335 -0.1026367 0.28897464 -0.06342 -0.10302326
0.13542472 0.06585796 -0.06761672 0.01709097 0.17824635 -0.04114128 -0.16278306 -0.024747785
0.14735876 -0.001731815 -0.45572087 0.08143758 -0.03846994 0.059384666 -0.3361548 0.057334293
0.12875384 -0.02458618 -0.012270684 -0.288786 0.110639974 -0.00010221939 0.036218356 0.024746438
-0.2140444 -0.015892789 0.18785717 -0.18266565 -0.054424986 0.27271953 0.124354914 -0.34475383
-0.19271508 -0.1808982 0.0059745708 0.15229385 -0.2084379 0.61845523 -0.045576543 -0.16192523
0.28308076 -0.15828547 0.18758611 -0.008070991 -0.025059741 0.01996046 0.075855516 0.06395625
-0.053587873 -0.36018288 0.011964927 -0.08717843 -0.42098832 -0.10215889 0.489826 0.019247513
-0.58358884 -0.00172685 0.2612044 0.2687216 0.019784791 -0.019858692 0.16769193 -0.0096246265
0.37316597 -0.15573323 -0.169414 -0.04400314 -0.2585513 0.037212353 0.31453052 -0.039282903
0.06733328 0.06201427 -0.085855626 -0.059783835 0.11159294 0.019803705 0.021911664 0.034822237
-0.02295476 -0.1974351 -0.039718553 0.21249111 0.36715224 -0.39752734 0.12053997 -0.16502395
0.18922995 0.020889608 0.17742914 0.09909321 0.009554384 -0.016733548 0.14987439 -0.084891975
-0.26004016 -0.26712763 0.28323603 0.01885566 -0.10774425 0.0209529 0.007251446 0.028232004
0.16496997 0.2170711 -0.011085979 -0.06333215 0.096335135 0.035584882 0.004549389 0.08755488
00000000: 32de 353e 1b38 b43e 0ba1 2cbe 2060 dcbc
00000010: de75 4abc 2bcb 103d 2ea9 633e e5ed 163d
00000020: 469a 89be 11fd b5bd cb9e ed3d 802a 1a3e
00000030: 4217 22bd bd3f c4bc cd9f 043e 9cb1 923e
00000040: 1a49 92be 4865 7fbc 3b93 41be 5d8e 7e3e
00000050: 6d65 3f3d a83d 3dbe f7f1 3e3e c08c 043e
00000060: 8f32 96bb b6d8 503d 47b8 313d 23a3 b0bd
00000070: 042e 5abe ef3e 053e 3b6b 493e 75a9 cdbd
00000080: 7858 5cbe c5bb 183b facc 36be 0b39 6e3c
00000090: 450d 733e 3cd3 8cbe ba15 febc e5f6 ea3e
000000a0: f19e 1fbe f85c 7ebe 118a d7bd c869 5a3e
000000b0: 7817 a13e 6d21 a23d 1e8d 193e 389e 78bd
000000c0: bc15 b3be c7a9 8c3e c72a f2bc 8491 c43c
000000d0: e2c0 f4bd 8c04 c7bd 2dc5 ca3d 63c0 4f3e
000000e0: 8801 1d3e 552e 903d f24d bcbc 089f b5be
000000f0: f431 1c3e a8bb 4fbe 0e2c 133e e4fe 153e
00000100: e458 133d 7bca 18be 65b1 9bbd a3c1 18be
00000110: e8b8 6c3c 1aa5 5dbd c53a a8bd ffd9 473d
00000120: 2ed7 e8bd d731 123e 1a7e 25be ed86 b73d
00000130: c497 d23d ba12 78be 1906 313d 825c 91be
00000140: 8a80 47bd 1d9d 4f3e f01b 80be 741d ddbc
00000150: 4f84 4e3d 7d2d 64be c6bc d537 f1f7 a73e
00000160: fdde cb3d 4668 90be 62b3 393e afdc 1abe
00000170: 9d76 513c d62a 8b3e 0b3f 9cbc f34a b83d
00000180: f925 2e3e c723 6a3e d89d fe3d 714e 6f3d
00000190: 75ae 0e3e 5d22 0cbe c1d2 363e 8e01 c2bd
000001a0: 33e6 3ebe 90ae aebe 882c 3cbe 41ca f1bd
000001b0: 10f3 d73d 6731 cbbb ee5d 9ebd 044a 26bd
000001c0: c940 c23d 0ea7 05be fc64 013f a79c 713d
000001d0: 109a 8a3e 2e71 8e3d 8cc8 22bc 183f 2d3d
000001e0: 3429 17be 094c 913d 165c 0cbc a705 c43e
000001f0: 0db3 9bbd a29d e13d f9e4 06be 70a7 b7bd
00000200: b4de 343d 3505 1c3e b41a 86bd 6702 553e
00000210: 3aa5 383e 3144 6a3e 8ff0 b13c 11a4 3ebe
00000220: fab0 0e3e a8c1 2ebf 8f6d 793d d03d debd
00000230: 3133 d2bd 7cf4 933e 58e2 81bd dcfd d2bd
00000240: c7ac 0a3e 8ae0 863d a37a 8abd 5d02 8c3c
00000250: 3686 363e c283 28bd 9ab0 26be debb cabc
00000260: 37e5 163e 12fe e2ba 3f54 e9be bfc8 a63d
00000270: a892 1dbd 563d 733d 7b1c acbe 5dd7 6a3d
00000280: 0cd8 033e f568 c9bc fb0a 49bc c2db 93be
00000290: 3697 e23d 9e5e d6b8 b359 143d 0bb9 ca3c
000002a0: 752e 5bbe 9831 82bc a15d 403e b40c 3bbe
000002b0: bcec 5ebd e5a1 8b3e caad fe3d 9383 b0be
000002c0: 1a57 45be 613d 39be 55c6 c33b ebf2 1b3e
000002d0: bf70 55be 1553 1e3f 78ae 3abd bacf 25be
000002e0: f6ef 903e 9615 22be 9316 403e 313c 04bc
000002f0: 164a cdbc 1e84 a33c 235a 9b3d 7ffb 823d
00000300: f57e 5bbd e469 b8be 8b08 443c 9b8a b2bd
00000310: c88b d7be ae38 d1bd 79ca fa3e f6ac 9d3c
00000320: 1466 15bf 7957 e2ba 95bc 853e e195 893e
00000330: b713 a23c b2ae a2bc 6fb7 2b3e 9cb0 1dbc
00000340: 9c0f bf3e 8878 1fbe dd7a 2dbe a33c 34bd
00000350: d660 84be fb6b 183d 250a a13e 1ce7 20bd
00000360: 08e6 893d ad02 7e3d 13d5 afbd e5df 74bd
00000370: d78a e43d 613b a23c 1780 b33c c3a1 0e3d
00000380: 9f0b bcbc 6d2c 4abe ecaf 22bd 4597 593e
00000390: 61fb bb3e b488 cbbe a9dd f63d 0afc 28be
000003a0: 7fc5 413e af20 ab3c fcaf 353e 62f1 ca3d
000003b0: fe89 1c3c cb14 89bc ac78 193e d8db adbd
000003c0: fc23 85be f4c4 88be 5004 913e 2f77 9a3c
000003d0: 04a9 dcbd 6ba5 ab3c 8a9d ed3b ce46 e73c
000003e0: e3ed 283e e347 5e3e f7a1 35bc 49b4 81bd
000003f0: 5b4b c53d 74c1 113d 0a13 953b f94f b33d

layer2.bias f4 [64]
-0.024040898 -0.02528174 -0.050805952 -0.0037756418 0.033583336 0.014832315 -0.013597201 0.045922842
-0.045470316 -0.05329139 -0.076456614 -0.04606227 -0.008336874 -0.023827322 -0.027064329 -0.04876368
-0.008685612 -0.048680753 -0.0484201 0.030838119 -0.038404636 -0.07767576 0.0142609365 -0.03618969
-0.009349373 -0.078058384 -0.08534247 -0.07037491 0.030816518 -0.017963102 -0.017407268 0.012499835
-0.042903736 -0.053158585 0.00758406 -0.06250546 -0.008614243 -0.040156838 -0.019382952 -0.10651335
-0.023786176 0.011979851 -0.0050311503 -0.0506636 0.00011278587 -0.040794782 -0.04114767 -0.015282006
-0.03303978 -0.010576564 0.04570163 -0.00200824 -0.03140715 0.015465431 0.025447013 0.044488337
0.045601197 0.022696624 -0.037867595 -0.0504448 -0.093569994 -0.024334945 0.059441313 0.015251385
00000000: 6bf1 c4bc a71b cfbc e719 50bd c270 77bb
00000010: ae8e 093d 3d03 733c cbc6 5ebc 9719 3c3d
00000020: 153f 3abd 1348 5abd 4995 9cbd caab 3cbd
00000030: 6297 08bc 8431 c3bc 03b6 ddbc 6dbc 47bd
00000040: 194e 0ebc 7865 47bd 2854 46bd 39a0 fc3c
00000050: 2e4e 1dbd 7814 9fbd b4a6 693c a43b 14bd
00000060: 1d2e 19bc 13dd 9fbd 08c8 aebd b920 90bd
00000070: ec72 fc3c 5b27 93bc b099 8ebc 1ccc 4c3c
00000080: d4bb 2fbd d1bc 59bd b583 f83b dd02 80bd
00000090: c122 0dbc 7f7b 24bd ffc8 9ebc ac23 dabd
000000a0: 3adb c2bc 2347 443c 59dc a4bb a384 4fbd
000000b0: 7487 ec38 6e18 27bd 768a 28bd 6161 7abc
000000c0: b854 07bd 5349 2dbc a231 3b3d ad9c 03bb
000000d0: c9a4 00bd b862 7d3c 4176 d03c 6739 363d
000000e0: 52c8 3a3d 45ee b93c 0d1b 1bbd 359f 4ebd
000000f0: a0a1 bfbd 145a c7bc bc78 733d f2e0 793c

layer3.weight f4 [1, 64]
-0.28159726 -0.27070078 0.22537267 0.15806751 0.1282745 0.03196056 -0.103520714 0.2231617
-0.26243845 0.12737185 -0.35502732 -0.1545123 -0.24414548 0.11556105 -0.21782538 -0.3052798
0.16271934 0.16913946 -0.17757575 -0.30720133 0.29742876 0.19567502 -0.26875055 -0.24586006
0.21205908 0.21274 -0.16099913 -0.12525941 0.2624415 -0.2680963 0.31997505 0.13155067
-0.19697194 -0.2607087 -0.18517867 0.15556663 -0.24578823 0.21212825 0.20869811 -0.17551956
0.29327574 0.2828061 0.32034412 -0.11043389 0.22099468 0.25392944 0.14875859 0.35448727
0.1797344 0.2994674 -0.19856434 -0.32509527 -0.1000467 -0.12741272 -0.1371827 -0.27573365
0.16038246 0.22250725 0.114662245 -0.24063368 -0.23505281 -0.294593 -0.17584866 -0.16273896
00000000: 842d 90be 4b99 8abe 18c8 663e 73dc 213e
00000010: 645a 033e 13e9 023d ab02 d4bd 8084 643e
00000020: 555e 86be c46d 023e 24c6 b5be 7938 1ebe
00000030: 4601 7abe 46ab ec3d 9e0d 5fbe a24d 9cbe
00000040: e69f 263e e532 2d3e 6bd6 35be 7e49 9dbe
00000050: 9548 983e 085f 483e ac99 89be bdc2 7bbe
00000060: 0426 593e 84d8 593e f5dc 24be 0144 00be
00000070: bb5e 863e eb43 89be c5d3 a33e 38b5 063e
00000080: 03b3 49be 9c7b 85be 7a9f 3dbe dc4c 1f3e
00000090: e9af 7bbe 2638 593e f5b4 553e 66bb 33be
000000a0: 3d28 963e f6cb 903e 2504 a43e 2a2b e2bd
000000b0: 6e4c 623e 0a03 823e 2c54 183e 5b7f b53e
000000c0: 4b0c 383e cb53 993e 7354 4bbe e372 a6be
000000d0: 49e5 ccbd 7b78 02be 9f79 0cbe f62c 8dbe
000000e0: 4d3b 243e f1d8 633e 0ad4 ea3d ad68 76be
000000f0: afb1 70be e5d4 96be ac11 34be 0ba5 26be
