test/ens_models/ens_model_5_HA.pt (torch, 654739 bytes, 6 tensors)

weight f4 [20, 10]
0	0x3e074a11	0.13211848
1	0xbf11de82	-0.56980145
2	0xbf6f839c	-0.93560195
3	0xbe8e0c01	-0.27743533
4	0x3e07c817	0.13259922
5	0x3efc7347	0.493067
6	0x3eb2eb0d	0.34944955
7	0x3c817e9c	0.015807442
8	0xbe74fff0	-0.23925757
9	0xbf9514b9	-1.1646949
10	0x3eeb92cc	0.46010435
11	0x3d813e6e	0.06310736
12	0xbdb531e7	-0.08847409
13	0xbf7ec02d	-0.99511987
14	0x3f4e8ac9	0.8068052
15	0xbcf13b7f	-0.029447315
16	0x3f8a936d	1.0826241
17	0x3f0c67bc	0.54845786
18	0xbe113bfa	-0.14183035
19	0x3f081233	0.5315277
20	0xbf77ef79	-0.9684978
21	0xbe6e1d41	-0.23253347
22	0x3eb8b14b	0.36072764
23	0x3eb36b4f	0.35042807
24	0x3ef81312	0.4845205
25	0xbf06aa33	-0.52603453
26	0x3b6c6b1d	0.0036074587
27	0x3f440198	0.7656493
28	0x3f0f9da4	0.56099916
29	0x3e7a7939	0.24460305
30	0x3f4dfa24	0.8045981
31	0x3f25e5fd	0.6480406
32	0xbf20b591	-0.6277705
33	0x3e220a1f	0.15824173
34	0x3f33c8c1	0.702282
35	0xbf299174	-0.6623757
36	0x3ecc6833	0.39923248
37	0xbec60385	-0.3867456
38	0x3f115740	0.5677376
39	0xbf22607c	-0.63428473
40	0xbee5a026	-0.44848746
41	0x3e3819f1	0.17978646
42	0x3f6427f1	0.89123446
43	0x3ea1b62a	0.31584293
44	0x3ed8986a	0.42303783
45	0x3dae0afa	0.08498187
46	0xbe673d60	-0.22582006
47	0xbf87f1e4	-1.0620694
48	0x3d877020	0.06613183
49	0x3e358eb2	0.17730215
50	0x3f09fc2c	0.5390041
51	0x3f299afd	0.6625212
52	0x3ea926a9	0.33037308
53	0x3ecff632	0.4061752
54	0x3e1ec50e	0.15504858
55	0x3e489b35	0.19590457
56	0xbf3cb988	-0.737206
57	0x3ea69450	0.32535028
58	0x3f639cf7	0.88911384
59	0xbe510ffc	-0.20416254
60	0x3e7839b8	0.24240768
61	0xbf3dc7bf	-0.74132913
62	0xbe966473	-0.29373512
63	0x3d881909	0.066454
64	0x3b525280	0.003209263
65	0xbeda9ff5	-0.42700163
66	0x3f10a6c9	0.56504494
67	0xbf280e5c	-0.6564691
68	0x3f6a91d3	0.9162876
69	0xbccac698	-0.0247529
70	0x3ddf51c1	0.10904265
71	0xbf128c51	-0.57245356
72	0x3f0152b2	0.5051681
73	0x3f4d47e1	0.80187804
74	0xbac89adc	-0.0015304941
75	0xbc6a3605	-0.014295106
76	0x3e2a31d5	0.16620572
77	0xbf032a26	-0.5123619
78	0xbf8c30b6	-1.0952365
79	0xbeae49ce	-0.34040684
80	0xbf255cf0	-0.64594936
81	0x3caa0aa3	0.020757025
82	0xbe0c902c	-0.13726872
83	0xbf042b4a	-0.51628554
84	0xbd0bd784	-0.03414108
85	0xbe9d0637	-0.30668804
86	0x3f9dc734	1.2326417
87	0x3e5f9109	0.2183267
88	0xbe61c7a9	-0.2204882
89	0xbf0520ee	-0.5200337
90	0xbea93154	-0.33045447
91	0xbd9b1bbd	-0.0757365
92	0xbf18d266	-0.5969604
93	0xbe348a39	-0.17630853
94	0xbf4a73b8	-0.7908282
95	0x3f17d574	0.5931008
96	0xbcd3a991	-0.025837692
97	0xbf033259	-0.512487
98	0x3f666e14	0.90011716
99	0x3d4761cf	0.048677262
100	0xbeeb54eb	-0.45963225
101	0xbe074511	-0.1320994
102	0xbf2928a6	-0.6607765
103	0xbedd819b	-0.43262944
104	0xbf1cc05f	-0.61231035
105	0x3dbbf3e3	0.09177377
106	0x3e8c10e2	0.2735663
107	0x3e1b79bd	0.15183158
108	0xbe5f78a5	-0.21823366
109	0x3f11bfdb	0.56933373
110	0x3eee8095	0.46582475
111	0x3e974161	0.29542068
112	0xbef7d278	-0.48402762
113	0x3d0b1d77	0.033963647
114	0x3f1b475e	0.6065577
115	0x3f64d69c	0.8938997
116	0xbe263b59	-0.16233577
117	0x3f2de138	0.6792178
118	0x3dfd2744	0.12361005
119	0x3e8ce53a	0.27518636
120	0xbe5c1346	-0.21491727
121	0x3ec09919	0.37616804
122	0xbee3e526	-0.44510764
123	0xbf9080b9	-1.1289283
124	0xbeb695cc	-0.3566116
125	0x3e8c3869	0.27386788
126	0xbf228cbd	-0.63496
127	0xbea929c8	-0.3303969
128	0x3ec5c250	0.3862481
129	0x3d6adc6d	0.05733912
130	0xbd5a96ed	-0.05336659
131	0xbe7dd914	-0.2478984
132	0x3f20981a	0.6273209
133	0xbe67d670	-0.22640395
134	0xbdb7fac8	-0.089833796
135	0x3f4879d9	0.78310925
136	0x3da3a133	0.07989731
137	0x3f2324a4	0.63727784
138	0x3f910086	1.1328285
139	0x3d8ab399	0.06772537
140	0x3f5ec60c	0.87020946
141	0x3f890281	1.0703889
142	0x3f06f00d	0.5271004
143	0x3e89a0d4	0.26880515
144	0xbe1ac603	-0.15114598
145	0xbeecf6b2	-0.46281964
146	0x3e3f9981	0.18710901
147	0x3e1873f8	0.14887989
148	0xbef94feb	-0.48693785
149	0xbf8d01d7	-1.1016186
150	0x3f49a695	0.7876981
151	0xbde02694	-0.10944858
152	0x3a1dc0be	0.00060177955
153	0xbe9e911c	-0.30970085
154	0xbefc5fe7	-0.49291918
155	0xbebd1689	-0.36931255
156	0xbe8a3b22	-0.2699824
157	0xbf6d92d6	-0.9280218
158	0xbefd8c57	-0.49521133
159	0x3e7588b9	0.23977937
160	0xbf925df2	-1.143492
161	0x3ee9e3ee	0.4568171
162	0x3f6378a7	0.88855976
163	0xbf171dfb	-0.5903012
164	0x3f250a7a	0.6446911
165	0xbdf4259d	-0.11921237
166	0x3dad41f2	0.08459844
167	0xbf2c9eb4	-0.6742966
168	0xbed309b5	-0.41218343
169	0x3efb9f97	0.49145195
170	0x3e1edfa6	0.15515003
171	0x3f6082be	0.87699497
172	0x3f2899f8	0.6585994
173	0x3c70b8b0	0.01469247
174	0x3e166ff9	0.14691152
175	0x3f04c14c	0.5185745
176	0x3f59ff42	0.8515512
177	0x3d85d0f2	0.06533994
178	0xbe2728ec	-0.16324204
179	0x3e145ff5	0.1448973
180	0xbf622cb1	-0.88349444
181	0xbe0e3506	-0.13887414
182	0x3f2017ef	0.6253652
183	0x3f46bbb1	0.77630144
184	0x3e02c088	0.12768757
185	0x3e2abd14	0.1667369
186	0x3f48c429	0.78424317
187	0xbf558618	-0.83407736
188	0x3f682846	0.9068645
189	0xbe095f22	-0.13415197
190	0xbf2ab795	-0.66686374
191	0x3e5b4f44	0.21416956
192	0xbeb97804	-0.36224377
193	0x3e4aadc4	0.19792849
194	0xbecfc1d3	-0.40577564
195	0x3e7b4e6b	0.24541633
196	0x3eff99b8	0.49921966
197	0xbd2e6b3f	-0.042582747
198	0xbf08c79a	-0.5342957
199	0x3f00d229	0.5032068

weight f4 [256, 570]
0	0xbf36bf9c	-0.7138612
1	0xbe9aea9b	-0.30257115
2	0xba7b6901	-0.0009590537
3	0x3d2d889b	0.042366605
4	0xbcc2d093	-0.023781097
5	0xbcde6fb2	-0.02715287
6	0x3b912b4c	0.00443021
7	0x3bcfec1f	0.0063452865
8	0xbda38fd6	-0.07986419
9	0x3bf384d5	0.0074316063
10	0x3d27d16a	0.040971197
11	0xbbb4a9c6	-0.0055134026
12	0xbd64e2bb	-0.05588029
13	0xbc138040	-0.009002745
14	0xbdf42d72	-0.119227305
15	0xbee10fbc	-0.43957317
16	0xbc3a7747	-0.011380977
17	0xbcabd1ab	-0.020974
18	0x3acfe3d3	0.0015860744
19	0x3d8be691	0.068310864
20	0xbdc233e2	-0.09482552
21	0x3d0c4536	0.034245692
22	0xbd3462b9	-0.04403946
23	0xbb9b48ec	-0.0047389176
24	0xbd1ed8d9	-0.03878102
25	0xbc13f81e	-0.009031324
26	0xbd313076	-0.043259107
27	0xbd8c2295	-0.068425335
28	0xbdb5bfec	-0.08874497
29	0x3cdd658a	0.027025957
30	0xbe005e71	-0.12536027
31	0xbe26da41	-0.16294195
32	0xbcee8b37	-0.029119117
33	0xbc9616c7	-0.018321408
34	0xbf134715	-0.5753034
35	0xbe4c8c1e	-0.19975325
36	0x3d1644b4	0.036686614
37	0x3d0f31ab	0.034959476
38	0x3d408e3e	0.047010653
39	0xbce44dce	-0.027869131
40	0xbdd56eea	-0.10421546
41	0x3d638622	0.05554784
42	0x3bd5da4d	0.0065262676
43	0xbda420d2	-0.080140725
44	0xbd8fcf18	-0.07021922
45	0xbd3ee3b6	-0.04660388
46	0xbe5e7304	-0.21723562
47	0x3e6b163a	0.22957698
48	0xbd1034a6	-0.03520646
49	0x3e6712fc	0.22565836
50	0x3e8026a0	0.2502947
51	0x3c624ffa	0.013813013
52	0xbd59e562	-0.053197272
53	0x3cd8f72e	0.026485052
54	0x3d1781ae	0.036988907
55	0x3d0830e2	0.033249743
56	0x3b2e6499	0.0026610254
57	0x3c97eadf	0.018544612
58	0xbd1ff157	-0.03904852
59	0xbd4c056f	-0.04980987
60	0x3e1fb437	0.1559609
61	0x3d6f058f	0.05835491
62	0x3e38cae7	0.18046151
63	0xbdbad911	-0.091234334
64	0xbc75b441	-0.014996589
65	0xbbc9a925	-0.006154197
66	0xbd1db6d2	-0.03850443
67	0xbd5d7350	-0.05406505
68	0xbd9f35bd	-0.07773922
69	0x3f033d0b	0.5126502
70	0xbe4f17a6	-0.20223865
71	0xbda5b807	-0.08091741
72	0x3e0100d5	0.12597974
73	0x3df55873	0.11979761
74	0xbc029069	-0.007969
75	0x3e8a9831	0.27069238
76	0x3ce5a21d	0.028031403
77	0x3e82c253	0.25538883
78	0xbf89fb53	-1.0779823
79	0x3e87b2ee	0.265037
80	0x3d844263	0.06457975
81	0x3cd569d3	0.026051437
82	0x3cf36942	0.029713277
83	0x3cd4cb77	0.025975926
84	0x3cb8097d	0.022465462
85	0x3d1d7f24	0.03845133
86	0xbc3fbf04	-0.0117032565
87	0x3d1fa0a1	0.038971547
88	0x3d863982	0.065539375
89	0x3c7b7f66	0.015350198
90	0xbd1516e4	-0.036398783
91	0x3d79c9c9	0.060983453
92	0x3c8b126d	0.01697656
93	0xbde29a47	-0.11064582
94	0xbd9f9db5	-0.07793752
95	0xbcc367b7	-0.023853166
96	0xbddd8841	-0.10817004
97	0x3d362e34	0.044477656
98	0xbda978ab	-0.08274969
99	0x3a952929	0.0011380065
100	0x3cd420e5	0.025894592
101	0xbc98e015	-0.018661538
102	0xbdb3583d	-0.087570645
103	0xbd0c36e6	-0.034232043
104	0x3de45318	0.111486614
105	0xbc2df2e9	-0.010616996
106	0xbdb248b1	-0.08705271
107	0xbcd1a69a	-0.025592137
108	0x3e8885af	0.26664492
109	0xbc421abb	-0.011847193
110	0x3bcacd3b	0.006189016
111	0x3d78ea4c	0.060770318
112	0xbdedf7a1	-0.11619497
113	0xbc34ccab	-0.011035125
114	0xbe0c1380	-0.13679314
115	0xbe106ae4	-0.14103276
116	0xbd1a2415	-0.037632067
117	0x3d8af3ac	0.06784758
118	0xbda0fd0c	-0.07860765
119	0xbdaf99af	-0.08574235
120	0xbb1175b5	-0.0022195403
121	0x3dcbaa4a	0.099445894
122	0xbd1907aa	-0.037360825
123	0xbd83ad62	-0.064295545
124	0xbc38bf99	-0.011276149
125	0x3d02c123	0.03192247
126	0x38e9153e	0.000111142625
127	0x3be7a9b5	0.007069791
128	0xbd55b0a8	-0.052170426
129	0x3cef2f0c	0.029197238
130	0xbd32872b	-0.043585937
131	0xbd4d7fa2	-0.05017055
132	0xbc97b053	-0.018516695
133	0xbc9e5f6a	-0.019332606
134	0xbc46a9f9	-0.012125486
135	0xbd9be14e	-0.07611333
136	0xbd6665ee	-0.05624955
137	0xbd7be657	-0.061498966
138	0x3b3fd0eb	0.0029268812
139	0x3dc7522f	0.09732472
140	0x3d6179bf	0.055047747
141	0xbe269424	-0.16267449
142	0xbd9b3889	-0.075791426
143	0x3e20447b	0.15651123
144	0x3d55d556	0.052205406
145	0xbdc5aae1	-0.09651733
146	0xbc082e8e	-0.008311881
147	0x3ec0d2dd	0.37660876
148	0xbe85731d	-0.26064387
149	0xbcb37197	-0.02190475
150	0x3d4087a6	0.047004364
151	0x3f0583db	0.5215432
152	0xbea3d0b7	-0.31995174
153	0xbd02875a	-0.031867363
154	0xbdf080bf	-0.11743306
155	0x3edfa437	0.43679973
156	0x3ea3e242	0.3200856
157	0xbbd16642	-0.006390364
158	0xbcc40390	-0.02392748
159	0xbc251f4e	-0.010078264
160	0x3dd653f4	0.104652315
161	0x3c0709cf	0.008242085
162	0x3d332c9b	0.04374371
163	0x3cfa41ad	0.030548895
164	0xbc2c6701	-0.010522605
165	0xbb60d4c4	-0.0034306506
166	0x3a91cd6b	0.0011123841
167	0x3d25ccc4	0.040478483
168	0x3d69c35d	0.05707108
169	0x3cc61122	0.024178091
170	0xbe27b7a8	-0.16378653
171	0xbc860c8c	-0.016363405
172	0x3bf48344	0.007461937
173	0xbdb59023	-0.088653825
174	0xbdbfe69a	-0.09370156
175	0xbe3d82fb	-0.18506996
176	0xbe1e1c00	-0.15440369
177	0x3d7f5581	0.062337402
178	0xbe1f676e	-0.15566799
179	0xbeb69afb	-0.35665116
180	0xbd8f0c09	-0.069847174
181	0xbd00e3dc	-0.031467304
182	0xbe16a654	-0.14711887
183	0xbea53818	-0.3226936
184	0x3e905cd8	0.28195834
185	0xbdc492b1	-0.09598292
186	0x3c74c920	0.01494053
187	0xbe0d77f3	-0.13815288
188	0x3eaa4708	0.33257318
189	0x3e6ad55a	0.2293295
190	0xbd12bc2c	-0.035823986
191	0x3d7cebce	0.06174832
192	0x3e485276	0.19562706
193	0xbbc92a1d	-0.0061390535
194	0xbc92228f	-0.017838744
195	0x3d03fa33	0.03222103
196	0xbd4c0028	-0.049804837
197	0xbd089cb3	-0.033352565
198	0xbd22ba78	-0.03972861
199	0x38effde5	0.000114436996
200	0xbd87fef7	-0.066404276
201	0x3cc2616f	0.0237281
202	0x3c35b057	0.011089406
203	0xbc9a81bb	-0.018860688
204	0x3d9048ee	0.0704516
205	0x3a523f3d	0.00080202875
206	0x3d8b11fd	0.0679054
207	0xbe9ffe98	-0.31248927
208	0xbbb8d2b1	-0.0056403507
209	0xbd0dc81a	-0.03461466
210	0xbd1a2be0	-0.0376395
211	0x3c5ddeb5	0.013541867
212	0x3cfe2c2c	0.031026922
213	0xbdd4f26e	-0.10397802
214	0xbf1f490d	-0.6222084
215	0xbec18d00	-0.37802887
216	0x3cbb8d1f	0.02289444
217	0xbea22c81	-0.3167458
218	0xbf592e16	-0.84835947
219	0xbf53178a	-0.8245779
220	0x3e5f0169	0.21777882
221	0x3e2e728f	0.17035888
222	0xbf0608ec	-0.52357364
223	0xbe2714cc	-0.16316527
224	0xbe6ca22c	-0.23108739
225	0xbc215e2e	-0.009849114
226	0x3e304164	0.17212445
227	0x3e1ab7f2	0.15109232
228	0xbe9ca280	-0.30592728
229	0x3db2fe23	0.08739879
230	0x3dcf6fd7	0.10128754
231	0xbe8f883d	-0.2803363
232	0xbdc35b64	-0.09538916
233	0x3e8f41fe	0.27980036
234	0x3cea6f26	0.028617453
235	0x3f0963b1	0.5366774
236	0xbe8ba56f	-0.27274653
237	0x3e415ddc	0.18883461
238	0x3ec9f883	0.39447412
239	0x3ec10d66	0.37705535
240	0xbd47392d	-0.04863851
241	0x3d773870	0.060356557
242	0x3edf1d4b	0.43577036
243	0x3dabf672	0.08396615
244	0xbc813d50	-0.015776306
245	0xbc859c20	-0.016309798
246	0x3de26ff5	0.1105651
247	0x3e1f6bd3	0.15568475
248	0x3d1ac655	0.0377868
249	0x3cef2b4f	0.029195456
250	0x3d54acda	0.051922657
251	0xbe0d6fa3	-0.13812117
252	0x3c9029dd	0.017598087
253	0x3ca10eb2	0.019660328
254	0x3d249535	0.040181357
255	0xbd52548e	-0.05135017

bias f4 [256]
0	0x3ceec54d	0.029146815
1	0xbd5c69ae	-0.05381172
2	0x3c86f141	0.01647246
3	0xbda1768e	-0.07883941
4	0xbd1fb612	-0.038991995
5	0x3c892cf2	0.016745064
6	0xbc411bd3	-0.011786419
7	0x3e0ea907	0.13931666
8	0x3bc7f2ff	0.0061019654
9	0x3d98e8af	0.07466256
10	0x3d2628d7	0.04056629
11	0x3b8e4a67	0.0043423655
12	0xbcd8b7a0	-0.026454747
13	0xbd42d5c1	-0.047567133
14	0xbc472b55	-0.012156327
15	0x3bec0706	0.0072029857
16	0x3d5b8b7d	0.053599823
17	0xbd58f7e6	-0.05297079
18	0x3ae44d3e	0.001741804
19	0x3be8c4f3	0.0071035563
20	0x3ca8cb47	0.020604743
21	0x3cc88049	0.024475234
22	0x3cac3c5d	0.021024877
23	0xbcbcfe3c	-0.023070447
24	0xbcf1819c	-0.029480748
25	0x39d8fbbf	0.00041386296
26	0x3d30bfe7	0.043151762
27	0x3a4438a7	0.00074852485
28	0x3cdcf2f8	0.026971325
29	0x3bc48dea	0.005998363
30	0x3d144aca	0.036204137
31	0xbcc4e8f6	-0.024036866
32	0xbd36489f	-0.04450285
33	0x3d4522f9	0.048129056
34	0xbccc6474	-0.024950244
35	0xbd4dccef	-0.050244268
36	0xbc419ffb	-0.0118179275
37	0xbd4e0f37	-0.05030748
38	0x3c3bd971	0.011465416
39	0x3c7e9eef	0.015540822
40	0x3bd63d3d	0.006538062
41	0x3c9d6769	0.019214349
42	0xbcf373eb	-0.02971836
43	0x3cdd3be8	0.027006105
44	0xbcd6004b	-0.026123187
45	0xbd39d161	-0.045365695
46	0xbd00bac4	-0.031428114
47	0x3ba44d6a	0.0050141113
48	0xbd6a79ac	-0.05724494
49	0x3c4632c0	0.012097061
50	0xbcacb81c	-0.021083884
51	0x3d0ab901	0.03386784
52	0x3c50e5c3	0.012750092
53	0x3d2c5c77	0.04208037
54	0x3cf74268	0.030183032
55	0x3beb6403	0.007183553
56	0xbbbc08a7	-0.005738336
57	0x3c992510	0.01869443
58	0x3c1686af	0.0091873845
59	0xbbda1ff8	-0.006656643
60	0xbc846899	-0.016163157
61	0xbd789730	-0.06069106
62	0x3d076875	0.033058602
63	0x3c391db4	0.011298586
64	0xbc5b76c1	-0.013395012
65	0x3b9adb16	0.004725824
66	0xbbab5272	-0.005228334
67	0xbcd8386a	-0.026394088
68	0x3d72777c	0.05919598
69	0xbcd57925	-0.026058743
70	0x3ce99a97	0.028516097
71	0xbd0fafbf	-0.035079714
72	0xbcaaee27	-0.020865513
73	0xbd261a8e	-0.04055267
74	0x3c5cc7de	0.013475386
75	0xbcbb3343	-0.022851592
76	0xbc28b2dc	-0.01029655
77	0xbd9a9498	-0.07547873
78	0xbd328e81	-0.043592934
79	0x3d37b83f	0.044853445
80	0xbc26451d	-0.010148314
81	0x3cc5bbf1	0.024137469
82	0xbd4528d7	-0.04813465
83	0xbbcd1fcb	-0.0062598935
84	0x3d1de991	0.038552824
85	0xbd111769	-0.035422716
86	0xbca9ef90	-0.020744115
87	0x3da097bf	0.07841443
88	0xbd12ba1c	-0.03582202
89	0x3ca6206f	0.020279137
90	0xbca81157	-0.02051608
91	0x3bbffcdd	0.005859001
92	0x3c739391	0.014866726
93	0xbcceecf8	-0.02525948
94	0xbd4d7e77	-0.050169434
95	0xbd12c83f	-0.0358355
96	0x37422891	1.1572746e-05
97	0xbd481b80	-0.04885435
98	0xbb38d88e	-0.0028205249
99	0x3d71195a	0.058862068
100	0xbca9c871	-0.02072546
101	0xbcaa1615	-0.020762483
102	0x3cb7886b	0.022403916
103	0x3bcc37dc	0.006232245
104	0x3b55cdce	0.003262389
105	0xbd03e6d3	-0.032202553
106	0xbd633910	-0.05547434
107	0xbce2da59	-0.027692007
108	0xbb5868bc	-0.003302141
109	0x3cee59c4	0.029095538
110	0x3d13380d	0.035942126
111	0x3cb98c95	0.022650043
112	0xbd414c1e	-0.04719173
113	0xbd305b28	-0.043055683
114	0xbcdea250	-0.027177006
115	0x3a5bdfee	0.0008387555
116	0xbcc6b2ac	-0.02425512
117	0xbc6f6193	-0.014610666
118	0x3c9853a2	0.018594567
119	0xbdb30745	-0.08741621
120	0x3c4f10e3	0.012638303
121	0xbc2e6ba2	-0.010645779
122	0xbcbab0d3	-0.022789394
123	0x3d12b886	0.035820507
124	0x3cee7266	0.029107284
125	0xbd413d97	-0.047177877
126	0x3e3a4c16	0.18193087
127	0xbd5636c9	-0.05229834
128	0x3d19d364	0.037555113
129	0xbd1ffe46	-0.039060853
130	0x3c3c4ce3	0.011492941
131	0xbc369f5e	-0.011146395
132	0xbb1ed81d	-0.00242377
133	0xbd2130e8	-0.03935328
134	0x3b8da272	0.0043223435
135	0x3d09b1d0	0.03361684
136	0xbcad9abe	-0.02119195
137	0x3ce90fa5	0.028449843
138	0xbd16fb5f	-0.03686082
139	0x3d068b37	0.03284761
140	0xbc9ff16e	-0.019524302
141	0x3d38c314	0.045107916
142	0x3d779e81	0.060453895
143	0x3c89e209	0.016831415
144	0xbc1e2bd6	-0.009654006
145	0xbcac1f8d	-0.021011138
146	0xbd12def5	-0.03585716
147	0xbb8e061a	-0.0043342235
148	0x3c81a8d4	0.015827574
149	0xbd3a2bd3	-0.04545195
150	0x3b92b11f	0.004476681
151	0x3c2c99b3	0.010534692
152	0x3ca86f72	0.020560954
153	0x3c66aa4c	0.014078688
154	0x3d19ec3c	0.037578806
155	0xbc8d9628	-0.017283514
156	0x3ca4922a	0.020089228
157	0x3d38c1d7	0.045106735
158	0xbd39e1a7	-0.045381214
159	0xbd08059d	-0.03320848
160	0x3a9b6890	0.0011856724
161	0x3cf0841d	0.029359872
162	0x3b3fd736	0.0029272563
163	0x3d0d3e7c	0.034483418
164	0xbd3f711d	-0.046738733
165	0xbcccf09e	-0.025017079
166	0xbd5f0d59	-0.05445609
167	0x3c84ec8d	0.016226077
168	0xbd2153eb	-0.03938667
169	0x3cde8a05	0.027165422
170	0x3c4ea44d	0.012612415
171	0xbca3d596	-0.019999307
172	0xbd17297c	-0.036904797
173	0x3d2be73c	0.04196857
174	0x3cb6a900	0.022297382
175	0xbc5b18b4	-0.013372589
176	0x3d7b4584	0.061345592
177	0x3b6722ff	0.0035268662
178	0xbaf8a771	-0.00189708
179	0xbc0de83b	-0.008661325
180	0x3d3774c3	0.044789087
181	0xbd4290f9	-0.047501538
182	0xbb6fdc02	-0.003659964
183	0xbc02c26c	-0.007980924
184	0xbbeaacf3	-0.0071617304
185	0x3d04364a	0.032278337
186	0xbd18850a	-0.03723625
187	0x3caef542	0.021357182
188	0x3a98dbe2	0.001166221
189	0xbd017623	-0.031606805
190	0x3d421fd0	0.04739362
191	0x3d316135	0.043305594
192	0xbb2ae40d	-0.002607587
193	0xbcfb180b	-0.030651113
194	0xbacb8e68	-0.0015530111
195	0xbc36f68a	-0.011167178
196	0x3b717fb8	0.0036849808
197	0x3bbfc8b2	0.005852782
198	0x3d9e3abb	0.07726046
199	0x3c7d6ccd	0.015467835
200	0x3b4581cb	0.0030137177
201	0xbdad0227	-0.08447676
202	0xbcbfc381	-0.023408653
203	0x3d07d868	0.033165365
204	0xbb75cfab	-0.0037507813
205	0xbc98ee17	-0.018668218
206	0x3c047938	0.008085541
207	0xb9b09923	-0.00033683432
208	0x3dd72c5f	0.1050651
209	0xbd2d2df7	-0.042280164
210	0xbd3b8762	-0.045783408
211	0xbb919390	-0.0044426396
212	0xbb9c06b9	-0.0047615436
213	0x3bbebfc5	0.0058212006
214	0xbc8993c8	-0.0167941
215	0x3d4fba01	0.050714497
216	0x3d0b3b67	0.033992197
217	0x3cbe9135	0.0232626
218	0x3caf6876	0.021412116
219	0x3c1bbcc4	0.009505454
220	0x3ca9bd7f	0.020720242
221	0x3d34fc34	0.044185832
222	0xbba8e028	-0.0051536746
223	0xbd116ed7	-0.035506096
224	0x3cc68d10	0.024237186
225	0x3c947778	0.018123373
226	0x3d43f3c2	0.047839887
227	0x3bb057a5	0.005381542
228	0xbcf8f521	-0.030390324
229	0x3d325471	0.04353756
230	0xbd325bd1	-0.043544594
231	0xbcd54e77	-0.026038392
232	0x3bb8ae5f	0.005636021
233	0xbcd7966c	-0.026316844
234	0xbb3cea6e	-0.0028826254
235	0xbcb7026d	-0.022340024
236	0x3ced6227	0.028977467
237	0x3d228df6	0.039686166
238	0xbc34de47	-0.011039323
239	0xbbc7d08d	-0.0060978592
240	0x3cf18f0f	0.029487161
241	0xbd008f12	-0.031386442
242	0x3bd94d88	0.006631557
243	0xbc893b6c	-0.016751967
244	0x3d2b1a84	0.041773334
245	0x3dd8178f	0.105513684
246	0xbc01b90d	-0.007917655
247	0xbd6a3cff	-0.057187077
248	0x3cb38b54	0.021917023
249	0xbc16b347	-0.0091980165
250	0xbcbd8baa	-0.023137886
251	0xbd1c90bd	-0.03822397
252	0xbcbc5f5b	-0.022994688
253	0xbce63be0	-0.028104722
254	0xbd51c184	-0.05120994
255	0x3c05a1df	0.008156269

weight f4 [64, 256]
0	0xbcbf23a1	-0.023332419
1	0x3d8d4eef	0.06899821
2	0x3e6e9374	0.23298436
3	0xbeab9cde	-0.33518118
4	0x3e2370f5	0.15961058
5	0x3e4a8f33	0.19781189
6	0x3d9eb58b	0.0774947
7	0xbc5fef54	-0.0136679
8	0x3e6fc66c	0.23415536
9	0x3d176065	0.036957163
10	0x3d2ca26a	0.042147078
11	0xbe32fcf8	-0.17479312
12	0x3d02b9d1	0.03191549
13	0xbe0f4109	-0.13989653
14	0x3d9283ba	0.07154031
15	0xbe1d7079	-0.15374936
16	0x3daec8a5	0.08534364
17	0xbcb3e1d4	-0.02195827
18	0xbc239c9b	-0.009986068
19	0xbe21bbce	-0.15794298
20	0x3e779372	0.2417734
21	0xbd371091	-0.044693533
22	0x3db35aeb	0.087575756
23	0x3e99b5ce	0.30021518
24	0x3c6cf817	0.014463446
25	0xbf1b7541	-0.6072579
26	0x3deab956	0.11461131
27	0xbd1df5c5	-0.038564462
28	0xbd1fac72	-0.038982816
29	0x3cbdd370	0.02317211
30	0xbe0b405d	-0.13598771
31	0xbe76af06	-0.24090204
32	0x3f147a3f	0.5799903
33	0xbc893753	-0.016750013
34	0xbdfcbc4e	-0.12340604
35	0xbeca3170	-0.39490843
36	0x3d07ace3	0.033123862
37	0x3f0b39a8	0.5438485
38	0xbe1ae3b7	-0.15125929
39	0x3e8dc0b7	0.27686092
40	0xbea3c92e	-0.31989425
41	0x3e84d1f6	0.25941437
42	0xbe1952ab	-0.14972942
43	0xbe6052c0	-0.21906567
44	0xbdf0f9fc	-0.11766431
45	0xbcbd6eeb	-0.023124179
46	0xbd985728	-0.07438499
47	0xbdc7088e	-0.097184286
48	0xbe168d43	-0.14702325
49	0x3e6061bb	0.21912281
50	0x3e11f313	0.14252882
51	0x3dffda7c	0.124928445
52	0x3d1d5ef9	0.03842065
53	0x3e458ee6	0.19292793
54	0x3d20c646	0.03925159
55	0x3d89c240	0.06726503
56	0x3ce17297	0.027520461
57	0xbec0a47a	-0.37625486
58	0xbb28bdfb	-0.0025748003
59	0xbc6365fd	-0.013879296
60	0x3ebff8b4	0.37494433
61	0xbe3c2698	-0.18374097
62	0x3cb6b54b	0.022303244
63	0x3c0ecc7e	0.008715747
64	0xbdc5f01b	-0.09664937
65	0xbeb3dcc7	-0.35129377
66	0x3dc4d93d	0.096117474
67	0xbcbcdf6f	-0.02305576
68	0xbdb87c69	-0.09008104
69	0x3de3eccc	0.1112915
70	0x3b03f176	0.0020132936
71	0xbf0fef4c	-0.56224513
72	0xbdb400cf	-0.08789217
73	0xbe9ebd38	-0.31003737
74	0x3e347bed	0.17625399
75	0xbd484c9c	-0.048901185
76	0xbe1360dc	-0.14392418
77	0xbe1a1315	-0.15046342
78	0xbe071070	-0.13189864
79	0x3de04af2	0.10951795
80	0xbc6bcb94	-0.0143917985
81	0xbcff5304	-0.031167515
82	0xbddea8ad	-0.10872016
83	0xbd8d530c	-0.069006056
84	0x3e1e5bde	0.15464732
85	0x3d0b7cc3	0.03405453
86	0xbe9ef367	-0.31045076
87	0x3da2006f	0.07910239
88	0x3d6cef4c	0.0578454
89	0x3cb4c27f	0.0220654
90	0xbea5fafb	-0.32418045
91	0x3e05244c	0.13002127
92	0xbf084cb8	-0.53242064
93	0x3bb78319	0.005600345
94	0xbe4c30d2	-0.19940498
95	0xbd30f1ae	-0.043199234
96	0x3ec385ef	0.3818812
97	0xbd833b37	-0.06407779
98	0x3e86601f	0.2624521
99	0x3eafa436	0.3430497
100	0x3c36151d	0.011113432
101	0x3e9ffdcc	0.3124832
102	0xbd3bfbb5	-0.045894343
103	0x3dd732ee	0.10507761
104	0xbb54f609	-0.0032495281
105	0x3e0236b4	0.1271618
106	0xbe9f0857	-0.3106105
107	0xbdd2d517	-0.1029455
108	0x3b7fc8ff	0.0039029715
109	0xbebb116d	-0.36536732
110	0xbdc84f30	-0.09780729
111	0x3dc20ec7	0.09475475
112	0xbea57964	-0.32319176
113	0x3cc13712	0.02358583
114	0xbe848705	-0.25884262
115	0xbdfd10f8	-0.12356752
116	0xbdb2e8ba	-0.08735795
117	0x3e91973e	0.284357
118	0x3d15f366	0.036609076
119	0xbe8056ad	-0.25066128
120	0xbec27e5d	-0.37987033
121	0xbd88a644	-0.06672338
122	0xbde46247	-0.111515574
123	0xbdf02824	-0.11726406
124	0xbc0d4b20	-0.008623868
125	0xbce3440a	-0.027742404
126	0x3c891eb0	0.016738266
127	0x3dc5d949	0.096605845
128	0xbd437170	-0.047715604
129	0xbdf41989	-0.11918933
130	0xbe67178e	-0.22567579
131	0xbdb1b112	-0.086763516
132	0x3da0647b	0.07831665
133	0x3e3339c1	0.175025
134	0x3de95b43	0.1139436
135	0x3e76b8ba	0.24093905
136	0x3e8cf3ff	0.27529904
137	0xbe804adb	-0.2505711
138	0xbe65f5f1	-0.224571
139	0x3b8c4e0c	0.004281765
140	0xbd0363c5	-0.03207757
141	0x3e1095e1	0.14119674
142	0x3d8ed29a	0.06973763
143	0xbee80c05	-0.4532167
144	0xbc6f1026	-0.014591252
145	0x3f192ad7	0.59830993
146	0xbc828582	-0.015932802
147	0xbea85852	-0.32879883
148	0xbe0149c4	-0.12625796
149	0xbd8b77e5	-0.068099774
150	0x3cc82091	0.024429591
151	0xbed46f40	-0.41491127
152	0xbe9365ba	-0.2878855
153	0x3e30de4d	0.17272301
154	0x3d53ea8b	0.05173735
155	0xbe5eb6a5	-0.21749361
156	0xbdb7996d	-0.089648105
157	0x3d602cc9	0.05473021
158	0xbd023be5	-0.0317954
159	0xbd00e4cb	-0.031468194
160	0xbdb2d40e	-0.087318525
161	0x3e2d4d32	0.16923979
162	0x3e34215f	0.17590855
163	0xbd103fbb	-0.035217028
164	0xbe4aa130	-0.1978805
165	0xbe2c5182	-0.16827968
166	0x3d979b52	0.07402672
167	0x3ebf513a	0.37366658
168	0x3d38b33f	0.045092817
169	0xbd024e7c	-0.03181313
170	0xbe1280c7	-0.14306937
171	0xbbcc431a	-0.006233585
172	0xbea5cf2c	-0.32384622
173	0x3e122034	0.14270097
174	0xbe023d59	-0.12718715
175	0xbe4336a0	-0.19063807
176	0x3d89ce5a	0.067288116
177	0x3ebd3a72	0.36958653
178	0xbeaaf965	-0.33393398
179	0xbe0e3053	-0.13885622
180	0xbed324f0	-0.4123912
181	0xbf02824b	-0.5098006
182	0x3d99e2db	0.07513972
183	0x3d681090	0.05665642
184	0xbeb351fd	-0.3502349
185	0x3e4c9c1c	0.19981426
186	0x3d4e0472	0.050297208
187	0x3e1f289d	0.15542836
188	0xbe8e95a1	-0.27848533
189	0xbe188bd7	-0.14897095
190	0x3d3282dc	0.04358183
191	0xbda3c406	-0.07996373
192	0xbdaf4bcc	-0.08559379
193	0x3e63948e	0.22224638
194	0xbe134030	-0.14379954
195	0x3d7e4c89	0.06208471
196	0x3db6f2a5	0.089329995
197	0x3bdc3280	0.0067198873
198	0x3e880bbb	0.2657145
199	0xbe261a56	-0.16220984
200	0x3d8f10c7	0.06985622
201	0xbe665fba	-0.22497454
202	0x3f08b15c	0.5339563
203	0xbd6940cc	-0.05694656
204	0xbdf49fc9	-0.11944539
205	0xbbc5450c	-0.006020194
206	0xbd46801a	-0.04846201
207	0x3ee4e891	0.44708684
208	0x3dbb43dc	0.091438025
209	0xbe134a9b	-0.14383928
210	0xbd9cba3d	-0.0765271
211	0xbe5e2674	-0.21694356
212	0x3d42df29	0.047576103
213	0x3e68879b	0.2270798
214	0xbe87a7fd	-0.26495352
215	0x3dabba3b	0.0838513
216	0x3d8fbfcb	0.070190035
217	0x3b1545fc	0.002277731
218	0xbd6bb565	-0.05754604
219	0x3efd2c97	0.49448082
220	0x3dc92919	0.09822292
221	0x3e393fa0	0.18090677
222	0xbec09b25	-0.37618366
223	0xbd9b0afe	-0.07570456
224	0xbe9230a5	-0.28552738
225	0xbeac6a20	-0.33674717
226	0x3e3f9383	0.18708615
227	0xbe41ddf3	-0.18932323
228	0xbe337857	-0.17526375
229	0x3d3708bb	0.04468606
230	0xbbcd7f38	-0.006271269
231	0x3cfd44af	0.03091654
232	0xbe2351b2	-0.15949133
233	0xbe61c665	-0.22048338
234	0xbe32334a	-0.17402378
235	0xbdf90e65	-0.12160949
236	0x3bf676fe	0.007521509
237	0x3c0ba8f1	0.0085241655
238	0x3dd9936d	0.10623822
239	0x3c119de2	0.00888774
240	0x3dbf314c	0.093355745
241	0xbdb6be9d	-0.08923075
242	0x3dd067fc	0.101760834
243	0xbec1724c	-0.37782514
244	0xbe40f70a	-0.18844238
245	0x3ec9e5f8	0.39433265
246	0xbe0ebac9	-0.1393844
247	0x3df34684	0.11878684
248	0xbf3cfc81	-0.7382279
249	0xbda1ff3a	-0.07910009
250	0xbe318448	-0.17335618
251	0x3e8f51a8	0.27991986
252	0xba73c2d8	-0.00092987483
253	0x3e07c183	0.13257413
254	0x3e503e60	0.20336294
255	0xbdbdd66c	-0.09269413

bias f4 [64]
0	0xbd8f42e6	-0.06995182
1	0x3d2807ad	0.041022945
2	0xbd886216	-0.066593334
3	0x3cd16429	0.025560455
4	0xbcb2dc4f	-0.021833567
5	0xbd95ff7b	-0.0732412
6	0xbd023e92	-0.031797953
7	0x3af0a20d	0.0018358842
8	0x3c53e2b4	0.012932468
9	0x3d464ce6	0.04841318
10	0xbcbf0692	-0.023318563
11	0xbd5d204e	-0.053985886
12	0xbd3f9819	-0.04677591
13	0xbd87fb07	-0.066396765
14	0x3d39d3c5	0.045367975
15	0x3cf91a18	0.03040795
16	0x3cbffcb1	0.023435922
17	0xbd186c36	-0.037212573
18	0x3cb847c5	0.02249516
19	0xbd3091da	-0.043107845
20	0xbd73b739	-0.059500907
21	0x3a4a1d2a	0.0007710034
22	0x3ccf0265	0.025269696
23	0xbda1c6e0	-0.078992605
24	0xbd914c67	-0.07094651
25	0xbd42926b	-0.047502916
26	0xbca3b75c	-0.019984894
27	0xbc9db819	-0.019252824
28	0xbd9e980b	-0.07743844
29	0x3ce3785d	0.027767355
30	0xbdbeff0c	-0.0932599
31	0xbc1d709f	-0.0096093705
32	0x3cb02efe	0.021506783
33	0xbd850b77	-0.06496327
34	0xbd5b3bbe	-0.05352377
35	0xbd855e91	-0.06512178
36	0xbb2cc5b9	-0.002636297
37	0x3cc3f9a3	0.023922747
38	0xbd51ea45	-0.051248807
39	0xbc2c4afb	-0.010515924
40	0xbd8d94d2	-0.06913151
41	0x3c38fb86	0.011290437
42	0xbd128e4a	-0.03578023
43	0xbdb86ef5	-0.090055384
44	0xbd8ac207	-0.06775289
45	0xbd2e9d1a	-0.042630292
46	0x3c74b8ce	0.014936639
47	0x3cf0ba53	0.029385721
48	0xbd6bf5b6	-0.057607375
49	0x3d482ced	0.04887097
50	0xbd903c00	-0.07042694
51	0xbd74b342	-0.059741266
52	0xbd05ac73	-0.032635164
53	0x3cf4824c	0.029847287
54	0xbd4cee90	-0.0500322
55	0x3d09adc2	0.033612974
56	0x3d000bc4	0.03126122
57	0xbcade0af	-0.021225302
58	0xbcf3fdfb	-0.029784193
59	0x3c886907	0.016651643
60	0xbd630e7b	-0.05543373
61	0xbaf7434f	-0.0018864664
62	0xbd97c87c	-0.07411286
63	0xbc167daf	-0.009185239

weight f4 [1, 64]
0	0xbec1f2f6	-0.37880677
1	0x3e1feae4	0.15616947
2	0x3e6f166e	0.233484
3	0xbe080e5c	-0.13286728
4	0xbe4d769b	-0.20064776
5	0xbe450d6c	-0.19243401
6	0xbdfcd8d5	-0.12346045
7	0xbd8f4049	-0.06994683
8	0xbd9a7e90	-0.07543671
9	0x3e97ecc5	0.29672828
10	0xbe04ea9d	-0.12980123
11	0x3e4a9635	0.19783862
12	0xbe2de39c	-0.16981357
13	0x3e43b19f	0.19110726
14	0x3e25fad5	0.16208966
15	0xbdddf214	-0.10837188
16	0x3e651ab1	0.22373463
17	0xbe2f44bd	-0.17116065
18	0xbe4ddbf7	-0.20103441
19	0x3e3b4ed3	0.18291788
20	0xbe1b37f8	-0.15158069
21	0xbe2864f9	-0.16444768
22	0xbe2f6634	-0.17128831
23	0x3e43075a	0.19045773
24	0x3e65edce	0.22453997
25	0xbdb99dd8	-0.090633094
26	0x3e19eba6	0.15031299
27	0xbe66e09e	-0.22546622
28	0xbde11ed9	-0.10992212
29	0x3e465677	0.19368921
30	0xbe079b88	-0.13242924
31	0xbdbbe6ac	-0.091748565
32	0x3e40e53f	0.1883745
33	0xbe08d3ad	-0.13361998
34	0x3e45f699	0.19332351
35	0xbe226914	-0.15860397
36	0xbd5dba82	-0.054132946
37	0xbe889c23	-0.26681623
38	0xbe602290	-0.21888185
39	0x3de1cdb9	0.110255666
40	0x3e49b853	0.1969922
41	0xbe0a58a9	-0.13510384
42	0xbe0bd642	-0.13655952
43	0xbe0f0620	-0.1396718
44	0xbe3cd5fc	-0.18441004
45	0xbdf2a3e6	-0.118476674
46	0xbe65c394	-0.22437888
47	0x3de6332c	0.11240229
48	0x3e60f89f	0.21969841
49	0x3e15627d	0.14588352
50	0xbe469997	-0.19394527
51	0xbd2faca6	-0.04288926
52	0xbe1e8875	-0.15481742
53	0xbe1f27a8	-0.15542471
54	0xbd8e8428	-0.069588006
55	0x3eca1b06	0.39473742
56	0x3e37c0c2	0.17944625
57	0x3e1380a5	0.14404543
58	0x3e682eb8	0.22674072
59	0x3e6b50a5	0.22979982
60	0xbdfa39fb	-0.1221809
61	0x3e0a3156	0.13495383
62	0xbda11b68	-0.078665555
63	0x3e314c69	0.17314304
