test/ens_models/ens_model_1_H.pt (torch, 654470 bytes, 6 tensors)

layer0.weight f4 [20, 10]
0	0x3dfe371a	0.124128535
1	0x3e572334	0.21009523
2	0xbf8a3128	-1.0796251
3	0x3ee81cf8	0.453346
4	0x3d908d9a	0.07058258
5	0x3c83d42b	0.01609238
6	0x3f38a5fd	0.7212828
7	0xbea11262	-0.31459337
8	0xbdf8fb11	-0.12157262
9	0x3e128bda	0.14311162
10	0x3e9e72e5	0.30947033
11	0x3f503a30	0.8133879
12	0xbf33e279	-0.70267445
13	0x3d65ea8d	0.05613189
14	0x3e6598cf	0.22421573
15	0xbebac0f4	-0.36475337
16	0xbf3ecb84	-0.7452929
17	0x3c56b67e	0.013105033
18	0x3e48babc	0.19602484
19	0xbef48e2b	-0.47764716
20	0xbf00ae4e	-0.5026597
21	0xbf1726f5	-0.5904382
22	0xbd91dce5	-0.071222104
23	0xbec4a853	-0.3840967
24	0xbe0c7eaa	-0.13720194
25	0xbf2b59b8	-0.66933775
26	0xbf2e1c9f	-0.6801242
27	0x3f647f77	0.89256996
28	0xbe86cb74	-0.26327097
29	0x3ec6bc94	0.3881575
30	0x3ea7e1a9	0.32789353
31	0x3f498e24	0.78732514
32	0x3f0d5f24	0.552233
33	0x3f18a27e	0.59622943
34	0xbf0b4ee3	-0.54417247
35	0xbe4bbc57	-0.19896065
36	0xbf2436a0	-0.6414585
37	0xbee7a262	-0.45241076
38	0xbda73e52	-0.081661835
39	0x3f274d31	0.6535216
40	0xbe5917ca	-0.21200481
41	0x3f3b9726	0.7327751
42	0xbde65871	-0.112473376
43	0xbec1fa76	-0.378864
44	0xbe95c6ff	-0.29253384
45	0x3bd390a7	0.006456453
46	0x3e927d9f	0.28611466
47	0xbe86021e	-0.2617349
48	0xbf2c9144	-0.6740916
49	0xbf62997a	-0.88515437
50	0x3efacd57	0.48984787
51	0x3f564153	0.83693427
52	0x3e3a1618	0.1817249
53	0x3e3501b5	0.17676432
54	0x3f63fff2	0.89062417
55	0xbe2d12ae	-0.16901657
56	0xbf836b87	-1.026719
57	0x3e5133d9	0.20429935
58	0xbeb62f4d	-0.35582963
59	0x3f02ea0e	0.5113839
60	0x3e454dae	0.19267914
61	0xbe9ff880	-0.31244278
62	0xbf58caf6	-0.84684694
63	0xbf02c733	-0.51085204
64	0xbea14b8a	-0.31502944
65	0x3f33c40e	0.7022103
66	0xbdc3db4e	-0.095633134
67	0xbeb1c21a	-0.347184
68	0xbebc6040	-0.36792183
69	0x3d9eb7c9	0.07749898
70	0x3dde167b	0.108441316
71	0x3f2d3285	0.6765521
72	0x3f8c8db3	1.0980743
73	0xbf20c65d	-0.6280268
74	0xbf6dd9ed	-0.92910653
75	0x3ef1e6ce	0.47246403
76	0x3f641346	0.8909191
77	0xbe566abd	-0.20939155
78	0x3d800a3b	0.06251951
79	0xbd197677	-0.037466493
80	0x3d6be237	0.057588782
81	0x3e207c20	0.1567235
82	0xbe8732c8	-0.2640593
83	0x3eaeafc1	0.34118465
84	0x3e4ace47	0.19805251
85	0x3d558b6f	0.052134927
86	0xbdee9b2b	-0.1165069
87	0xbf9ea278	-1.2393332
88	0x3ec79765	0.38982692
89	0xbf007ac9	-0.50187355
90	0x3f397311	0.724412
91	0xbf99d176	-1.2017047
92	0xbcbadbce	-0.02280989
93	0x3f4c2427	0.79742664
94	0xbec15848	-0.37762666
95	0xbf330eba	-0.69944346
96	0x3f21d0b4	0.6320908
97	0xbf09a331	-0.53764635
98	0xbdc1a2b5	-0.09454862
99	0xbe7e41d1	-0.24829794
100	0x3e19c26c	0.15015572
101	0xbdc47987	-0.09593492
102	0x3ed73890	0.4203534
103	0x3f31a61c	0.6939409
104	0x3ebdf1ea	0.37098628
105	0xbe90567a	-0.28190976
106	0xbdd79c13	-0.10527816
107	0x3f8c969e	1.0983465
108	0x3e0c2abe	0.1368818
109	0xbe489f7d	-0.1959209
110	0xbea27b4e	-0.317347
111	0xbeec421f	-0.46144196
112	0xbf273f93	-0.6533138
113	0xbf186962	-0.595358
114	0x3f339be0	0.7015972
115	0xbf3da98d	-0.7408684
116	0xbe40634b	-0.18787877
117	0x3dc67d0b	0.09691819
118	0x3d3b7b98	0.045772165
119	0xbe9b44f4	-0.30326045
120	0xbc83d7ed	-0.016094172
121	0x3d412f7f	0.047164436
122	0xbf69c495	-0.91315585
123	0x3f25b46b	0.6472842
124	0x3e35f784	0.17770201
125	0x3efd12af	0.49428317
126	0x3f178f6e	0.5920323
127	0x3f823b3e	1.0174329
128	0x3d915003	0.07095339
129	0xbcdbf269	-0.026848989
130	0xbe11fbf3	-0.14256267
131	0xbf171766	-0.5902008
132	0x3ef9d40a	0.48794585
133	0x3e81564f	0.2526116
134	0x3d0cf6e5	0.034415144
135	0x3f664ba6	0.8995918
136	0x3b9354c6	0.0044961898
137	0x3e8d2b9a	0.27572328
138	0xbeed8b0e	-0.46395153
139	0xbe337e5f	-0.17528675
140	0xbe94a127	-0.290292
141	0x3f889eb0	1.0673428
142	0x3f5dcb46	0.86638296
143	0x3ef8d32e	0.48598617
144	0x3f01ccf3	0.5070335
145	0xbf0c0d35	-0.5470765
146	0xbf8dd336	-1.1080081
147	0xbe943aee	-0.2895121
148	0xbfa1b902	-1.2634585
149	0xbf42390a	-0.75868285
150	0x3f11c775	0.5694497
151	0x3de89db7	0.11358207
152	0xbf5b8ce1	-0.8576184
153	0xbef6a5af	-0.48173282
154	0xbf825870	-1.0183239
155	0xbf1aa885	-0.6041339
156	0xbf170128	-0.5898614
157	0xbd0c80c8	-0.034302503
158	0xbe81e26e	-0.25368065
159	0x3cb8dac6	0.022565257
160	0x3e9c2fc2	0.30505186
161	0x3f022b99	0.50847775
162	0x3ed2096f	0.41022822
163	0xbd410b51	-0.047129933
164	0x3f7c8620	0.9864216
165	0x3bae55b8	0.005320277
166	0x3ea8a149	0.3293555
167	0xbe2edf52	-0.17077377
168	0xbf424e2a	-0.7590052
169	0xbe807291	-0.25087407
170	0xbd6016c0	-0.054709196
171	0xbf803680	-1.0016632
172	0xbf24954d	-0.64290315
173	0xbf312fcc	-0.6921356
174	0x3f39e878	0.72620344
175	0x3ec4d337	0.38442394
176	0xbe8b2c90	-0.27182436
177	0xbea6473c	-0.32476223
178	0x3f8bae37	1.0912541
179	0xbde25414	-0.11051193
180	0xbe91f6a2	-0.28508478
181	0xbf133955	-0.57509357
182	0x3f0f98f8	0.56092787
183	0xbdb03bf1	-0.08605183
184	0xbf69da76	-0.9134897
185	0xbef3d220	-0.4762125
186	0xbe28c222	-0.16480306
187	0x3ed09685	0.40739837
188	0x3ec83735	0.3910462
189	0xbebc1dbd	-0.36741439
190	0x3f404deb	0.75118893
191	0xbf0491fd	-0.5178526
192	0x3df4e7fd	0.11958311
193	0xbe8925ba	-0.26786596
194	0x3e9ce644	0.3064443
195	0x3f3fecc6	0.7497066
196	0x3e8744d1	0.2641969
197	0x3f23b00a	0.6394049
198	0x3edc1e76	0.4299199
199	0x3f1f69f7	0.62271065

layer1.weight f4 [256, 570]
0	0xbe5911ca	-0.21198192
1	0x3e26f1a0	0.1630311
2	0xbca0d831	-0.019634338
3	0xbdc3f4be	-0.09568165
4	0xbd85f658	-0.06541127
5	0x3cb1d40e	0.02170756
6	0x3ccb9550	0.024851471
7	0xbd646d5c	-0.055768356
8	0xbd179888	-0.0370107
9	0x3e082f93	0.13299398
10	0x3e0da3b2	0.13831976
11	0xbc474b27	-0.012163914
12	0x3d7ce320	0.06174004
13	0x3da0ebbc	0.07857463
14	0x3e23df25	0.16003092
15	0xbde7ebc5	-0.11324266
16	0xbd9e75e5	-0.0773733
17	0xbd738275	-0.059450585
18	0xbdcb8a1d	-0.099384524
19	0xbd9fb1e3	-0.07797601
20	0x3cad2818	0.021137282
21	0xbb48ca3a	-0.0030638115
22	0x3d7fcae3	0.062449347
23	0xbd00629d	-0.031344045
24	0xbc6f9870	-0.014623746
25	0xbd61e797	-0.055152502
26	0xbd0eb023	-0.034835946
27	0xbce53b75	-0.027982453
28	0x3e7da5d1	0.24770285
29	0x3e9521f0	0.29127455
30	0x3e9609dd	0.293044
31	0xbd4fc3a2	-0.05072368
32	0xbb0ee7ae	-0.0021805572
33	0xbc104126	-0.008804595
34	0x3c87e64e	0.01658931
35	0xbe6e5eb7	-0.23278318
36	0xbf26d3d2	-0.6516696
37	0xbd647df5	-0.055784184
38	0xbd12768d	-0.03575759
39	0xbe82d23f	-0.2555103
40	0x3c8a71bc	0.016899936
41	0x3e0dd8d3	0.13852243
42	0xbdd9682f	-0.106155746
43	0xbe3876a9	-0.18014015
44	0x3e2b18d3	0.16708688
45	0xbf1310d7	-0.5744757
46	0xbd1a8441	-0.037723783
47	0x3fd245c5	1.6427542
48	0x3f5b33c2	0.8562585
49	0x3e8d98ce	0.27655643
50	0x3e77fb64	0.24216992
51	0xbc927c0c	-0.017881416
52	0x3ce1fe6b	0.027587136
53	0x3d8bb20a	0.06821068
54	0x3d00af0a	0.03141693
55	0x3daa88d9	0.08326883
56	0x3bb919e3	0.005648838
57	0xbdbcd00d	-0.0921937
58	0xbe47eb4d	-0.19523354
59	0x3d9e068a	0.07716091
60	0x3d459215	0.048235018
61	0xbe60781e	-0.21920821
62	0xbf08bca6	-0.53412855
63	0xbf0d8a0e	-0.5528878
64	0x3d09f4d3	0.03368075
65	0xbcf1e3c0	-0.029527545
66	0x3bab70c4	0.0052319486
67	0x3d1e009a	0.038574792
68	0xbc75c6c6	-0.015001005
69	0x3d95861b	0.07300969
70	0x3d62ab31	0.055339042
71	0xbe34f995	-0.17673333
72	0xbe395613	-0.18099241
73	0x3e356f3b	0.17718212
74	0x3edcae50	0.4310174
75	0xbe287aa6	-0.16453037
76	0xbecb37ed	-0.39691105
77	0xbf4d5837	-0.8021273
78	0xbf4460d5	-0.76710254
79	0xc0024300	-2.0353394
80	0x3ca594c8	0.020212546
81	0x3dacc87b	0.08436676
82	0xbc123ccf	-0.008925631
83	0xbd17ec56	-0.037090622
84	0xbc233d89	-0.009963402
85	0x3d9bb340	0.076025486
86	0x3b976c91	0.0046210964
87	0xbf0a1153	-0.53932685
88	0xbf26962b	-0.6507289
89	0xbea15349	-0.31508854
90	0x3f05a393	0.5220272
91	0xbe6c4647	-0.23073684
92	0xbeb51451	-0.35367063
93	0xbf64b3fc	-0.89337134
94	0xbe9f4c4d	-0.311129
95	0xbeadde86	-0.33958834
96	0xbe2f6e31	-0.17131878
97	0xbeb2a817	-0.34893867
98	0xbd035817	-0.03206643
99	0x3b1c46a8	0.0023845825
100	0xbcca896e	-0.024723735
101	0x3ced1fbc	0.028945796
102	0xbdedbaa6	-0.11607866
103	0xbe1bce20	-0.15215349
104	0x3e23dbf3	0.16001873
105	0xbe662af9	-0.2247733
106	0xbd6c93c1	-0.057758097
107	0x3d56c388	0.052432567
108	0x3f160e35	0.5861543
109	0xbe888c8b	-0.26669726
110	0x3e910535	0.28324285
111	0x3d33c2a6	0.043886803
112	0x3e755d94	0.23961478
113	0x3f06765c	0.5252435
114	0xbe243069	-0.16034092
115	0xbe1bc16d	-0.15210505
116	0x3eb65e7b	0.35618958
117	0x3f1fa849	0.6236616
118	0xbd945abd	-0.072438695
119	0xbe1060d8	-0.14099443
120	0x3deb6056	0.11492984
121	0x3dab3f25	0.08361653
122	0xbe187520	-0.1488843
123	0xbd12f919	-0.03588209
124	0xbe5acbd7	-0.21366821
125	0xbe0f04b1	-0.13966633
126	0xbdf002bf	-0.11719274
127	0xbd211e71	-0.03933567
128	0x3cfee1ee	0.031113591
129	0xbd98b434	-0.07456246
130	0xbcb87121	-0.022514882
131	0x3d3eca53	0.04657967
132	0xbc9d0180	-0.019165754
133	0xbcbe4311	-0.02322534
134	0xbd11e8aa	-0.035622276
135	0xbcd495aa	-0.025950272
136	0x3dbadbe2	0.091239706
137	0x3d9f2275	0.07770244
138	0x3d967f43	0.07348492
139	0xbd83acc7	-0.06429439
140	0x3de17cd7	0.110101394
141	0xbe7468fa	-0.2386817
142	0x3e94d50c	0.29068792
143	0xbe16d448	-0.14729416
144	0xbf5c4964	-0.86049485
145	0xbea595b5	-0.3234078
146	0x3e2f138c	0.170973
147	0xbe373a45	-0.17893322
148	0xbd8fb2e8	-0.070165455
149	0xbdb8e793	-0.09028544
150	0x3828aacd	4.0213392e-05
151	0xbbf25667	-0.007395554
152	0xbdfc19f0	-0.12309635
153	0xbd33c236	-0.043886386
154	0x3c8d1962	0.017224018
155	0xbe9f7e71	-0.31151155
156	0xbe00ee99	-0.12591018
157	0xbd875b4c	-0.0660921
158	0x3c36031d	0.011109141
159	0xbdc594d0	-0.09647524
160	0x3cac11dd	0.021004612
161	0xbc941849	-0.018077986
162	0xbdd1dc17	-0.10247057
163	0xbca900d8	-0.020630285
164	0xbd0d0031	-0.03442401
165	0xbea3e87e	-0.32013315
166	0xbcef864a	-0.029238839
167	0xbb43b037	-0.002985967
168	0x3e8ea45d	0.27859774
169	0xbf1002dc	-0.56254363
170	0x3dff72ca	0.12473066
171	0xbe7cf539	-0.2470292
172	0x3dbddb6a	0.092703655
173	0xbf3ad7e3	-0.72985667
174	0x3e70e6d2	0.23525551
175	0xbebe663f	-0.37187383
176	0xbd81fba7	-0.06346827
177	0xbd291ce0	-0.041287303
178	0xbd4ab5e4	-0.04948987
179	0x3cfa4cf2	0.030554269
180	0x3d8da6e9	0.06916601
181	0x3e9455ba	0.28971654
182	0x3d8ae2bb	0.06781527
183	0x3f147e79	0.5800548
184	0xbc841305	-0.01612235
185	0x3e55ec20	0.20890856
186	0xbe08cb11	-0.13358714
187	0x3dcb2740	0.09919596
188	0x3e3b703a	0.1830453
189	0xbdb37f22	-0.08764483
190	0x3c540754	0.0129412
191	0xbec61057	-0.3868434
192	0xbb8c673c	-0.0042847674
193	0xbd1a7ebe	-0.037718527
194	0x3db40ea8	0.08791858
195	0x3e70e36a	0.23524252
196	0x3dd54a13	0.10414519
197	0x3d7dae76	0.061933957
198	0x3c0fc580	0.008775115
199	0xbe222454	-0.1583417
200	0x3e993f4b	0.299311
201	0x3d882b0e	0.06648837
202	0x3e514555	0.20436604
203	0x3dac278f	0.08405983
204	0xbdc78cf4	-0.097436816
205	0xb9c8a9f0	-0.00038273586
206	0x3e3f6f55	0.18694814
207	0x3e0eb8db	0.13937704
208	0x3b536263	0.0032254688
209	0xbc91ded0	-0.01780644
210	0xbd16387a	-0.036674954
211	0xbc5e218d	-0.013557804
212	0xbd0b5cb5	-0.03402396
213	0xbc829d0b	-0.015944025
214	0x3cd80aa9	0.02637227
215	0xbcc88844	-0.024479039
216	0xbc883601	-0.016627314
217	0x3d7bb222	0.061449178
218	0xbc865d9c	-0.016402058
219	0xba05173c	-0.00050770096
220	0x3e1a3897	0.1506065
221	0x3dc37743	0.09544232
222	0x3e649296	0.22321543
223	0xbe8ad348	-0.2711432
224	0x3f1007e1	0.5626202
225	0x3f05c113	0.5224773
226	0xbd9fa7af	-0.07795655
227	0xbf04ff7f	-0.51952356
228	0x3ec22d88	0.37925363
229	0x3dd1e810	0.102493405
230	0xbd54f8bc	-0.051995024
231	0xbeb1f811	-0.34759572
232	0xbde74eed	-0.11294351
233	0x3eab2592	0.334271
234	0x3ec14f6e	0.37755913
235	0x3d6206c5	0.055182237
236	0x3f511550	0.81673145
237	0x3f0b0ba6	0.5431465
238	0x3f0c4e4d	0.5480698
239	0x3f03815b	0.51369256
240	0xbd16f1a0	-0.036851525
241	0x3c4c45c0	0.012467802
242	0xbd30721c	-0.043077573
243	0xbc247463	-0.010037514
244	0xbec3f3cf	-0.3827195
245	0xbed717dc	-0.4201039
246	0xbe548114	-0.20752364
247	0xbd528c38	-0.051403254
248	0xbe99e548	-0.3005774
249	0xbe1aa60c	-0.15102404
250	0xbe8bed2f	-0.27329394
251	0x3e560658	0.20900857
252	0xbd4dd680	-0.05025339
253	0xbd8f236e	-0.069891796
254	0x3d3a36cc	0.045462415
255	0x3ed5ba63	0.41743764

layer1.bias f4 [256]
0	0x3c9ae77f	0.018909214
1	0xbce3ff6d	-0.027831757
2	0x3d3b22d5	0.045687515
3	0x3c4877fc	0.012235638
4	0xbc129750	-0.0089472085
5	0xbc9a78dc	-0.018856458
6	0xbd0f082a	-0.034919895
7	0xbd884fb9	-0.06655831
8	0x3b590a46	0.0033117696
9	0xbccfca9f	-0.025365172
10	0x3c911c39	0.017713653
11	0xbc5133ce	-0.012768699
12	0x3cdf049d	0.02722388
13	0xbdb34a6d	-0.0875443
14	0x3c49575c	0.0122888945
15	0x3d78a045	0.06069972
16	0xbc5dceff	-0.013538121
17	0x3c126c6d	0.0089369835
18	0xbc9271d2	-0.01787654
19	0xbd00f78d	-0.031486083
20	0x3ce5a054	0.028030552
21	0xbd266a90	-0.04062897
22	0xbc957196	-0.018242639
23	0xbc6b86be	-0.014375387
24	0xbd0ac43b	-0.033878546
25	0x3da18e7b	0.07888504
26	0x3c743371	0.014904843
27	0x3cb6fd17	0.02233748
28	0xbcce29f2	-0.025166485
29	0xbc4cf9a5	-0.012510692
30	0x3c08d449	0.008351394
31	0xbc68f8f5	-0.014219512
32	0x3c9b80b7	0.018982274
33	0x3ca3a634	0.019976713
34	0xbc85ca03	-0.016331678
35	0x3c0c8fd8	0.008579217
36	0x3bda6033	0.0066643
37	0x3d49cb95	0.049266417
38	0x3cd4da8f	0.025983123
39	0x3cca2687	0.024676574
40	0xbc1b8772	-0.009492742
41	0x3decd936	0.11564867
42	0xbc69f99e	-0.014280705
43	0x3cea7104	0.028618343
44	0xbd2cddf9	-0.042203877
45	0x3ab6470f	0.0013906675
46	0xbb0cf870	-0.0021510385
47	0xbc960bc3	-0.018316155
48	0xbc93030b	-0.017945787
49	0xbcbb40da	-0.022858072
50	0x3d93a696	0.07209508
51	0x3cb74f8e	0.022376802
52	0xbc82c0f6	-0.015961152
53	0xba30dfd0	-0.0006747218
54	0xbcf8e565	-0.030382821
55	0xbc57830a	-0.013153801
56	0x3c8ab4d7	0.016931934
57	0xbc07c1b6	-0.00828593
58	0xbcf6d619	-0.030131387
59	0x3b558827	0.0032582374
60	0x3d0385cf	0.03211003
61	0x3cc878c2	0.024471644
62	0x3bc313bd	0.0059532807
63	0x3d8db05a	0.06918402
64	0x3d6d6ed2	0.057967015
65	0x3b938299	0.0045016524
66	0x3d2f6de4	0.04282941
67	0xbd5c00d3	-0.053711724
68	0x3cc96018	0.024581954
69	0xbc47dc2b	-0.012198488
70	0x3d1e6077	0.038666215
71	0x3bfc0c86	0.0076919226
72	0xbcea2f4e	-0.02858701
73	0xbd8bde96	-0.06829564
74	0x3c99d46e	0.018778052
75	0x3ba84357	0.0051349807
76	0x38bf5532	9.1234586e-05
77	0xbcf8c721	-0.03036839
78	0x3c075a59	0.008261287
79	0xbc8c20d5	-0.0171055
80	0x3ce9af95	0.028526107
81	0xbd066bd0	-0.03281766
82	0xbc393918	-0.011305116
83	0xbce3fe30	-0.027831167
84	0xbb266184	-0.0025387714
85	0xbbcee0d1	-0.0063134213
86	0x3d6acb13	0.057322573
87	0x3cca0f8e	0.02466562
88	0xbcc65fd2	-0.024215613
89	0xbd0ab36b	-0.033862513
90	0xbd0808b7	-0.033211436
91	0xbc9a7f52	-0.01885954
92	0xbd4ef6e1	-0.05052841
93	0xbc5b8a88	-0.013399728
94	0x3c124bec	0.008929234
95	0xbc91be5a	-0.017790962
96	0xbb75f7cc	-0.0037531732
97	0xbc6e92f3	-0.014561403
98	0x3cccaea4	0.024985619
99	0xbce33b44	-0.027738221
100	0x3a521bd1	0.0008015009
101	0x3c935579	0.017985092
102	0x3cab4cbb	0.020910611
103	0xbcb29c45	-0.02180303
104	0x3c391aeb	0.011297922
105	0x3d997e9c	0.07494852
106	0xbdbfba9a	-0.09361763
107	0xbcbe557c	-0.023234122
108	0xbdad319e	-0.08456729
109	0xbc953465	-0.01821346
110	0xbcab81fa	-0.020936001
111	0x3d515cf5	0.05111404
112	0x3d18bc7e	0.037289135
113	0xbd1cf338	-0.03831789
114	0xbd2734b2	-0.04082174
115	0xbd330163	-0.043702494
116	0x3d26ec3c	0.040752634
117	0x3c82c3ec	0.015962563
118	0x3ca4cd4b	0.020117423
119	0x3c1c4ce2	0.009539815
120	0xbb43fdce	-0.0029905918
121	0x3c9e969a	0.019358922
122	0xbcc3b1f1	-0.02388856
123	0xbd246b50	-0.040141404
124	0x3d6c7283	0.057726394
125	0xbc63ed7e	-0.013911603
126	0xbbc2e121	-0.0059472476
127	0xbcf0bf81	-0.029388191
128	0xbd440f62	-0.047866233
129	0x3b95f5d9	0.0045764265
130	0x3d8d0ac1	0.06886817
131	0xbc58e51a	-0.013238216
132	0xbcc4fdb1	-0.02404675
133	0x3cfb3421	0.030664505
134	0x3ba0757e	0.0048968187
135	0xbc412870	-0.011789426
136	0xbcadadf7	-0.021201117
137	0x3db121b1	0.08649004
138	0x3d462477	0.04837462
139	0x3cfad4ed	0.030619109
140	0xbc4b3ec9	-0.012405106
141	0x3d09afcb	0.033614915
142	0x3b5f25ba	0.0034049586
143	0x3cad74fb	0.021173945
144	0x3d0362cc	0.032076642
145	0x3d4eaa24	0.050455227
146	0xbce281fd	-0.027649874
147	0x3c5bd789	0.013418087
148	0x3dcc39ee	0.09971987
149	0xbd5af407	-0.05345538
150	0x3b41f7d5	0.0029597182
151	0x3cac0264	0.020997234
152	0xbda57044	-0.080780536
153	0x3d18958c	0.037251994
154	0xbcf6422d	-0.030060852
155	0x3c2a43d6	0.01039215
156	0x3b739340	0.0037166625
157	0xbd3b0d8d	-0.04566722
158	0xbbb42067	-0.0054970267
159	0xbcbe39b1	-0.023220869
160	0xbd1e2fba	-0.038619734
161	0x3cd6d8be	0.026226398
162	0x3d222e92	0.039595194
163	0xbc672beb	-0.014109592
164	0x3dc9c505	0.098520316
165	0xbd05a23b	-0.03262542
166	0x3c85b897	0.01632337
167	0x3c2bca22	0.010485204
168	0x3ce87e01	0.028380396
169	0xbbb55ad5	-0.0055345097
170	0x3b8aea17	0.0042393315
171	0x3d5996c1	0.053122286
172	0x3c1e4e13	0.009662169
173	0x3c14e75d	0.009088364
174	0xbb062ecc	-0.002047467
175	0xbd2898d8	-0.04116139
176	0xbb74e76b	-0.0037369381
177	0xb9d505f4	-0.0004063096
178	0xbca3fd4a	-0.020018239
179	0x3d0613a2	0.032733567
180	0xb906fbc3	-0.00012873024
181	0xbd000677	-0.031256165
182	0x3d1d3428	0.03837982
183	0x3d90c17f	0.070681565
184	0xbccd4bfb	-0.025060644
185	0x3c82facf	0.015988735
186	0x3c17d940	0.009268105
187	0xbca69bf7	-0.020338042
188	0x3cc548cb	0.024082562
189	0x3d591048	0.052994043
190	0xbccfc080	-0.025360346
191	0x3c0efc06	0.008727079
192	0x3c2ddb7d	0.010611412
193	0x3bafef37	0.005369093
194	0xbd036ac5	-0.032084245
195	0xbc80b3fa	-0.01571082
196	0xbd03f78b	-0.032218497
197	0xbcabe368	-0.02098246
198	0x3c797bb6	0.015227249
199	0x3cec333f	0.02883303
200	0x3d6b0ab2	0.057383247
201	0x3d006b90	0.03135258
202	0x3d2bf2c3	0.041979562
203	0xbd324ef9	-0.043532345
204	0x3d27f484	0.041004673
205	0xbd3993e8	-0.04530707
206	0xbcd519af	-0.026013223
207	0x3ba8792d	0.0051413984
208	0xbc8b5695	-0.017009059
209	0xbd0b163d	-0.033956755
210	0x3da349a3	0.079730295
211	0x3bfaabb3	0.0076498627
212	0xbbf6b323	-0.007528679
213	0xbc95afec	-0.018272363
214	0x3dd79d77	0.10528081
215	0x3cf88953	0.030338919
216	0xba718cdf	-0.0009214412
217	0x3ccc577a	0.024944056
218	0xbc840b2d	-0.01611861
219	0x3b4f0f0f	0.003159467
220	0xbcef06b0	-0.029177994
221	0x3cae8ab9	0.021306382
222	0xbcb41ab3	-0.021985387
223	0xbbfd977d	-0.007739006
224	0xbb5460d4	-0.0032406347
225	0xbc3eecca	-0.011653135
226	0xbb142ff6	-0.0022611595
227	0xbc5b063a	-0.013368184
228	0xbd03c265	-0.03216781
229	0xbcb5bf05	-0.022185812
230	0x3bbeda11	0.0058243354
231	0xbaacca53	-0.0013182856
232	0x3d94dab3	0.07268276
233	0xbd4b189e	-0.049584024
234	0x3bcd7ee0	0.006271228
235	0x3c568607	0.013093478
236	0xbd30d33d	-0.043170203
237	0xbcd01d97	-0.025404735
238	0x3d1f7cdf	0.038937446
239	0x3d84d945	0.064867534
240	0x3c3b9eac	0.011451405
241	0xbc86c87f	-0.016453026
242	0x3bf93690	0.0076053813
243	0x3d05f62b	0.032705467
244	0xbd3bbde5	-0.045835394
245	0xbbe7fb15	-0.007079492
246	0xbc0f1c6c	-0.008734804
247	0xbc558498	-0.013032101
248	0xbc9cfe71	-0.019164296
249	0xbd2c0d73	-0.042005014
250	0xbce61751	-0.02808729
251	0xbb84cf12	-0.004053005
252	0xbd15fce4	-0.03661813
253	0x3c25a0d4	0.010109145
254	0xbcc571dd	-0.024102146
255	0x3c90bccc	0.01766815

layer2.weight f4 [64, 256]
0	0xbe6bb4e6	-0.23018226
1	0xbebc6a77	-0.36799976
2	0x3ed3c677	0.41362354
3	0x3e2557e8	0.16146815
4	0x3bd35307	0.0064491066
5	0x3ea3f2f7	0.32021305
6	0xbd88e8ff	-0.066850655
7	0x3ddef939	0.10887379
8	0xbd4548b8	-0.048165053
9	0xbceefd9c	-0.029173665
10	0xbdf73274	-0.1207017
11	0x3d4fec66	0.050762556
12	0x3dc22d20	0.09481263
13	0xbdbd55d4	-0.09244886
14	0x3dcb0d66	0.09914665
15	0xbcf4d3d9	-0.029886173
16	0xbeba384d	-0.3637108
17	0x3ec63110	0.38709307
18	0xbdc20dd0	-0.09475291
19	0xbdb013ff	-0.08597564
20	0xbdb62e26	-0.08895521
21	0x3e85ba68	0.2611878
22	0x3badeb35	0.00530758
23	0x3e677d68	0.22606432
24	0x3c1a12bf	0.0094038835
25	0x3b1e1b46	0.0024125143
26	0x3e4e57be	0.20150658
27	0x3eaf7038	0.34265304
28	0x3eb3dc2d	0.35128918
29	0xbda0db13	-0.07854285
30	0xbd89324a	-0.06699045
31	0xbda7dc6e	-0.081963405
32	0xbd010618	-0.031499952
33	0xbdffa087	-0.1248179
34	0x3e06b7bb	0.13156025
35	0xbdab01c4	-0.08349946
36	0x3e64fe3d	0.22362609
37	0x3e2975b5	0.16548808
38	0x3e732112	0.23743084
39	0x3c90245e	0.017595466
40	0x3e63c7cf	0.2224419
41	0xbd8c47f4	-0.068496615
42	0xbe16fe6f	-0.14745496
43	0xbe12b5b7	-0.14327131
44	0x3cec612a	0.028854925
45	0xbe09d78a	-0.13461128
46	0xbda3962a	-0.07987626
47	0xbe33cbc5	-0.175582
48	0xbdaad73c	-0.08341834
49	0x3daf81ba	0.08569665
50	0xbcb11615	-0.021616975
51	0xbddb71f4	-0.10715094
52	0xbd9e2d9c	-0.07723543
53	0xbd81f2e1	-0.063451536
54	0x3e5a2687	0.2130376
55	0xbd2b7250	-0.041857064
56	0xbeab3fe6	-0.33447188
57	0x3de3dd4b	0.11126193
58	0xbd5e16f8	-0.054221123
59	0xbcb4d921	-0.022076191
60	0x3db67f70	0.089110255
61	0x3db0e949	0.086382456
62	0x3d7bcbf8	0.061473817
63	0xbd58b350	-0.05290538
64	0x3db3a37e	0.08771418
65	0x3db9bec2	0.09069587
66	0xbe96be27	-0.2944195
67	0xbdbe0d0d	-0.09279833
68	0xbe79fe37	-0.24413382
69	0xbdd29747	-0.1028276
70	0x3e3c63b6	0.18397412
71	0x3df8cca4	0.12148407
72	0x3edb851a	0.42874986
73	0x3e084362	0.13306955
74	0xbe490f37	-0.1963471
75	0x3dbb0615	0.091320194
76	0x3dbabb83	0.09117796
77	0x3e85d27d	0.26137152
78	0xbda45762	-0.080244794
79	0xbddf1600	-0.10892868
80	0xbafa4cfe	-0.0019096432
81	0x3d642310	0.0556975
82	0x3e20f8ad	0.15719862
83	0x3e3f7dba	0.18700305
84	0xbc1f5ea0	-0.00972715
85	0x3e8d6981	0.27619556
86	0xbd329d52	-0.043607064
87	0xbdb6e61c	-0.08930609
88	0x3d56eafd	0.052470196
89	0xbce5a2f3	-0.028031802
90	0xbe9f9cc7	-0.311743
91	0xbdb811a0	-0.08987737
92	0xbdb29230	-0.08719289
93	0xbe1d26fa	-0.153469
94	0x3c9868b0	0.018604606
95	0x3db229a9	0.08699352
96	0xbd2d356d	-0.04228728
97	0x3e38f930	0.18063807
98	0xbd6fd108	-0.058548957
99	0x3e35c467	0.17750703
100	0x3cbaa889	0.022785442
101	0xbb3145b2	-0.0027049598
102	0xbdcbf491	-0.09958757
103	0xbdff84ea	-0.12476523
104	0x3e8d90bc	0.27649486
105	0xba0c4342	-0.00053505984
106	0xbe8ca43e	-0.27469057
107	0x3e87e9e6	0.26545638
108	0x3e819735	0.25310674
109	0x3d15b4f9	0.036549542
110	0xbd6a8456	-0.05725511
111	0xbd679b35	-0.0565445
112	0xbd6dd06d	-0.0580601
113	0xbdcdeb5a	-0.100546554
114	0xbcc44279	-0.023957478
115	0xbe65078b	-0.22366159
116	0xbe704cf1	-0.23466851
117	0xbe620fdb	-0.22076361
118	0xbd15f43e	-0.03660988
119	0xbda61083	-0.08108618
120	0xbca11321	-0.019662442
121	0x3e2b81af	0.16748689
122	0x3e021d52	0.12706497
123	0x3dadffda	0.084960654
124	0xbe02f3e4	-0.1278835
125	0x3d36e6fe	0.044653885
126	0xbe918e49	-0.28428867
127	0x3b0fd356	0.0021946034
128	0xbdf2895c	-0.118426055
129	0x3c8f1ed3	0.017470753
130	0x3dc57041	0.09640551
131	0xbe121a49	-0.1426784
132	0xbec93112	-0.3929525
133	0xbe3b7e79	-0.18309964
134	0xbe17110a	-0.14752594
135	0xbc7e1281	-0.015507341
136	0x3e1f466e	0.1555421
137	0xbdfad04e	-0.12246762
138	0xbea74243	-0.3266774
139	0x3dcdf2bc	0.100560635
140	0xbdee3433	-0.1163105
141	0x3d2e545a	0.042560913
142	0xbe5b61a4	-0.21423966
143	0x3c158456	0.00912579
144	0xbdf1f63c	-0.118145436
145	0xbe165139	-0.14679421
146	0x3c9f7ee2	0.019469682
147	0x3bb0d095	0.0053959587
148	0x3d174328	0.03692928
149	0x3e3c17fd	0.18368526
150	0x3c821d12	0.015883002
151	0xbe5041fa	-0.20337668
152	0xbe8024bb	-0.25028023
153	0xbe04ed9b	-0.12981264
154	0xbe928f17	-0.28624794
155	0xbd83428b	-0.064091764
156	0x3d3e987a	0.04653213
157	0x3c627361	0.013821454
158	0x3d6b3dc2	0.057431944
159	0xbd25b5a8	-0.040456444
160	0xbda8fb1e	-0.08251022
161	0xbd119062	-0.035538085
162	0xbe0806c9	-0.13283838
163	0xbd4322e1	-0.047640685
164	0x3e1acd28	0.15117323
165	0xbd8290fa	-0.06375308
166	0x3cfcdedd	0.030867988
167	0x3ec7056e	0.3887133
168	0xbea2b381	-0.31777576
169	0xbde1d19f	-0.1102631
170	0x3e8c4efe	0.27404016
171	0xbe03b736	-0.12862858
172	0xbd116b5b	-0.035502773
173	0x3cd813fb	0.026376715
174	0x3dd871c2	0.105685726
175	0x3e48b250	0.19599271
176	0xbdc9aa22	-0.098469034
177	0x3d86405a	0.06555243
178	0xbea3cfab	-0.31994376
179	0xbd35ec19	-0.044414613
180	0xbe78ac6b	-0.24284522
181	0xbe08ea60	-0.13370657
182	0xbd901ecc	-0.07037124
183	0x3e7971ad	0.2435977
184	0x3d0d1eed	0.03445332
185	0x3e545b58	0.2073797
186	0xbdaa36da	-0.08311243
187	0xbd5f2b49	-0.05448464
188	0xbd687a06	-0.056756996
189	0xbdfd86e9	-0.12379248
190	0x3d85f459	0.06540746
191	0x3e3a4284	0.18189436
192	0x3e00c231	0.12574078
193	0x3e586cd1	0.2113526
194	0x3e909998	0.28242183
195	0x3e144590	0.14479661
196	0x3df9314a	0.12167604
197	0xbbb098a3	-0.0053892895
198	0xbe938103	-0.28809366
199	0xbd681f5b	-0.056670528
200	0xbe9fcb81	-0.3120995
201	0xbdb1586d	-0.08659444
202	0xbe20ec63	-0.15715174
203	0x3b62b5a7	0.0034593137
204	0xbd895046	-0.06704764
205	0x3da5ee20	0.08102059
206	0xbcd94a35	-0.026524642
207	0xbcacd474	-0.0210974
208	0xbecccefb	-0.40001664
209	0xbe36517a	-0.17804518
210	0x3b8bdcb8	0.004268255
211	0x3d9893c9	0.07450063
212	0x3d874324	0.06604603
213	0x3d865779	0.06559653
214	0xbd9daeb9	-0.07699341
215	0x3d35249b	0.044224363
216	0xbd9a0145	-0.075197734
217	0xbf02090c	-0.50795054
218	0x3d671b80	0.05642271
219	0xbe159ff0	-0.14611793
220	0x3e8ca9d7	0.27473328
221	0x3c199d7f	0.009375929
222	0x3c5d23ca	0.013497302
223	0xbec77ba8	-0.3896153
224	0x3f085299	0.53251034
225	0x3e23e8c5	0.16006763
226	0x3cce9fc5	0.025222668
227	0x3d23ab1e	0.039958112
228	0x3e27a38a	0.16370979
229	0x3e323bab	0.17405574
230	0xbe102caf	-0.14079545
231	0xbe8ba60d	-0.27275124
232	0x3be27d7c	0.0069119316
233	0x3dd56910	0.1042043
234	0x3d6a30f2	0.057175584
235	0xbdb453cc	-0.088050455
236	0x3e00da86	0.1258336
237	0xbc803890	-0.015651971
238	0x3d3162d1	0.04330713
239	0xbd980123	-0.07422092
240	0xbd308a44	-0.04310061
241	0x3ec0e344	0.3767339
242	0x3d83b069	0.06430132
243	0xbd91370e	-0.07090579
244	0x3eac457c	0.33646762
245	0x3ddb0c21	0.10695673
246	0x3dad2c44	0.084557086
247	0x3e36596a	0.17807546
248	0x3d93fc88	0.07225901
249	0x3df4f7d5	0.11961333
250	0xbeb522bc	-0.35378063
251	0x3d0f1b5c	0.0349382
252	0x3dd0a8e2	0.10188462
253	0x3d9022c5	0.07037882
254	0x3d43d2af	0.047808345
255	0xbe32fe3e	-0.17479798

layer2.bias f4 [64]
0	0xbcb54947	-0.022129668
1	0x3cbe7abe	0.023251887
2	0x3cb3004f	0.021850733
3	0xbd3afcda	-0.045651294
4	0xbb4245c0	-0.0029643625
5	0x3d2e1244	0.04249789
6	0x3c308a6a	0.010775188
7	0xbd71e59a	-0.059056856
8	0xbd353236	-0.044237338
9	0xbda43625	-0.0801814
10	0xbc47fbbf	-0.012206017
11	0xbc1160db	-0.00887319
12	0x3c923ab7	0.017850263
13	0x3d3f370a	0.04668335
14	0x3b8b22d8	0.004246097
15	0x3c481227	0.012211359
16	0xbd10763a	-0.035269
17	0xbd9d0ebe	-0.076688275
18	0xbbd4178b	-0.006472533
19	0xbc8ec0eb	-0.017425975
20	0xbba08f70	-0.0048999116
21	0xbbac519f	-0.0052587534
22	0x3d29dd84	0.04147102
23	0xbd186e0d	-0.037214328
24	0xbd92802b	-0.07153352
25	0x3b8eefb5	0.0043620714
26	0xbc6a56b2	-0.014302896
27	0xbd0d0d83	-0.034436714
28	0xbca5ad11	-0.020224126
29	0xbbe8f8ad	-0.0071097226
30	0xbd2aba07	-0.041681316
31	0xbd6bdb52	-0.057582207
32	0xbc804052	-0.01565567
33	0xbd3f1b3b	-0.04665683
34	0xbb8888ad	-0.0041666836
35	0x3bc7db57	0.0060991454
36	0x3c52703a	0.01284414
37	0xbd92b408	-0.071632445
38	0x3ca14d2e	0.019690122
39	0x3a83513e	0.0010018719
40	0x3cd2c750	0.025729805
41	0xbd1e4d04	-0.038647667
42	0x3c8fd83e	0.017559167
43	0xbd8b7ac8	-0.06810528
44	0x3d622a16	0.055215918
45	0xbd9bdbe2	-0.07610299
46	0x3d21e7e3	0.039527785
47	0xbcc01c82	-0.023451094
48	0xbcac969b	-0.021067908
49	0xbc32affe	-0.010906218
50	0xbd895369	-0.06705362
51	0x37097c2a	8.1947455e-06
52	0x3bfba8d4	0.007680038
53	0x3cb0247d	0.021501774
54	0xbc128115	-0.008941908
55	0x3bf2aa56	0.0074055595
56	0xbd5f7c7d	-0.05456208
57	0xbce76fbf	-0.028251527
58	0x3c8278fa	0.015926827
59	0xbd395cd1	-0.045254532
60	0x3d24056e	0.04004424
61	0x3d313cb0	0.043270767
62	0xbd5cbe87	-0.05389264
63	0xbd7ea272	-0.06216664

layer3.weight f4 [1, 64]
0	0xbe973453	-0.29532108
1	0x3e6ea023	0.23303275
2	0x3ea5f55a	0.3241375
3	0xbe8f13d4	-0.27944815
4	0xbea1b4fd	-0.31583396
5	0xbe800ddb	-0.2501057
6	0xbe8152ea	-0.2525857
7	0xbe524565	-0.20534284
8	0xbe92a99a	-0.2864502
9	0x3e26da56	0.16294226
10	0x3e5aac63	0.21354823
11	0xbe3607b9	-0.17776383
12	0x3e8118b8	0.2521417
13	0xbddf942e	-0.10916935
14	0xb7ff0b59	-3.0403653e-05
15	0x3e4a0295	0.19727547
16	0xbdfe40ec	-0.124147266
17	0xbe8f481e	-0.2798471
18	0xbf0e6308	-0.5561986
19	0xbdf23bc8	-0.118278086
20	0xbe95f355	-0.2928721
21	0xbeb0f55b	-0.3456219
22	0x3e2afbff	0.16697691
23	0x3ea9b8c8	0.3314879
24	0x3e959a14	0.29219115
25	0x3eb13975	0.3461415
26	0x3e89615d	0.26832095
27	0xbe8371eb	-0.2567285
28	0x3e5b2bd1	0.21403433
29	0xbe7f5cb2	-0.24937704
30	0x3e886740	0.26641273
31	0xbe6062e0	-0.21912718
32	0x3e6cf769	0.23141254
33	0x3e41f181	0.18939783
34	0xbe892b02	-0.26790625
35	0xbe864d2a	-0.26230747
36	0x3e99d56d	0.30045643
37	0xbe87477b	-0.26421723
38	0xbd51acec	-0.0511903
39	0x3e96cd7d	0.2945365
40	0xbe91c927	-0.2847378
41	0x3e89f64c	0.26945722
42	0x3e9356fd	0.28777304
43	0xbe77695d	-0.24161287
44	0xbe653f0b	-0.2238733
45	0x3e6ece67	0.23320924
46	0xbe0365df	-0.1283183
47	0xbcc6ac8d	-0.0242522
48	0x3e00e23d	0.12586303
49	0x3e537a2a	0.2065207
50	0x3e2973b8	0.1654805
51	0x3e7c9853	0.24667482
52	0x3e98613e	0.2976169
53	0x3d842b0b	0.06453522
54	0xbe37ee6d	-0.17962046
55	0xbda698a8	-0.081345856
56	0xbe1c5572	-0.1526697
57	0x3e246cfd	0.160572
58	0xbdb7931b	-0.08963605
59	0xbe7e077a	-0.2480754
60	0x3e585182	0.21124843
61	0x3e13e982	0.14444545
62	0xbe6107c5	-0.2197562
63	0x3e4d3c5d	0.20042558
