test/ens_models/ens_model_4_HA.pt (torch, 654481 bytes, 6 tensors)

layer0.weight f4 [20, 10]
000000 9a eb a7 3d d9 f4 99 be b9 42 8c be 43 70 e8 3c
       0.08199234 -0.30069616 -0.27394655 0.028373843
000010 25 51 32 3f fd 66 6d bf 73 f4 a5 3f 86 90 a7 3d
       0.69655067 -0.9273527 1.2965225 0.081818625
000020 3d e3 0d bd d7 14 29 3e ff 18 9a 3e 52 22 84 be
       -0.03464054 0.16511856 0.30097196 -0.25807434
000030 bb fa 09 bf 94 0c ca be f7 cc 95 3e 0f 90 35 be
       -0.5389821 -0.3946272 0.29257938 -0.17730735
000040 bc e2 c1 3e 2e b1 82 be 75 3a 9f 3e a5 a4 d2 be
       0.37868297 -0.25525802 0.31099287 -0.4114124
000050 fa 38 80 be 63 7a ef 3e 91 1e b5 bf 54 a0 f9 be
       -0.2504347 0.4677306 -1.4149953 -0.48755133
000060 51 3c f3 be c8 d6 8d be fa fd df 3e 90 cf f5 3e
       -0.47506955 -0.27702928 0.43748456 0.4800992
000070 d1 a4 02 3f 99 93 34 3e 9c ef 0c bf 7f b7 05 be
       0.5103274 0.17634429 -0.55053115 -0.1305828
000080 9b df c6 3d c5 5f 52 3f cf 70 50 3f a7 a9 8f be
       0.09710618 0.8217738 0.8142213 -0.28059122
000090 71 5f 83 bf b5 c9 95 be 0c 41 15 3e 12 80 c6 be
       -1.0263501 -0.29255453 0.14575595 -0.38769585
0000a0 a1 01 19 bf 57 ef 1f 3f de 24 18 3e 7c d0 c1 3e
       -0.5976811 0.6247458 0.14857814 0.37854373
0000b0 35 ac 1f bf b9 04 0a bf 3d 71 13 3f 92 76 47 bf
       -0.6237214 -0.53913456 0.5759466 -0.779153
0000c0 e7 aa 3e bf 0f 1e 94 be e9 44 96 3e 57 6a 09 be
       -0.74479526 -0.28929183 0.2934945 -0.13419472
0000d0 26 e6 e3 3d 9d bc 00 3f 7d 2d 7f bf 3b 38 cf 3e
       0.11127882 0.502878 -0.99678785 0.40472588
0000e0 4e 3f 75 bf d4 5f 01 bf ff bd 17 3f e5 4b 18 be
       -0.9579972 -0.5053685 0.59274286 -0.14872701
0000f0 80 10 a0 be a1 9d 1e 3f d9 59 01 3f 9c 71 a0 3d
       -0.31262589 0.6195927 0.5052772 0.07834169
000100 1c 11 10 3f 30 43 9a be be d0 4e 3e 49 2c 3a 3f
       0.56276107 -0.30129385 0.20196816 0.72723824
000110 3e d1 c2 3e a8 55 8e 3f 90 55 9d 3d 21 73 90 3f
       0.38050264 1.111989 0.076823354 1.1285135
000120 c6 db 88 3e d5 7d 35 3d f8 65 28 3e 14 da a3 be
       0.26730174 0.044309456 0.16445148 -0.32002318
000130 15 e7 3d bf 0e 27 c7 bd 30 37 aa be 18 ab 93 bd
       -0.7418073 -0.09724246 -0.3324523 -0.07210368
000140 ab fc 96 be 51 fd bb be 83 d5 91 3d 38 40 71 bf
       -0.29489645 -0.36716703 0.07120802 -0.94238615
000150 5b 24 41 3e 61 7a 4f 3d a9 33 19 bf 88 c7 f7 be
       0.18861525 0.05065382 -0.5984445 -0.48394418
000160 db 97 6a 3f 84 e0 fa 3e bc f5 22 3f 30 94 35 bf
       0.91637963 0.48999417 0.6365621 -0.7092924
000170 8a 82 17 3f ae c7 2e bf 41 d2 e2 bd 8f 48 20 3f
       0.5918356 -0.6827344 -0.11075259 0.62610716
000180 07 dd 6b be 25 59 8b 3e ab 16 d3 3e 07 36 46 3d
       -0.23033534 0.2721645 0.41228232 0.04839137
000190 2a a7 bd bd fc 82 2e bc 8a 8b e7 bc 2e c1 14 be
       -0.092604 -0.010651346 -0.02826478 -0.14526817
0001a0 74 73 84 3f 27 dd d4 be b2 89 98 3e f0 da 28 3c
       1.0347733 -0.41574976 0.29792553 0.010306105
0001b0 b2 c8 62 bf a3 d7 ad be 91 6d b3 bd ab f4 b5 3e
       -0.88587487 -0.3395358 -0.087611325 0.3553823
0001c0 06 5b 02 be b8 9d a5 3e 60 8b 82 bf 95 68 b4 bc
       -0.12730035 0.32346892 -1.0198784 -0.022022525
0001d0 4a c2 13 3d df 1b b4 be 11 2b 40 3f ac 55 07 3f
       0.03607396 -0.35177514 0.75065714 0.528651
0001e0 53 33 03 bf bf 07 b4 3e c6 4a 57 be 45 d3 da 3e
       -0.5125019 0.3516216 -0.21024618 0.4273931
0001f0 65 d8 22 bf 4c ae ec be ee 9f 20 bc bb 50 a1 bf
       -0.6361144 -0.46226728 -0.009803755 -1.2602762
000200 68 76 e5 3d 08 f6 14 bf 36 f9 04 bf 7a 16 c4 3f
       0.11204225 -0.58187914 -0.51942766 1.5319359
000210 5d 6c 05 bf ab b0 69 be db e6 a7 3e ad fd c4 3e
       -0.52118474 -0.228213 0.32793316 0.3847479
000220 3f 6f 22 bd 06 24 50 bf 0f e7 a7 be 9d c1 af bd
       -0.039656874 -0.8130497 -0.3279347 -0.08581851
000230 26 aa 4a 3f ad 78 60 bf 1e 95 a1 be b4 80 80 bf
       0.79165876 -0.87684137 -0.3155908 -1.0039277
000240 b4 8a 26 3f 4d 17 34 be a5 a6 09 bf f6 44 d3 be
       0.65055394 -0.17587014 -0.53769904 -0.4126355
000250 b0 84 c4 3e 63 c9 d2 3e 43 35 5a be 34 6d 0f be
       0.38382483 0.4116927 -0.2130938 -0.14006501
000260 96 e6 db 3e fc 4a f3 3d 39 85 fb be 5c 97 f0 be
       0.4294936 0.118795365 -0.49125078 -0.46990478
000270 71 c9 6a 3f 00 dc 19 3f a2 4a 73 3f bd b9 b3 3d
       0.91713625 0.6010132 0.95035756 0.08775661
000280 f9 5e f7 be 29 54 9b be 4d 0a 67 be ce 99 74 bf
       -0.48314646 -0.30337647 -0.22562523 -0.9554719
000290 69 75 bc bc 64 de 36 bf a6 f1 e4 bd 2e 5f 21 3f
       -0.023005204 -0.7143309 -0.11178903 0.6303586
0002a0 4a b4 a9 bf 2f f1 37 be 58 52 1f bf c8 36 16 bf
       -1.3258145 -0.17963098 -0.6223502 -0.5867734
0002b0 8e fe 11 3e 40 4b cd 3e b6 b1 1c 3f 73 64 93 3f
       0.14257261 0.40096474 0.61208665 1.151503
0002c0 94 02 82 3f dc 8f ee 3e 1f 88 8c bb 5d 90 bc be
       1.0157037 0.4659413 -0.004288688 -0.3682889
0002d0 88 30 ac be 56 f6 85 3d 4a dd 94 3f 57 b2 4d bf
       -0.33630776 0.065411255 1.1630032 -0.8035025
0002e0 c8 f4 9d 3e c6 b8 90 3e 0b eb 9f be 1e 22 d3 3e
       0.30850816 0.2826597 -0.3123401 0.41236967
0002f0 62 85 0c 3f b7 bb 48 3f 22 f6 4f 3f d9 1f 4a 3d
       0.54891026 0.7841143 0.81234944 0.04934678
000300 b2 bc 1a 3f 4b 57 98 3e 7a f3 0b bf 9c 27 af 3e
       0.60444176 0.297541 -0.5466839 0.34209907
000310 d1 fd 3f 3f 38 36 0d 3f 40 b2 15 be 5b 72 76 3e
       0.7499667 0.55160856 -0.14618778 0.2406706

layer1.weight f4 [256, 570]
000000 e5 0c 4d be cd cb c2 3e 9e fb 03 be a3 b4 ee bc
       -0.2002445 0.38046113 -0.12888953 -0.029138869
000010 22 e3 e9 3b db 29 87 3d fa b0 0f 3c 08 ae 2a 3d
       0.007137672 0.0659978 0.008770222 0.041669875
000020 0c b0 0b 3d 17 1a 2f 3c 80 47 a0 bc aa 52 0e bb
       0.03410344 0.010687373 -0.019565344 -0.0021716752
000030 30 3e f5 bc 6a e5 83 bd 1d f3 82 be 49 a2 84 be
       -0.02993688 -0.06440242 -0.25576106 -0.25905064
000040 f8 19 50 3d 6b ad e2 3c 01 50 88 3d c7 ee e2 3c
       0.050806016 0.027670583 0.066558845 0.027701749
000050 a5 8e 0d 3d bd ed f0 ba 04 0a 19 3c 20 c8 ab bc
       0.034559865 -0.0018381398 0.009340767 -0.02096945
000060 91 01 2d 3b d9 8f 9c bd 50 63 3f be 98 d4 59 be
       0.0026398639 -0.07644624 -0.18690228 -0.21272504
000070 f9 e4 40 be 6f bc 12 be ac 43 9c be 96 7d 01 bf
       -0.18837346 -0.14329694 -0.3052038 -0.50582254
000080 ac 65 8f 3c ed 9c 75 3c 27 2a 24 3c 04 32 43 3d
       0.017504536 0.014991027 0.0100198155 0.04765512
000090 49 f8 3f 3d b1 23 99 3c 7b c4 44 bc b6 44 7b 3d
       0.046867643 0.018693777 -0.012009735 0.061344825
0000a0 f9 b8 6d bd 97 15 56 3d 46 6b 7d bd 20 54 ec bd
       -0.05803773 0.052266683 -0.061869882 -0.11539483
0000b0 7b b1 f9 3c 95 8a a2 bd 4e 2b c7 be e4 ea 86 be
       0.030480137 -0.07936589 -0.38900226 -0.26351082
0000c0 3d 3a 0d bc db 87 5b be 80 25 99 be 55 b8 22 3e
       -0.008619842 -0.21438543 -0.29911423 0.1589063
0000d0 75 5c 1d 3f 06 da 4e 3b 91 d9 8a bc 7d 20 be bc
       0.61469203 0.0031563058 -0.016949447 -0.023208851
0000e0 0a a7 03 3c 86 a9 80 3d 91 29 03 bc 3d 1d 24 3d
       0.008035431 0.06282334 -0.008005516 0.040066946
0000f0 21 c4 8b 3e 78 90 e8 3d de 9b 10 bd ab 0c 51 3e
       0.27298072 0.1135568 -0.035304897 0.20414989
000100 f6 61 4f bc d5 df c9 bc bb d4 62 3d b9 79 98 3e
       -0.012657633 -0.024642864 0.055378657 0.29780367
000110 84 d9 8a 3d 56 70 e0 bd 01 67 a6 3c c6 b4 0f 3e
       0.06779769 -0.109589264 0.020312788 0.14033803
000120 49 08 31 be 77 64 87 bd 91 bd db be f3 7f 6f bd
       -0.17288317 -0.06610959 -0.42918065 -0.05847163
000130 78 da 80 3e ea 2f d6 be 19 75 7e bf 19 6e 3f bf
       0.25166678 -0.4183343 -0.99397427 -0.7477737
000140 24 e8 23 be 9f 5b 2f 3d 65 af 97 bc d2 0f d3 bc
       -0.16006523 0.042811986 -0.018516252 -0.02576438
000150 0e b9 60 3c f7 5e 33 3c e8 86 8f bd cc a8 af bd
       0.0137159955 0.010947934 -0.07008153 -0.08577117
000160 b5 e8 4a 3c d4 c1 4c bc bf 9c b3 bc c0 f0 1c bc
       0.012384583 -0.012497384 -0.021925328 -0.009578884
000170 b3 da 02 3d 27 df 39 bd d9 2d 0d 3d 47 06 1a bd
       0.03194685 -0.04537883 0.03446755 -0.037603643
000180 68 35 b7 3c f9 13 91 3d 68 7f 88 ba 8d 60 d3 3d
       0.022364333 0.070838876 -0.0010413947 0.1032115
000190 38 2d 30 bd 39 86 e6 3c dd 94 0c bd 99 f0 48 bd
       -0.043011874 0.028140174 -0.034321655 -0.049057577
0001a0 53 5d 10 bd fb 08 c4 3d 69 68 41 bd db 07 f5 bc
       -0.03524525 0.095720254 -0.047218714 -0.029910972
0001b0 38 f0 83 be 4b 6c c3 3b b8 23 bd 3d 71 d0 24 3e
       -0.2576921 0.0059638373 0.092353284 0.16095139
0001c0 1d 0e a9 bd 87 cc b8 3d fe d0 13 bd ac 43 44 be
       -0.08254645 0.090233855 -0.036087982 -0.1916644
0001d0 91 2a e9 bd 7e 9d 71 bd 6a 65 93 bd b8 32 d2 bc
       -0.11385072 -0.058988087 -0.071970776 -0.02565895
0001e0 7b 02 da 3b d4 6b 03 3d 88 1e 3c bd e7 60 1c 3c
       0.0066531277 0.032085255 -0.045927554 0.009544588
0001f0 fe 79 67 3c 14 42 56 3d c4 49 6b 3d d6 58 9c bc
       0.014128206 0.05230911 0.057443395 -0.019085329
000200 e6 e1 ad 3c d9 c5 09 3b 36 0a 2e bb 8e 83 25 bd
       0.02122588 0.0021022467 -0.002655638 -0.040408663
000210 54 e4 9f 3b cc 86 02 3d c5 34 08 3c c0 62 d4 ba
       0.0048795138 0.031866834 0.0083133625 -0.0016203746
000220 c8 ab b7 bd 17 e9 1a 3d f9 ff 81 3d 79 fe 42 bd
       -0.089683115 0.037819948 0.06347651 -0.047605965
000230 2e ea 45 be 69 4e 86 bd 4e fd fe bc 87 f5 94 3e
       -0.19327614 -0.06557924 -0.031126644 0.29093572
000240 47 37 3a be 43 40 9e bc 65 31 0b 3e 76 e2 0c 3f
       -0.18185149 -0.019317752 0.13593061 0.5503305
000250 91 a0 9d bc 32 72 bc bc c4 4d b8 bc e1 9e a8 3e
       -0.019241603 -0.023003671 -0.022498019 0.32933715
000260 26 72 91 bd eb 3f 33 bd f7 6e 20 be a8 b6 04 b9
       -0.0710185 -0.04376213 -0.1566733 -0.00012656546
000270 83 7f f1 3d ae 28 7b 3c 92 ec 9e 3d 40 a2 57 3b
       0.11791899 0.015329523 0.07759966 0.0032903105
000280 49 07 fe bd 5d 48 3e 3d 34 58 e3 3c a3 90 e7 bc
       -0.12403733 0.04645573 0.02775202 -0.02826721
000290 19 c1 69 bd 75 f5 b9 3c e2 e4 ce bd d8 34 65 3d
       -0.057068918 0.02270005 -0.1010225 0.0559586
0002a0 de a0 37 3d a1 7c 05 bd e8 3e fc bc 15 fe f3 bd
       0.04483115 -0.03258956 -0.030791715 -0.11913697
0002b0 cd 76 ab bd 0c 91 77 3e a7 6c 6b 3d e6 72 43 3e
       -0.08372269 0.24176425 0.057476666 0.19086799
0002c0 63 e9 bf be f8 f4 a5 3e 78 72 07 3f 32 4a 97 bd
       -0.37482747 0.3241346 0.5290904 -0.073871985
0002d0 aa d9 8e 3e 82 83 83 3c 74 f1 38 bc 12 b9 a3 be
       0.2790044 0.016053919 -0.011288036 -0.31977135
0002e0 3f 88 a2 3e 52 d8 9e be 1a 4e 13 3e 37 87 a6 3b
       0.31744573 -0.31024414 0.14385262 0.005082037
0002f0 0d 01 80 3e 1e 02 92 3c 4f a9 0a 3e 92 98 91 3e
       0.25000802 0.017823275 0.13541149 0.28436714
000300 e2 2c 95 3e a4 89 de 3d 86 ea d1 bc cf ea 15 3e
       0.29135805 0.108660966 -0.025624525 0.14640354
000310 02 3d ce 3d db 01 17 3b f2 bc 6e 3d 4a db f0 bd
       0.1007023 0.0023041877 0.05828566 -0.11760576
000320 51 0f 50 3d 56 29 f4 3c a8 42 4f 3d e6 b6 6c be
       0.050795857 0.029804867 0.050600678 -0.23116645
000330 bf aa 1e 3d 01 1b 0c 3e 9c 78 51 bd 5f cc 7b bd
       0.038737055 0.13682176 -0.051140413 -0.0614742
000340 3c 4a 00 bd 15 65 1d bc ff 17 1e 3c f7 03 16 3d
       -0.031320795 -0.009606619 0.009649276 0.036624875
000350 4a 8e 1f bd 7a fc ec 3d a3 e1 6f 3f 50 9e 1e 3f
       -0.038954057 0.115715936 0.9370367 0.61960316
000360 d7 66 d4 3d 7c 7a 4e 3f e6 ea a5 3f 13 d6 99 3f
       0.10371178 0.80655646 1.296231 1.2018455
000370 01 06 21 3e 3c e2 a8 3e 8f ad 50 3f 0a e8 b0 3e
       0.15724947 0.32985103 0.8151483 0.34552032
000380 3b d7 28 3e c3 b8 f0 3e cf 3d d0 3d 44 30 fd be
       0.16488354 0.47015962 0.10168039 -0.49450886
000390 c9 78 0b bf bf e9 47 3e 41 30 91 3c 51 28 ce 3d
       -0.5448118 0.19522761 0.017723205 0.100662835
0003a0 1f 8c a0 be 62 eb 2a bd 3c ba 65 3d c0 2c c0 3e
       -0.31356904 -0.041728385 0.05608581 0.37534142
0003b0 ca 95 8a 3d ec 83 0f 3c 90 00 12 3f d8 81 09 3e
       0.06766851 0.00875948 0.5703211 0.13428438
0003c0 b6 9e 6a 39 c9 b1 af bd c6 b2 13 be 6c f4 85 bd
       0.00022375103 -0.08578832 -0.14423665 -0.065407604
0003d0 6b b1 09 bb 59 ea 77 3c 54 93 29 bd 9a 42 89 be
       -0.002101029 0.015131556 -0.04140027 -0.26808625
0003e0 19 7e 90 bc 50 5e 55 3d 0c 81 32 3c e9 e4 0d 3c
       -0.017638253 0.052091897 0.010895025 0.008660533
0003f0 08 c2 5e 3d 38 07 bc 3c 12 c9 13 3c 2f 64 5f bc
       0.05438426 0.02295266 0.009020107 -0.0136347255

layer1.bias f4 [256]
000000 68 7c a1 3d 29 2a ed bc 79 40 76 bc 01 ab cd 3b
       0.07885057 -0.028950768 -0.01503002 0.006276489
000010 9f 2a 2a 3b bb 79 36 bd 8e 8f b2 bc 43 90 ef bc
       0.0025965346 -0.044549685 -0.021796968 -0.029243594
000020 5e c8 17 ba cc 21 a8 3c 62 52 90 3c bb 8d 12 bc
       -0.000579005 0.020523928 0.017617408 -0.008944924
000030 3b 54 4b 3d 63 17 03 bd cf d1 3c bd ef be 84 3c
       0.049640875 -0.032004725 -0.046098527 0.016204325
000040 5c 78 f1 bc aa d4 1f 3d 8c c5 ea bc 0e 35 da bc
       -0.029476337 0.03902117 -0.02865865 -0.026636627
000050 66 96 66 bd 3a 25 91 bc cf 01 2d bd bf 74 07 bd
       -0.056295775 -0.017717946 -0.042238053 -0.033070322
000060 17 c2 b5 bc b2 e1 2b 3c 61 47 8b bc 92 80 65 3b
       -0.022187276 0.010490822 -0.01700181 0.003501926
000070 d0 16 d1 bc 06 68 d5 3b 77 58 18 3d e7 4c 53 3c
       -0.025523573 0.0065126447 0.03719374 0.012896753
000080 db 7d 0f 3c 3d 1d e2 bc 86 eb 0f bd 22 7d ca 3c
       0.008758034 -0.027601833 -0.035136722 0.024717871
000090 e1 51 d0 bc c1 4b a5 3c 1e 23 2e b8 43 81 ad b9
       -0.025429668 0.020177724 -4.151754e-05 -0.0003309344
0000a0 ff f8 31 bd 73 79 1e bd 0b 34 11 3c a9 46 2d 3d
       -0.04345035 -0.03869004 0.008862506 0.042303715
0000b0 47 6c d9 3c f8 21 06 3d 8a 27 82 3c d2 fc 6e 3b
       0.026540888 0.03274724 0.015887994 0.003646661
0000c0 f7 85 df bc da 4b 1f 3d f8 12 2d bd 72 1a 5a 39
       -0.02728556 0.038890697 -0.042254418 0.00020799952
0000d0 7d 79 ea bc 1e 9c 68 3c 44 a0 d6 3a 92 38 94 3c
       -0.028622383 0.0141973775 0.0016374667 0.018093381
0000e0 e1 b4 81 bd 8d 7f 32 3c 1d 9e 3c bc b0 6f cd bc
       -0.06333328 0.010894668 -0.0115123065 -0.02507767
0000f0 7c 23 0d 3d b1 10 3a 3c 02 44 29 3d 4a c9 5b 3c
       0.03445767 0.011356519 0.041324623 0.01341469
000100 93 55 9c 3b eb ae a5 bc 44 ff 0c 3d 54 a9 37 3b
       0.0047709434 -0.020225009 0.034423128 0.0028024511
000110 23 56 9c 3a cf 06 0f bd 14 7f db 3c 2b 7d cc 3c
       0.0011927526 -0.034918603 0.026793994 0.024962028
000120 65 52 36 3d 67 a0 48 bc d9 72 62 3c 83 32 29 3c
       0.04451217 -0.012245274 0.013821327 0.010326984
000130 26 25 0c bd 41 6a 84 3c 84 aa 35 3c 32 7e 32 bc
       -0.034215115 0.016163947 0.011088017 -0.010894345
000140 7b e5 31 3d ab 5a fa bc ad af 2e 3d 6f 1e b5 bc
       0.04343174 -0.030560812 0.042648006 -0.022109238
000150 9f 84 ee bc 86 d9 2f 3c a1 c6 ea 3d 21 88 36 bc
       -0.029115973 0.010733014 0.11463667 -0.011140854
000160 d7 ea ef bc e7 65 72 3d a4 34 ea 3d 9f 77 90 3b
       -0.029286785 0.059179213 0.11435822 0.004408791
000170 d6 4f a7 3c ad 9e d8 3a db bc d1 3c 62 e3 09 bd
       0.02042381 0.0016526781 0.025602749 -0.033664115
000180 6b 7a 02 bd 51 2e 9f bc 66 d7 3b bd 02 00 63 bc
       -0.031855028 -0.019431265 -0.045859717 -0.013854982
000190 59 3f bd bc 53 ac c7 3c 1a 61 37 3c 6a f8 45 bd
       -0.023101496 0.024374163 0.011192584 -0.04833261
0001a0 46 8f 3a bd af 79 2f 3b 8c 5b 20 3d 9c a4 d7 bd
       -0.045546792 0.002677541 0.039149806 -0.105294436
0001b0 90 4a ce bb ce eb 1a 3c f9 91 28 3d 42 40 25 bc
       -0.0062955096 0.009455634 0.041154835 -0.010086121
0001c0 bc 07 d4 bc c4 e7 1a bd a6 a9 18 bd 71 0e 48 bc
       -0.025882594 -0.037818685 -0.037271164 -0.012210474
0001d0 c1 a9 c6 bb ac 23 b5 bc c6 86 fb bc 14 3b 52 bc
       -0.0060627167 -0.022111736 -0.030703913 -0.012831468
0001e0 cc 9e d6 3d 83 c1 16 bd 2d fe 22 3d f9 b3 b1 3c
       0.10479507 -0.03680564 0.039793182 0.021692263
0001f0 1a 5c 9b bc b7 82 42 3a 26 bc 52 bb 73 cc ee bc
       -0.018964816 0.0007419991 -0.0032155602 -0.029150223
000200 90 ae d3 bc 55 e5 0a bd d9 03 1b 3d c3 89 47 3d
       -0.025840074 -0.033910114 0.037845466 0.048715364
000210 1e 6e 21 3c db 16 17 3d 55 70 1c 3c 88 96 c7 bb
       0.009852914 0.03688703 0.009548266 -0.006090943
000220 67 dd 64 bc f3 77 2e 3d c0 eb 27 3d 8d b5 08 3d
       -0.013968802 0.04259486 0.040996313 0.033376265
000230 c3 95 a1 bc 44 c6 0c bd 5d 88 a1 3c 76 ad 53 bc
       -0.019724732 -0.03436877 0.019718343 -0.012919774
000240 79 a9 0c bd ef 21 5e 3c 2f e1 40 bd 48 e1 1c bd
       -0.03434131 0.013557895 -0.04708975 -0.038300782
000250 91 e6 f7 bc 69 86 10 bd 59 5d 05 bd 7d 46 09 bd
       -0.03026131 -0.035284434 -0.032559726 -0.03351449
000260 4e e1 53 bc f3 aa dc 3d e2 46 24 3d d6 98 6a bd
       -0.012932135 0.107747935 0.04010666 -0.057274662
000270 03 71 49 bc e7 89 16 bd 3b 19 06 bb 8e 7d 79 bb
       -0.0122950105 -0.036752608 -0.0020461816 -0.0038069221
000280 61 1b 09 3c d8 79 ec 3b b4 a7 94 3c b6 e6 5b 3c
       0.008368344 0.0072166733 0.018146373 0.013421705
000290 c1 ac 16 3c af 90 38 ba 68 25 88 bd 2f fc e8 3c
       0.009196461 -0.00070406025 -0.0664776 0.028440563
0002a0 09 2b cf 3c f2 a2 c8 bc 3c 49 47 3d 4e 7f 4c bd
       0.025289075 -0.02449176 0.048653826 -0.049926095
0002b0 a2 e1 2a bd 2d 7d a0 bc 78 8a 46 bc 4f f8 d9 bc
       -0.041719086 -0.019590938 -0.012117974 -0.02660766
0002c0 87 e4 61 bd 85 70 60 3d fc 4b 5e bd 2c f6 e8 3c
       -0.05514958 0.054794807 -0.054271683 0.028437696
0002d0 d8 05 ea bc 1c 23 1f 3d 94 90 6f 3c b4 b7 c3 ba
       -0.02856724 0.038851842 0.014621872 -0.0014932067
0002e0 27 4b b2 bc ae 30 86 3c 3d 1c 59 b9 25 a3 84 bb
       -0.021764351 0.016380634 -0.00020705252 -0.0040477687
0002f0 01 0d 79 bc bb e0 26 bd 03 ca c7 bc 7d 31 03 bd
       -0.015200854 -0.040741663 -0.024388319 -0.032029618
000300 de 8a c3 bc d7 76 66 bc 96 2c 5a bd 79 4e 46 bd
       -0.023869928 -0.01406642 -0.053265177 -0.04841468
000310 ac 21 e5 bc b2 2b 3e bb e5 aa 8c 3c 3c d0 1a 3d
       -0.027970158 -0.0029017744 0.017171333 0.037796244
000320 11 4d ef bc bd 7f 06 3d 5d 7e fc 3c f3 00 a6 3c
       -0.029211553 0.032836664 0.030821973 0.020264124
000330 99 41 1d 3d 72 04 89 bc ae 37 4b bc 16 89 12 3c
       0.038392637 -0.016725753 -0.012403412 0.008943817
000340 91 e1 71 3c 75 68 fe 3b a2 26 d4 bb 6c 30 ef bc
       0.014763252 0.007763917 -0.006474332 -0.029197894
000350 90 4b 99 3c f6 da 03 3e cd 7c 9c 3c bb ad 07 3a
       0.018712789 0.12876496 0.019102478 0.0005175729
000360 86 71 28 bd 8a 7c e1 bc 36 87 04 3c 18 9e 8c bc
       -0.04112389 -0.027525205 0.008088877 -0.017165229
000370 c7 08 2f 3c c1 b3 ad 3c 90 81 14 bd 24 ac 27 3d
       0.010683245 0.021203877 -0.036256373 0.04093565
000380 f2 59 a3 bc b5 f8 64 bc 72 60 fa 3c 85 29 aa 3b
       -0.01994035 -0.013975312 0.030563567 0.005192938
000390 d5 2a 0a bc 8d 75 24 3d 98 85 eb bb 90 6a e7 bc
       -0.0084330635 0.040151168 -0.0071875565 -0.028249055
0003a0 d8 17 9f 3b ac 4e 0c 3b ea 66 46 bc 06 c9 0b 3d
       0.0048551373 0.0021409197 -0.012109498 0.034127258
0003b0 5f da b5 3c 92 d1 2e bd 5d 73 97 bb 5b 3b d5 bb
       0.022198854 -0.04268033 -0.0046219067 -0.00650732
0003c0 16 8e 25 3d b2 58 24 bd a6 e4 22 bd 76 ed 56 3c
       0.040418707 -0.04012365 -0.039768837 0.013118139
0003d0 62 29 f7 bc 0f 7b ee bb 25 2a 12 3d ae 8a 30 bd
       -0.0301711 -0.0072778533 0.035684723 -0.043101005
0003e0 de 7e 19 bd 5c 14 64 3c da 22 f2 3c 07 3b a9 bc
       -0.037474506 0.01392087 0.029557634 -0.02065803
0003f0 d3 99 2d 3d ae 76 85 bd 01 00 49 bd 73 e0 a3 bc
       0.042383026 -0.06516777 -0.04907227 -0.020004487

layer2.weight f4 [64, 256]
000000 4a 58 a9 bd be e5 bc be b1 90 bd bc f7 f6 36 3e
       -0.08268793 -0.3689403 -0.023140283 0.17867647
000010 69 16 9d bd d3 15 93 bd e4 87 65 3d ce 0b ae 3e
       -0.0767029 -0.07181897 0.0560378 0.3399338
000020 13 3c 44 bd 2f bb a2 bd ec 6f f7 3d 10 bb cf 3e
       -0.047908854 -0.07945859 0.12081894 0.40572405
000030 8b e7 c0 3e 7e 98 f8 3d 3a 29 a2 bc 10 d1 55 3e
       0.37676653 0.121384606 -0.019795049 0.20880532
000040 6c 2f 6f 3e 5b 08 54 bd 7a e1 46 be 95 f7 6a 3e
       0.23357934 -0.05176578 -0.1942195 0.22946008
000050 16 9d 22 be 94 3f 1d 3d 1f 26 6f 3e 8d 60 f1 bc
       -0.15880236 0.03839071 0.23354386 -0.029464984
000060 b6 8c 5d bd f9 26 84 be 9d 48 0d 3e e3 fb 7a be
       -0.05408927 -0.25810984 0.13797231 -0.2451015
000070 de 45 b7 3c 40 7b e0 bd a9 72 60 3c 4b 25 bf bd
       0.022372182 -0.10961008 0.013699212 -0.09333285
000080 f2 a7 9c bb 27 5b 8b bd 70 3e 56 3e f4 70 ed 3d
       -0.004780763 -0.06804495 0.20922256 0.1159381
000090 e7 26 05 3e d6 a3 8a be d3 fb f2 bd 10 f5 ba bd
       0.13003121 -0.27078122 -0.11864438 -0.09128773
0000a0 90 24 b8 bd a1 ba 45 bd df 10 5b 3e 11 8b 01 3e
       -0.08991349 -0.048273686 0.21393155 0.12650706
0000b0 fb e5 1b 3e 03 9b bd bd a4 40 2c be 6d 77 6b 3e
       0.1522445 -0.09258082 -0.16821533 0.22994776
0000c0 50 e6 86 3e 30 85 8d 3c 34 9c 80 be 79 78 27 bd
       0.2634759 0.017275423 -0.25119174 -0.040886376
0000d0 b6 61 f6 3c b4 59 9a be 15 18 5b be 33 ad 35 be
       0.03007589 -0.30146563 -0.21395905 -0.17741852
0000e0 a4 93 97 3e db a4 0c 3e f0 89 99 3e 17 5b 7d be
       0.29604828 0.13734762 0.2998805 -0.2474178
0000f0 0a c2 ba 3b ef 3b a0 3e 35 4e 26 be 1d 86 07 bc
       0.005699401 0.31295726 -0.16240771 -0.008271721
000100 26 8b 4c 3e 35 e1 d8 bd 9b 3c 3b 3c a3 a4 87 3d
       0.19974956 -0.1058983 0.011428024 0.06623199
000110 4d 3b 07 be ff 3c 96 3e 86 b5 86 be 4e c6 87 3e
       -0.13206215 0.2934341 -0.26310366 0.26518482
000120 3b 51 15 3e a1 4d 46 bd f1 c4 b1 3d 3f ac 1a bc
       0.14581768 -0.048413876 0.08680142 -0.009440481
000130 12 e7 a0 bc a7 e1 92 be 14 34 76 3e 36 98 99 3d
       -0.019641433 -0.28687784 0.24043304 0.07499735
000140 52 8d bb bd a1 ab 80 be 04 bc 8f 3c 3c 38 62 be
       -0.09157814 -0.25130942 0.017545708 -0.22091764
000150 b0 5a 1d be 96 b8 71 bd 33 ed e7 bd 4e 3f 5d 3e
       -0.15366626 -0.059013925 -0.11324539 0.2160618
000160 11 0a 4a 3c a8 0a 9b bd f0 b9 af bd 92 3c 04 be
       0.012331502 -0.07570392 -0.08580387 -0.1291373
000170 fc bb df 3b 79 86 f5 3c 2b 19 2c be e7 2d 0a be
       0.0068278294 0.029971348 -0.16806476 -0.13494073
000180 c2 1c 99 be e5 8b 69 3d 29 e3 d3 bd 48 e0 3f be
       -0.29904753 0.05701818 -0.10346062 -0.187379
000190 8a b7 b9 3d df bd 31 3d 73 ad 10 bc 1e b2 38 bd
       0.090682104 0.043393966 -0.008830416 -0.04509174
0001a0 cc 9c 4c 3d 49 4e d7 3d e5 f2 e1 3d 97 4a fb 3e
       0.04995422 0.105129786 0.110326566 0.49080345
0001b0 36 18 71 3e 09 24 40 be 7d 10 9f be 6b 43 15 be
       0.23544392 -0.18763746 -0.31067267 -0.14576499
0001c0 bf 0a 0a bd 40 52 36 be 76 7e 0a be 45 7e 3a 3d
       -0.033701655 -0.17804813 -0.13524804 0.045530576
0001d0 89 67 f7 3d 21 36 9c 3d bc 30 bf bd b7 af 2c bd
       0.12080295 0.07627512 -0.09335467 -0.042159762
0001e0 4a 8a 08 bf db 25 51 3d 23 c6 ce 3d 4a b9 a3 3e
       -0.5333601 0.051061492 0.10096385 0.31977302
0001f0 98 12 b7 bd f5 2f 84 3d c6 28 00 3e 62 89 3a 3d
       -0.08939093 0.064544596 0.12515554 0.045541175
000200 7d 9c 15 be 65 ad f7 bd 3a d7 1e 3d 9f 19 0b 3e
       -0.14610477 -0.12093619 0.038779475 0.13583992
000210 0d 32 6c be 77 80 87 3d c4 17 eb bd 8b 2b 63 bd
       -0.23065968 0.066162996 -0.11479142 -0.055461448
000220 ae 9f e0 3d a2 19 8c 3c ba 77 63 3d 1f 07 c7 3c
       0.109679565 0.017102066 0.055534102 0.024295388
000230 6f 94 56 3e 1f bc 47 3e 8f 46 33 be 79 53 a4 bc
       0.2095506 0.19505356 -0.17507385 -0.020059334
000240 6d 53 cd bc d2 da 05 3e aa 40 5e bd c4 c0 32 be
       -0.025064195 0.13071755 -0.054260887 -0.17456347
000250 28 04 48 3e 12 c0 64 be 73 2a 85 bd f6 4a 4e bd
       0.19532835 -0.22338894 -0.06502237 -0.050364457
000260 1b b8 5a 3e 82 15 ca bd f3 a3 1b 3e 03 d6 ff 3d
       0.21359293 -0.098673835 0.1519926 0.12491991
000270 c5 99 22 3d 29 05 d4 3e c0 a8 e9 bc 98 58 ce bc
       0.039697427 0.41410187 -0.02852285 -0.02518873
000280 06 2e 05 3e 08 72 4f 3e b8 85 21 3c 36 bc 9b 3c
       0.13005838 0.20258343 0.009858541 0.019010644
000290 71 0a c5 bc 8e 26 40 3d 46 a9 93 3c e3 35 4d be
       -0.02405283 0.04691177 0.018025052 -0.20040087
0002a0 40 1f 18 bd 2e 10 5d be 32 64 30 3c 91 7f c7 bd
       -0.037139177 -0.21588203 0.010766076 -0.09741128
0002b0 60 33 7b 3e 7b 7f 0e bb 36 16 cf 3c 29 9d 5c be
       0.24531317 -0.0021743465 0.025279146 -0.21544327
0002c0 10 9a 87 be e0 0e dd bd 10 b8 42 3e 45 83 10 3e
       -0.26484728 -0.10793853 0.19015527 0.14112575
0002d0 ee 75 20 3c a9 ad 25 bd 25 88 02 3e e7 87 a8 bc
       0.009793742 -0.04044882 0.12747248 -0.020572616
0002e0 11 23 5f b9 81 dc a4 3d 90 9b 66 bd 1a f5 85 bd
       -0.0002128 0.0804987 -0.0563007 -0.0654089
0002f0 20 5c 3a 3d 45 b1 00 bd 79 bb 1e 3c 7d 57 6f be
       0.045498013 -0.031419057 0.009688252 -0.23373218
000300 9b 6c bf 3d b3 d4 3d bd ed ad 96 3e cb 68 0a 3d
       0.09346887 -0.046345424 0.2942957 0.033791345
000310 b5 72 65 3b b9 50 2f 3b fe 11 a9 be 93 60 63 3d
       0.0035010998 0.0026750995 -0.3302154 0.055512022
000320 44 27 f2 3d 24 99 ce 3d d4 3f 21 bd 9b a3 e2 bd
       0.118238956 0.10087803 -0.039367512 -0.110663615
000330 c5 25 ad be b3 c0 9b bd 80 a1 6d 3e bf 08 22 be
       -0.33817878 -0.07605114 0.23206139 -0.15823649
000340 0e c4 cf 3d d3 d9 c7 3d 35 f4 58 be 98 72 07 be
       0.10144816 0.097583435 -0.21186908 -0.13227308
000350 84 a4 78 3e 74 7e 06 be b2 5e 40 3d 04 59 f6 bd
       0.24281508 -0.13134176 0.04696531 -0.12028697
000360 21 cd 79 bd 09 ab 04 be c4 0c b7 bd f3 17 14 3d
       -0.06098664 -0.1295587 -0.08937982 0.036155652
000370 95 6a 6f be 1c 4a 64 be a6 f0 a3 bd f1 0a 91 bb
       -0.23380502 -0.22293895 -0.080048844 -0.004426353
000380 de 03 9f bd 96 77 1e 3f 14 04 41 be 8b 7e 82 3e
       -0.077644095 0.61901224 -0.18849212 0.2548717
000390 83 d2 c3 bd bd cb 25 be 28 8d f7 3c 1e 98 16 bd
       -0.09561636 -0.16191001 0.030218676 -0.036766164
0003a0 8d f7 9e bc 87 57 01 be 8a a8 a7 3e ad 6f 8d 38
       -0.01940515 -0.12631045 0.32745773 6.744205e-05
0003b0 17 4a 76 3b 14 28 69 3e 66 b5 31 3e e3 52 2c be
       0.0037580782 0.22769195 0.17354354 -0.16828494
0003c0 a5 a5 ca bc 68 a2 95 3e b2 8a 69 3e 7c 22 10 be
       -0.024737189 0.2922547 0.22806814 -0.14075655
0003d0 05 92 5f 3e dc e0 7c 3d 70 e6 55 3d dc 33 40 be
       0.21833046 0.06173788 0.052221715 -0.18769783
0003e0 6b b2 97 3b ea 3a 26 be 29 b1 67 bd 9e 58 96 3e
       0.0046294234 -0.16233411 -0.056565437 0.29364485
0003f0 4e 64 46 3d db 6d 9a 3e 8c 1a 76 3e 4e 32 eb 3d
       0.0484355 0.30161938 0.24033564 0.11484204

layer2.bias f4 [64]
000000 f9 71 0f bd 51 69 ab 3c 2e d4 07 3d 02 37 9c 3c
       -0.035020802 0.020924242 0.033161335 0.019069199
000010 14 14 8b 3d d1 cc 87 3d ef 90 4b bd f0 fd 82 bb
       0.06790939 0.066308625 -0.049698766 -0.003997557
000020 70 67 8e 3b 07 be 99 bd 9b 4e 56 3c 74 d1 a5 bc
       0.004345827 -0.07506948 0.013080264 -0.020241477
000030 35 9c 7f bd da f0 d2 3c 49 8c bf ba 2d 9f 39 bd
       -0.06240483 0.025749613 -0.0014613952 -0.045317817
000040 87 6f 0a bd 8f d9 79 bc 08 ad ac 3b a2 ac 25 3d
       -0.033797767 -0.015249624 0.0052696504 0.04044784
000050 24 76 1b 3c 84 64 1b bc 3c f9 a2 bd 9c d9 3b bd
       0.009488616 -0.009484414 -0.07957694 -0.045861825
000060 bc 24 45 bd fc 84 75 bd c4 53 13 3d fb fc 08 bd
       -0.048130736 -0.059941277 0.035968557 -0.033444386
000070 b0 29 e0 3c eb 7c 03 bc ac 4a be 3c a5 ce 4f bc
       0.027363628 -0.008025388 0.023228966 -0.012683545
000080 0c 74 2f bd 9d f8 2a bc e2 71 90 bd 8a 0b 1a bd
       -0.04283528 -0.010435251 -0.070529714 -0.03760866
000090 9f e0 b5 bb be 59 88 bd 84 ee d4 3b 0f a7 53 bd
       -0.0055504586 -0.06657742 0.00649816 -0.05167299
0000a0 ec 03 97 bd 00 33 2e bd 70 7b 54 3d 10 e4 c9 3b
       -0.07373795 -0.042529106 0.05187553 0.0061612204
0000b0 cb cf 77 3d b3 2a 8d bd dc 5e 8b 3c 0f cc 34 bc
       0.0605009 -0.0689291 0.017013006 -0.0110349795
0000c0 13 79 06 bd f7 43 44 3d 76 64 8f bd 52 ec 6c bd
       -0.03283031 0.04791638 -0.07001583 -0.05784256
0000d0 ee bf 86 bb e1 c3 29 3d 71 e7 99 bd 48 f2 8b 3d
       -0.0041122353 0.04144657 -0.07514847 0.06833321
0000e0 ca 01 85 bd 35 b4 15 bd e5 45 55 bc c1 5d ef 3b
       -0.06494482 -0.036548812 -0.013017152 0.0073048775
0000f0 7d a6 3e 3d 38 41 16 bd ff bd a5 3c 16 13 3b bd
       0.046545494 -0.03668329 0.020232199 -0.0456725

layer3.weight f4 [1, 64]
000000 c7 9d 6e 3e e2 fe e2 bd 58 f9 d8 bd e7 cd eb bd
       0.23302375 -0.11083771 -0.105944335 -0.11513882
000010 97 8b 7b 3e ec 48 28 3e 9d ec 4b 3e 9f 6c 09 3e
       0.24564968 0.16434067 0.1991448 0.13420342
000020 87 89 28 3e 93 4f 68 3e d0 88 6d bd 03 f8 91 bd
       0.16458713 0.22686605 -0.057991803 -0.071273826
000030 be 97 59 be 30 2a a8 bd fa 5f a5 bd 68 89 1c be
       -0.21249291 -0.082111716 -0.08074947 -0.15286791
000040 44 f9 0b be 14 80 10 3e 3c be 69 3e 6d a0 59 bd
       -0.13669306 0.14111358 0.22826475 -0.05313151
000050 a2 d6 45 3e b6 11 11 be 16 4e 12 be 0a d2 f2 bd
       0.19320157 -0.14166912 -0.142876 -0.11856468
000060 8e e6 98 bd 21 40 2b be 9d 3a f7 3d 28 fe 57 3e
       -0.0746585 -0.16723682 0.120717265 0.21093047
000070 82 7c 2f 3e 11 8f 44 be 67 9b 76 bc 99 c1 cc bd
       0.1713734 -0.191952 -0.015051699 -0.09997863
000080 12 c4 1d be 19 f4 c4 3d 07 25 33 be 35 e2 b9 3e
       -0.15406826 0.096168704 -0.17494594 0.36305395
000090 d8 cb 04 be fe 79 1b be c1 09 12 be fa b1 64 3e
       -0.12968385 -0.15183255 -0.14261533 0.22333518
0000a0 5f 84 36 be 94 e1 37 be 04 75 ea 3d aa a4 34 3e
       -0.17823933 -0.17957145 0.114481 0.1764094
0000b0 cd 0e b1 3e 92 a1 37 3e 62 b1 21 3e 47 1e 17 be
       0.34581605 0.17932728 0.15790322 -0.14757644
0000c0 26 6d c8 3d 2d 1c 4d 3e a5 bb 3d 3e 32 cb 19 be
       0.097864434 0.2003028 0.18528612 -0.15018919
0000d0 a4 89 d1 bd 6e ff 19 3e 6d cd fa bd 0d 5f 85 3e
       -0.10231331 0.15038845 -0.12246213 0.2604908
0000e0 d5 10 03 be 3e 77 01 3e 61 6e bf 3d 4e a3 a9 be
       -0.1279939 0.12643144 0.09347225 -0.33132404
0000f0 cd b6 10 3e a3 67 11 be 0a 9b a0 bd 12 79 6d 3d
       0.14132233 -0.1419969 -0.07842071 0.05797679
