test/ens_models/ens_model_5_C.pt (torch, 654470 bytes, 6 tensors)

layer0.weight f4 [20, 10]
000000 57 6c 0a 3f 67 bc 00 bf c4 1d 81 be 85 68 bc be
       0.54071563 -0.5028748 -0.25218022 -0.36798492
000010 5e 44 63 3f b8 33 5e be e1 49 95 bd 56 61 d1 be
       0.88776195 -0.21699417 -0.07289482 -0.40894574
000020 3c 36 9f be 01 63 6a 3f 49 fc b7 be e9 8f bd be
       -0.31096065 0.9155732 -0.35934666 -0.37023857
000030 e1 d7 41 3e 17 dd 17 3f 70 2e 76 bf 49 5f 1d bf
       0.18930008 0.5932173 -0.9616461 -0.6147352
000040 d7 04 57 be 95 0b 73 3f 98 c2 a3 bd 3e 36 35 3e
       -0.2099794 0.9493955 -0.079961 0.17696473
000050 7c 03 4c bf e3 f8 d0 be 5b 6d 04 be a8 c8 71 3d
       -0.79692817 -0.40814885 -0.12932341 0.05902925
000060 32 05 d2 be e7 af d4 3e 9d 8b 72 3f 11 ae 66 bd
       -0.4101959 0.41540453 0.9474428 -0.056318346
000070 8d 6d b8 3e 97 26 cc be 7d bd 0f be 58 3a 1d 3f
       0.3602108 -0.39873192 -0.14037128 0.6141715
000080 be ab 74 3f 36 01 3b bf 43 99 b9 be 88 28 13 3f
       0.9557456 -0.7304872 -0.36249742 0.5748372
000090 fb fc 02 3f 34 42 15 bf a4 c3 ce 3d a8 6c c7 bd
       0.5116727 -0.5830414 0.10095909 -0.097375214
0000a0 b9 1c 84 3e 54 af 46 bf 17 42 0d 3f 82 95 7b bd
       0.25803164 -0.7761128 0.5517897 -0.06142188
0000b0 d8 ec 40 3f 22 46 69 be 55 b8 5d bd 19 82 9d bc
       0.75361395 -0.2278066 -0.05413087 -0.019227074
0000c0 68 4b 3e 3f db f6 ad bf 3d 06 51 be eb 32 1f bd
       0.7433381 -1.3590959 -0.20412536 -0.03886692
0000d0 23 d6 d4 be 70 e8 3d be 34 19 6a be 07 99 49 3e
       -0.41569623 -0.18545699 -0.22861177 0.19687282
0000e0 5e d4 22 bf 99 a1 9f be a1 6f 31 be 3b cc 47 3e
       -0.63605297 -0.31177977 -0.1732774 0.19511501
0000f0 6c 75 a2 3c ed 52 2a bf fc 8b 39 3d 4c 4b 90 3d
       0.019831382 -0.66532785 0.045299515 0.07045612
000100 42 75 7b bf f8 a0 08 bf d9 71 76 bf f4 bf bd 3e
       -0.98225796 -0.5337062 -0.9626747 0.3706051
000110 76 9b 05 3f 13 8f c6 be e2 23 27 bd 04 07 30 be
       0.5219034 -0.38781032 -0.040805705 -0.17190176
000120 66 06 2e 3d a3 4a 0d bf 5c 22 3a 3f 26 70 cb 3e
       0.04248657 -0.5519201 0.7270868 0.39734
000130 45 8f e8 3e 1c 5a 86 3e b2 65 f1 be c0 a7 14 3f
       0.45421806 0.26240623 -0.471479 0.58068466
000140 60 a4 05 3e 64 7e df 3d 95 e5 5d be 55 af 03 3f
       0.13050985 0.10912779 -0.2166961 0.5143941
000150 93 bc 00 3f 16 3d fc 3e 3f a4 72 bf 51 38 14 3f
       0.5028774 0.49265355 -0.9478187 0.5789843
000160 33 6c 91 bf 92 df 2a be 74 fc c3 be c6 73 be bd
       -1.1361145 -0.16686848 -0.38278544 -0.09299426
000170 59 5f fe 3e bf ee c8 bd 59 e2 d0 3e 3a 1c 80 bf
       0.4968212 -0.09811162 0.4079769 -1.0008614
000180 34 4f f2 3e ac f4 92 3e aa f0 a1 bd b5 c1 d9 be
       0.47326052 0.28702295 -0.07907231 -0.425306
000190 db cd 86 3e 95 9a 00 3f 60 97 1b 3f 2b b8 ef be
       0.2632893 0.50235873 0.60777855 -0.46820197
0001a0 cc fd e7 3e e4 8c a5 be 3d f3 0e be 20 7b cd 3e
       0.4531082 -0.32334054 -0.13959976 0.40133
0001b0 1d da 1a be f4 f7 2b 3f 28 57 17 be 03 c2 db 3e
       -0.15122266 0.6717522 -0.14779341 0.42921457
0001c0 5c fa c1 be cd 19 47 bc c4 84 3f bf 73 af aa be
       -0.37886322 -0.0121521475 -0.7481196 -0.33336982
0001d0 12 ce 12 3e 46 8b a7 3d 33 de 90 bf 81 d5 01 3e
       0.14336422 0.08180861 -1.131781 0.12679102
0001e0 d4 45 01 bf 79 6e d3 3e 79 a2 53 3f b4 8f 33 bf
       -0.50497174 0.4129522 0.8266979 -0.7014115
0001f0 c9 cb 7b 3f c3 08 27 3f ec e2 bd 3e 0f 8d 4b bf
       0.98357826 0.65247744 0.3708719 -0.79512113
000200 eb b9 8c 3d cc 4e f6 be 5e 27 93 3e 62 10 2b 3e
       0.068713985 -0.48106992 0.28740972 0.16705468
000210 1b df fd be ab 9c 5c 3f b3 71 c5 bd a8 4b 39 bf
       -0.49584278 0.86176556 -0.09640827 -0.7238107
000220 78 2d 26 3f f4 46 e9 be bd 64 0b 3f ea 0d 5f be
       0.6491313 -0.45561945 0.5445059 -0.21782652
000230 34 ad b2 3f 9d 28 04 be f6 0f 2c 3c e2 bf 25 3d
       1.3959107 -0.12906118 0.010501852 0.040466197
000240 2f 02 86 be f7 ac 75 3e 61 d7 dc 3e bc 51 7a bd
       -0.2617354 0.23991762 0.4313307 -0.061113104
000250 c6 8a a0 3e ff 8d 5a bf 47 c7 78 bd d8 89 36 3f
       0.31355876 -0.8537292 -0.06073692 0.7130408
000260 14 d1 0f be b0 94 9f 3f 6e 6c 98 3e ab 64 e4 3e
       -0.140446 1.2467251 0.29770225 0.44608054
000270 19 33 98 be 1f 26 04 3d 5d 08 93 3f d9 9b ee 3e
       -0.29726484 0.032262918 1.1486927 0.46603277
000280 de dc a1 3c f4 b6 2d 3d 68 f5 2e 3f 72 aa 99 bd
       0.019758638 0.042410806 0.6834321 -0.07503213
000290 e5 78 07 3f fc cf 5a 3f a0 38 5e be d5 b7 7d 3d
       0.52918845 0.8547361 -0.21701288 0.061942894
0002a0 b9 4e 5b bf a3 8b 2c bf 2c 22 25 bd ff a8 99 3f
       -0.85666996 -0.6740057 -0.040315792 1.2004699
0002b0 86 21 30 bf da cf 11 3f be 94 21 3f 0a dd 87 3e
       -0.6880115 0.5695778 0.6311759 0.26535827
0002c0 29 a9 20 bf 86 98 8b 3e 58 1f 4a be 4d 27 fc 3e
       -0.6275812 0.27264804 -0.19738519 0.49248734
0002d0 42 88 24 be ad 84 2c 3f c6 c7 a3 be 9b c0 06 bf
       -0.16067603 0.6738995 -0.31988353 -0.5263764
0002e0 48 ed 46 3f 8d ad b0 3e 21 4e d0 3e 72 3d c9 3e
       0.7770581 0.3450741 0.40684608 0.39304692
0002f0 98 d6 73 3f fc d9 5c bf b3 29 91 3c 97 71 b6 3e
       0.9524932 -0.8627012 0.017720079 0.35633537
000300 ea 1d 39 bf 85 3d 74 3c 9a 36 54 3f 4c 8b eb be
       -0.7231127 0.0149072455 0.82895815 -0.46004713
000310 cc a3 92 3e 99 fb d2 be 68 33 3b bf 1b ca 90 3e
       0.28640592 -0.4120758 -0.73125315 0.28279194

layer1.weight f4 [256, 570]
000000 f5 a6 88 bc 73 d5 aa be 3f 25 38 bf 82 98 a2 bc
       -0.016681174 -0.33365974 -0.71931833 -0.019848112
000010 75 73 fb 3c b0 94 20 3c cb 7e 4d 3d ec ee 5a 3c
       0.030694703 0.009801075 0.050169747 0.0133626275
000020 25 7a 21 ba f9 0c 92 3d c7 6f 4f bd d8 f8 c4 bb
       -0.00061598636 0.071313806 -0.05064371 -0.00601111
000030 4a ba 47 3c ee 88 a2 3d 71 56 aa bd eb c9 27 3e
       0.012190411 0.079362735 -0.08317269 0.1638562
000040 c4 80 02 3e 9e f4 36 3c ad c5 09 bd 6c 37 8b 3a
       0.12744433 0.01116672 -0.033635784 0.0010621375
000050 a8 d8 c5 3b 88 39 0e 3d 13 40 3d bc c9 d9 57 3c
       0.0060377903 0.034722835 -0.011550921 0.013174483
000060 5f ad 04 be db 99 8a bd 3c 44 61 bb 8c 59 98 bc
       -0.12956761 -0.06767627 -0.0034372946 -0.018597387
000070 e5 22 05 3d b3 19 67 bd 7f b4 20 bd ef ec 99 be
       0.03250398 -0.056420993 -0.039234634 -0.30063578
000080 b1 2b 94 3d ab 05 3a 3d e4 1e e2 bc 55 fb b6 bd
       0.07234896 0.04541556 -0.02760262 -0.089346565
000090 47 f8 78 3d 03 a1 ee 3d 36 9b a6 bd a9 61 c4 3d
       0.06078365 0.11651804 -0.08135073 0.0958894
0000a0 16 46 87 3e ad 54 51 bc 40 40 39 3d d5 d2 45 3e
       0.2642066 -0.012776536 0.04522729 0.19318707
0000b0 c6 14 eb 3c 59 74 5a be 01 50 01 3f 59 7a 15 bf
       0.028696429 -0.21333446 0.505127 -0.5838981
0000c0 61 84 51 bc f2 1d 06 bd 26 6e df 3b 5b 7a fb bc
       -0.012787909 -0.0327434 0.0068185506 -0.030697992
0000d0 05 76 fc bd da c8 3a be b8 c3 83 3e 4b 2a e7 bc
       -0.12327198 -0.18240681 0.2573526 -0.028218409
0000e0 c9 53 19 3d d0 4e 75 bd a0 18 08 3e eb a4 40 3d
       0.03743342 -0.059889615 0.13290644 0.047032278
0000f0 37 23 ce 3d 79 86 07 3e 99 c6 46 be 32 94 57 3e
       0.100653104 0.13234891 -0.19411696 0.21052626
000100 c8 94 0e 3d 9d bc aa bc c2 65 5f bc 43 7c 01 3d
       0.034809858 -0.020841891 -0.013635101 0.031612646
000110 05 3d 0b bd 7f 48 0a 3d b5 5d 9c be 2e 94 ec be
       -0.03399374 0.033760544 -0.30540243 -0.46206802
000120 f4 25 7c 3d 99 36 29 bd 33 d2 4b be b0 f5 1c 3e
       0.061559632 -0.041311834 -0.19904403 0.15328097
000130 8f 37 50 3e 13 08 0a 3e 9b aa e8 3e ce 3f 60 bf
       0.20333694 0.13479643 0.45442662 -0.8759736
000140 64 78 fb 3c 23 69 9b 3c 5f 16 c1 bc cc eb cd bc
       0.030697055 0.018971032 -0.023570238 -0.02513685
000150 59 2f a5 be 18 c2 80 be 30 94 4a 3e 9f a6 42 be
       -0.32262686 -0.25148082 0.19783092 -0.19008873
000160 57 5f 3c 3e f2 74 7a 3d 62 76 02 3e c2 a5 cc bd
       0.18395744 0.061146684 0.12740472 -0.09992553
000170 90 b9 63 3e a2 e1 59 3b 25 8d 01 3d 2b f9 38 3e
       0.22238755 0.003324606 0.031628747 0.180638
000180 55 41 71 3d d5 fd 90 bb 0d 31 26 bb 71 f4 3a bc
       0.058900196 -0.0044247904 -0.0025358826 -0.011410818
000190 04 fc c1 bc 38 6f 07 bd 98 50 7c 3c 74 e1 64 3d
       -0.02367974 -0.03306505 0.015400074 0.05587907
0001a0 6d b4 26 be 4f 5f 7f 3d 4e 4a f2 3b bf 39 22 3d
       -0.16279764 0.062346753 0.0073941117 0.039605852
0001b0 6b 1c 37 3e 27 b9 23 ba 3b c9 6e bd 0b ff d2 3d
       0.17881934 -0.00062455464 -0.058297377 0.10302552
0001c0 87 99 ab bd 89 be 3d be 3f 06 a8 3c 44 01 d5 3b
       -0.083788924 -0.18529715 0.02051079 0.006500395
0001d0 0b 59 db 3d 54 95 f9 bb 34 8c 42 3d 1d 65 6f bc
       0.10710343 -0.0076166783 0.04749699 -0.01461151
0001e0 14 39 89 3c ac 0b 32 3c cb 71 0a 3d d8 b3 0f 3e
       0.01675085 0.010867041 0.033799928 0.14033449
0001f0 3c 73 1c bd 50 dc 7a 3c 3e 1c 35 3d 25 f8 b1 3d
       -0.038195834 0.015311316 0.044216387 0.08689908
000200 53 e8 6f 3c 51 b0 48 bd cb 5a 8a 3d 44 f0 44 3c
       0.014642793 -0.048996273 0.06755599 0.012020174
000210 10 e2 26 3e 5b 35 d8 bc a6 13 7c bb 25 6d 81 bd
       0.16297174 -0.02639263 -0.003846386 -0.06319646
000220 f2 d7 c1 3d d9 58 a6 3d 77 64 b7 bd 2a d7 2b 3d
       0.094650164 0.08122415 -0.08954709 0.041953243
000230 3f 28 93 be a9 03 5c 3d 40 e2 ac be 5f a1 73 3e
       -0.28741643 0.053714428 -0.33766365 0.23792027
000240 10 5e 45 bc cd 25 60 be 6f b7 79 3e cc e8 72 be
       -0.012046352 -0.2188942 0.2438638 -0.23721617
000250 99 2d 69 bc 55 16 b2 3c 74 d3 27 3e 4f 11 5b bd
       -0.014232063 0.021739164 0.16389257 -0.053483304
000260 7c 07 70 bc 74 2d c5 3c a3 e3 97 bb 68 3e 2d 3d
       -0.014650222 0.024069525 -0.0046352907 0.042295843
000270 20 9c a8 3c 03 18 29 bd 75 fb 43 3c 85 1a 8d 3c
       0.020582259 -0.041282665 0.0119618075 0.01722456
000280 1b 5e 67 3d 09 92 44 bd 82 42 cc 3c 48 af d2 3c
       0.05648623 -0.047990832 0.024934057 0.025718346
000290 7c 6d ce bd c4 ad 93 3d eb b1 70 3d 47 06 0c be
       -0.10079476 0.072108775 0.058763426 -0.1367427
0002a0 52 65 dd bc 02 17 86 bc 9a 75 91 3d 1a cf 8e 3d
       -0.027025852 -0.016368393 0.07102509 0.06973095
0002b0 e3 f5 d4 3e f9 34 1f 3d 54 e9 74 3d b0 b2 78 3d
       0.41593847 0.038868878 0.05979283 0.060717285
0002c0 c2 41 27 bf c7 87 88 bf e6 eb fb 3c d8 31 a5 bd
       -0.65334713 -1.0666436 0.030752134 -0.080661476
0002d0 95 12 3d bf 6b d8 e6 be b9 83 5c 3d 90 5c 88 3c
       -0.7385648 -0.4508699 0.053836558 0.0166457
0002e0 73 2d 0c 3d 14 5e 00 bd 8e 29 d6 bc bc 46 66 3a
       0.03422303 -0.03133972 -0.026142862 0.0008784344
0002f0 eb 7f ab 3c c9 2c fe bc 30 8f f8 3b 68 fb 1b 3b
       0.02093502 -0.031027215 0.0075854287 0.0023800973
000300 b3 1f 86 3d b2 ac 3c bb 6c 9d e0 3b 8d 04 3e 3d
       0.06549015 -0.0028789458 0.0068547036 0.04639106
000310 68 ca f5 be 1c 2f 86 bd a9 76 09 3e e9 63 04 3e
       -0.48005986 -0.06551954 0.13424172 0.12928738
000320 98 8a 30 be c0 08 3b 3e 2e 8b c1 bd 16 f3 08 3e
       -0.1724037 0.18265057 -0.094503745 0.1337398
000330 65 a8 60 bf 0b aa a2 3e a0 6f 78 be f8 4c 6b 3d
       -0.8775695 0.31770357 -0.24261332 0.05744645
000340 62 f5 b6 bc d1 d0 71 3c 6d 23 93 3b 24 9f fd 3c
       -0.022333805 0.014759258 0.004490307 0.030959673
000350 16 4f f6 3b ff bd 77 bb 33 5d d9 3c e0 c7 7d 3c
       0.007516752 -0.0037802455 0.026533699 0.015489548
000360 28 68 bf bb f9 70 8f bc 17 bc 99 3c 37 27 88 bc
       -0.005841274 -0.017509924 0.018766446 -0.016620262
000370 74 20 cd 3b d0 f5 65 bd 43 fa 29 3e a0 17 14 3d
       0.006259972 -0.05614263 0.16599374 0.036155343
000380 1a b0 41 be b1 83 a9 3b 0c 21 0a 3f 15 9f 84 be
       -0.18914834 0.0051731695 0.53956676 -0.2590262
000390 a1 0e cf bc 2b d4 7e 3e 70 0e b3 be 83 94 f6 3d
       -0.02527553 0.24885623 -0.34971952 0.12040045
0003a0 29 13 c9 3e 64 b9 ce 3e 77 9d 84 be f8 ea 90 3f
       0.3927243 0.40375817 -0.25901386 1.1321707
0003b0 73 ad 4f 3f e7 6a 3a 3f 51 6a ca 3e a0 b4 fc 3e
       0.8112404 0.7281937 0.39534238 0.49356556
0003c0 1f 28 a2 bc 4c 1d d3 bc 5a 90 9b 3c 0d 50 d6 3c
       -0.019794522 -0.025770806 0.01898973 0.026161218
0003d0 2b e0 ba 3d d8 d0 8f 3e 47 4f 25 be 2c 25 7c be
       0.09124788 0.28089023 -0.16143523 -0.24623555
0003e0 b0 bc 99 bd 51 0d 03 3e 05 2e 6e bd 94 a3 67 bd
       -0.075066924 0.12798049 -0.058149356 -0.056552485
0003f0 c8 71 c7 bd 3b 8a 5a 3b 45 fb f4 3c e8 55 19 bd
       -0.09738499 0.0033346552 0.02990497 -0.037435442

layer1.bias f4 [256]
000000 f8 1c f7 bc e1 e4 10 3d 3c 7f 2d bd 69 f3 84 bb
       -0.03016518 0.035374526 -0.04235767 -0.004057337
000010 c4 59 08 bd c6 81 a5 bc b1 f9 03 3c 6e 8f 70 bc
       -0.033288732 -0.020203482 0.008055137 -0.014682634
000020 c4 9d 06 3c 83 4a 38 bd 93 ae 80 3b d1 79 e3 3c
       0.008216325 -0.044992935 0.003927061 0.027768048
000030 c7 34 19 bc e3 a3 d1 3a ba d9 52 bc 34 e0 3c 3b
       -0.009350962 0.0015994277 -0.012869293 0.002882016
000040 0d 29 6d 3a 67 d0 7c 3c 9c 16 29 3d 69 02 b2 3c
       0.00090469496 0.015430546 0.041281328 0.021729665
000050 a4 e2 d0 3b df d3 4a 3c cc 8e 0e bd cf a4 3e 3c
       0.006374674 0.012379616 -0.03480415 0.011635973
000060 92 04 0d 3d d1 97 cb bc 09 dd 60 bc 72 e5 e6 3c
       0.034428187 -0.024852665 -0.013724574 0.02818558
000070 bb 89 61 3c 96 cb 8f 3b 6a e7 c3 bb cc 66 27 ba
       0.013765748 0.004388283 -0.0059785144 -0.00063858624
000080 24 6b f0 3c 60 e9 85 bc 77 e8 35 3c 79 89 22 39
       0.029347964 -0.016346633 0.011102787 0.00015500736
000090 cd d8 68 3d 7a b7 13 bd 0b e6 9c 3c b7 da ab 3c
       0.056847382 -0.03606365 0.019152662 0.020978315
0000a0 2c f9 0c 3d b1 27 2b 3d 3d 59 5c 3d 95 de 30 bd
       0.034417316 0.0417859 0.05379604 -0.04318102
0000b0 63 89 42 bc 84 e0 a7 3c 28 d3 b2 bc b3 ae 42 bc
       -0.011873576 0.0204928 -0.021829203 -0.011882472
0000c0 e5 72 29 3d 73 c7 cd bc 6b 50 89 3c 56 0a 15 3d
       0.041369338 -0.025119519 0.01676198 0.03638681
0000d0 42 12 82 3c b4 7d 0b 3d d1 5e 00 3d 8a ea 93 3c
       0.015877847 0.034055427 0.031340424 0.018056173
0000e0 ee 91 fe bc f3 96 25 bc aa 21 1f 3d 51 5b f1 3c
       -0.031075444 -0.01010679 0.038850464 0.029462488
0000f0 6b e5 34 bd 00 a6 f6 3c 45 75 0a bd 2d 6c 4c bd
       -0.044164103 0.030108452 -0.033803243 -0.049907852
000100 e7 1b 40 bc 3b 38 20 3d 5e 1e 22 39 a9 98 a4 3c
       -0.011725402 0.039116126 0.00015460837 0.020092325
000110 95 03 22 3c b7 fc 40 3d 9e af c3 bb b1 d5 46 bc
       0.009888549 0.047116008 -0.005971863 -0.012135909
000120 07 c4 18 bd 33 58 05 3d 04 b2 75 3c f3 0b b8 3b
       -0.03729632 0.032554816 0.0149960555 0.005616659
000130 92 ad 1f 3d 39 c0 af 3c 39 28 3d 3d 0f 44 7b bd
       0.03898389 0.021453964 0.046180937 -0.061344203
000140 d0 35 00 bd ef f9 d0 3c 2c 70 a7 bb b1 e6 04 bd
       -0.03130132 0.025509803 -0.0051098075 -0.032446567
000150 a6 97 fc 3b b3 09 d7 bb 35 80 fb bc 0f 9b 20 bd
       0.0077085076 -0.0065624355 -0.030700782 -0.039210375
000160 5a f7 ce bc f3 61 8d bc f3 bf 8d bc ea 51 b2 bc
       -0.02526443 -0.01725862 -0.017303443 -0.021767575
000170 10 7a 73 3b 05 91 07 3d 98 64 36 3c 8a b4 b5 bc
       0.0037151612 0.033097286 0.011132382 -0.022180814
000180 a1 45 9a 3c 3a c9 4a 3c e4 66 40 bc a7 60 7e 3c
       0.01883203 0.012377078 -0.011743281 0.015525973
000190 8f 77 c3 3c e4 6c 28 bd 39 72 6e 3b a5 12 10 3d
       0.02386072 -0.04111947 0.0036384 0.03517403
0001a0 cc 04 5b bc b1 71 cb bb 8a 49 37 bd 10 0d 6f bd
       -0.013367843 -0.0062086214 -0.044747867 -0.058362067
0001b0 cf a1 6b bc 1d 04 07 3d d0 43 f3 bc 1d 81 ac 3c
       -0.01438184 0.032962907 -0.029695421 0.02105766
0001c0 39 f2 9d 3c fe 61 15 bd f8 d3 1a 3d 3e 97 03 3d
       0.01928054 -0.036470406 0.037799805 0.032126658
0001d0 45 8a 22 bc c3 dc 7c 3c 13 a3 99 bc 9e 56 84 3d
       -0.009920661 0.015433493 -0.018754518 0.064618334
0001e0 a1 2f 30 bd cb a9 89 bd fe ff a8 bb 7e 41 54 bc
       -0.043014172 -0.067218386 -0.00515747 -0.012955068
0001f0 e1 43 dc 3c 7c b8 28 bc b2 5c 08 bc f9 a0 59 3c
       0.026887836 -0.010297891 -0.008322882 0.013283008
000200 98 03 f5 3c 36 8f fc 3b d6 5f d6 3c 1c 3f 55 3c
       0.02990894 0.0077075018 0.026168745 0.013015535
000210 ee 80 ef 3c 6a 11 df 3c 9b d7 95 bb 73 6e 9d bc
       0.029236283 0.027229983 -0.0045728213 -0.019217705
000220 28 03 24 3c 0f b8 21 bc 09 91 74 bb 22 88 7b bc
       0.010010518 -0.009870543 -0.0037317893 -0.015352281
000230 80 7d b4 3c 4c be bb bc eb 6d 4d bc 11 e9 21 bd
       0.0220325 -0.022917889 -0.0125384135 -0.03952891
000240 c2 31 3d 3d 42 bf a3 3b d1 79 76 3c 91 e6 ea 3c
       0.04619003 0.004997165 0.015043692 0.028674396
000250 d7 20 10 bc 84 37 22 bd bc 08 43 bc 95 85 83 3a
       -0.008796892 -0.039603725 -0.011903938 0.0010034317
000260 a4 6f a5 3c 1f b7 85 3d 15 68 35 3c 98 eb 38 bd
       0.020194836 0.06529068 0.011072178 -0.045146555
000270 81 06 68 3c 57 e5 9e bb fe 8d 81 3d 89 4d b2 bc
       0.014161707 -0.004849117 0.06325911 -0.021765487
000280 1b 8a 77 bb 75 59 4e 3b 60 b9 f7 3c 77 f3 28 3c
       -0.0037771526 0.0031486426 0.03023976 0.010311953
000290 f7 ce db 3c ae 6c 04 3d 16 7f 20 3d 83 bd 8e 3c
       0.026832087 0.032330208 0.0391837 0.01742435
0002a0 e3 6c 03 bd 98 04 2b 3c 63 c7 28 bb ea 96 91 bc
       -0.032086264 0.010438107 -0.002575361 -0.017772157
0002b0 aa 12 a6 bc b6 49 53 3c c7 e3 9a bc 2f 2b 22 bd
       -0.020272572 0.012895992 -0.01890744 -0.039591964
0002c0 91 1d 75 3d 46 4f 0c 3d d4 de 2a 3d a8 eb 15 3d
       0.05984265 0.03425529 0.04171641 0.036601692
0002d0 08 20 ef bc 49 13 ec bb 40 89 55 bb ef 47 36 bd
       -0.029190078 -0.0072044474 -0.0032583028 -0.044502195
0002e0 5a f8 7a bc 9b 3d ab bb d6 3f cc 3a 2f 54 07 3d
       -0.015318001 -0.00522585 0.001558299 0.033039268
0002f0 12 32 b4 bc 5d e3 57 bc 57 08 f5 3c f2 0f 25 3b
       -0.021996532 -0.013176766 0.029911203 0.0025186506
000300 be 2c 36 bd db 61 c0 3c c4 a4 58 3c 43 a4 14 3d
       -0.044476263 0.023484161 0.013222877 0.036289465
000310 e5 f3 88 3c d4 2f 19 bd b1 47 4d bd 3f 51 ad bb
       0.01671786 -0.037399128 -0.0501172 -0.0052892263
000320 1e 65 88 bc c8 e6 d0 3c 09 22 0f bd d5 61 59 ba
       -0.016649779 0.02550067 -0.034944568 -0.0008292471
000330 67 43 17 3c 60 ae e9 3c 3d 26 ab 3c 8b 58 b5 3c
       0.009232379 0.028525531 0.020892257 0.022136947
000340 7f 09 36 3b 0d 14 15 3d 62 d0 56 bc b1 48 b2 3c
       0.0027776656 0.036396075 -0.013111206 0.021763178
000350 76 24 07 3d a5 b7 52 3c 3d 06 0e 3d 85 c3 da 3c
       0.032993756 0.012861167 0.034673918 0.02670456
000360 77 93 98 3c c9 18 27 bc 50 49 d2 bc fc bb c3 3b
       0.018625004 -0.01019878 -0.025669724 0.005973337
000370 ee aa 1b 3d f2 8d 11 bd 09 c2 0f bd c4 97 8f bc
       0.038004808 -0.03553576 -0.035097156 -0.017528422
000380 33 1f 83 3b ad 73 4b 3c d2 21 d7 bc c8 73 be bb
       0.004001522 0.012417716 -0.026261244 -0.005812142
000390 5f 23 b4 bc 92 c1 ad 3c f0 36 6a ba fa c1 b1 bc
       -0.021989523 0.021210466 -0.0008934578 -0.02169894
0003a0 16 4f 3a bd 38 26 98 3c de 2c f7 36 78 da 02 3d
       -0.04548558 0.018572912 7.366397e-06 0.03194663
0003b0 1f e1 9e 3c 8d d3 de 3c bd 0d 9d bc d5 94 d9 3b
       0.019394455 0.027200485 -0.01917159 0.0066400566
0003c0 dc ff 2c 3c 44 55 f1 3c b7 51 89 bd cd 07 e9 bc
       0.0105590485 0.029459603 -0.06705039 -0.028446103
0003d0 90 3f 4c 3a 29 e7 2c 3d 84 97 f8 3c fd da d7 bc
       0.0007791454 0.04221264 0.030345686 -0.026349539
0003e0 97 6a bf bb 60 10 c3 3a 69 2f fb bc 70 16 c6 3c
       -0.005841564 0.00148822 -0.030662255 0.02418062
0003f0 03 df 02 3b cf 7b 34 bb 81 16 29 bb fa 5c 66 bd
       0.001996935 -0.0027539616 -0.0025800767 -0.056241013

layer2.weight f4 [64, 256]
000000 34 cf 64 bd eb 3c c3 3e 20 61 3a 3d 40 90 f1 3c
       -0.055861667 0.38132414 0.045502782 0.02948773
000010 18 0a c0 3d b0 74 3d 3e f9 8a 80 3c 12 98 70 3d
       0.09376925 0.18501544 0.015691267 0.058738776
000020 86 01 da bc 8d 5e 4b bc 2e ac 8c 3e 59 20 77 3d
       -0.026612055 -0.012412679 0.27475113 0.060333584
000030 7b f1 05 3e 69 4c ba 3d 59 d5 6c be f1 14 91 3e
       0.13080399 0.09096605 -0.2312826 0.2833629
000040 e3 ce 2b 3e 8a 4e a5 3b 5a bd 88 bb 39 8c ae 3d
       0.1677814 0.005044763 -0.004172963 0.08522839
000050 4f f8 a4 3e 4a d0 e8 bc f3 5d e3 3d d6 8e 00 be
       0.32220694 -0.028419632 0.11101904 -0.12554488
000060 5e 50 22 bd 01 7f 13 3e f3 52 17 3e aa 71 f3 3d
       -0.039627425 0.14403917 0.14777736 0.11886914
000070 36 12 44 3e c0 8d ac 3c 31 a8 2f 3e 56 48 94 3e
       0.19147572 0.021063685 0.17154004 0.28961438
000080 2d 16 8e 3e d7 8f 11 3d fc 10 c7 3d 6d 98 81 3e
       0.27751294 0.035537567 0.097200364 0.25311604
000090 61 5e 16 bd 7d 92 9e bd 16 92 40 3d ee cc 28 bd
       -0.0367111 -0.07742784 0.04701432 -0.04121106
0000a0 58 d0 a6 3e fb 27 1d 3e 64 43 da 3c bc 08 b0 3d
       0.3258083 0.15347283 0.026643462 0.08595416
0000b0 49 18 3c be 8b 03 04 be 5e 06 a8 3c d8 00 46 3b
       -0.18368639 -0.12891977 0.020510849 0.0030212905
0000c0 9f bc af 3e 9c 90 11 3e 01 87 b1 3d 7d fd 23 be
       0.34323594 0.1421532 0.08668328 -0.16014667
0000d0 d2 eb c6 bd a6 73 10 be cb ff 6f 3e 20 68 64 be
       -0.09712948 -0.14106616 0.23437421 -0.22305346
0000e0 5d af 4c 3d a9 dc 45 3d 72 d0 87 3e 1e 89 69 3d
       0.049971927 0.04830614 0.2652622 0.05701553
0000f0 bd 25 b8 3e e1 f1 98 bd 35 0a 91 be 5f 2b 89 3d
       0.35966292 -0.0746801 -0.283281 0.066977255
000100 e4 60 0f be 51 d1 aa 3d fe 7c c3 3d 67 ec 0e 3e
       -0.14001805 0.08340705 0.09545325 0.13957368
000110 64 83 d2 3d f4 7f 16 3e e3 4a 87 bd 50 53 3b 3c
       0.10278967 0.14697248 -0.066060804 0.0114334375
000120 46 01 7f bd 73 0d 53 3e 1c 2a 9e bd b0 33 90 3c
       -0.062257074 0.20610599 -0.077228755 0.017602772
000130 5c 85 53 bd 4f 70 a8 3d 79 98 af bc 2c 7d 58 bd
       -0.051640853 0.08224546 -0.02143501 -0.05285375
000140 27 43 78 3e 06 09 cc 3e d4 f1 bf be e5 cb 5c be
       0.24244367 0.39850634 -0.37489188 -0.21562155
000150 70 ed ff 3d df d8 01 be 68 eb 19 3d 53 a7 e7 bd
       0.124964595 -0.12680386 0.037578017 -0.113112114
000160 53 bb 28 3e 01 c4 27 be ad 46 9b bd d0 24 a4 bc
       0.16477709 -0.16383363 -0.0758184 -0.020037085
000170 49 18 81 3e 4e 21 11 bd 19 6e 0d bd ad 7e 9c 3a
       0.2521384 -0.035432152 -0.034528825 0.0011939608
000180 85 b1 b6 3e c5 91 de bd 3d 0f 4b be 75 7e 5d 3c
       0.35682312 -0.10867647 -0.19830032 0.013518919
000190 2c 64 ca 3d 53 61 8f 3d 36 43 28 bd 84 7b e4 3c
       0.098823875 0.07000985 -0.041079722 0.027890928
0001a0 a5 4b 23 bd 79 35 02 bd d0 01 2f ba 28 d8 06 3d
       -0.039867062 -0.031789277 -0.00066759903 0.032920986
0001b0 79 89 82 3e 3d 88 53 3e 43 04 08 bd 32 25 88 be
       0.25495508 0.2065744 -0.03320719 -0.26590878
0001c0 0d e0 48 3d 5b c3 f5 ba ca 79 9d 3e 35 85 48 3e
       0.049041796 -0.0018750237 0.3075698 0.19582064
0001d0 18 da 98 bd db f2 4f 3e 31 dd 8a bd 27 cc 55 3d
       -0.07463473 0.20307486 -0.0678047 0.052196648
0001e0 89 94 2d be 92 34 7e 3e d6 75 04 3e 00 32 4f 3c
       -0.16951193 0.24824741 0.12935576 0.012646198
0001f0 de 46 9d 3c 87 8f 11 be 7b 24 a3 bb b3 e1 15 3d
       0.019198831 -0.14214908 -0.004978714 0.036592197
000200 5f 57 95 3e c9 60 64 be e4 ac 12 3e cb 96 d1 3c
       0.2916822 -0.22302546 0.14323765 0.025584599
000210 c8 8c e4 3e 09 a3 9b bb 3e 95 87 3d 16 c4 15 be
       0.44638658 -0.00474966 0.066202626 -0.14625582
000220 8a a9 ca 3d b4 0f 82 3e b0 07 ff 3d bb a1 ad bc
       0.09895618 0.25402606 0.12452638 -0.021195283
000230 95 21 c6 3e 91 7d c4 3e 75 34 01 be 31 7c 31 3e
       0.38697496 0.3837705 -0.12617667 0.17332532
000240 b0 12 c0 be bb bd f5 3d 53 c6 0a 3d 99 45 0b bf
       -0.37514257 0.11999079 0.033880543 -0.5440307
000250 36 ec 41 bd d1 56 20 3d d8 15 06 3c 8a 0e 44 be
       -0.04734441 0.039145295 0.008183919 -0.19146171
000260 44 11 dc bc fb be 91 3d 03 f2 1c 3e de 98 00 be
       -0.026863702 0.07116505 0.15326695 -0.12558314
000270 9c 90 85 be fa 35 99 bc 71 9a 99 bd 5d 31 89 3c
       -0.2608689 -0.018702496 -0.075001605 0.016747171
000280 1f 2f 51 be c3 c0 32 3e a6 ea f1 3d 77 c9 1d 3e
       -0.20428132 0.17456345 0.11812334 0.15408884
000290 6b c9 94 3d 86 50 75 be 32 b1 15 3e 36 21 e1 3b
       0.0726498 -0.23956499 0.14618376 0.006870414
0002a0 f2 46 8f bd e4 54 b3 3e 51 2a a5 3d f0 af 36 bd
       -0.069959536 0.35025704 0.08064712 -0.04460138
0002b0 ca 63 59 3e 64 ff b1 3e e4 3c c1 bd c4 34 65 3e
       0.21229473 0.3476516 -0.09435442 0.2238341
0002c0 6b e6 67 3c 26 20 dc bb ad f9 4e 3c 08 63 d6 bc
       0.014154057 -0.0067176996 0.0126327695 -0.026170269
0002d0 65 4b f6 bd 9f 63 7d 3e 7d ea bb 3d 5d 7f 75 3e
       -0.12026099 0.24745034 0.091755845 0.23974366
0002e0 98 e3 35 3e 4f 1e d9 3c 5c 0c 91 3e 3f 4b 91 bc
       0.17762601 0.02650371 0.28329742 -0.017736075
0002f0 02 dc 34 3d 53 2c 54 3b 91 24 f7 3d 20 a2 25 3e
       0.04415513 0.0032375052 0.12067521 0.16175127
000300 e2 a0 e3 3d c4 f9 a3 3d 8f 4e 82 3e 03 64 ee 3e
       0.1111467 0.080066234 0.2545056 0.46560678
000310 10 65 67 3e a1 64 02 be 9a 97 1b 3f 03 d8 8e 3d
       0.22597146 -0.127337 0.607782 0.06974795
000320 bc 13 d8 bc 75 b7 21 be ac 18 b0 bc 7a d0 06 3e
       -0.026376598 -0.1579264 -0.02149614 0.13165465
000330 05 bb 7e be b2 e1 03 be 87 32 b1 bd 9f 3e fb bd
       -0.2487603 -0.12879065 -0.086522155 -0.122678034
000340 a4 00 9b 3e 5c 3a 79 bd 59 f1 e2 3d 09 4f b2 be
       0.30273926 -0.06084667 0.1108119 -0.34825924
000350 dc dd 57 3e 73 24 b1 3d 04 52 91 3e 9d 50 ad bd
       0.21080726 0.0864953 0.28382885 -0.084626414
000360 de 36 d8 bd ad 63 34 be 8b c4 b3 be 7b 0b c3 bc
       -0.1055734 -0.17616148 -0.35110888 -0.023809185
000370 be 93 a3 3d 52 67 e2 3b 2f c9 73 be 7c db c9 bd
       0.07987164 0.0069092894 -0.23807214 -0.098563164
000380 28 dd b6 bd b2 00 60 3d 75 4f c9 3e c9 9b 9e 3d
       -0.08928901 0.054688163 0.39318433 0.077445574
000390 cc 79 23 3e 63 5a eb bc 03 76 fa 3d 7b c0 ed bd
       0.1596443 -0.028729623 0.1222954 -0.11608978
0003a0 27 ae 6e 3d 1f 7f c7 3d 8c 49 be 3d 3b c3 2c be
       0.058271553 0.09741043 0.09291372 -0.1687135
0003b0 90 e2 f1 3d 0b b9 ec 3d df 0c 58 3e 8f 4b b7 3e
       0.118107915 0.11558732 0.2109866 0.35799834
0003c0 3c 66 55 be cd 92 06 be 0e 5f 29 be e8 97 c3 3d
       -0.2083978 -0.13141938 -0.16540167 0.09550458
0003d0 e8 4d ec bb ca 7a 69 bc b6 69 c3 3e a1 c5 ed bd
       -0.0072114356 -0.014250467 0.3816659 -0.1160996
0003e0 1a 77 42 3e b3 4b 4a 3e 0a 8a ba bd e7 79 12 be
       0.18990746 0.1975544 -0.0910836 -0.14304315
0003f0 92 6c 3c 3e 8e 67 b1 bd 09 66 50 3e a3 45 18 bd
       0.18400791 -0.086623296 0.20351423 -0.037175786

layer2.bias f4 [64]
000000 09 08 77 bd 00 fa 0a 3b c7 ac 07 bd 95 9d ed 3c
       -0.060310397 0.002120614 -0.033123758 0.029005805
000010 e0 c8 67 3c 5c d5 cc bd 51 0f 14 3c 5b ca c2 3a
       0.014147013 -0.100016326 0.009036855 0.0014861332
000020 24 ee 31 bd 0e a6 50 bd c6 de 5d bb ec e1 d6 3b
       -0.04344 -0.050939612 -0.0033854707 0.0065576937
000030 7d fe f4 3a e9 34 87 bd 16 12 f1 bc 98 2b 08 3d
       0.0018691566 -0.06601889 -0.02942757 0.0332447
000040 c0 41 ff 3b ac 5c 2b bc 19 c2 2c bd 66 28 27 bd
       0.0077898204 -0.010459106 -0.042177293 -0.04081001
000050 44 9f 98 3c a4 b2 b1 bc d9 d4 40 bd a5 c9 bd 3c
       0.018630631 -0.021691628 -0.047077987 0.02316744
000060 e3 bb a7 bc 4b d5 32 bb b8 42 63 b9 66 68 d7 bb
       -0.020475334 -0.0027287777 -0.00021673262 -0.0065737246
000070 53 85 81 bb 51 14 92 bd 9a 5f c2 bc e6 1a d4 3c
       -0.003952661 -0.07132781 -0.023727227 0.025891732
000080 70 15 0c bb 36 fa c5 3b e2 90 f1 bd 2f 35 a7 bc
       -0.0021375082 0.0060417904 -0.11795212 -0.020411102
000090 b0 0c 2c 3d 3c 97 30 bd 82 8b bb bc 4c d0 bd ba
       0.042004287 -0.04311298 -0.022893671 -0.0014481633
0000a0 43 3d 74 3d b9 aa ee bc ec 5c b5 bc 6a 35 cc bc
       0.059628736 -0.029134141 -0.022139035 -0.024927814
0000b0 80 a8 cd bc 11 9e 20 bd 7c ff 01 bd 3d a9 5a bc
       -0.025104761 -0.039213244 -0.03173779 -0.013346014
0000c0 1a ce ea bc 5b 9d e8 bc 4d bc 9c bc 87 03 a6 3c
       -0.02866273 -0.028395345 -0.019132758 0.020265354
0000d0 ed 37 6b bd e2 90 f5 bc 55 a0 0b bd af 31 7c 3c
       -0.05742638 -0.029976312 -0.03408845 0.015392705
0000e0 bd 6b a3 3c 4f 40 3d bd c6 43 ad 3c b8 94 0d 3d
       0.019948835 -0.046203908 0.021150481 0.034565657
0000f0 9b 9d 90 bd 93 5e 49 bc eb 72 95 bd dd b5 8f bd
       -0.07061311 -0.012290615 -0.072973095 -0.070171095

layer3.weight f4 [1, 64]
000000 97 e8 68 be 80 b4 77 3d 59 5a 5e 3e d8 b0 87 3e
       -0.22744976 0.060474873 0.21714152 0.2650211
000010 97 23 74 3e a5 5d 2b 3e 70 97 58 be b4 dd a0 3e
       0.23841701 0.16734941 -0.21151519 0.31419146
000020 86 6c bc be a0 23 23 3e 64 db 79 be 6a 84 59 be
       -0.36801547 0.15931559 -0.24400097 -0.21241918
000030 d7 9e 1e b9 e3 43 83 be ef 3e c4 be 44 7d 88 3e
       -0.00015127227 -0.2563773 -0.38329265 0.2665807
000040 94 b0 83 be 71 be a8 be 5f 93 60 bb 11 83 6a 3e
       -0.25720656 -0.32957795 -0.0034267528 0.2290156
000050 2b 16 85 3e 13 ac 13 b9 4a ce aa 3e 00 50 8d 3e
       0.25993475 -0.00014083115 0.3336051 0.27600098
000060 7b 54 2e 3e e7 30 12 be 1e 76 94 be 1e 81 cd 3e
       0.17024414 -0.14276467 -0.28996366 0.4013757
000070 1a ac 55 be 46 c1 9f be b8 49 33 be aa a7 3d bd
       -0.20866433 -0.31202143 -0.1750859 -0.046302475
000080 c9 48 22 3c c5 3c eb bd 24 ca 50 3e 13 6e 91 3e
       0.009905049 -0.114862 0.2038961 0.28404292
000090 6e 10 8f be 50 32 0b be 1b 7d 86 be 6a 8c a5 3e
       -0.27942222 -0.13593411 -0.26267323 0.3233369
0000a0 44 81 5c be e3 e0 92 3e 6e 20 aa 3e 2a 64 2d 3e
       -0.21533686 0.286872 0.33227867 0.16932741
0000b0 a0 97 68 be 77 1c ba be 99 c0 86 3e a0 95 20 38
       -0.2271409 -0.36349842 0.26318815 3.828632e-05
0000c0 7f 87 76 3e 07 93 a8 3e 45 49 a3 be 9a 32 89 3e
       0.24075125 0.32924673 -0.31891838 0.26796418
0000d0 11 25 40 be f4 15 8e 3e e6 e4 9d 3e 13 1d d5 3e
       -0.1876414 0.27751124 0.30838698 0.41623744
0000e0 53 5c 02 be 47 0b 5e be 09 4b a1 3e 3b 48 61 3e
       -0.12730531 -0.2168399 0.3150256 0.2200021
0000f0 bd 66 91 be 48 01 97 be ab ee a3 3e ca bc 8c 3e
       -0.28398696 -0.29493165 0.32018027 0.27487785
