test/ens_models/ens_model_5_H.pt (torch, 654739 bytes, 6 tensors)

weight f4 [20, 10]
000000 43 58 df be ef a3 40 3e d8 a9 40 bf cb 15 5b 3e
       -0.43622026 0.18812536 -0.7525916 0.21395032
000010 97 64 16 3d 36 33 0a be 8e be 90 bd a7 92 e2 3e
       0.036717024 -0.13496098 -0.070675954 0.44252512
000020 60 ab 2f 3f 3e cc b6 bd c7 4e b7 be fa 97 8c 3c
       0.6862087 -0.08925675 -0.3580229 0.017162312
000030 5c 11 85 bf 57 04 a4 be f7 3c 2e bf a9 0b cc 3e
       -1.0395923 -0.3203456 -0.68061775 0.39852646
000040 8f 1e 18 3f 15 7d f0 3c ed 10 4a be c1 fc 26 bf
       0.5942163 0.029356519 -0.19733019 -0.6522942
000050 7a 83 2d bf 5a 5c 2a bf 9d d9 9d 3e 42 16 c6 3e
       -0.6777874 -0.6654717 0.30830088 0.38688856
000060 f3 88 ee 3d e6 2f bf 3c 1f 37 dc 3d 6d d2 da 3e
       0.11647215 0.02333827 0.10752701 0.42738667
000070 05 18 99 3e 0a 2d 4a bf b1 e8 af 3e 4f d3 89 3f
       0.29901138 -0.78974974 0.34357217 1.0767611
000080 87 41 ec ba db 6b a2 3e d1 07 04 3f 4f 3b 6e be
       -0.00180249 0.31722912 0.51574427 -0.23264812
000090 b3 39 86 be 7d 24 27 3f 51 ce d8 bc 51 a6 80 3f
       -0.26215896 0.6529005 -0.026465567 1.0050756
0000a0 af 42 78 be b5 9b b7 be 76 e9 47 be ff cb e5 3e
       -0.24244188 -0.35860983 -0.19522652 0.448822
0000b0 33 00 51 3e 52 e3 25 3f 55 62 ef bc 16 bc 4f bf
       0.20410232 0.6479999 -0.029221693 -0.8114637
0000c0 d2 90 19 bf ba 5b 3d 3f 00 5b f3 be 9a 9b bb be
       -0.59986603 0.7396809 -0.47530365 -0.36642152
0000d0 64 bb 07 be 0c 81 a9 bd 0f 2b 6e 3f d2 3c 2c 3f
       -0.13255078 -0.08276567 0.9303445 0.67280304
0000e0 0f 05 94 bc 18 ed ef be 49 fe 8e bf 66 4a 9a bd
       -0.018068818 -0.46860576 -1.1171352 -0.075337216
0000f0 05 6a a3 3e f9 ce 0e bd 85 03 86 3e d6 b2 6f 3e
       0.31916824 -0.034865353 0.2617456 0.23408064
000100 ab 2d ab be c5 bd 54 3e 12 57 20 3e 25 fb f7 3c
       -0.3343328 0.20775516 0.15658215 0.030271122
000110 2f 2a 36 bf fc 1b 93 be 1e 31 19 3f 7d 1f 48 3f
       -0.7115812 -0.28732288 0.5984057 0.7817305
000120 1c 89 79 3e 52 51 9b be 74 d3 89 3e 72 3a 72 3e
       0.2436871 -0.3033548 0.26919138 0.23655108
000130 7e 81 95 be 08 5d 99 be b2 39 60 3f 88 37 ea bd
       -0.29200357 -0.2995379 0.87588036 -0.11436373
000140 3f c6 f1 be 60 5f fd be 4a 6f 3b 3e 16 ae 34 3e
       -0.47221562 -0.49486828 0.18304172 0.17644534
000150 5c f1 16 bf c2 b5 25 3e 38 41 81 bf 19 98 c2 3e
       -0.58962035 0.16182616 -1.0098028 0.38006666
000160 aa 3f ae 3d 40 cf 2c 3f ce ef 02 3f 7f 46 84 be
       0.08508237 0.6750374 0.5114716 -0.25835034
000170 64 6c c5 bd 8a b3 ba be c6 7d 44 3f 43 7e 3d bf
       -0.096398145 -0.36465102 0.76754415 -0.74020785
000180 24 e7 5e 3f 42 f7 f2 be 50 c1 38 3f e9 b8 0c 3f
       0.8707144 -0.47454268 0.7216997 0.5496965
000190 24 f2 6a 3f b3 03 0b 3e cc 2d 85 be 34 2f bc bd
       0.9177573 0.1357563 -0.26011503 -0.09188691
0001a0 70 16 1a bd 4f 0d 90 be 31 34 b7 3d 79 02 f0 3e
       -0.037619054 -0.28135154 0.089455016 0.46876886
0001b0 ff 64 67 be 28 f2 13 bf 58 ab 7b bd af 82 6c be
       -0.2259712 -0.57791376 -0.061442703 -0.23096727
0001c0 c9 e2 f2 bc 63 b8 51 bd 89 35 8d be a6 42 51 bd
       -0.029649155 -0.051201236 -0.27579907 -0.05108895
0001d0 ef b9 68 bf 74 24 36 3d 74 68 ae 3d 48 56 25 bf
       -0.9090871 0.04446836 0.085160166 -0.6458478
0001e0 27 df 88 3d 93 27 2a 3f 97 76 df 3e a4 c7 80 bf
       0.06683188 0.66466635 0.43645164 -1.0060925
0001f0 20 59 4e bc 5c dc e3 be d6 4c b5 be 2d d6 b2 be
       -0.012594491 -0.44504058 -0.35410184 -0.34929028
000200 b3 33 19 bf 17 d3 7e be 5c 85 09 3f 18 d6 ae 3d
       -0.5984451 -0.24885212 0.53719115 0.08536929
000210 e1 9d 58 3e cc 0c 8b 3d 58 18 3f bf 79 b9 f3 3c
       0.21153976 0.0678955 -0.7464652 0.029751526
000220 85 fa 88 3e e3 5d 13 bd ee 13 f3 3d e7 69 b3 be
       0.2675363 -0.03597821 0.11869036 -0.35041735
000230 0a 9c 2d 3e 2b 86 5e 3f 33 de 94 3f 26 b3 e4 bd
       0.16954055 0.86923474 1.163031 -0.11166982
000240 07 2d 5e 3e f2 f3 95 bb 6c 4b 75 3f 82 fd 71 be
       0.21696864 -0.0045761997 0.9581821 -0.23631862
000250 d7 e4 39 3f fd 8b 07 3e 51 2d bd be e6 dd b1 be
       0.72614807 0.13236995 -0.36948636 -0.34739608
000260 88 dc cc be 72 cd cc bc 9f 93 24 be d7 f7 e3 3e
       -0.40012002 -0.025000308 -0.16071938 0.44525024
000270 5c 17 95 be 23 9d de 3e 03 14 90 bf a1 3d 48 bc
       -0.29119384 0.4347926 -1.1256107 -0.012221725
000280 d0 db 00 3f 4f 4e c5 3e d3 ae 99 be 93 18 70 3f
       0.5033541 0.38536307 -0.30016193 0.937875
000290 42 9b c1 3e bd a7 9b be 21 1f cd 3d 2d 20 5f bf
       0.37813765 -0.30401412 0.10015703 -0.8715847
0002a0 32 50 8d bd 44 6a 34 be 51 d7 08 be 88 35 a4 bf
       -0.06900062 -0.17618662 -0.13363387 -1.2828836
0002b0 a7 ef c4 3e 6c ff f5 be 30 f3 40 bf 03 b7 07 bf
       0.3846409 -0.48046434 -0.75371075 -0.5301363
0002c0 35 5c cd be 6b fb 85 bd 69 38 23 bf 4e 90 34 3f
       -0.4010941 -0.06542095 -0.6375795 0.7053269
0002d0 7b 39 9b 3d e7 89 7a 3d aa ab 0f 3e 32 23 9d be
       0.07579323 0.06116667 0.14030328 -0.30690914
0002e0 73 cc 07 bf b5 c0 ec 3e 35 2a 7c be 24 2d 7f 3f
       -0.5304634 0.46240774 -0.24625476 0.99678254
0002f0 26 6c a2 3d 67 29 fa be 67 c5 06 3f 9f d8 b6 bf
       0.07930784 -0.48859712 0.5264496 -1.4284858
000300 b1 3e dd be d7 26 0c bd 8e 58 22 3f 08 46 54 3e
       -0.43211892 -0.034216728 0.63416374 0.2072984
000310 e9 2f 6c 3e f6 e3 81 3d a9 2d 91 3e 5b 6d 35 be
       0.23065151 0.06342308 0.28355148 -0.17717497

weight f4 [256, 570]
000000 ac b0 db 3e 02 dc 97 3e 30 91 18 3d 7b 0b 3d be
       0.42908227 0.2966004 0.037247837 -0.1846141
000010 d4 e7 68 3d af d8 29 3a 8f 8e 6f 3c 68 55 c8 3b
       0.056861714 0.0006479127 0.014621391 0.006113697
000020 27 a9 31 3d 50 fa 8a 3d 1b f8 e0 bb 3a f7 b9 3d
       0.043374207 0.067860246 -0.006865514 0.09080358
000030 2d d0 c0 3d 8d 5e 76 bd 92 f7 a0 3d 51 67 b3 3d
       0.094147064 -0.060148764 0.0785972 0.087599404
000040 97 79 54 3d 60 0c a6 bb ec b9 c2 3c b2 00 16 be
       0.05187377 -0.005067393 0.023770295 -0.14648703
000050 51 45 42 3d 27 04 78 3b e6 14 63 bd 48 3d d0 3c
       0.047429387 0.0037844272 -0.055439852 0.025419846
000060 c7 c7 0a bb 98 ce 5b 3c da 26 9a bd 03 1a 47 be
       -0.0021176205 0.013415955 -0.075269416 -0.19443516
000070 6e 0c 13 bd 9f 70 c0 3d c8 14 a6 3d b4 49 4c be
       -0.035900526 0.09396481 0.081094325 -0.1994999
000080 ad e0 4d 3d 5f ca 19 3d 2e dd 87 bc c5 d5 89 3e
       0.050263096 0.03754651 -0.016584959 0.26920906
000090 d3 5b 64 bd 8c 24 15 be 07 6f 9a bd 61 be 41 3e
       -0.055751633 -0.14564723 -0.07540708 0.1892028
0000a0 76 02 b9 bb 64 06 1b bd 77 dd 81 be aa 9e 51 be
       -0.0056460453 -0.03784789 -0.25364277 -0.20470682
0000b0 9f d4 16 3d d4 5e 85 3d 2f f1 6e bd 4c 8c bb be
       0.036823865 0.06512228 -0.05833548 -0.36630476
0000c0 07 2e b8 3e e6 1e ea 3e 6c 8f 66 be 10 87 87 bd
       0.35972616 0.457267 -0.22515649 -0.06617558
0000d0 e5 a5 5b 3d 7a 64 ad bd ef b3 9d bd 6a a5 2c bd
       0.053625006 -0.0846643 -0.07700335 -0.04214994
0000e0 df b5 e5 3c 6b ec d8 bd 7c d1 37 be a4 cc 3d bd
       0.028040824 -0.10591968 -0.17951006 -0.04633774
0000f0 4e 32 06 3e 72 02 54 3d c9 d8 42 be af 71 0e be
       0.13105127 0.051760145 -0.1902801 -0.13910554
000100 20 25 a5 3c a2 d4 a6 3c 18 4b d3 3c 17 b2 b0 bd
       0.020159304 0.020365063 0.025792643 -0.08627718
000110 a5 f9 bc bd 03 b0 1e be 78 23 18 3d 80 75 3b bc
       -0.092273034 -0.1549683 0.0371432 -0.011441588
000120 4a b0 81 3e 9a c4 88 be be af 8e be 46 cd 8d be
       0.2532981 -0.26712495 -0.27868456 -0.27695674
000130 bd 13 c6 bd c1 a1 06 bf 3e 1d 70 bf ed f9 03 c0
       -0.096717335 -0.52590567 -0.9379462 -2.0621293
000140 c9 eb 80 be 6b 7c ad bd 5a ff 31 bd 95 6e 57 3c
       -0.2517989 -0.084709965 -0.043456413 0.013148923
000150 07 23 65 bf 55 47 95 be 93 ce dd bd 5c d3 4e 3e
       -0.8950657 -0.29155985 -0.108304165 0.20197815
000160 6d 39 67 3e 64 72 0a 3e 2f c3 e4 be 2d 39 04 3e
       0.225805 0.13520199 -0.44680163 0.12912436
000170 f4 61 ea b9 24 92 f1 3d fe 9b 36 bd 45 04 1c be
       -0.0004470494 0.11795452 -0.04458236 -0.15236004
000180 85 ea 22 3d 86 73 4e be 61 4b 25 3e ae 0d 8e bb
       0.039774437 -0.20161256 0.16142036 -0.004335127
000190 ae d0 6f bd da 70 88 3d a5 f8 62 3d 3a a2 7f bd
       -0.05854862 0.0666215 0.055412907 -0.06241057
0001a0 6f 28 c5 bc 88 d3 bd 3c 99 13 9f 3c 23 f4 ed 3c
       -0.024067132 0.023172155 0.019418525 0.029047078
0001b0 f8 2d 21 be 3e e6 00 bc 4a ec 8b bd 3f bc fd 3c
       -0.15740192 -0.007867394 -0.06832178 0.030973552
0001c0 82 42 08 3e 19 2b 11 3e 5d 46 22 3e 1d 94 14 3e
       0.1330662 0.14176597 0.15847154 0.14509626
0001d0 15 97 a9 3e 0c 3c 5c 3e 4d 98 07 3f 3f 18 82 3e
       0.3312308 0.21507281 0.5296677 0.25409123
0001e0 f9 79 ab 3d 7e 91 a6 be 62 06 95 3e 04 12 fe bd
       0.08372874 -0.32532877 0.29106432 -0.1240578
0001f0 2b 94 11 be cb 4f 75 3d f0 17 d3 3d 1d ec 84 3d
       -0.14216678 0.05989055 0.103073 0.064903475
000200 b1 b7 87 bc fe 48 01 bd b5 7d a8 3c 56 71 f3 3c
       -0.016567083 -0.03156375 0.020567754 0.029717129
000210 27 16 a7 bd e8 f5 33 bc 15 29 2f 3c a7 0d be bc
       -0.08158522 -0.010983922 0.010690947 -0.02319987
000220 42 52 eb bd 7b c0 99 3d 50 74 14 3d 00 0c 14 be
       -0.11490299 0.07507416 0.036243737 -0.14457703
000230 d5 97 03 be c8 54 8c 3e 34 3a ed bd c2 66 12 3c
       -0.12850888 0.27408433 -0.11583367 0.008935632
000240 8e 42 83 be ce 46 db 3e 69 7b a6 bb 34 7e ba 3e
       -0.25636715 0.42827457 -0.0050806296 0.3642441
000250 55 aa 1e be 7d c9 32 be d6 c0 55 3d 96 1d 35 3e
       -0.15494664 -0.17459674 0.052185856 0.17687067
000260 f6 03 a4 3d 79 b3 86 3d 6b 12 42 bc 69 a1 dd bc
       0.08008568 0.065772004 -0.0118452115 -0.027054505
000270 41 a6 c4 3b b6 f5 5a 3b 40 42 38 bc 53 59 22 3e
       0.0060012643 0.0033410615 -0.011246264 0.15854387
000280 f6 4c 43 bc 86 5b d8 bc a2 52 a2 3c 21 89 63 bc
       -0.011920204 -0.02641083 0.019814793 -0.013887675
000290 a4 22 eb bd ca 1e a3 38 60 8a 53 3d 89 78 89 3d
       -0.114812165 7.7781806e-05 0.051645637 0.067124434
0002a0 27 ac 70 be 1f 26 9f 3d 34 b5 31 3d 33 d1 43 3e
       -0.23503171 0.07770943 0.0433857 0.19122772
0002b0 08 5c e5 be a0 36 02 3e e1 73 0e be af 02 b6 be
       -0.44796777 0.1271615 -0.13911392 -0.35548922
0002c0 46 16 14 be 53 98 0a bd aa bf e4 bd c2 0e ce bc
       -0.14461622 -0.033836674 -0.111693695 -0.025153521
0002d0 21 b9 e7 be ef 64 fb bd 2b e5 5e bf f0 db 81 3d
       -0.4525843 -0.12275111 -0.8706843 0.06340778
0002e0 79 92 a0 3e b9 2a 81 be 92 d2 e2 bd 5b f3 6e 3f
       0.3136175 -0.25227907 -0.11075319 0.9334008
0002f0 40 07 a3 3d 9d 75 3c 3d 5b 1e 8f bd 36 e9 04 3e
       0.07960367 0.046010602 -0.06988212 0.12979588
000300 c3 6d 9d bd 04 8b 8f 3d 77 e3 2a 3d 47 2f 17 bd
       -0.07686951 0.07008937 0.041720834 -0.03691032
000310 cf aa 45 be e7 5b 05 bd c1 44 89 bd 37 0b 03 3e
       -0.1930344 -0.032558348 -0.06702567 0.12797247
000320 6a f5 e7 3c 35 d8 01 3c 7e 54 0e be 28 13 0d be
       0.028315265 0.007925083 -0.13899419 -0.13776839
000330 72 37 f2 ba 66 ac b4 3c 9d c1 d9 bd dd 63 58 3c
       -0.0018479659 0.022054862 -0.10632632 0.013207403
000340 0d 5b 8c bc a1 5b 50 bc 80 4d 0b bd 9d 5d f7 3c
       -0.01713326 -0.0127171585 -0.034009457 0.030196005
000350 ae 4c e7 3c 64 11 4c 3c bd 41 a5 bc ac c7 ab bc
       0.028234806 0.012455318 -0.020172948 -0.020969234
000360 fb 5e 78 bd 09 5b ba bd 37 31 b5 bb 7d 6f 66 3c
       -0.060637455 -0.09099395 -0.0055295485 0.014064667
000370 73 4e 46 be e5 bc 23 bd 25 3b 4b 3e b7 27 b3 be
       -0.19365864 -0.039975066 0.1984678 -0.34991238
000380 32 3d 5d be 08 fa 31 3d df 12 8e 3e 6b 57 0c bf
       -0.21605375 0.04345134 0.27748773 -0.5482089
000390 87 a7 d9 bd 44 5f 4d 3d 68 1f 03 3f 40 e9 d5 be
       -0.106276564 0.05013968 0.512198 -0.41779518
0003a0 d5 5a e4 be b2 08 89 be 71 8e 31 3f 41 a7 0c 3e
       -0.4460055 -0.26764446 0.69357973 0.13735677
0003b0 e0 17 95 bf cb 80 e6 be 8d f6 df 3d 50 df 60 3e
       -1.1647911 -0.45020136 0.10935698 0.21960187
0003c0 9c a7 fc bc 39 58 af bc 8e b6 33 3d 65 97 69 bb
       -0.030841641 -0.021404373 0.04387527 -0.0035643217
0003d0 a4 2f 6c 3c 5d ac b6 3d 77 e5 6d 3c fb ce 3a 3d
       0.014415655 0.089195944 0.014520041 0.04560755
0003e0 69 70 61 be 03 e2 0c 3b ed 0f c1 3d 46 b7 fd 3d
       -0.22015537 0.0021497018 0.09426866 0.12388472
0003f0 6f c4 50 be 6c ca 0a bb 1a 27 b6 bc 3b 0a be 3d
       -0.20387433 -0.0021177782 -0.022235442 0.09279295

bias f4 [256]
000000 43 5c 9a 3c 26 a5 29 3b 17 0d e1 3d ea a2 9e ba
       0.018842822 0.002588579 0.10988825 -0.0012102996
000010 2f 6d ed 3d 3d 1f 45 3b 43 fa e8 bc 33 10 39 bd
       0.11593091 0.0030078434 -0.028439647 -0.045181464
000020 41 c1 50 bd 69 59 48 bd 45 9b 5a bc f8 5e 2c 3c
       -0.05096555 -0.048913393 -0.013342683 0.010520689
000030 72 0c 16 bd 8e eb 81 bc 06 19 87 3c 5c 5e ad 3c
       -0.036632963 -0.015859392 0.016491424 0.021163158
000040 46 39 8d 3c f0 d3 ff bc 75 9a 77 3b 81 91 ed 3c
       0.017239224 -0.03122899 0.0037781273 0.029000046
000050 b4 1d 0b bd 1b 4a b8 bc be 02 c7 3c 9d 67 7f bd
       -0.033963874 -0.022496274 0.0242933 -0.062354673
000060 9e bf f0 3c e6 dd fa 3c 59 5e bd bc fe 6d 88 3d
       0.029388245 0.030623388 -0.023116278 0.06661604
000070 6a 02 ad bb 55 45 ad 3c 44 88 71 3c 18 17 f8 bb
       -0.005279829 0.021151224 0.014741961 -0.0075711124
000080 e9 c0 a5 bc 68 32 75 3c f9 c8 35 3c 05 2e 2e 3b
       -0.020233588 0.014965631 0.011095279 0.0026577723
000090 66 81 ff bc 4f ab 92 bd 5d 1d 7f bd d4 ab 1f 3d
       -0.031189632 -0.07161581 -0.062283862 0.038982227
0000a0 b5 80 85 3c 11 4a 72 3d 0e fb 59 bc 97 91 09 3a
       0.016296724 0.059152666 -0.013304485 0.000524783
0000b0 89 f6 b8 bc 91 50 24 bc e2 31 93 3b e8 50 ed bc
       -0.022578495 -0.010028974 0.0044920305 -0.028969243
0000c0 97 52 97 bc c8 f5 8e 3c d0 b1 1a 3d 49 4c d7 bc
       -0.018472 0.017451182 0.03776723 -0.026281493
0000d0 3f a1 11 bd 9a a9 12 bd 1e 69 17 bd e2 00 73 bd
       -0.035554167 -0.035806276 -0.036965482 -0.059327014
0000e0 89 dd cb bb 50 a2 76 bc 47 d2 2d 3d 81 51 14 3c
       -0.0062214774 -0.015053347 0.042436864 0.009052635
0000f0 d1 bc 81 3d 8a ad b3 3c df 26 4c 3c b2 38 64 3c
       0.06334842 0.021933336 0.0124604395 0.013929533
000100 05 0a f7 3c a9 00 9b bd b0 63 2b 3c de 14 53 3c
       0.030156145 -0.07568485 0.010460779 0.012883393
000110 f8 9b 1a bc 30 b2 66 3c 45 10 55 bc 94 94 22 bd
       -0.0094366 0.014080569 -0.013004367 -0.039692476
000120 83 5c 66 bc c3 6f f4 3c 5c 00 12 3e bf a9 8d 3c
       -0.014060142 0.029838448 0.1425795 0.017292855
000130 4f 28 01 3d 13 30 9d 3c c0 bd 43 bd e9 4b 01 3d
       0.031532582 0.019187963 -0.04778838 0.031566534
000140 f8 af 3f 3d 8d f8 f8 bc db 98 a5 bc ae 31 85 bc
       0.046798676 -0.030391956 -0.020214489 -0.01625904
000150 bd 35 58 bd 86 12 7f bc b4 65 b6 bc 1d e0 8b bb
       -0.052785624 -0.015568381 -0.022265293 -0.0042686597
000160 0d 19 21 3b d7 0f 33 bd 07 c7 ce bb 42 2f 31 bd
       0.0024581582 -0.043716278 -0.006310347 -0.04325796
000170 b0 ac 92 bd 97 e7 ef bc 1f f5 1e bd 00 51 86 bc
       -0.07161844 -0.029285235 -0.038807984 -0.016396046
000180 24 6b 74 3b 2f 99 6b bd 16 3f ce bc c2 d1 82 3c
       0.0037295306 -0.057519134 -0.025176566 0.015969161
000190 68 8b e0 3b 08 d9 fb 3c f0 95 8c 3c 36 02 f0 bc
       0.006852556 0.030743137 0.01716134 -0.02929793
0001a0 17 f1 08 3c 02 1c ae bb f6 16 36 3d fa 1c 4b bd
       0.008358262 -0.0053133974 0.04445549 -0.04958818
0001b0 a4 63 d5 bc 16 d7 d3 3c 2b ef a6 3d 50 5d 81 3c
       -0.026048489 0.025859397 0.081510864 0.015791565
0001c0 b5 5f 3e bd 1f 37 4e bc 09 af 10 3d 93 b5 69 bc
       -0.046477992 -0.012586384 0.035323177 -0.014264482
0001d0 39 e8 bd bb 91 5d b7 bb 3d 0d fc bc ea 60 4b 3d
       -0.0057955054 -0.005595871 -0.030768031 0.04965297
0001e0 7e 83 e2 3b 57 81 b0 3c 11 1a 44 bc e0 18 2c bc
       0.0069126477 0.021546049 -0.011969105 -0.010503978
0001f0 1c 65 ac 38 9b f6 0a bd a5 89 0a 3d a0 60 a1 bc
       8.220432e-05 -0.033926588 0.033822674 -0.019699395
000200 a4 d9 6a bc 5a 30 ae bc 56 3e c0 bc 51 2b a1 3b
       -0.014334116 -0.02126329 -0.023467224 0.004918494
000210 41 4d 35 3c 56 96 3d bd d6 d5 b7 3c f9 8a 9e b9
       0.011065782 -0.04628595 0.022440832 -0.0003023965
000220 12 35 6f bd e3 96 3d bc b2 68 94 3c 17 fd d6 bc
       -0.05840022 -0.011571619 0.018116329 -0.02624373
000230 ee f9 45 bc 37 22 47 3c b7 11 53 bd 3d 96 b6 3b
       -0.012083514 0.012154154 -0.051530566 0.005572109
000240 f1 5e 4c bc 0d d7 8e 3c 82 bf 78 bd 1a 4c e0 3c
       -0.012473808 0.017436529 -0.06072951 0.027380038
000250 ee 9b bf bb 0b 54 56 bb de 38 32 3c 3e fb 36 bd
       -0.0058474457 -0.0032703902 0.010877816 -0.044673197
000260 42 2b 1a 3c 62 57 ab bc 4e 40 c9 3b 19 f5 8f 3d
       0.0094097275 -0.02091569 0.006141699 0.070291705
000270 f7 e5 26 3c b8 6e 8e 3d 1b fa ee 3a b1 ce cb 3b
       0.010186664 0.06954712 0.0018232496 0.006219708
000280 56 39 3a 3c 4d 7b 22 bb 46 22 8b bc 5c a9 ec bb
       0.011366209 -0.0024792731 -0.016984116 -0.0072223376
000290 24 1e 24 bb d4 1d 5c 3d 9e 99 97 3c ee 32 1d 3d
       -0.002504238 0.053739384 0.018505868 0.03837865
0002a0 64 59 a7 bb 1e 4c 26 bc 12 a1 09 3d 23 94 0b bd
       -0.0051070917 -0.010149984 0.033600874 -0.03407682
0002b0 99 e1 b5 3c 92 4f 45 bc bc 1d b9 bb 42 c6 cd bc
       0.0222023 -0.012042897 -0.0056492966 -0.02511895
0002c0 58 7d 13 bc e6 6a 85 3d 55 7c c6 3c 11 a7 12 3c
       -0.009002052 0.0651453 0.024229208 0.008950965
0002d0 bd 46 60 3d 90 12 41 bd c3 9b a0 bc 51 17 ec 3c
       0.05475496 -0.047136843 -0.019605523 0.028819712
0002e0 f4 aa 09 bd ea f7 a3 39 a4 14 bd bc a4 af f5 bb
       -0.0336103 0.00031274493 -0.023081131 -0.0074977446
0002f0 15 47 95 3d 28 f6 20 3c ee 02 92 3d 88 d3 84 bb
       0.072889484 0.009824313 0.07129465 -0.004053537
000300 eb 8f fb bc 56 3e 27 bd fa 55 ac 3d 47 52 0f 3d
       -0.030708274 -0.040830933 0.08414836 0.034990575
000310 1d 0c 74 3d 2c 47 4b 3b 20 30 c5 bc 8e c8 4f bd
       0.059581865 0.0031017764 -0.0240708 -0.050728373
000320 f8 7d 55 3c 5c 68 d7 bc 57 6a 3b bd e2 ab 23 3d
       0.013030522 -0.02629488 -0.04575571 0.039958842
000330 78 ba 78 bc e3 14 6d bb c4 ef 55 bd 25 41 80 3b
       -0.015181176 -0.003617578 -0.05223061 0.003914016
000340 de 12 9e bc c7 38 37 bd c5 8d 94 3d 4a 84 06 3d
       -0.019296106 -0.04473188 0.07253603 0.032841004
000350 b9 8b e9 3a 71 05 8c bd 54 45 0d bd 61 08 ee bc
       0.001781813 -0.06836975 -0.034489945 -0.02905673
000360 ec a4 35 3d b6 18 3c 3d 1e 5f 61 bd a4 ef 8e 3c
       0.044346735 0.045922004 -0.05502235 0.017448254
000370 87 f2 a4 bc ca 74 f7 bc b0 21 78 3d 15 8d 41 bd
       -0.020135177 -0.030207057 0.060579002 -0.047253687
000380 7c 1f ec bb df 6f 53 3b 4a fa 9d 3c 02 dd 53 bc
       -0.0072059017 0.0032262725 0.019284386 -0.01293111
000390 ff 20 ed 3d f5 01 31 bd 7c 20 1e bd 56 b3 0d 3d
       0.11578559 -0.043214757 -0.0386052 0.034594856
0003a0 18 26 e5 bb 0b b3 32 bd 36 d5 df bc 62 66 2e bd
       -0.0069930665 -0.04362778 -0.027323347 -0.04257811
0003b0 6c e0 f2 3c 2e 17 47 bd a2 c4 34 bd 1c 95 06 3d
       0.029648028 -0.04860609 -0.044132836 0.032857046
0003c0 7c c0 82 3c 9d 30 24 bb 0f 25 83 bc 29 b3 8f 3c
       0.015960924 -0.002505339 -0.016008882 0.017541485
0003d0 70 13 80 bd 11 6b 8c 3d f6 99 94 bc 20 6e f5 bc
       -0.062537074 0.06856359 -0.01813982 -0.029959738
0003e0 8a a2 73 bd 39 aa 3a 3c 5f 45 7c bc a4 21 db bb
       -0.05948118 0.011393123 -0.015397399 -0.00668736
0003f0 3c 2e 11 3d 68 6e 59 bd 03 5d 8a bd 29 dc 5c bd
       0.035444483 -0.053083807 -0.06756022 -0.0539209

weight f4 [64, 256]
000000 b5 2f 0c be 2e fc 8d bd 1d 05 4a be 68 54 30 bd
       -0.13690074 -0.06932865 -0.19728513 -0.043049246
000010 40 25 3d be 8d a3 17 3e d0 d9 ec 3d 72 9f 59 3d
       -0.18471241 0.14808483 0.11564982 0.053130575
000020 86 e2 3e 3c 2c 9a 80 bd 2d 65 05 be 4f ba 05 bc
       0.011650687 -0.06279406 -0.13026877 -0.008162095
000030 1d 75 33 bd b8 c7 34 3e 7e f3 93 bc 5f bf 6c be
       -0.04381286 0.17654312 -0.018060442 -0.23119877
000040 76 ab 88 be 32 e9 07 3c 78 05 8b bd 26 2c 7d bb
       -0.26693314 0.008295344 -0.067881525 -0.003863105
000050 ba 36 36 bf b6 cf ff 3c b7 12 11 be ca a6 e3 3d
       -0.71177256 0.031226974 -0.14167295 0.11115797
000060 19 7d aa 3e ae 85 37 3f c7 22 5a bd f1 98 c5 be
       0.33298567 0.71688354 -0.053255823 -0.38593248
000070 77 39 c3 be 19 80 f5 3d 04 11 86 bd cc 3d b2 bd
       -0.3812978 0.11987323 -0.06546214 -0.08703193
000080 e1 38 03 be d5 4f 04 3e 17 c4 15 3c a6 fe 89 3d
       -0.12814666 0.12921079 0.00914099 0.067380235
000090 70 e9 40 3e e4 cf 56 3e ff 34 df be 07 ff 0b 3d
       0.1883905 0.20977741 -0.4359512 0.03417876
0000a0 bc 2b f5 bd 87 e7 60 3e 59 07 0a bd c2 0c 2e be
       -0.11971232 0.2196332 -0.033698414 -0.16997054
0000b0 e7 16 32 3e e4 a9 26 bd 56 c7 8c 3e e8 e6 82 bd
       0.17391549 -0.040689364 0.2749583 -0.06391698
0000c0 be 4f 66 bd c2 e2 a4 3d ae 5b 42 be 96 07 bd 3d
       -0.05622839 0.08051063 -0.18980286 0.092299625
0000d0 fd 2e 5e 3e c1 b0 b2 bd af a8 95 be cf ed 87 bd
       0.21697612 -0.087251194 -0.29230258 -0.06637155
0000e0 e3 8d b5 bd 3d 93 3f 3e 0b 50 ae be 8b 40 98 bd
       -0.08864953 0.1870851 -0.34045443 -0.074341856
0000f0 f9 46 70 be b6 ea 44 be 08 41 46 3d 1a 5f 7b bd
       -0.23464574 -0.1923016 0.048401862 -0.061369993
000100 5e 61 8d bc b7 66 31 3e 88 ed eb bc c9 47 d5 3d
       -0.017258342 0.17324339 -0.028799787 0.104140826
000110 cd 5a 4f 3d 02 06 83 bd 86 37 41 be bd b5 b0 3c
       0.050623704 -0.0639763 -0.18868837 0.021571035
000120 4d 67 d5 bc 6e f8 c6 3e 21 b7 2e be 71 4e 5c 3d
       -0.026050234 0.38861412 -0.17062046 0.053785745
000130 7a 8a 85 be 7d dd 57 3c 05 12 03 3d 01 4c af 3d
       -0.26082212 0.0131753655 0.031999607 0.085594185
000140 d6 17 77 bd b8 a1 11 bd 2b f6 e7 be bd a6 f5 bd
       -0.060325466 -0.035554618 -0.45305 -0.119946934
000150 72 2f 5b 3d 56 c5 a1 3d 06 ba 4b 3d f8 57 cb 3d
       0.053512044 0.07898967 0.049737953 0.09928888
000160 1a f6 c4 be 57 f9 a3 3c 19 5d 0d be 8c 06 06 be
       -0.3846901 0.020016355 -0.13805045 -0.13088435
000170 f5 fa ba bd cb 77 82 3a fe 68 fa bd 7f 17 a8 3b
       -0.091298975 0.0009953914 -0.12227057 0.005129754
000180 b1 00 4e 3e ef 0b 56 bd 16 8e a1 3c 11 d5 18 3e
       0.20117451 -0.052257475 0.019721072 0.14925028
000190 13 6c 49 bd d2 48 b6 3d 8a 48 8e be 20 d5 f5 3d
       -0.049175333 0.08900608 -0.27789718 0.12003541
0001a0 03 69 09 bd 6e ac 34 3d 3a b4 5f be 12 9a 9f 3d
       -0.033547413 0.044109754 -0.21846095 0.077930585
0001b0 89 c5 9b 3e 4e 94 ac bd b7 89 9a bb 54 ea cc 3a
       0.30424145 -0.084267244 -0.004716124 0.00156338
0001c0 f5 4a 92 bd ff bc 53 3e 8f 14 71 be a0 fc 69 be
       -0.07143203 0.20677565 -0.23542999 -0.22850275
0001d0 a7 ca 9a 3d 6a 90 89 3d 02 6c b2 3e b7 03 c7 bd
       0.07558184 0.06716998 0.34848028 -0.097175054
0001e0 a6 e0 c0 3e d9 56 7c be 00 80 c2 3d cc fa b2 3d
       0.37671393 -0.24642505 0.0949707 0.08739242
0001f0 0c a7 cb 3d ed 48 87 3e ee e9 03 3e 1d 50 b5 3d
       0.09943971 0.26422825 0.12882206 0.08853171
000200 f2 ce e0 3d f1 cd 11 be a2 f2 12 bd 47 db 9b be
       0.10976972 -0.14238717 -0.035875924 -0.30440733
000210 7d d6 11 3e ac fc 07 3e 24 b1 2a be 08 7e 00 bd
       0.14241977 0.1327998 -0.16669136 -0.031370193
000220 0a a0 0b bd 01 53 02 be 4c e3 ee 3e 86 de cc bd
       -0.034088172 -0.12726976 0.4665779 -0.100033805
000230 fe d6 90 be 26 97 1c bd c9 89 89 3e f2 d6 30 3d
       -0.28289026 -0.038230084 0.26862934 0.043173738
000240 3b be 94 3d 65 59 77 3d da 54 5c 3d b0 f1 19 3e
       0.07262846 0.060387988 0.05379186 0.15033603
000250 b6 c5 e8 3c bd a5 a0 3d a3 f0 78 3e 02 23 80 bd
       0.028414588 0.07844112 0.24310546 -0.06256677
000260 bd 27 b2 be b9 c5 ca bc 0d 35 46 bb 81 1d 14 be
       -0.34795943 -0.024752485 -0.0030244023 -0.1446438
000270 41 89 72 be 47 b2 bf 3e 16 16 0c 3d 06 05 ba bd
       -0.2368517 0.37440702 0.03420075 -0.090829894
000280 33 9e 18 be 9d a5 38 3e 49 b5 db 3c b3 34 90 3e
       -0.14904098 0.18031926 0.026819842 0.28165206
000290 40 a9 af bd 4e 85 3d bd 1d 52 25 3e 8f c9 f2 3c
       -0.08577204 -0.046269707 0.16144605 0.029637126
0002a0 35 bb 4a bc 53 ef 6e be aa d7 96 3d cd 01 95 3c
       -0.012373735 -0.23333482 0.073653534 0.018189335
0002b0 a7 33 1b 3e cd 06 ba 3d 27 79 71 bd 24 a2 c8 bc
       0.15156423 0.090833284 -0.05895343 -0.024491377
0002c0 86 d0 ac 3d 11 49 41 3c 2e 8e a3 3d 1b 76 13 3e
       0.0843821 0.011797206 0.07986103 0.14400522
0002d0 e6 5f 07 be 8f f7 91 3c 0d f3 df bd 06 f2 da 3e
       -0.13220176 0.01781824 -0.1093503 0.42762774
0002e0 45 cb f1 3d 17 62 45 3e 06 5e 80 bd 04 65 39 bb
       0.11806349 0.192757 -0.062679335 -0.002828897
0002f0 58 65 f2 bd dd ee e3 3c a6 b2 7a 3d b6 fb 57 bd
       -0.11835736 0.02782386 0.06120553 -0.052730285
000300 f9 e9 4c 3e f3 1e 26 3d a4 74 bb bd 9a 8f f2 3d
       0.20011128 0.04055686 -0.09153107 0.11843796
000310 c8 b1 17 be 67 54 4b 3d 06 e8 8b be 31 02 a9 be
       -0.14813912 0.04964104 -0.27325457 -0.33009484
000320 78 e0 84 38 cc 21 14 be f8 31 68 bd e4 c1 51 bd
       6.336061e-05 -0.14466017 -0.05668828 -0.0512103
000330 1c 93 89 bd d2 cf 96 bd a0 81 b9 3e 0e 80 3d 3d
       -0.06717512 -0.07363857 0.3623171 0.0462647
000340 b7 36 32 bc 78 f1 ce 3e 27 7e b5 3d 42 9a 28 3e
       -0.010877303 0.404186 0.08861952 0.16465095
000350 5d 79 08 bd ec 6a fa 3e 76 e4 e6 3d a1 6b 1c be
       -0.033318866 0.489097 0.11274044 -0.15275432
000360 f4 7a bb bd 9a e3 30 be 99 08 d0 be 73 d4 0e be
       -0.09154311 -0.17274323 -0.4063156 -0.1394823
000370 e0 89 da be 3a c1 1f 3e 57 02 20 bd 04 28 b0 b9
       -0.42683315 0.15601054 -0.03906473 -0.0003359915
000380 5d 14 d3 3d f0 0f dc 3e f4 59 9d 3c 99 2e 80 3d
       0.10306618 0.4298091 0.019207932 0.06258888
000390 77 78 c8 bd d7 fb a3 3d 82 ac ef bd f7 56 a7 be
       -0.09788602 0.08007019 -0.11702825 -0.32683536
0003a0 d7 c4 55 3e 11 70 2f bd be 4a 20 be 4d 92 ea bd
       0.2087587 -0.042831484 -0.15653512 -0.11453686
0003b0 d5 26 56 be d5 1a 00 bd 79 c0 33 bc 65 22 30 3e
       -0.2091325 -0.03127559 -0.010971182 0.1720062
0003c0 b7 ae f7 3d fa d0 b1 3e c4 c4 05 bf e5 c4 c5 3d
       0.12093871 0.3472975 -0.52253366 0.09656695
0003d0 43 cf c1 3e ee 04 52 bd 86 5b f3 3d 16 67 87 be
       0.3785344 -0.051274233 0.11882691 -0.26445836
0003e0 6e 6f 90 3d b0 ac 3a 3d 09 7c 63 be 0b f6 52 3d
       0.070525035 0.045574844 -0.22215284 0.051504176
0003f0 cd 3b d6 3b 64 72 05 3e 71 a6 4e 3f 36 5c d7 bd
       0.0065378905 0.13031918 0.8072272 -0.10515635

bias f4 [64]
000000 e0 76 cb 3c 5d fb 9b bc 2f b0 9a 3d 85 f7 60 bb
       0.024836957 -0.019040758 0.075531356 -0.003432722
000010 55 24 98 3c 9d 9c 4c 3d c1 a3 70 3c dc 2e c6 bd
       0.018572012 0.049954046 0.0146874795 -0.096769065
000020 63 59 d7 3c 0c c0 93 bc cf 26 8d 3c e9 3d 96 bd
       0.02628774 -0.018035911 0.01723042 -0.07336027
000030 70 17 38 3c 61 aa ff 3c 5b 38 e4 bb 31 34 86 3c
       0.011236057 0.031209173 -0.006964726 0.016382309
000040 f2 8c 6b bd b9 d4 06 3d 62 07 a3 bc 1d 93 49 bd
       -0.057507463 0.032917712 -0.019900981 -0.049212564
000050 fe a5 a2 bd 51 63 81 bd f8 5c 8d bd d0 15 ea 3c
       -0.07941817 -0.06317771 -0.06902498 0.028574854
000060 11 ab 0a bd b7 fe d0 bd 6b e5 94 3c 5f bf ba ba
       -0.033854548 -0.10204833 0.018175801 -0.0014247707
000070 f8 2a 1f 3c 54 7f 02 3d 1a fb bf 3b 9b be b1 bd
       0.009714834 0.03185971 0.005858791 -0.08678933
000080 e2 6b 2d bd 50 9f 08 bd c3 f2 3f 3b 86 50 b6 bc
       -0.042339213 -0.033355057 0.0029288984 -0.022255193
000090 9b 3f 9f bd 95 1c c7 bd 26 b6 6d 3c 87 8b 86 bd
       -0.07775804 -0.097222485 0.01450876 -0.065695815
0000a0 a2 1e 83 bd ca 9b ea bb cf 1f 1b 3d 9f bd 2a 3d
       -0.06402327 -0.007159685 0.037872132 0.041684743
0000b0 85 9b 57 bc 09 64 53 bd c7 c5 73 bc 6c b4 cb bb
       -0.013159637 -0.051609073 -0.014878697 -0.0062165763
0000c0 7b d7 58 3d 42 88 d3 3c 6d 7f 2e bd 01 bc 77 bd
       0.052939873 0.025821809 -0.04260199 -0.06048203
0000d0 ef 9c 4c 3b 1b b9 c2 bc 2e a0 ff bc 18 9f 69 bd
       0.003122147 -0.023769906 -0.03120431 -0.05703649
0000e0 da c6 fb bd 1e 11 16 3d 5d 91 cd bc d2 bc e4 bc
       -0.12293787 0.036637418 -0.025093729 -0.027922068
0000f0 80 e3 b5 bb 82 e0 b0 bd 4c d1 74 bc d2 13 ce bb
       -0.0055508018 -0.086365715 -0.014942478 -0.006288984

weight f4 [1, 64]
000000 9d 81 3c 3e 3d 55 77 be 50 90 7d 3e 2d 2c 20 3e
       0.18408819 -0.2415361 0.24762082 0.15641852
000010 78 5c 5a 3e 91 51 b9 bc 37 47 16 ba 9b 63 64 3e
       0.21324337 -0.022621902 -0.0005732658 0.22303621
000020 27 fb b8 be 7c 32 80 be 4c 99 80 3e aa aa 81 3e
       -0.36129114 -0.25038517 0.25116956 0.2532552
000030 d0 6e 66 be 99 6f ca be 45 89 e0 bd 7a e5 39 be
       -0.22503209 -0.39538267 -0.10963682 -0.18153945
000040 86 a0 60 3e 4b 43 82 be 42 5d 6b 3e 6d 81 66 3e
       0.21936235 -0.25441965 0.22984794 0.2251031
000050 61 e6 34 3e 53 ff a8 be 5c e2 90 3e 4a 21 a4 be
       0.17666008 -0.33007297 0.28297698 -0.32056648
000060 97 df a3 3e 72 f8 a2 be c2 26 4f 3e 25 59 59 3e
       0.32006523 -0.31830174 0.20229629 0.21225412
000070 4f 0b 4a be da 37 71 3e e0 8d 97 3e ab 24 82 3e
       -0.19730876 0.23556462 0.2960043 0.254186
000080 f4 df 8e 3e 05 f4 e3 be 50 ab 07 be 53 a7 a5 3e
       0.27905238 -0.4452211 -0.13248944 0.3235422
000090 c8 ce bb be 95 13 79 3e da f8 57 be 43 99 8f be
       -0.366812 0.24323876 -0.21091023 -0.28046617
0000a0 24 83 b8 be 34 1a 30 3e c9 a8 0e be 7f 64 8e 3e
       -0.36037552 0.17197496 -0.13931574 0.27811047
0000b0 92 5c 6d be 2f d5 56 3e 01 90 6c be 00 82 93 be
       -0.23179844 0.2097976 -0.23101808 -0.2881012
0000c0 29 eb bc 3e fe e2 bf 3e 2b 5c a2 be dd 62 47 be
       0.36898163 0.3747787 -0.31710944 -0.19471307
0000d0 1d d4 98 be 98 ed 1f 3e 4c e6 9e 3e 4e b6 0c be
       -0.2984933 0.15617979 0.31035078 -0.13741419
0000e0 dc d2 87 be a3 c2 a4 be 59 8e 6a be 45 ec 8b be
       -0.2652806 -0.32179746 -0.22905864 -0.27328697
0000f0 74 86 81 be 53 0a b1 be 65 3c 92 be 1c 5c 02 3e
       -0.25297892 -0.3457819 -0.28561702 0.1273045
