test/ens_models/ens_model_4_CA.pt (torch, 654481 bytes, 6 tensors)

layer0.weight f4 [20, 10]
000000 dd 5e 50 bf 6f 83 23 bf 88 7e b7 3e c2 7f f4 bc
       -0.8139475 -0.63872427 0.35838723 -0.029846076
000010 08 42 be bd fd bf c8 3e 4e e7 fa 3e 5b 3f 08 be
       -0.09289938 0.39208975 0.49004596 -0.13305418
000020 62 3e a7 3c c7 9d 5e be 01 7c 16 be b0 38 23 bd
       0.020415489 -0.21739875 -0.14695741 -0.039848983
000030 58 d7 6a 3d 43 a3 89 be 4b 63 ec 3d d9 84 40 3e
       0.057334274 -0.2688237 0.11542376 0.18800677
000040 6f 86 8c be ef 9e 08 3f 61 50 3c bf 73 f5 df 3c
       -0.27446315 0.53367513 -0.7356015 0.027338719
000050 ad ef 0d 3f 31 0a 6e bf 7e 9d d5 3e 5d 9d 49 3d
       0.5544384 -0.929843 0.4172172 0.04922234
000060 54 71 e7 3e e7 6e 67 be cf c5 f9 3e fb 9a 82 bd
       0.4520365 -0.226009 0.48783728 -0.063772164
000070 f5 8b 75 3e 74 6b bb 3e e5 06 2c be a3 7e 57 be
       0.2397917 0.36605418 -0.16799505 -0.21044402
000080 69 bd 22 bf 90 02 0f 3e bf eb fd be df b7 13 bf
       -0.63570267 0.13965821 -0.49593922 -0.5770244
000090 80 77 60 bf f4 85 77 3e df f6 23 3f 3e d1 30 3e
       -0.8768234 0.24172193 0.6404857 0.1726732
0000a0 a9 99 13 3f 6a c9 39 3c f8 7e 7a 3e 02 5e 59 3f
       0.5765634 0.011339525 0.24462497 0.8490907
0000b0 27 a1 f1 3d b8 03 c6 3e 20 c8 82 bf e8 72 d6 3e
       0.117983155 0.38674712 -1.0217323 0.41884542
0000c0 27 72 f1 be fb 28 45 be c3 72 2c bf e7 5b d7 3d
       -0.47157404 -0.19253914 -0.6736261 0.10515576
0000d0 01 d0 13 bf d8 4f 2a 3d 7e 74 0f bf 45 5f 57 3f
       -0.57739264 0.04158005 -0.5603713 0.84129745
0000e0 99 82 b9 3e 6f e4 20 bc 32 43 a7 be 44 fd 23 3f
       0.3623245 -0.009820088 -0.32668453 0.6405833
0000f0 75 fa 9c bd 48 72 07 3e a1 fc 2e 3f 08 91 a3 3e
       -0.076649584 0.13227189 0.6835423 0.31946588
000100 58 2a 1d 3f e5 f9 27 bf ff 66 3b 3e 5d 05 38 bf
       0.61392736 -0.65615684 0.18301009 -0.71883184
000110 9a 87 66 bf d5 48 29 3d 92 e8 bf be 0a b7 55 bd
       -0.9005066 0.041329224 -0.37482125 -0.052176513
000120 09 a8 33 be 89 de fe be 56 38 52 be 80 02 a4 bd
       -0.17544569 -0.49779156 -0.20529303 -0.08008289
000130 2a c9 2a 3e 6b f4 db 3d e5 ae cf 3d f6 a7 a2 be
       0.166783 0.107399784 0.1014078 -0.3176877
000140 9d f8 20 3e 59 55 a7 3e 37 6c dc 3d 87 01 43 bf
       0.15719838 0.32682303 0.10762828 -0.76174206
000150 ff d4 a8 3e d1 4d 1b 3f 16 7e eb be e7 f6 d7 3c
       0.32975003 0.60665613 -0.45994633 0.02636285
000160 c3 43 99 3e 0c d4 95 3f c8 5b 98 be 87 dd 2d 3e
       0.2993451 1.1705337 -0.29757524 0.16979037
000170 25 91 0a 3f 70 ba c3 3e 76 0f 31 be c3 40 e9 bd
       0.5412772 0.38228178 -0.17291054 -0.113893054
000180 4f 88 a8 bc ac ef e6 3d 03 f1 05 3f c2 32 4a bf
       -0.02057281 0.112761825 0.5232088 -0.789837
000190 a7 4f 2d 3e 63 f8 3f 3e b7 e1 c5 3e ab 5b 8d bc
       0.16924916 0.18747096 0.3864877 -0.017255625
0001a0 10 61 fa 3d dd 5f af 3f 66 3a e6 bd ef 7d 09 bf
       0.122255445 1.370113 -0.11241607 -0.53707784
0001b0 77 e9 c9 3d dc 5c d9 be 09 da 5f 3f 4f 3e 17 3f
       0.09858983 -0.4245366 0.8744207 0.5907945
0001c0 b2 6f 49 bf 70 dc fe be 01 fd 21 3f 8f 04 f5 3e
       -0.7868606 -0.49777555 0.6327668 0.4785504
0001d0 ef b3 1b be cd 5e 83 bd 96 1c d6 bd b7 f1 ae be
       -0.15205358 -0.06414566 -0.10454671 -0.3416879
0001e0 ef ac 23 3f e4 e4 d2 be be f1 e7 3e 42 51 d5 be
       0.6393575 -0.41190255 0.45301622 -0.41663557
0001f0 82 97 a8 bf de e8 da bc 78 c0 72 bf 8f 7f 0f 3f
       -1.3171237 -0.026722368 -0.94824934 0.56054014
000200 78 e4 96 be 83 c5 aa 3d 4e 73 8d bd 17 63 8e 3f
       -0.29471183 0.083384536 -0.06906758 1.112399
000210 c3 2a b5 3e cc 4c e4 3e 35 1a e4 be 9a 4f 4a be
       0.35384187 0.4458984 -0.44551244 -0.19756928
000220 99 38 8f 3e 0e 01 fa be c1 d6 17 be 39 44 37 3f
       0.27972868 -0.4882893 -0.14828016 0.71588475
000230 71 89 82 3e a9 e2 d5 be 87 65 b0 bd e5 ea b9 be
       0.25495484 -0.4177449 -0.08613115 -0.36312023
000240 57 0c 13 bf 3b 71 e8 bd d6 82 90 bc 4d ba 08 bf
       -0.57440704 -0.11349722 -0.017640512 -0.5340927
000250 bb ce 34 be 8e 3b 14 bf d4 5c f5 bd 20 3e 9b 3d
       -0.17656986 -0.57903373 -0.11980596 0.07580209
000260 7d c7 f5 be f9 5e 59 3f 97 4c e4 be 64 ab 14 bc
       -0.4800376 0.8491054 -0.44589683 -0.009074066
000270 1d bf 92 3e 0e 07 2d 3f 3a a0 fa bd 6c 59 93 3e
       0.28661433 0.6758889 -0.12237592 0.2877916
000280 a4 bf 10 bf 56 b9 64 be 1a 75 26 3f 83 3f be 3c
       -0.5654242 -0.22336325 0.6502243 0.023223644
000290 a7 04 12 3f 67 bb 27 be 2f 3a 7a be cf 7e 9b 3e
       0.5703835 -0.16380082 -0.24436258 0.30370185
0002a0 b8 03 9d 3e c4 2a 2c 3f 45 07 9e 3e 8c 05 21 3f
       0.306669 0.67252755 0.3086492 0.6289909
0002b0 21 fc 72 3f 36 55 a9 be 0b 29 62 bf 70 25 be 3e
       0.9491597 -0.33072823 -0.88343877 0.37137938
0002c0 c3 ee 92 3f aa 6a 99 3e de f3 2c 3e dd 92 c2 be
       1.1479114 0.2996419 0.16889903 -0.38002673
0002d0 f6 2e 89 be 53 e1 c6 3e 4c f5 7b 3d f9 4d 6e be
       -0.2679364 0.38843784 0.06151323 -0.23271932
0002e0 59 ae 0c bf 55 d3 a2 3e 52 d6 7e 3e 18 fa bb be
       -0.54953533 0.3180186 0.24886444 -0.36714244
0002f0 48 87 03 3f 95 3e 67 3f 58 b7 f5 be 13 f2 07 3f
       0.513783 0.9032987 -0.47991443 0.5310375
000300 ff 50 a2 3e e5 09 e2 be 73 74 70 be 2f ff 60 bf
       0.3170242 -0.44148174 -0.23481922 -0.8788938
000310 f2 03 2a bf 12 2a 04 bd 22 0e af 3b fa 71 a2 3e
       -0.6641227 -0.032266684 0.005342261 0.31727582

layer1.weight f4 [256, 570]
000000 d0 02 f9 bc b3 b8 75 3c fb aa e4 3c 75 d7 ef bd
       -0.030396849 0.014997649 0.027913561 -0.11711017
000010 b7 a2 d0 bd 2e a1 10 3e 24 f9 cb 3d 6a 86 1d be
       -0.101872854 0.14123985 0.09959629 -0.15383306
000020 d0 59 23 be 42 28 32 3e ee 45 a1 3d b6 9c 84 3e
       -0.1595223 0.1739817 0.07874666 0.2590081
000030 7d d6 2e 3d bc f0 94 3d 6a 27 77 bd 3f 12 9b 3f
       0.04268502 0.07272479 -0.060340323 1.2114943
000040 66 82 10 3e 74 7c 6f 3d 15 1e e3 3b 8b 15 1f 3d
       0.14112243 0.058468297 0.0069310763 0.038838904
000050 eb 96 75 3e b6 9c e4 3d 1d e2 0f bc 8f fa 4d bc
       0.23983352 0.11162703 -0.008781937 -0.012571945
000060 1a 68 09 be c1 7e 75 3e c5 86 8e 3d af 1d a2 bd
       -0.13418618 0.23974134 0.06959299 -0.07915818
000070 cc 25 09 be 0d 04 42 be e1 8f c7 bd d6 91 e5 be
       -0.13393325 -0.18946858 -0.097442396 -0.44837826
000080 2f 24 d6 3e d3 ee 58 3d 90 48 06 bd 49 4a 01 3d
       0.4182448 0.052962136 -0.032784045 0.031564984
000090 d5 62 cf 3e 90 ce 21 3e 7a f9 d4 bd 75 77 89 3d
       0.4050509 0.15801454 -0.103991464 0.06712238
0000a0 95 8a 14 3f d1 4d 35 be 15 22 da 3e 0f 8d a6 bf
       0.5802396 -0.17705466 0.42604128 -1.3011798
0000b0 12 0a e1 be 1d 92 55 3e 1e 70 24 3f 8b 61 8d 3f
       -0.43952996 0.20856519 0.6423358 1.1045393
0000c0 99 41 90 3c 5c bb ba 3c 21 95 af 3a b4 d3 99 3f
       0.017609404 0.022794418 0.0013395884 1.2017732
0000d0 c5 de f4 3e 07 89 97 be 0e 8f bc bc c5 ba 91 3d
       0.4782621 -0.2959673 -0.023017433 0.071157016
0000e0 7c ec 38 be 32 d2 2f be 63 55 42 bf 31 6b e9 be
       -0.18058962 -0.17170027 -0.7591154 -0.45589593
0000f0 20 c1 57 3c f5 34 d7 3e 1c b3 ac 3e 27 53 62 be
       0.013168603 0.4203259 0.337304 -0.22102033
000100 1e ab 2c 3c 7d b0 c6 3c 35 44 3b 3c 8f 88 26 3c
       0.010538844 0.024254078 0.011429836 0.010164394
000110 ea 1f 8a 3c 6b 07 19 be 98 d2 1f bd 97 ae e2 bd
       0.016860921 -0.14944236 -0.039019197 -0.110684566
000120 08 32 17 be 2a 80 48 3e e4 ea 8f bf 60 ad c4 bd
       -0.14765179 0.1958014 -1.1243558 -0.09603381
000130 cd 1b 89 bf 88 ff 06 3f 2a 3a a1 3f cd 86 8c bf
       -1.0711609 0.5273366 1.2595875 -1.0978638
000140 8b 32 cf 3d 29 54 09 be 1f c4 a4 3b 32 32 b1 3b
       0.10117062 -0.13411011 0.0050282623 0.005407595
000150 a7 28 98 3d 83 af 2e be d9 39 c3 3b 7c 61 9b bd
       0.07429629 -0.1705914 0.0059578237 -0.07586953
000160 3c 75 18 3d f0 4d b5 3d 88 69 87 bd 54 da a8 3c
       0.03722118 0.08852756 -0.06611925 0.02061192
000170 ee 0a b8 3c 7c 86 d5 3d 2f 17 fe bc 5c 67 50 3e
       0.02246615 0.104260415 -0.031016914 0.20351928
000180 59 ff fb bd 7a b6 8d 3c 81 5a a3 bd 45 b8 91 3e
       -0.12304563 0.017298926 -0.079762466 0.284609
000190 b9 ec da bd be 67 98 bd 14 d9 17 be 84 0b c3 bd
       -0.106896825 -0.07441662 -0.14828902 -0.09523681
0001a0 c9 81 22 bf d7 f2 4e be f4 90 73 be 00 f0 c5 3e
       -0.63479286 -0.20209824 -0.23785764 0.38659668
0001b0 cf 2d 5d bf 68 81 84 3e 7f 6b a6 be e4 9b 38 3e
       -0.86398023 0.2587998 -0.32503888 0.18028218
0001c0 75 21 6b c0 bb 75 d6 bd 9f ea 55 3d 76 83 4d bd
       -3.673917 -0.10471674 0.052225705 -0.0501742
0001d0 37 4a 86 bf 88 97 bc bd 57 85 9d 3c 74 ca ea bd
       -1.0491399 -0.0920859 0.01922862 -0.11464396
0001e0 87 2a d3 bb b5 77 85 bd af 95 a6 3b 9a 21 5a bd
       -0.0064442786 -0.06516973 0.0050837616 -0.0532547
0001f0 95 6e 69 3d c2 1f 28 3d 6b 3c d5 3c bb b7 1c be
       0.056990225 0.04104591 0.026029786 -0.15304463
000200 23 6c 9a 3c 39 da c6 bd c0 fc cf bc 5d 2f bd 3d
       0.018850392 -0.097095914 -0.025389075 0.092375495
000210 56 84 f8 bd 5d 9a 51 bd 7e c2 7e 3d 64 c9 de bd
       -0.12134616 -0.051172603 0.0621972 -0.10878256
000220 5d 3a ee bd 0b 5d 4c 3e 21 2c 9f be 0d f1 5b 3c
       -0.11632226 0.19957368 -0.31088355 0.01342417
000230 dd 1d a5 3e 6e 40 d5 3e ae c0 3c bf 00 f0 af 3e
       0.32249346 0.41650718 -0.73731506 0.34362793
000240 fc 9a 2c be c9 ca ad bc 5d 2b b7 bd 0a 0e 8e bd
       -0.16855997 -0.02121486 -0.08943818 -0.069362715
000250 d8 f5 57 be a9 ce 0a bc 39 67 dd bc 59 17 8a bc
       -0.21089876 -0.008472123 -0.02702676 -0.016856836
000260 8a 0f 2e be c4 3c 8c bd bb 5c 5c 3d 8f ef 71 bd
       -0.16998115 -0.068475276 0.053799372 -0.05906635
000270 b1 7b 0d bd d9 e3 b2 bd d3 5c 10 3e e7 9e cc bd
       -0.03454179 -0.08734865 0.1409791 -0.09991246
000280 af dd 0b 3c 18 6f 9e bc 5e 5e 60 3d 2b 4e ed bc
       0.00853674 -0.019340083 0.054777496 -0.028967937
000290 10 30 41 be ac a0 95 bd d0 ae a7 3d 4d be c4 3d
       -0.1886599 -0.07306036 0.0818764 0.096066095
0002a0 97 c2 2f 3d 21 21 24 bf 5b e1 03 bf e6 e6 d8 3e
       0.042910185 -0.6411305 -0.5151574 0.42363662
0002b0 53 10 18 3f a0 0a 86 be e1 e3 40 bf 9f e6 8a 3e
       0.5939991 -0.2617998 -0.75347716 0.27129075
0002c0 d2 63 85 bd aa 95 80 3c b9 a3 c5 3d 3f f6 f3 bc
       -0.0651318 0.015696365 0.09650368 -0.029780505
0002d0 52 fa 11 c0 06 e2 6d be f1 46 11 3d bf a3 c8 bd
       -2.2809033 -0.23230752 0.035468046 -0.09796857
0002e0 45 bf 86 bf 8f ab 77 be 2c e5 fe 3c 3f 13 e6 bc
       -1.0527121 -0.24186538 0.031115137 -0.02808535
0002f0 a2 b5 5c 3e 87 13 6b be c9 2e e4 3d ad c6 aa bc
       0.21553662 -0.22956668 0.11141736 -0.02084669
000300 2e cd 3b 3e 94 05 49 be 31 d1 78 bd 7b ac cf bd
       0.18339989 -0.19631034 -0.060746375 -0.1014032
000310 c4 a6 99 3d bf 1e dc bd e6 5b 58 bd f5 f9 42 bd
       0.07502511 -0.10748052 -0.052822016 -0.04760166
000320 83 5a 48 3e b5 49 7a 3d f6 e8 8b be 23 7a 84 be
       0.19565777 0.06110545 -0.27326173 -0.25874433
000330 7c f7 05 40 5a be 6d 3e 58 2e 38 bf 67 a0 ae bd
       2.0932302 0.23217145 -0.71945715 -0.08526688
000340 78 64 d9 bc e5 89 f0 bc f3 6a aa 3c 73 03 48 3c
       -0.026537165 -0.029362628 0.02080295 0.012207854
000350 14 49 05 3d 83 a9 cf bc da fc 5f bd 4d 82 a7 3d
       0.032540396 -0.025349384 -0.054684497 0.0817915
000360 62 85 5c bf b0 48 dc bd 51 44 76 be cb c5 95 3f
       -0.86141026 -0.107560515 -0.24049498 1.1700987
000370 4d 1b b2 bf e8 1c 4c bd ca c7 ac be c5 08 84 3f
       -1.3914582 -0.049832255 -0.33746177 1.0315176
000380 c8 47 50 bf 18 70 bb 3e ff 4f 0f bf 3e ac 21 3f
       -0.8135953 0.36608958 -0.5598144 0.63153446
000390 e0 28 b5 bd b2 0d 9b 3d c9 4d 43 be 98 dc f2 bf
       -0.08845687 0.075709715 -0.19072641 -1.897357
0003a0 57 9a 73 bf 44 33 eb bd 9b 91 ce 3e 60 9e 72 bf
       -0.9515738 -0.114843875 0.40345463 -0.9477291
0003b0 07 4e 86 be c9 71 5f bf ca 86 0e 3f 3d bf 9e 3e
       -0.26231405 -0.87283 0.5567442 0.31005278
0003c0 53 e6 8c 3d 12 3e 48 3e b0 37 fe bc 17 60 55 be
       0.06879868 0.19554928 -0.031032413 -0.20837437
0003d0 60 64 5c 3f 50 a2 18 3e c7 19 ca bc f5 3e 3d be
       0.8609066 0.14905667 -0.024670495 -0.18481047
0003e0 27 c7 cc 3e 3e 24 24 3e f5 0d b4 3b f8 af 3a be
       0.3999569 0.1602945 0.005494828 -0.18231189
0003f0 25 3a c2 bc 63 54 83 3e ef d7 cd bc f4 69 09 bd
       -0.023709366 0.2565032 -0.02512738 -0.03354831

layer1.bias f4 [256]
000000 08 6a 19 3c ed 8f 15 3c b3 cb dc 3c a7 86 40 3d
       0.009363659 0.009128553 0.0269526 0.047003414
000010 55 8c fa b8 ae 0d 85 bc a2 5d b0 bc 91 8a 3d bb
       -0.00011947068 -0.016241875 -0.021529023 -0.0028921703
000020 43 62 84 bc 44 6d fe bb 5f 66 db 3b 77 47 e9 3c
       -0.016160136 -0.0077644903 0.006695553 0.02847646
000030 78 33 04 bd a5 6e eb ba 2d 02 d1 bc c2 96 08 3d
       -0.032275647 -0.0017962052 -0.025513733 0.0333469
000040 af 6a 1e 3c cf f8 64 bb e5 17 b4 bc e6 6e eb b9
       0.00966899 -0.003493834 -0.02198405 -0.0004490532
000050 aa d0 a3 bc 09 ca 95 bc 9a 24 0e 3d c7 9b 02 bc
       -0.01999696 -0.018284814 0.034702875 -0.0079717105
000060 77 2d 39 bc b4 f9 5a 3d e3 21 51 3d f1 2d e7 3c
       -0.011302344 0.05346079 0.051057708 0.028220149
000070 e8 c9 48 3c 93 4e 6f 3d c5 02 1b bd c9 65 45 3c
       0.012255169 0.058424544 -0.037844438 0.012048193
000080 d4 d5 8f bc 77 7f ed bc 0e fb 1f 3d e2 be b2 3b
       -0.017558016 -0.028991444 0.039057784 0.005454884
000090 35 7d 37 3d b3 f6 88 bc d6 9f c8 3c 2c 32 0c 3c
       0.04479714 -0.016719198 0.024490278 0.008556884
0000a0 e4 62 2b bc 94 9e c5 bc 41 f2 a5 3d ec b2 90 bc
       -0.010460589 -0.024123468 0.08102847 -0.017663442
0000b0 6e eb 99 3c 0d 0f 3d bd 11 1f 6d 3c 84 41 c8 bc
       0.01878902 -0.04615693 0.014472739 -0.024445303
0000c0 72 04 20 3c 59 3f 1f 3d f4 74 88 3c 22 fe 99 bc
       0.009766685 0.038878772 0.01665733 -0.018797938
0000d0 28 ff 43 3c 71 f1 34 bc 78 86 4f bc 2c 77 c3 bc
       0.011962689 -0.011043892 -0.012666337 -0.023860537
0000e0 11 8b 09 bd 95 95 1f 3c ea fb 3a bd ad 3f bc 3b
       -0.03357989 0.009740253 -0.0456504 0.0057448954
0000f0 7f f9 a8 3c f7 aa 8d 3c 86 8b 90 3d f7 be f2 3c
       0.020626782 0.017293436 0.07057862 0.029632075
000100 44 fb f3 bc 9f a5 62 bc 2a 7e a9 3c e0 3f 3a bb
       -0.029782899 -0.013833432 0.020690043 -0.002841942
000110 0f ce 9c bc 5c 05 bd bc 18 d8 26 bc 32 49 24 3d
       -0.019141225 -0.023073845 -0.010183357 0.040108867
000120 1c aa 8c 3c 08 fd 0a bd 9b e9 0f 3d 84 c3 06 3b
       0.017170958 -0.033932716 0.035134893 0.0020563314
000130 f6 d4 b3 3c 0c b0 f8 bc 71 7e 9d bc b1 04 56 ba
       0.021952134 -0.030357383 -0.019225331 -0.0008164151
000140 d1 a6 a5 bd ae 3d aa bc 77 6e 8f bb 70 55 1e 3c
       -0.08088458 -0.020781364 -0.004377182 0.009663925
000150 f1 cd 8e bc 46 71 63 bc 9a dc bc 3c 3e 0c b1 bb
       -0.017432185 -0.013881987 0.02305441 -0.0054030707
000160 2d 75 c9 bc 96 aa c6 bc a3 f6 b3 bc 9c c7 6d 3c
       -0.024592007 -0.024251264 -0.021968191 0.014512923
000170 02 23 ff 3c 8d 00 a0 bc e7 6f 4e bc d8 0b 3d bd
       0.031144623 -0.019531513 -0.012599922 -0.046153873
000180 21 1e 06 3c c2 ef 8c bc 2c ad a7 bb 98 61 59 bc
       0.008185894 -0.01720417 -0.0051170792 -0.013267897
000190 e9 a1 32 bc 5c b4 2d 3d 4e 11 85 bb a7 14 3f bc
       -0.01090286 0.042408332 -0.004060901 -0.011662639
0001a0 8e f8 2b 3c d8 a7 14 bd 4d ac 48 bc 93 41 fc bc
       0.010496272 -0.03629288 -0.012248111 -0.030792987
0001b0 da f5 2f bd dd 0b 29 bc 9e 83 a9 bc ae 38 98 bc
       -0.04295907 -0.01031777 -0.020692643 -0.018581714
0001c0 8b 2d 1e 3c 69 9e 91 bc fd 26 b9 bc 22 0c f4 3c
       0.009654413 -0.017775731 -0.022601599 0.029790942
0001d0 89 92 1e bd f8 6d 41 bc 14 bb e6 bc 6a 49 10 bd
       -0.038713966 -0.011806004 -0.028165378 -0.035226263
0001e0 27 67 79 3b f7 47 05 3c 24 cc 3c 3c 58 26 d9 bc
       0.0038055868 0.008134834 0.01152328 -0.026507542
0001f0 3f 15 e0 3c d4 74 e6 3c e7 e2 e8 3d 0c a6 28 bd
       0.02735388 0.02813188 0.11371403 -0.04117398
000200 19 39 ab 3c a6 38 2a 3c 55 7c a2 3d 8b b0 a3 bb
       0.02090125 0.010389483 0.07933871 -0.004995411
000210 cd 42 cb bc a2 14 04 bd b1 45 23 3b 1a fe 79 bc
       -0.024812127 -0.03224624 0.0024913365 -0.015258336
000220 cd cb 76 3c 5d e4 19 3c ea bb 13 3d 31 a1 95 bb
       0.015063238 0.009392825 0.03606788 -0.0045663347
000230 2e 25 bb 3c 20 5c 5e 3c 60 52 93 bb 1d 31 e4 ba
       0.022844877 0.013571769 -0.004495904 -0.0017409656
000240 de 54 84 bc 81 10 1f 3c 02 6e cf bc 61 9b 01 3d
       -0.01615375 0.009708525 -0.02532101 0.03164232
000250 33 cc a2 3c 70 9e e6 3c 00 5f c5 3c ba a8 1c bc
       0.01987276 0.02815172 0.024093151 -0.009561712
000260 77 6c a6 bb af 8f 1a 3d fb b9 2c 3d e3 8c 57 bd
       -0.005078848 0.037734684 0.042169552 -0.052624594
000270 10 e6 24 bd 13 17 4b 3d 0c dc ed 3b 77 d2 29 bb
       -0.040258467 0.049582552 0.0072588976 -0.00259128
000280 c6 78 36 bd 4c 29 b3 bc 02 2d 1c bd 76 b9 73 bc
       -0.044548772 -0.021870278 -0.03812886 -0.01487576
000290 7b 7d fc bb 73 d7 f8 3c 03 02 17 3d 0a 2d 51 bc
       -0.007705388 0.030376172 0.036867153 -0.012767086
0002a0 a4 4b 65 bc bb 2c 6b bc bf 8d 1d 3d 9c 7d 30 bd
       -0.013995085 -0.014353926 0.038465258 -0.04308854
0002b0 bf 12 6f bd 7f e7 c6 3c 50 2a 62 3d 3f 95 b5 bc
       -0.058367487 0.024280308 0.055216134 -0.022165893
0002c0 d6 f5 e4 bb 6e dc 2c bc ed 56 47 bc da e8 46 bc
       -0.0069873137 -0.010550601 -0.012166721 -0.012140477
0002d0 eb 7c 00 3d 58 a3 c8 bc b9 c6 5d 3c cc 1d 27 3d
       0.03136913 -0.02449195 0.013536149 0.0407999
0002e0 3d f2 07 bd 50 cc 91 bc c3 3c a4 bb d6 a3 05 bd
       -0.03319 -0.01779762 -0.005012126 -0.03262695
0002f0 1f 0a 61 3c 2a 3a 9d bc 5d 78 26 bb 86 77 79 ba
       0.013735323 -0.019192774 -0.0025401332 -0.00095164066
000300 ae 88 9e 3b 3e 2c c1 bb 2f 67 8c 3c 99 c9 fa bb
       0.004838071 -0.0058951667 0.017139046 -0.007653427
000310 df ee 8e bb 81 75 21 3c 1b 23 e7 3c c2 88 61 3b
       -0.0043619717 0.009854675 0.028214982 0.003441379
000320 e9 29 6a 3c ae 10 62 bc 24 3d 10 3d d3 13 74 bc
       0.014292219 -0.013797922 0.03521456 -0.014897305
000330 62 25 21 bc 14 91 b9 bb 84 be 73 3c 5c fb 4e 3b
       -0.009835573 -0.0056630466 0.014876965 0.0031582927
000340 f5 47 b2 bc cb 72 cc 3c 33 be 0b 3d ff 57 8b 3b
       -0.021762827 0.024957081 0.034116935 0.0042524333
000350 4c 50 a3 ba d6 0f a8 3a f8 3e 0e 3c 2f f5 23 bd
       -0.0012459843 0.0012822102 0.008682005 -0.040028747
000360 49 41 79 ba 0a cf 6b 3d 84 4e bf bc f9 10 60 bc
       -0.00095083244 0.057570495 -0.023352869 -0.013675922
000370 1b 25 0c 3b da 85 28 39 6e 7d 05 bc ab 93 01 3c
       0.0021384421 0.00016071592 -0.008147581 0.007908742
000380 77 b6 aa bb 02 5c bc ba b5 52 27 bc d9 04 a2 3c
       -0.00520974 -0.0014370682 -0.01021259 0.019777702
000390 a5 b7 13 bd 95 05 06 3d f7 91 c7 3c 85 db 21 3d
       -0.03606381 0.032720167 0.024361594 0.03951599
0003a0 db 31 3b 3d 6f 09 90 bc a7 d4 a5 3d 0b 26 86 3c
       0.045701843 -0.017582623 0.08097201 0.016375562
0003b0 cc c8 64 3c 58 9f 38 bb f3 52 5c 3d 1e 54 84 3d
       0.013963889 -0.0028171148 0.053790044 0.064613566
0003c0 7e e9 15 3d 04 5f c4 bb 15 5d 0d bc b4 19 2e 3c
       0.03659963 -0.005992772 -0.0086281495 0.010626245
0003d0 f9 4c 77 3c 27 c0 1c bd d0 ec 15 3d 69 d1 dc 3a
       0.015094035 -0.03826919 0.036602795 0.0016847077
0003e0 59 fd bc 3c 9b 0c df 3c aa 6b f1 3c ec e4 b3 3c
       0.023070024 0.02722769 0.029470284 0.021959744
0003f0 06 db c9 bc 54 90 b4 3c de f6 14 3d d9 b5 4c bd
       -0.024640571 0.022041477 0.036368243 -0.04997811

layer2.weight f4 [64, 256]
000000 c3 45 8b 3d b0 94 02 bf 6d 7a 2c be 8d 8b c9 bb
       0.06800415 -0.5100813 -0.16843577 -0.006150669
000010 52 a8 ae bd 07 31 9a 3e 93 b3 01 3e 74 86 c3 be
       -0.08528198 0.3011553 0.12666158 -0.38188517
000020 96 9b 14 3d 93 09 ff 3d b3 49 73 3e 15 ec 42 3e
       0.03628119 0.12452998 0.23758583 0.1903537
000030 56 ba 98 be 59 56 b4 be a7 0d b3 3e 09 46 d0 3b
       -0.29829663 -0.35222128 0.34971353 0.006356005
000040 fe 67 73 be ee db b2 bc 99 79 35 3e 5a 83 b7 bd
       -0.23770139 -0.021833386 0.17722167 -0.089606
000050 b0 db 09 3e db 34 29 be f3 a4 29 3e 43 b4 79 3d
       0.1346271 -0.16524069 0.1656683 0.060962927
000060 bf 66 f9 bb 22 bf 37 be 67 60 60 3e 85 6d 44 be
       -0.0076111252 -0.17944005 0.21911775 -0.19182403
000070 28 ff f8 be 96 33 62 bd f8 e6 5a 3d d5 52 d9 bd
       -0.4863217 -0.055224977 0.053442925 -0.10611502
000080 4f bb 81 3e ee dc 15 3d cc 6d a2 bd a5 ee fb 3d
       0.25338218 0.036587648 -0.07931098 0.12301377
000090 ee 86 f8 3d 7a 4e 9b bd b2 bd bb be 9f a3 ae be
       0.12135111 -0.075833276 -0.36668164 -0.34109208
0000a0 7f 5c 98 be ef 6f 00 3d 86 39 fd be a8 0d 16 be
       -0.2975807 0.03135675 -0.4945795 -0.14653647
0000b0 19 3e 24 3c 4c 58 fb 3e 9c db 99 be 2d ca f6 bd
       0.010024571 0.49090803 -0.3005036 -0.12050281
0000c0 7f c8 cb bd 15 d7 14 bf 06 e0 67 bc 7c f8 2c 3f
       -0.09950351 -0.5814069 -0.014152532 0.6756666
0000d0 73 39 3d be 20 5c a1 3e f0 ca fc 3d 69 44 ec 3d
       -0.18478946 0.31515598 0.12343395 0.11536486
0000e0 dc 35 3f 3d eb 9b c0 be 88 fd 92 3e 78 58 c6 3d
       0.046682224 -0.37618956 0.28709054 0.09684843
0000f0 08 a6 8b be c9 29 d6 3d a1 a4 17 be 94 57 7f be
       -0.2727511 0.10457189 -0.14808895 -0.24935752
000100 f3 7e f3 3e a6 a0 e6 bc 72 d8 06 bf 90 7f 33 3e
       0.47557792 -0.028152775 -0.5267402 0.1752913
000110 5c 39 52 3e a6 a6 0b be 98 be a5 be 28 7c f5 3e
       0.20529693 -0.1363779 -0.32371974 0.47946286
000120 05 bc 66 3d 28 59 0f 3e d8 c6 08 3d f2 d5 db 3e
       0.056331653 0.13998854 0.033392757 0.42936665
000130 6e 8c 09 be 37 a3 cb 3e e6 7a 1f 3e 46 b7 e4 bc
       -0.13432476 0.3977296 0.15574226 -0.027919423
000140 05 26 28 3e 3a 6a 54 3d db 5d d9 bd 24 58 68 bb
       0.16420753 0.051859118 -0.10613605 -0.0035452927
000150 e5 02 c9 3e eb 7d c0 bc c4 45 1f bf 4b bf 59 3f
       0.3926002 -0.023497542 -0.6221583 0.85057515
000160 7a fc 45 bd 07 82 ba 3e 89 03 9c bd 38 0f 3d be
       -0.048336484 0.36427328 -0.07617862 -0.18462837
000170 13 89 8a be b7 6b 1d be 71 7a 48 3e ae d1 37 3f
       -0.27057704 -0.15373121 0.19577958 0.7180432
000180 8e 5b 07 3d ef 25 b5 3d bc 5c 56 3e 01 4a 40 3e
       0.033046298 0.08845126 0.20933813 0.1877823
000190 9b 7d 07 bd bc 79 4d be 69 4d c3 be 9d d6 e6 be
       -0.03307877 -0.20065969 -0.38144997 -0.45085612
0001a0 61 ab 9c bc 37 0d 08 3e 7e 94 c8 bd 2b 11 14 3e
       -0.019124689 0.13286291 -0.09793948 0.14459674
0001b0 2e b1 ba 3c ea fc 45 be f9 62 ce bc f4 a8 b6 3d
       0.022789564 -0.1933476 -0.025193678 0.08918944
0001c0 52 57 75 be 34 6f 13 be 5f a9 b7 3e ba d7 84 3e
       -0.23959091 -0.1439789 0.35871407 0.25945836
0001d0 4d f6 cc 3d 89 c8 b9 be 87 04 97 3e 8e 47 94 3e
       0.10007916 -0.3628581 0.29495642 0.28960842
0001e0 b7 3a 96 3d d5 c1 ec 3d 3d bd 52 bd 7d 3a 0e 3d
       0.07335418 0.11560408 -0.051450003 0.034723748
0001f0 e5 dd 37 3e 46 c8 28 bf dd a4 9d bd c2 f0 63 be
       0.1795574 -0.65930593 -0.07697461 -0.2225981
000200 6e 26 4b 3e 08 c2 55 3e ce d7 84 bc d6 71 42 be
       0.19838879 0.20874798 -0.016216185 -0.18988737
000210 25 93 9e 3d 5b 3d a0 3e dc c5 c3 be dc 2d 2f 3d
       0.07742909 0.3129681 -0.38236892 0.042768344
000220 d2 68 64 be 98 87 32 3e ea 95 de be 16 3d 37 3f
       -0.22305611 0.17434537 -0.4347375 0.71577585
000230 c5 79 69 bc 09 19 94 bd 35 93 b0 3d 9a fb c3 3e
       -0.0142502235 -0.072313376 0.086218275 0.38277894
000240 dc d9 b2 3e db d5 8d 3e 1d 2a 8e bd 43 50 05 bd
       0.3493184 0.2770222 -0.06941626 -0.032547247
000250 f7 1f e1 3d 06 e3 fa 3c f5 05 44 bc 55 78 f0 bd
       0.10992425 0.030625831 -0.011964311 -0.117417015
000260 af 2a ec be cd 48 df 3c 30 38 e5 be 0f 7c 2c 3e
       -0.46126315 0.027256394 -0.4476943 0.168442
000270 0d f6 61 3e 6f 70 6b be c0 44 33 3e c2 cf 0e be
       0.22066517 -0.22992109 0.17506695 -0.13946441
000280 2e bb 04 3e e7 b9 c6 3e 61 bd 4c 3e 4c 48 2d 3e
       0.12962028 0.38813707 0.19994117 0.1692211
000290 bd 9e a5 bd d4 a9 a3 3d 55 4f 53 be db e4 44 3e
       -0.080869175 0.079913765 -0.20635732 0.19227926
0002a0 13 72 6b bd e5 15 83 3e 7b ae 69 be b4 84 78 be
       -0.057481837 0.25602642 -0.22820465 -0.24269372
0002b0 5c c5 c9 3e db d6 d5 3e 16 31 0e bd 2f d5 cf 3e
       0.39408386 0.41765484 -0.03471478 0.40592334
0002c0 f9 30 8a be 13 1b bd 3d 16 2d 2d 3e 6f 7a 0f be
       -0.26990488 0.092336796 0.1691173 -0.14011548
0002d0 f1 b7 a9 3c 17 72 1a 3f 84 45 b0 be 2d df db be
       0.020717593 0.6033034 -0.34428036 -0.42943707
0002e0 66 1f 16 be 7f a1 a2 bb a8 a7 fe be 6b 8a 0b 3e
       -0.14660415 -0.0049630995 -0.49737287 0.13627021
0002f0 41 66 ae 3d ea 46 3f bd 3b 4a a4 3d 29 02 44 3d
       0.08515597 -0.04669849 0.08021971 0.047853623
000300 8d 81 2e 3e 65 f1 92 3e a4 5f 1d 3c 44 61 33 3a
       0.17041607 0.28699794 0.009605322 0.0006842802
000310 8e c4 99 3d 46 54 27 3d db f9 b5 be 69 f9 77 3e
       0.07508193 0.040851854 -0.35542187 0.24216236
000320 ec b8 0c 3d 50 87 cd 3d 27 2d 06 bd 18 00 10 3e
       0.034356043 0.100355744 -0.032757904 0.14062536
000330 2c 22 bd 3d 3f 4f 3f 3e ee c8 06 be 53 86 e3 be
       0.092350334 0.18682574 -0.13162586 -0.4443842
000340 9b 44 eb 3c ab e5 6a 3c d2 ab 08 be 78 47 50 bd
       0.028719237 0.014336984 -0.13346794 -0.050849408
000350 ef 04 30 3e 04 74 c4 be 78 70 e0 be 34 70 c8 3e
       0.17189382 -0.38369763 -0.43835807 0.39148104
000360 72 90 7d bd 32 74 67 bd 23 4e 77 3e cc b7 5f be
       -0.061905332 -0.056507297 0.241509 -0.21847457
000370 ad d6 72 3e 0f 3e de 3d 0c 2d 83 bd aa b7 cf bb
       0.23714705 0.108516805 -0.064050764 -0.006339033
000380 74 79 53 be b6 d4 69 bc 14 32 93 be 52 70 3c be
       -0.206518 -0.014271906 -0.28749144 -0.18402222
000390 77 22 df 3d 29 e0 8d be 38 93 7f bd 56 c7 a8 bd
       0.108952455 -0.27710083 -0.062396258 -0.08241145
0003a0 0c 10 79 be 7f b0 ce bc 77 12 84 bd 2a cc 3c 3e
       -0.24322528 -0.025230644 -0.064488344 0.18437257
0003b0 21 3b 0b 3e 4e 7f 31 be 25 85 c3 3e 84 a3 f1 be
       0.13596775 -0.17333719 0.3818752 -0.47195065
0003c0 68 b0 4a 3e 08 89 83 bb e6 a7 dc 3e 41 50 82 3d
       0.19793856 -0.004014138 0.43096846 0.063629635
0003d0 2d 80 88 3c bf 01 09 bf 88 0c 22 bd 4e ef 87 3e
       0.016662681 -0.5351829 -0.039562732 0.26549762
0003e0 20 47 95 bd 5f 31 c6 3d b5 d9 88 be f9 20 b9 3d
       -0.07288957 0.096773855 -0.26728597 0.09039492
0003f0 00 cd b9 3d 13 d7 b6 3d 6d 6d 33 bf 90 2f 91 bd
       0.09072304 0.08927741 -0.70088845 -0.0708915

layer2.bias f4 [64]
000000 54 0d 3e bd 01 a7 78 bd fc f2 16 bd 35 35 54 bd
       -0.04639943 -0.060706142 -0.03685282 -0.051808555
000010 00 93 8a bd b9 26 eb 3c 2f 2b 29 3d f1 85 71 3d
       -0.06766319 0.028704988 0.04130095 0.058965627
000020 2a 48 56 bc ea b1 9d 3d e6 c7 4d 3c 79 06 52 3d
       -0.013078729 0.0769995 0.0125598665 0.051275704
000030 b6 aa 03 bd e8 ad 08 bd 76 86 9b bd 03 c3 1e bd
       -0.032145225 -0.033368975 -0.07594006 -0.038760196
000040 7d 0b b1 bb 7b 6c 95 bd 3f ad 92 bd bb d1 13 39
       -0.005402981 -0.07296082 -0.0716195 0.00014097143
000050 4d 80 41 bd 3a 15 3f bb b1 8e 91 bd 31 88 a9 bd
       -0.047241498 -0.002915694 -0.07107294 -0.082779296
000060 c4 c5 dd bb 83 e5 ca 3c db 8e c9 bc c3 b4 1c bd
       -0.0067679603 0.024767643 -0.024604252 -0.038258325
000070 57 f3 1a be 32 4a 80 3d e6 9b 33 3d f4 72 c5 bc
       -0.1513189 0.06264152 0.04384985 -0.024102665
000080 9f 64 be 3c 04 22 73 bd c5 73 87 bd 4e 97 22 3d
       0.02324134 -0.05935861 -0.06613878 0.039695077
000090 9a 4c 69 bc 87 68 47 bd 64 c9 20 3d 0c cd f1 bb
       -0.014239455 -0.04868367 0.03925456 -0.00737918
0000a0 5d 6f 8f 3b e8 ee 43 3c 33 ea a7 3c 81 69 ea bc
       0.004377289 0.011958815 0.020497417 -0.028614761
0000b0 76 4b 79 bd 7c bb cb bc 40 5e 5a bc eb bf 5d bc
       -0.06086298 -0.024869673 -0.013328135 -0.013534526
0000c0 73 0e c8 bd 50 f6 a3 bb 3f 06 4c bd de a8 af 3c
       -0.09768381 -0.005003728 -0.049810644 0.021442827
0000d0 13 fa ad bd dc 2d b7 bc 5f e1 75 3d c7 01 60 bd
       -0.084949635 -0.022360735 0.060029384 -0.054689195
0000e0 89 22 c5 3c ed db 96 bc fc b4 5b 3d be a6 8a 3b
       0.02406432 -0.018415416 0.053639397 0.004231303
0000f0 5b 31 ba ba f5 87 b0 3c a2 43 c0 3b b6 8f 2f 3d
       -0.0014205383 0.021549204 0.0058674375 0.042861663

layer3.weight f4 [1, 64]
000000 4f cf 8f be d5 05 6e be d5 af 7e 3e d7 1c 80 be
       -0.2808785 -0.23244412 0.24871762 -0.25022003
000010 15 40 71 3e 4f 1b 37 b6 23 2d 7f b6 54 34 62 3e
       0.23559602 -2.728502e-06 -3.8024234e-06 0.22090274
000020 6f 15 87 be 40 0d 9b be 52 78 81 be 8b 52 6b be
       -0.2638354 -0.30283546 -0.2528711 -0.22980706
000030 62 56 69 be e0 c5 bd 3e 02 d2 98 3e 03 7c 87 3e
       -0.22786859 0.3706503 0.29847723 0.264618
000040 50 28 8a be f3 9b 73 3e 13 77 a5 3e 64 9b 7c 3e
       -0.2698388 0.23789959 0.3231741 0.24668652
000050 ee 68 86 be cb 22 90 be 01 fc 79 3e 89 94 5a be
       -0.2625193 -0.28151545 0.24412538 -0.21345724
000060 af b9 27 be 81 eb 68 3e bf 3e 93 be b9 e1 4a be
       -0.16379426 0.22746088 -0.2875881 -0.19812669
000070 c1 55 5e 3e 0a 57 10 be 9c 96 49 3e 03 25 87 be
       0.217124 -0.14095703 0.19686359 -0.26395425
000080 c2 06 a9 be a4 db b4 be e8 6c 80 be 53 95 9d bd
       -0.33012968 -0.35323822 -0.2508309 -0.07694497
000090 c5 53 6c be 5e 1f ab 3e 43 8f 90 be a0 d0 2e 3e
       -0.2307883 0.3342237 -0.282343 0.17071772
0000a0 de bd 1f bd 98 43 a4 3e aa e8 83 be 0c bd d2 3e
       -0.03899943 0.3208282 -0.25763446 0.41159856
0000b0 a8 8b 89 3e f9 0d 1e b8 7b b6 9e be f3 dd 6f 3e
       0.26864362 -3.768315e-05 -0.30998597 0.2342451
0000c0 8d 69 9f 3e 0a 1b 64 be 63 ff 61 be 46 2b 8b be
       0.31135216 -0.2227594 -0.22070079 -0.27181453
0000d0 58 ca 13 be b4 c5 9c 3e c6 08 f2 bd 17 2e 9a be
       -0.14432657 0.30619586 -0.1181808 -0.3011329
0000e0 f9 ba 89 3e a6 f7 8b be 23 1d 8a be 1b 1b ad 3e
       0.2690046 -0.27337378 -0.26975355 0.33809742
0000f0 f6 4b 86 be a6 72 a2 3e 63 c1 97 be 38 f3 34 ba
       -0.2622983 0.31728095 -0.2963973 -0.00069026975
