test/ens_models/ens_model_4_H.pt (torch, 654470 bytes, 6 tensors)

layer0.weight f4 [20, 10]
00000000: de01 683d a77c d8bd ce71 2f3f 2e55 72bf
00000010: a966 2fbe 1e46 503f b312 653e 008c 98be
00000020: 0fb7 803d d57c 843e cbcc e3bd f1eb 0d3f
00000030: 9af1 313d 8817 653e a425 5dbf 2525 183f
00000040: 0335 cb3e 5d45 78be 172c 423f 94e2 473f
00000050: ab12 803e 0e60 f13e 8636 bc3e f0d4 603e
00000060: d48a adbd cdb7 053e fe11 fd3e 73a1 4d3f
00000070: a819 71bf ef66 20bf 1ffd 6abd 93de bb3e
00000080: ed15 7f3e db19 79be 10fe 5d3c 2471 d5be
00000090: 4d5c 47bf 850c e93e 0bc2 9c3e d64b f83d
000000a0: 16c1 bf3f ca12 26bd b06d 00bd 1288 1ebf
000000b0: 0577 f0be b109 e13d 789a 84be 638a cc3e
000000c0: 222a e23d 45c7 563f 8eea 693f 4124 d43e
000000d0: 177d b7be 35d8 07be 80d3 03be dee2 dcbe
000000e0: 65c0 ef3e 84a8 bd3e e9f2 e13e 2fe4 5fbe
000000f0: b126 d43e 8084 273f ae9e 07be 52c3 0a3f
00000100: 7600 203f 1513 dbbe 82f4 1ebe b16a 063f
00000110: a767 933d 7944 393e 9f63 33bf 9493 12bf
00000120: 1d20 1dbf 9aba a9bf 5bc2 cbbe fa9d bf3d
00000130: 649c 9bbd a97a 7bbd 2a6d 1ebf 63ff 5dbe
00000140: d290 03bf dbf6 963f 2427 d13e 7684 833d
00000150: 8074 1f3f 391b 3c3f 2a91 6dbd 8f6e 873d
00000160: b588 153e 48f8 013f 76e4 8e3e e18e b1bf
00000170: 4347 9bbd 0fdb a3be 3a3e 56bf 5bd9 f63d
00000180: 4f1e 563e 418d 5dbf edf6 11bf 173b 2cbe
00000190: 53dc 1ebe fcd5 c8bd 9f51 ab3e 0537 a43f
000001a0: e856 6bbd 4dc6 9abd 2cde 0b3f 8604 503a
000001b0: a030 0c3f b4c8 2cbf ef6c 8abe 1805 0d3f
000001c0: 49e4 9fbe 651d 0abf 5206 59bd 6727 74be
000001d0: e54e d13e 0a2c a23e b8de 47bf 536d 3f3e
000001e0: ceee 7d3f 8ee7 82bd 6147 603d fefb c2be
000001f0: 0268 8b3f d32e 903f 00f8 963c 72b9 a1bd
00000200: 1961 ce3e 218d 36be 1a8d 2e3f 28d4 3fbf
00000210: 7729 15be a21f cbbe bf0f c2be 26b4 573e
00000220: 9b7b 1fbf ae86 3bbc 4521 1cbf 0038 083f
00000230: f841 ed3d 432f b7be a179 233d 0810 2b3f
00000240: b616 963e 90c2 123e 7e7a 5e3e f393 fa3e
00000250: b3d5 8b3f 78ae afbd 8ea4 d13d 69a8 963e
00000260: 5c2c 65bd 5552 213f a31e 33be 170a c3be
00000270: 96be f73e 228e e23e 0bf2 223f 6159 4b3d
00000280: 6954 70bf 7604 3cbf 24b8 babd 3212 f2be
00000290: 299c 0f3e 4d8e 09bf 361d 3c3f 3f08 103e
000002a0: 9261 843e 3bd8 643f c3da 0fbe 4bfd e2bd
000002b0: deeb b0be 1df0 c93e f423 9a3f b79d f23e
000002c0: 887b 03bf 58ca 85bf 9dcf 9cbe e3be 83be
000002d0: 2b37 e2bd 52dc 063f 47d1 9abe d18c 8c3e
000002e0: b7b1 7cbf 52a7 413f 5e8a cfbe 9f85 013e
000002f0: 31b5 de3e 430a 84bf 6ac9 ea3e b6be e1be
00000300: b8e9 dbbd d2a6 403f 12cf 0f3e 50b0 69bf
00000310: 6df6 b73e e556 35bf 0f7c 733e da9f f8be
0.056642406 -0.105706505 0.6853303 -0.94661224 -0.17129005 0.8135699 0.22370414 -0.29794312
0.06284916 0.2587649 -0.111230455 0.55438143 0.0434433 0.22372258 -0.8638556 0.5943168
0.39688882 -0.2424521 0.75848526 0.78080106 0.25014243 0.47143596 0.36760348 0.21956229
-0.08473745 0.13058396 0.4942779 0.80324477 -0.94179773 -0.62657064 -0.0573703 0.36693248
0.24910708 -0.2432627 0.013549343 -0.41687882 -0.77875215 0.45517364 0.30616793 0.121238396
1.49808 -0.040545262 -0.031354606 -0.61926377 -0.46965805 0.109881766 -0.258991 0.3994933
0.110431924 0.8389781 0.9137353 0.4143391 -0.35837623 -0.1326607 -0.1287365 -0.43141836
0.46826473 0.3704263 0.44130638 -0.21864389 0.4143577 0.65436554 -0.13244125 0.54204285
0.62500703 -0.42787996 -0.1552296 0.5250655 0.071975045 0.18092526 -0.70073885 -0.57256436
-0.61377126 -1.3260071 -0.3979672 0.093563035 -0.075981885 -0.061396275 -0.6188532 -0.21679454
-0.51392853 1.1794084 0.40850174 0.06421749 0.6228714 0.7347904 -0.057999767 0.06612884
0.14602931 0.5076947 0.27908677 -1.3871728 -0.075819515 -0.32003066 -0.836887 0.12053176
0.2091 -0.8654366 -0.57017404 -0.16819416 -0.15513735 -0.09806439 0.3346071 1.2829291
-0.057455927 -0.07557354 0.5463588 0.00079352444 0.54761696 -0.6749375 -0.27036235 0.550859
-0.31228855 -0.539511 -0.052984543 -0.23843156 0.40880504 0.31674224 -0.78074217 0.18694048
0.9919251 -0.06391822 0.054755572 -0.3808288 1.0891116 1.126429 0.018428802 -0.07896699
0.40308455 -0.17827274 0.68184054 -0.749331 -0.14566599 -0.3967257 -0.37902638 0.21064815
-0.6229798 -0.011445684 -0.60988265 0.5321045 0.11584848 -0.35778245 0.039910916 0.66821337
0.29314202 0.14332032 0.21726415 0.48941 1.0924591 -0.08578199 0.102364644 0.29425362
-0.055950508 0.63016254 -0.17492156 -0.38093635 0.48387593 0.44249064 0.6365058 0.049645785
-0.938788 -0.73444307 -0.09117153 -0.47279507 0.14024414 -0.5373276 0.7348207 0.14065646
0.2585569 0.8939244 -0.14048295 -0.11083468 -0.34554952 0.39441004 1.2042222 0.47385952
-0.5136037 -1.0452375 -0.30627146 -0.25731573 -0.11045679 0.5267993 -0.3023779 0.27451184
-0.9870867 0.75645936 -0.40535253 0.12648629 0.43497613 -1.0315632 0.45856792 -0.44090813
-0.10737938 0.7525455 0.14043835 -0.91284657 0.35930195 -0.70835716 0.23777793 -0.48559457

layer1.weight f4 [256, 570]
00000000: 8ddf a9bd f741 a4be 05e1 df3d dbde be3e
00000010: 5c9a e8bd 427d e6bd dd5c 8e3c b01f c5bd
00000020: 109d 43bb 42a1 a4bd b5b4 0b3d 80a4 033d
00000030: 688f 88bd e973 0b3e 18c0 38be 65e7 90be
00000040: 85ea dc3c 07cf 293d ca61 71be c32c aabd
00000050: 2f1c 013b 1a01 3cbb 72de 083c b889 ee3d
00000060: 2f91 ccbb 8f8f 2dbd 0f6c a33c eeb1 613d
00000070: a342 033e 29e8 fb3d c57d c3bd 393b fdbd
00000080: 3768 c23b 338e 413d 17fd 5c3d 3651 5abd
00000090: 2752 403e 2ad4 023e 919e 80be 1efd 0f3e
000000a0: 9064 c4bd 6905 26be 7bdb 7cbe 0865 bb3c
000000b0: 9b2d 043e 04a5 b4be 36ac cebe 08a4 a7be
000000c0: a912 c43d ebe5 0dbf 41b6 9fbc 9419 483d
000000d0: 934c 06be 8f15 283e d293 173e 336e c1bd
000000e0: 96ed 833d 3a76 f7bc 71d0 01be 4afa 93be
000000f0: 01a3 20bd 5d3d 223e 873b 983e 9f7a a33e
00000100: 3891 d7bb 13d3 03bd 1b5b 0d3d fe6b f83d
00000110: 3ca0 8a3d c77b b33e 39d5 ca3c 293d 98be
00000120: be7d 15be cd35 a6be f73b af3d 93c3 07bf
00000130: 4db2 14bf 90c2 f5be a25d 5ebf 0bce ed3b
00000140: ee20 ffbc 3de0 513e f0ca 243e 242f ab3c
00000150: ed56 93bd e015 583e 5b44 a93e 55ef c4be
00000160: 4aee babe b64e b2be 6261 143e 4c40 3fbe
00000170: 6f10 28bf c876 d43e 0d5e c23d 1fbb 85be
00000180: f8b0 a5be b5a6 633e 134f a3bd 6f5a 353e
00000190: 67a7 0cbe 7fdf e63c eb25 ccbd d465 4abe
000001a0: 5fe3 3b3d a1be 47bd a42d ccbd 807d 113d
000001b0: bee0 b53e 4602 83bd dbff 0d3e f6b5 083e
000001c0: b2b5 903e 0f65 0d3d e2ae da3d ddc0 2d3e
000001d0: 4bf0 1e3d ae83 9dbd 0b4c 5abd 4c17 203d
000001e0: b8dd 0fbf f386 91bc 23d6 c9bd 1d10 60bc
000001f0: 598e 5ebe 3057 66bd 300a e8bd 80ab 43bd
00000200: 9bd4 eebb 01da 353c f849 6fbd 3163 523d
00000210: e8c5 733c 781a 2abc c360 833d 5687 70bd
00000220: e3e1 003e 9f12 13bd d768 a13b ddf2 273d
00000230: b7d9 083e 4cd1 1fbe 6f1b 983d 20f6 26be
00000240: 7e10 073e 4da0 a83d 66fb b93d 78bc 0cbe
00000250: 0176 b13e 8245 e63c 6cc3 9a3d b7c6 69bd
00000260: 007e 543d 7259 e5bd 72f6 83bc 2ffa ccbc
00000270: 569a f5bd a11d 4d3d 29e3 aebd e0a5 783b
00000280: d954 0cbc 2707 b0bc 0a73 abbb ddd4 a5bd
00000290: bdf7 d7bd bf91 3fbe cd77 efbd 77a6 fd3d
000002a0: 973b 4ebe a183 ddbe b328 6d3c d629 2f3d
000002b0: ca9d 9d3e de3e 2cbf 6474 44bd 0739 653e
000002c0: ebe9 283d f788 a73e 404a 413e 55a4 053d
000002d0: 03bb 1a3e 593a 773f 717c 853f 126d 213f
000002e0: 4d61 073e f169 313f dbe7 8d3d 6f8d a73d
000002f0: 8f8c cabc c16f 973d 7117 bfbd 5a1f 94bd
00000300: 3f99 5bbe b2a4 4ebd cceb 8a3d cce1 0dbe
00000310: c67e a8bd c492 7dbd 3419 a13c 3284 7ebe
00000320: 9f87 92bd 8334 29be 6331 33bd ac4a e73d
00000330: bf82 853d e55f d53d 1fe1 683d 5778 86be
00000340: 587f 6bbc 216f e1bc e9fa 19bb 7dcf d03c
00000350: 3a36 1b3b ddca edbc da08 e6bc fd04 913c
00000360: 03d6 243d 64ca c33d 0699 043d 72b4 48bc
00000370: 6cd9 c23e f148 6b3d feab c9be 3ecb 6e3e
00000380: 49f0 683f 5bb6 33be f52e f4be 7130 a1bd
00000390: 94e6 143f 9ef8 8cbe 1756 1dbd beda edbd
000003a0: 972c 113f 6384 30be 27bb 8f3e 14b6 5b3e
000003b0: cbf9 1b3f 3418 f2be 4ba1 eabe 78ba d4be
000003c0: c646 eb3b 2246 353c 1bda 43bc 10cc 65bb
000003d0: 3860 3fbe 12f1 8bbe 40c1 7abc 01e1 c0bd
000003e0: 81de 9cbe 4199 1fbe 0ff6 8dbe 9837 6cbe
000003f0: dcde af3b 978b bcbc dccc 083d 0b17 9e3e
-0.08294592 -0.32081577 0.10931591 0.372794 -0.11357567 -0.1125436 0.017378265 -0.096251845
-0.0029848255 -0.0803857 0.034107883 0.0321393 -0.066679776 0.13618435 -0.18042028 -0.2830154
0.026967296 0.041457202 -0.2357246 -0.08309319 0.0019700637 -0.002868718 0.008353816 0.116473615
-0.006242893 -0.042373236 0.019948987 0.055101328 0.12818389 0.123001404 -0.09545473 -0.123648115
0.0059328335 0.047254752 0.053952303 -0.053300105 0.18781339 0.12776247 -0.25120977 0.140614
-0.09589493 -0.16213001 -0.246931 0.022875324 0.12908022 -0.35282147 -0.40365762 -0.32742333
0.09573872 -0.5542895 -0.019496085 0.04885252 -0.13115148 0.16414474 0.14802483 -0.09444847
0.064418 -0.030207742 -0.1267717 -0.28901893 -0.039217953 0.1584372 0.29732916 0.3192949
-0.0065785907 -0.032183718 0.034510713 0.12129973 0.067688435 0.35055372 0.024759876 -0.29734161
-0.14598748 -0.32462922 0.08556359 -0.530328 -0.58084565 -0.48000002 -0.8686162 0.0072572283
-0.031143632 0.20495696 0.1609304 0.020896502 -0.07194314 0.21102095 0.33059964 -0.38463846
-0.36509925 -0.34825677 0.14490274 -0.18676871 -0.65650076 0.41496873 0.09490595 -0.26119325
-0.3236158 0.22231562 -0.079740666 0.17710279 -0.13735734 0.028182743 -0.0996817 -0.19765407
0.045871135 -0.048765782 -0.09969643 0.035520077 0.35523027 -0.06396918 0.13867132 0.13350663
0.28263623 0.034520205 0.106778875 0.16968103 0.03880338 -0.076911315 -0.053295176 0.039084718
-0.5619769 -0.017764544 -0.098552965 -0.013675717 -0.21733989 -0.056235492 -0.11330068 -0.047770977
-0.007288528 0.011099339 -0.05842015 0.051364128 0.0148787275 -0.010382287 0.0641494 -0.058722816
0.12586169 -0.03590643 0.004925828 0.041003097 0.13364302 -0.15607184 0.074271075 -0.16304827
0.13189885 0.082337 0.090811536 -0.1374377 0.34660342 0.028109316 0.07556805 -0.057074275
0.051877975 -0.11198701 -0.016108725 -0.02502164 -0.11992328 0.050077084 -0.08539421 0.0037940666
-0.008565151 -0.021487786 -0.0052322196 -0.08097241 -0.10545299 -0.18707941 -0.11692772 0.12385266
-0.20139919 -0.43264487 0.0144750355 0.042764507 0.30784446 -0.6728343 -0.04796256 0.22385035
0.041238707 0.32721683 0.1887598 0.032627422 0.15110402 0.96573406 1.0428602 0.63057053
0.13220711 0.6930228 0.069289885 0.08181273 -0.024725227 0.07394362 -0.09330643 -0.07232542
-0.21445177 -0.050450034 0.06783256 -0.13855666 -0.08227305 -0.061907545 0.019665338 -0.24855116
-0.07154774 -0.16523938 -0.04374827 0.112935394 0.065190785 0.10418681 0.056855317 -0.26263687
-0.014373623 -0.02751881 -0.0023495501 0.025489563 0.0023683445 -0.029027397 -0.028080393 0.017702574
0.04024316 0.09560087 0.032372497 -0.012250053 0.38056505 0.05744261 -0.39389032 0.23319718
0.90991646 -0.17550032 -0.47692075 -0.078705676 0.58164334 -0.2753343 -0.03841218 -0.116139874
0.56708664 -0.17238002 0.28072473 0.21456176 0.6092803 -0.4728409 -0.45826182 -0.41548514
0.0071800677 0.011064084 -0.011953856 -0.0035064258 -0.18689048 -0.2733236 -0.015304863 -0.09417916
-0.30638507 -0.15585805 -0.2772679 -0.23068082 0.005367143 -0.02301578 0.033398494 0.30876955

layer1.bias f4 [256]
00000000: 0243 113d 3852 613c bb1c f7bc 2dac cdbc
00000010: fa9c 153d 578c b0bd aab9 afbc e469 fabc
00000020: 8643 c43c 978a 113d 043f b53c d442 efbc
00000030: 2ac4 a53c 5932 29bc 3905 193b c613 04bd
00000040: 81d3 a8ba 2000 f23c 8e9c 4c3c 05d1 033d
00000050: be7c 483b b9c0 8c3d 0a9a bcbc 4b80 88bc
00000060: 38cb 95bd fb2f 883b 667e 453d cfbe 11bd
00000070: f2b8 dc3c 647f 2dbd 6104 e5bb fb67 96bb
00000080: 2d4b 523d e136 533d d011 a0bc b1f3 463d
00000090: 7f83 623d f65d a03c 2039 6f3b 673f 803d
000000a0: 3b9b 0ebd 88d8 493d 7f0a 4fbb f095 f93c
000000b0: f8ac b1bb 94a1 d43a 8500 c4bb 4ec1 1cbd
000000c0: 2656 4e3b 8241 143c e4e3 f63c d106 baba
000000d0: 2f75 0e3d abad f53b b603 dc3c 15ca 883b
000000e0: de36 47bc 1b71 f6bc fe9b 063d c7ee 303b
000000f0: 1352 d5bc 09e0 423e 1e8d 153d 09ac 4b3d
00000100: 2e28 1e3c 06f3 183c 803f fb3c f8ed c93d
00000110: 3e8b 4f3c ac49 ebbc 3b06 5bbd 70e3 31bd
00000120: e3e7 bb3a ab58 13bd f4bc b2bc edbb 5d3d
00000130: 6cb6 523d 1aca 42bd ea62 133c a67a ecbc
00000140: cb9d bbbc 06af bebc f8da 453d 15b8 543d
00000150: 8c09 ae3c b4d1 6d3c 8e01 843d f3ad 873c
00000160: 528a 6bbc e531 a93b 8a7b 37bd 3757 113d
00000170: 9b97 8fbc fb5c ab3c 11ef b13c 9a44 04bc
00000180: 8dc1 df3b 8d66 e93c a339 ac3c b142 46bd
00000190: cbe0 e9bc 80b9 753c 2960 09bd 21d5 debb
000001a0: b620 c43c 8f32 0ebc 13a5 56bc 1e64 96bc
000001b0: 5049 793c f2f4 5cbc 23a4 243d 72b5 5d3d
000001c0: 3a1a e43c 0b18 02bc 0698 e4ba 82e1 1b3d
000001d0: 95ae 44bd 5ba9 9739 c774 bab9 c420 d3bc
000001e0: fa74 81bc ecf4 043c 39f0 653c 0a51 023c
000001f0: 4293 003d 17e6 bcbc 2246 7ebb 6961 27bc
00000200: 97fd a43c 6a2b a8bc 2720 f8bc bad6 78bc
00000210: 1a40 49bd 728b 933c 82bb 09bc e95c 85bd
00000220: b950 843c 15bd b7bc c396 dfbc 4385 afbc
00000230: d3cb 083d 0013 77bc 4d24 e9bb b9f0 e23c
00000240: adc3 00bd f99b 8ebc 30d7 44bc 59ec 8abc
00000250: 3e40 c93c 7fdc dcbc f327 863d 627b 21bd
00000260: f6cc 0e3d d256 9c3c 3d2e 023d 1503 ae3c
00000270: 4f15 fe3c a316 18bd 2f34 90bc 77d2 a63a
00000280: 5a1b 17bd 71fc 42bd 91d5 913c 1cd6 16bc
00000290: 9816 f23c 79b3 1d3d 2c07 b83d 9b9b 36bc
000002a0: 1995 f7bb 1a4c 59bd 6239 3cbd b95b f0bc
000002b0: 594e b23c 417c ccbc 7ea1 f9bc af68 453d
000002c0: f439 543c ba69 ad3c 5680 e1bd 45ae 07bc
000002d0: 0330 f4bb eda5 8a3c 3317 e3b8 c0cc 1dbd
000002e0: c9fa 223c 8460 9dbb 67ab 033d b2ee 0e3d
000002f0: c060 613d f741 3abd 5137 843b 66ef c6bc
00000300: 5d5d 58bc bdad 61ba 1331 d93c a648 9e3c
00000310: 0b89 5bbc e8f7 193c bca8 c7bb 294b 5cbb
00000320: a0a8 c4bc d01a 313d 0c13 48bb 01b4 393d
00000330: a7cd 883c 1116 89bd 0690 86bd 9b8b 6fbc
00000340: 1225 98bc b7d4 d13c ffa4 0d3d d7b5 a03c
00000350: d386 8a3d eb0f 903d d55a 3e3d 132e 483c
00000360: f217 cf3b 2b8b a5bc 136e 95bc 275f 4d3d
00000370: 8526 abbc a21a 903c 354c 3e3c 8cff d8bc
00000380: 9785 30bc a849 c3bc e1e7 9b3c 4e39 0abe
00000390: 173c b4bc 627b 803d 5153 dd3c 7957 c03c
000003a0: f59c 06bd d551 a43c fba8 e43c c06f 10bb
000003b0: 6549 3ebc 2ec3 f3bc 0d76 073a 7a90 13bc
000003c0: 7145 60bc 2367 5ebc 3bcd 4e3b a046 893b
000003d0: 625b 5c3d 318b dd39 0466 b93c c616 9d3c
000003e0: 2fba 1abd 5fe9 17bd 308f 9f3c c743 60bc
000003f0: fe16 763c d1b2 40bd a803 0ebc dbc9 26bc
0.035464294 0.013752513 -0.030165067 -0.025106514 0.036526658 -0.08620518 -0.021450836 -0.03056807
0.023957979 0.03553256 0.022124775 -0.02920667 0.02023514 -0.010326945 0.002334906 -0.03224542
-0.0012880416 0.029541075 0.012488497 0.03218176 0.003059193 0.068726964 -0.02302267 -0.016662737
-0.073141515 0.0041561103 0.048216246 -0.03558236 0.026943658 -0.042357817 -0.0069890474 -0.004590032
0.051341224 0.05156601 -0.019539744 0.048572246 0.055301186 0.019576054 0.0036502555 0.06262093
-0.034816008 0.049278766 -0.003159195 0.030467004 -0.005422231 0.001622247 -0.0059815072 -0.038270287
0.0031484454 0.009048821 0.030137964 -0.0014192705 0.034779724 0.0074975095 0.026857238 0.0041744807
-0.012159077 -0.03008323 0.03286361 0.002699779 -0.026040113 0.19030775 0.036511533 0.049724612
0.009653134 0.009335285 0.030669928 0.09859842 0.012667475 -0.028721653 -0.05347274 -0.043429792
0.0014336075 -0.035973232 -0.021818615 0.054134298 0.051443502 -0.04755602 0.008995751 -0.028867077
-0.02290239 -0.023276817 0.048304528 0.051933367 0.021244787 0.014515329 0.06445609 0.016562438
-0.01437624 0.0051634186 -0.04479555 0.035483565 -0.017528346 0.02091836 0.021720441 -0.0080729965
0.006828493 0.028491283 0.021023577 -0.048403446 -0.028549572 0.01499784 -0.03353897 -0.0068003093
0.023941379 -0.008679046 -0.01310088 -0.018358286 0.015215233 -0.013486134 0.040195595 0.054128118
0.027844537 -0.007940303 -0.0017440326 0.038056858 -0.048018057 0.00028927144 -0.0003556369 -0.02577246
-0.01580285 0.008115035 0.014034324 0.0079538915 0.031390436 -0.023058934 -0.0038799127 -0.0102160955
0.020140452 -0.020528514 -0.030288769 -0.015187914 -0.049133398 0.018010829 -0.008406522 -0.06511862
0.016151773 -0.022429029 -0.027293568 -0.021425849 0.033397507 -0.015080214 -0.007114923 0.027702676
-0.03143661 -0.017408358 -0.012014195 -0.016958402 0.024566766 -0.02696061 0.065505885 -0.039424308
0.034863435 0.019084368 0.031782378 0.021241704 0.03101602 -0.037130963 -0.017603008 0.0012727518
-0.03689132 -0.047604028 0.017802032 -0.009206321 0.02955179 0.038501237 0.08985743 -0.011145498
-0.0075556156 -0.05305109 -0.045953162 -0.029340612 0.021765875 -0.024961593 -0.030472513 0.048195537
0.01295327 0.021168578 -0.11010806 -0.008281295 -0.0074520125 0.016924823 -0.00010828525 -0.038525343
0.009947487 -0.0048027653 0.032145884 0.034895606 0.05502391 -0.045473065 0.0040349145 -0.024284076
-0.013205853 -0.0008608958 0.026512658 0.01932175 -0.013399373 0.009397484 -0.0060931128 -0.0033614135
-0.024006188 0.04323846 -0.003052893 0.04533768 0.016699625 -0.06693662 -0.06570439 -0.014620687
-0.018572364 0.025614126 0.03458118 0.019617958 0.06763997 0.07034286 0.046473343 0.012218016
0.006319993 -0.020207962 -0.018240964 0.050139572 -0.020892391 0.017590825 0.011614849 -0.026489042
-0.010774038 -0.023838833 0.019031467 -0.13498423 -0.02200131 0.062735334 0.027017267 0.02347921
-0.03286453 0.020058552 0.027912607 -0.0022039264 -0.011614178 -0.029756155 0.0005167432 -0.009006614
-0.013688431 -0.013574394 0.0031555432 0.0041893274 0.053798087 0.0004225611 0.022631653 0.019175898
-0.037775215 -0.037087794 0.019477457 -0.013688034 0.01502013 -0.047045533 -0.008667864 -0.010179962

layer2.weight f4 [64, 256]
00000000: 9e0d c5be 4f5d 15be 0982 f2bd 1afe 323d
00000010: 4d44 0f3e 3297 fdbd d04c 423d 0da4 ae3b
00000020: 51e8 4cbe 45df 6e3e c8a0 ecbe c3dd 6d3d
00000030: 0240 193e b3a4 11be 0ff0 29be dffc 1bbb
00000040: 1937 8dbd 429b 1b3e 6c6a 31bc 3a20 473e
00000050: ecb0 0cbd 2e89 a3bd f49a 813d ccf0 f1be
00000060: 60ac f83e be3d bb3d 7446 a8be 99cf f33c
00000070: 0c44 a43e fe33 2d3e 7147 943c 6513 aa3e
00000080: 760d 77be d7b3 40be 35f9 d6bd 300e d7be
00000090: 5dd1 eebd d7fc 643e d8bb b63d 7221 d0bd
000000a0: 79c4 c2bd 1f5c 18be 9d25 46bd f8c1 323e
000000b0: ed13 4dbe 1382 6f3e 2e7a 06bf b2b8 4f3d
000000c0: 5e94 773e 6c84 04be 60a9 4fbd 07af 2ebe
000000d0: 32c9 76be 2d18 033e becc 46be 8c8e 2a3e
000000e0: 7e65 ca3d 5b44 5b3d 25b2 5b3d 48da 2bbe
000000f0: 1a31 b3bd 6d26 f93d d943 86be b322 7dbe
00000100: eebf 323e 989f 973d 4106 8a3d 1ef9 373e
00000110: 4f28 0b3d 7206 8d3d 5597 ca3c 285c 2bbd
00000120: 7728 033d 5d39 bbbd 5e64 d2bd 1fa3 db3c
00000130: 0d4b 133e b2b1 a8bd 3fbb 94bc c793 de3e
00000140: 537e 03be 8767 0b3c e6d9 fc3d bf03 7d3e
00000150: 7c99 1e3e 24a4 2d3e d9ce 0cbe 3501 593d
00000160: 68d4 f6bd 736b 14bd d92a 52bc f2f4 b4bd
00000170: d9b0 87bd e7b2 d23d 8d3e 1f3d bcf2 253d
00000180: 5c12 e8bc 1437 c83d de5e 053d 648c ebbe
00000190: 1f44 1d3c 005b 883e 026d 7ebd 5853 b1bd
000001a0: 699c 3ebc efb7 a23a 440b 0c3d 81fd 093e
000001b0: 22c2 2a3d fbe9 34bf 2ff6 d4bd 7b60 a2bd
000001c0: a533 3cba 148f 9dbe 2caa 11bd 9b7f b7bd
000001d0: 1ed3 463e 22a2 13bd 05b4 3d3c 0994 a53e
000001e0: c515 d03e b089 f7be b3b6 063c 39d2 86bc
000001f0: 1247 b4be 5aac 773d 8d6a 453d 14c5 fe3d
00000200: d267 883e ad6f 16be 3d9c 4a3e 3476 e0be
00000210: 9c4b 393e d1c7 c43e 1ab4 b73d 3838 ecbd
00000220: 7d2a ccbc 2a76 e4bd 65fe 733e 4387 d6be
00000230: 3616 763e d148 c8bd c1e4 643e 132a 423e
00000240: 8f88 a63e 3ebb 0bbe 83fd dc3d 344e 19be
00000250: f78b d93d 9aeb aebb 6379 9cbe 688b 753e
00000260: bd01 553b 57e2 1fbe e2f7 8cbe f34e ef3d
00000270: a549 83bc e739 d43e bd14 0ebe d310 843e
00000280: 1047 af3d efd0 b93d 2820 f3bc 19c3 0ebd
00000290: 18bb 2abe 2c67 8cbb 5b3f 2abd 0ddc ff3d
000002a0: 0d97 7abe 9e39 783c de4b 7b3a 31ca a2bd
000002b0: 9784 043d 92c5 37be 0796 d2bd d49c 85bd
000002c0: f059 2e3e 3da2 9b3c 129f 32be d13a 2d3e
000002d0: cf16 16bc 84bf 473d ee66 05bd 7451 8abd
000002e0: e1f3 1c3d 72df 873e 220d 60bd a091 a13e
000002f0: 43c2 263e 7a65 07bd d559 463e 45d0 2e3e
00000300: f1ac 513e 4542 14bd b6e7 b9bd d732 b3bc
00000310: a06c fdbc 7b19 59be 5dad 143e 1068 f9be
00000320: 53a5 3d3d c872 283f f102 3dbe 5310 08be
00000330: c80e 00bd d8fa 923d e28b d6bd e5fc 713d
00000340: 0f07 0f3e 0e88 103e fef8 8ebe 0157 183e
00000350: 1aee 043d 78f7 033f 4fc9 043f 212f 3c3e
00000360: 75b0 23be 23a9 1a3f b35d 863e 928f 2ebe
00000370: 3058 023f fba7 a2be f3d7 7b3d 84de 8bbd
00000380: 96e5 b5bd 418e f7bb 4d2d 0dbf 6598 4ebe
00000390: 0684 31be 18a3 61bd d7c1 0ebe 97e7 74bd
000003a0: a7f4 60bc 42ed 0e3e ba75 c03d 44f9 5e3d
000003b0: 6b52 2c3e 1b62 1e3d d9e3 ccbc e30c dcbd
000003c0: d967 9a3d 2570 ab3e 37ad 8d3e 1036 fdbe
000003d0: 014d 1b3e 1fd5 dcbe 7de1 063e b6b6 9d3e
000003e0: 6515 84bd a14c a7be dcfa 693e 770a 713e
000003f0: 6aad 073e 4cf6 e33c c92c 82bd 5ece 00bd
-0.38486952 -0.14586376 -0.118412085 0.04369936 0.13990898 -0.12382354 0.047436535 0.005329615
-0.20010497 0.23327358 -0.46216416 0.058072817 0.14965823 -0.14222984 -0.16595481 -0.0023801846
-0.06895275 0.15195945 -0.010828596 0.19445887 -0.034348413 -0.07985149 0.06328383 -0.47254026
0.48569012 0.09142636 -0.3286625 0.029762076 0.32083166 0.16914365 0.018100472 0.33217922
-0.24126229 -0.18818603 -0.10496751 -0.42003012 -0.116610266 0.22362076 0.08922547 -0.10162629
-0.095101304 -0.14878891 -0.048375715 0.17456806 -0.20027132 0.23389463 -0.5253018 0.05071325
0.24177691 -0.1294114 -0.050698638 -0.17058955 -0.24100187 0.12802191 -0.1941404 0.1665594
0.09882639 0.053531986 0.05363669 -0.16782486 -0.087496 0.12165532 -0.2622364 -0.24720268
0.17456028 0.07403487 0.06739474 0.17966124 0.03397399 0.06885995 0.024730364 -0.041835934
0.032021012 -0.091418006 -0.1027305 0.02681118 0.14384098 -0.08237018 -0.018155692 0.4347212
-0.12841158 0.00850857 0.12346248 0.2470846 0.15488237 0.16957146 -0.13750781 0.052979667
-0.12052232 -0.036235284 -0.0128275985 -0.08835782 -0.06625528 0.10288029 0.038878012 0.040514693
-0.028329067 0.0977613 0.032561176 -0.46005547 0.009598761 0.26631927 -0.062115677 -0.08658475
-0.011633971 0.0012414436 0.03419043 0.1347561 0.041689046 -0.70669526 -0.10398518 -0.079285584
-0.00071793265 -0.30773222 -0.03556268 -0.08959886 0.19416472 -0.036043294 0.0115785645 0.32339504
0.4064161 -0.48347235 0.00822227 -0.016457664 -0.35210472 0.0604671 0.048197318 0.124399334
0.2664171 -0.14691038 0.19786163 -0.43840182 0.18095249 0.38433698 0.089698985 -0.115341604
-0.024922604 -0.111553505 0.23827513 -0.41900072 0.2403191 -0.097795136 0.22352888 0.18961363
0.3252606 -0.13645646 0.10790541 -0.14971238 0.10622399 -0.0053381445 -0.3056136 0.2397896
0.0032502257 -0.15613686 -0.2753287 0.1168498 -0.016026327 0.41450426 -0.13875099 0.25794086
0.08558476 0.09073054 -0.02967842 -0.03485403 -0.16672933 -0.00428476 -0.041564327 0.12493143
-0.24471684 0.015150456 0.0009586195 -0.07948721 0.03235301 -0.17946461 -0.10282522 -0.06524053
0.17026496 0.01899826 -0.17443493 0.16916968 -0.009160711 0.048766628 -0.032568865 -0.06753817
0.03831852 0.26537663 -0.054700024 0.31556416 0.16285042 -0.03305576 0.19370206 0.17071636
0.20476128 -0.036196012 -0.090773985 -0.021874828 -0.030935585 -0.21201126 0.14519258 -0.48712206
0.046300244 0.6580014 -0.18458153 -0.13287477 -0.031264096 0.07176751 -0.10475899 0.05907907
0.13967536 0.141144 -0.2792434 0.1487694 0.032453634 0.5154948 0.5186967 0.18377353
-0.15985282 0.6041433 0.26243362 -0.17046955 0.50915813 -0.31768784 0.061485242 -0.06829551
-0.08881681 -0.0075548 -0.5514725 -0.20175321 -0.17335519 -0.05508718 -0.13941132 -0.059791174
-0.013730205 0.13957694 0.093974546 0.054436937 0.16828315 0.03866778 -0.02501099 -0.107446454
0.075393386 0.33483997 0.27671215 -0.4945531 0.15166093 -0.43131348 0.13171954 0.3080346
-0.06449393 -0.3267565 0.22849602 0.23539148 0.13249746 0.027827404 -0.06356198 -0.031446807

layer2.bias f4 [64]
00000000: efd2 77bd 3073 893d 2303 5bbd 35ce 613c
00000010: ad73 8abb 1be8 b3bd 9c3e 353d 7a32 59bd
00000020: 7f2c a53b c88b 0d3d 5499 ffbb 0b03 3e3d
00000030: 3814 a63c 42cd 72bd 9160 efbc 6719 5ebd
00000040: 7816 a5bc 4f16 8c3b 0744 27bd 42fc 0d3d
00000050: e739 44bd e875 a3bd 5929 9f3c 7376 30bd
00000060: 470a 42bd 1071 e6b9 bd55 e63c d9f8 fa3c
00000070: a732 5e3d 595f 4ebd 0164 3f3c 792a c83b
00000080: 4c72 e23c ed1d a4bd 9e89 55bd fded a4ba
00000090: 0658 373d 9ce5 0e3d 9e40 243c 0e5d 913b
000000a0: 65c2 05bd 4f4b bebc 61c0 703c 6bf5 89bd
000000b0: c0cc 733d ed31 22bd 1251 e03c ffbf 18bd
000000c0: 3380 65bd 46e3 1cbc 33ee d33c a312 17bd
000000d0: 434a 5abd f5b9 7e3c 98f5 f4bd 6925 25bd
000000e0: 6d4a 4fbc 92df 82bd 70b8 4cba 3e4b 26bd
000000f0: cbdb dcbb 87b4 473d a02d e7bc 20ba ef3c
-0.060503896 0.067114234 -0.05346979 0.013782074 -0.0042252154 -0.08784505 0.044249162 -0.053026654
0.0050407047 0.034557134 -0.0078002606 0.04638962 0.020273313 -0.05927778 -0.029220851 -0.054223444
-0.020152315 0.0042751203 -0.04083636 0.0346644 -0.047906782 -0.07981473 0.019428896 -0.043081712
-0.047373082 -0.00043953257 0.028117055 0.030636238 0.054247525 -0.0503839 0.011681558 0.0061085788
0.027642392 -0.080135204 -0.052133195 -0.0012583133 0.04476168 0.03488694 0.010025172 0.004436142
-0.032656092 -0.02322927 0.014694304 -0.06736263 0.059521437 -0.039598394 0.027382407 -0.037292477
-0.056030463 -0.009575671 0.025870418 -0.036883008 -0.053293478 0.015547265 -0.11960906 -0.04031888
-0.012652022 -0.06390299 -0.0007809466 -0.0405991 -0.0067400686 0.04875615 -0.028219998 0.029263556

layer3.weight f4 [1, 64]
00000000: f771 8ebe 6790 46be 1b6a 903e 373b 5fbe
00000010: 6e13 68be a702 acbe efb4 5fbe d2ed 803e
00000020: 697e 8cbe 18bd 483e d689 7fbe 7806 903e
00000030: 4a9f 863e 4d93 6fbe 1d85 ae3e 312c ff3d
00000040: d156 11be 28fd 82be 8475 7ebe 8de5 05be
00000050: f357 ddbe 3203 8cbe 17aa 6abe bea7 743e
00000060: 9758 6d3e 5fd7 0b3e bdac 643e 1c1e 11be
00000070: 668b 82be 1d68 64be 843e 99be b375 88be
00000080: 0b05 383e 86a2 763e a1d9 833e 650d 6e3e
00000090: c118 a83e e0e3 24be fc46 113e 2fd4 4c3e
000000a0: 0fa6 a1be e01e 15be a1ce ccbe 5f15 3d3e
000000b0: 1894 81be 712f 21be c639 713e 8106 733e
000000c0: efb1 7a3e f233 3cbe 8900 4fbe cbb7 afbd
000000d0: 6aac 63be 317a 3dbe 304c a4be 382f aebe
000000e0: ad5c 86be dd01 1b3e 4db8 5f3e 3cb7 b63e
000000f0: f928 823e d043 4ebe f4c5 513e 6b94 623e
-0.27821323 -0.19391023 0.28205952 -0.21799932 -0.22663662 -0.33595774 -0.21846364 0.25181442
-0.27440193 0.19603384 -0.24954924 0.28129935 0.26293403 -0.23396035 0.34085932 0.12459601
-0.14193274 -0.25583768 -0.24849516 -0.13075848 -0.43231162 -0.27346188 -0.22916447 0.23892114
0.23178326 0.13656376 0.2233152 -0.14171642 -0.25496978 -0.22305341 -0.29930508 -0.26652297
0.17970674 0.24085435 0.25751975 0.23247297 0.32831386 -0.16102552 0.14187235 0.20002817
-0.31572005 -0.14562559 -0.40001395 0.18465184 -0.253083 -0.15740754 0.23557195 0.2373295
0.24481939 -0.1837919 -0.20215048 -0.085799776 -0.2223374 -0.18503644 -0.32089376 -0.340204
-0.2624258 0.1513743 0.21847649 0.35686672 0.25421885 -0.20143056 0.2048567 0.2212693
