test/ens_models/ens_model_1_C.pt (torch, 654470 bytes, 6 tensors)

layer0.weight f4 [20, 10]
0	0x3e0207df	0.12698315
1	0xbe303ca3	-0.17210631
2	0xbf629735	-0.88511974
3	0x3ea944e5	0.33060375
4	0x3f19ac26	0.600283
5	0x3eba2225	0.36354175
6	0x3c8e564c	0.017375134
7	0x3f010713	0.5040142
8	0xbf8e420d	-1.1113907
9	0x3ea35184	0.3189813
10	0xbf191239	-0.5979343
11	0xbe21edca	-0.15813366
12	0x3ed9c48e	0.42532772
13	0xbdb2110f	-0.0869466
14	0x3e470e2d	0.19439001
15	0xbea162cb	-0.31520686
16	0xbc7218ce	-0.014776422
17	0x3cd93fba	0.026519645
18	0xbf6dd41a	-0.92901766
19	0xbf313a40	-0.6922951
20	0xbed7fee2	-0.42186648
21	0xbe08ea54	-0.13370639
22	0x3e16b9c7	0.14719306
23	0x3f9f4a30	1.2444515
24	0x3f53efc6	0.8278774
25	0xbf2ebc12	-0.6825572
26	0xbd851ec7	-0.06500011
27	0x3e0f4e98	0.13994825
28	0x3e048eae	0.12945053
29	0xbef14b5a	-0.471278
30	0xbf00887e	-0.5020827
31	0x3d3ada73	0.045618486
32	0x3f130d3c	0.5744207
33	0xbe514c9d	-0.20439382
34	0x3f0d7b23	0.55266017
35	0xbe8ac394	-0.2710234
36	0x3e6ee858	0.2333082
37	0x3ea42e77	0.320667
38	0x3f71f829	0.9451929
39	0xbf19bf86	-0.60057867
40	0x3e627a39	0.22116937
41	0x3f8c2997	1.0950192
42	0xbe8a3a03	-0.26997384
43	0x3ebbcca3	0.36679563
44	0x3ec7d814	0.39032042
45	0x3dc16eae	0.094449386
46	0xbd9ceffb	-0.0766296
47	0x3ed8a9a3	0.42316923
48	0x3f23668b	0.63828343
49	0xbf258ef2	-0.6467124
50	0xbd7f4f9f	-0.062331792
51	0xbf85fb3d	-1.0467297
52	0x3f0bced4	0.5461247
53	0xb939da23	-0.00017724237
54	0x3eec6d69	0.46177223
55	0x3f271c4d	0.6527756
56	0x3dbfc4fc	0.09363744
57	0x3e29a73d	0.16567703
58	0x3c1c9f53	0.00955947
59	0xbdb8ccfe	-0.09023474
60	0xbea65bb0	-0.32491827
61	0x3d7ecbc3	0.06220604
62	0xbf39fa64	-0.7264769
63	0xbed249ea	-0.41072017
64	0x3e1e5534	0.1546219
65	0x3ec5d37f	0.3863792
66	0xbe5ee722	-0.21767858
67	0xbeca5897	-0.39520714
68	0xbf0924c6	-0.53571737
69	0xbe65e375	-0.22450049
70	0xbeb44c5a	-0.35214502
71	0xbf1dffd3	-0.6171848
72	0x3d8c0c3b	0.0683827
73	0xbd4e3d8e	-0.050351672
74	0xbefd9fed	-0.49536076
75	0xbf0b8b09	-0.54509026
76	0x3ead4a9f	0.33845994
77	0x3e26a87a	0.16275206
78	0xbdeb3b0d	-0.114858724
79	0x3f3e63d4	0.74371076
80	0x3ec14555	0.3774821
81	0x3f101075	0.5627511
82	0x3f07f221	0.53103834
83	0xbef12805	-0.47100845
84	0xbf0e5255	-0.5559438
85	0xbef01831	-0.46893457
86	0x3edcb511	0.43106893
87	0x3e31a477	0.17347895
88	0xbe21f3ac	-0.1581561
89	0xbe8fd87b	-0.2809485
90	0xbe10afeb	-0.14129607
91	0x3e773ad3	0.24143533
92	0xbe38cb71	-0.18046357
93	0x3f72fd36	0.9491762
94	0xbe845a40	-0.25850105
95	0xbec111c5	-0.3770887
96	0x3d8d5596	0.0690109
97	0xbf460445	-0.77350265
98	0xbf56c1a3	-0.83889216
99	0x3f12724d	0.5720566
100	0x3ea300ac	0.3183645
101	0x3f4c3b32	0.79777825
102	0xbef47236	-0.47743386
103	0xbe5e111c	-0.21686214
104	0xbedc88a6	-0.43073004
105	0xbdb7c23c	-0.08972594
106	0x3d8ec3b9	0.06970925
107	0x3f3fff3d	0.7499884
108	0xbf02cf1e	-0.51097286
109	0xbe44f9e9	-0.19235958
110	0x3d9470f6	0.07248108
111	0xbf893e42	-1.0722125
112	0xbdbbd96d	-0.0917233
113	0x3e897210	0.26844835
114	0x3f02370f	0.5086526
115	0x3e7a10c4	0.24420458
116	0xbd8e1893	-0.06938281
117	0x3df05ff3	0.11737051
118	0x3f92c7f5	1.1467272
119	0xbe6be38e	-0.23036024
120	0x3d3b901c	0.04579173
121	0xbedc35e4	-0.43009865
122	0x3f01cad7	0.50700134
123	0x3f4cd695	0.80014926
124	0xbf0add58	-0.54243994
125	0xbf30a3ac	-0.68999743
126	0xbf5abd80	-0.85445404
127	0x3f1fa9d2	0.623685
128	0xbe5f091f	-0.21780823
129	0xbf0ad4c0	-0.5423088
130	0x3e65cbf2	0.2244108
131	0x3f247d7e	0.64253986
132	0xbf5d7846	-0.8651165
133	0xbf281013	-0.6564953
134	0xbd49c3f3	-0.049259137
135	0xbf31bc51	-0.69427973
136	0xbf61acb3	-0.88154143
137	0xbe83c769	-0.25738075
138	0x3f3d710f	0.7400064
139	0xbea95908	-0.33075738
140	0xbe9330e0	-0.28748226
141	0x3e1407aa	0.14456049
142	0x3d901e18	0.0703699
143	0x3ea4023c	0.32032955
144	0xbe435cc5	-0.19078358
145	0x3b37468f	0.002796564
146	0xbef0624b	-0.46949992
147	0xbe128311	-0.1430781
148	0xbf5bec02	-0.85906994
149	0x3f8365cb	1.026544
150	0xbea6e442	-0.32596022
151	0xbf0232a0	-0.508585
152	0xbed23484	-0.4105569
153	0x3ed31206	0.41224688
154	0x3e0c5ef4	0.13708097
155	0x3ea60e93	0.32432994
156	0x3d89998e	0.06718741
157	0xbec21839	-0.37909105
158	0x3e653528	0.22383559
159	0xbf8bcdb2	-1.0922148
160	0x3f0492ba	0.51786387
161	0x3ecaaabf	0.39583394
162	0x3e42af6f	0.19012235
163	0xbf027e87	-0.50974315
164	0x3da5ea18	0.081012905
165	0x3df20ba4	0.118186265
166	0x3fb0aee2	1.380337
167	0xbed68e05	-0.41905227
168	0xbe4e4784	-0.20144469
169	0x3f4195c2	0.7561914
170	0x3f0e8abc	0.5568044
171	0x3f362191	0.7114497
172	0x3eec6234	0.46168673
173	0x3f1a9d65	0.60396415
174	0x3f212932	0.62953484
175	0x3f3cb522	0.73713887
176	0x3f8cec37	1.1009587
177	0x3ea95c5a	0.3307827
178	0x3e00cf4d	0.12579079
179	0x3f12c9e0	0.57339287
180	0x3d96aafe	0.07356833
181	0x3f72f61f	0.949068
182	0xbf1d4cbf	-0.6144523
183	0x3f1a574c	0.60289454
184	0xbf139f54	-0.5766499
185	0x3f1956b5	0.5989793
186	0xbefd4487	-0.49466345
187	0x3f060566	0.5235199
188	0x3f84a45f	1.0362662
189	0x3e86674f	0.26250693
190	0x3f301511	0.68782145
191	0xbec2cda6	-0.38047522
192	0x3f1a4f98	0.602777
193	0xbef35b93	-0.47530803
194	0xbebbf285	-0.36708465
195	0xbcf7401f	-0.030181943
196	0xbe9f87dd	-0.31158343
197	0xbe323a4f	-0.17405055
198	0x3f4700be	0.7773551
199	0x3f6c3da7	0.92281574

layer1.weight f4 [256, 570]
0	0xbcab2090	-0.02088955
1	0xbf0b6d5a	-0.5446373
2	0x3f35e58b	0.7105338
3	0x3dfbc026	0.12292509
4	0xbd3eaf9b	-0.04655419
5	0xbd549ff7	-0.051910367
6	0x3e1135d1	0.14180686
7	0xbd3a9549	-0.045552526
8	0xbdaf5a84	-0.08562186
9	0x3df7ad8b	0.120936476
10	0xbd2accdb	-0.04169927
11	0xbe1f04dc	-0.15529197
12	0x3c736335	0.014855196
13	0x3b26bc61	0.0025441872
14	0x3df8ee80	0.12154865
15	0x3e510afa	0.20414343
16	0x3cde5f91	0.027145179
17	0x3cbe3a1f	0.023221074
18	0xbca18a48	-0.019719258
19	0xbd6a3fa8	-0.057189614
20	0xbd4a358d	-0.049367476
21	0x3dc5d8df	0.096605055
22	0xbbe78e58	-0.0070665292
23	0x3d8e721f	0.069553606
24	0xbd1efdda	-0.03881631
25	0xbdb0dc16	-0.08635728
26	0xbe05b0ee	-0.13055775
27	0xbb23ddb5	-0.0025003974
28	0x3d9523dc	0.0728223
29	0x3ee7984d	0.45233384
30	0x3ed3d8ab	0.41376242
31	0x3e04c7b9	0.12966813
32	0xbdaafaed	-0.083486415
33	0xbd948ad1	-0.0725304
34	0xbabeed1b	-0.0014566513
35	0x3daf8c49	0.08571679
36	0xbda5b6a6	-0.08091478
37	0x3b2396fd	0.0024961822
38	0x3c2486de	0.0100419205
39	0xbd335418	-0.04378137
40	0x3d46462d	0.04840677
41	0xbe93e72d	-0.2888731
42	0x3ee95ca6	0.45578498
43	0x3e071c8a	0.1319448
44	0x3f004c4f	0.5011644
45	0x3e7958f0	0.24350333
46	0x3ec74dcf	0.3892655
47	0x3cb33366	0.021875095
48	0x3d4f9d84	0.050687328
49	0xbd619e92	-0.055082865
50	0xbd155337	-0.036456313
51	0x3d5d1651	0.05397636
52	0xbce6521e	-0.028115328
53	0x3e1e05c4	0.15431887
54	0x3f72b015	0.9479993
55	0xbe8dee0b	-0.27720675
56	0x3eb05411	0.34439138
57	0x3d6f8819	0.058479402
58	0xbd987d35	-0.07445756
59	0x3e300f6c	0.17193383
60	0x3e481186	0.19537935
61	0x3de61fbc	0.112365216
62	0xbf2e06e9	-0.67979294
63	0x3ef2b850	0.47406244
64	0x3c881191	0.016609939
65	0xbc3640ef	-0.01112388
66	0xbcef28f1	-0.029194327
67	0xbcd940ac	-0.026520096
68	0xbc5c5c2d	-0.013449711
69	0xbcfe198c	-0.031018041
70	0x3d4f1655	0.050558407
71	0x3f083d9d	0.53219014
72	0x3ed5afad	0.41735592
73	0x3e1dcf1e	0.1541104
74	0x3f84884f	1.0354098
75	0x3fa3c278	1.2793722
76	0x3e858be0	0.2608328
77	0xbf654a9c	-0.8956697
78	0xbfc776d9	-1.5583144
79	0xbf277c2f	-0.65423864
80	0xbcdc870d	-0.026919866
81	0xbb15f5a2	-0.0022882004
82	0xbc9290aa	-0.017891247
83	0xbc0a40d2	-0.008438306
84	0x3e9e83f7	0.30960056
85	0x3f211e06	0.6293644
86	0x3ea431ea	0.3206933
87	0x3e0447b6	0.1291798
88	0x3e74ac97	0.23893963
89	0x3e8b4483	0.27200708
90	0x3ea17f0f	0.3154225
91	0x3f3bffd9	0.7343727
92	0x3d99dba8	0.07512599
93	0x3d650f9e	0.055923097
94	0x3acbfb08	0.0015562484
95	0x3e53adac	0.2067172
96	0x3d5db389	0.054126296
97	0x3d9438db	0.07237407
98	0xbd4b8c3a	-0.049694277
99	0xbe492a44	-0.1964503
100	0xbe2ed1b7	-0.17072187
101	0x3d73c0e8	0.05951014
102	0xbd87b339	-0.06625981
103	0xbb8023c8	-0.0039105155
104	0x3c94203f	0.018081782
105	0xbd6c05d2	-0.05762274
106	0xbd404a93	-0.04694612
107	0x3d7b4787	0.06134751
108	0x3f1b081a	0.60559237
109	0xbe31af8e	-0.17352125
110	0x3a8da86b	0.0010807639
111	0xbec80d81	-0.39072803
112	0xbd819265	-0.06326751
113	0xbe1142d9	-0.14185657
114	0x3c4eec8d	0.01262964
115	0xbc9236d8	-0.017848417
116	0x3dda9f78	0.106749475
117	0xbc2869ba	-0.010279113
118	0xbd00c807	-0.03144076
119	0xbf128f9f	-0.572504
120	0x3da0da20	0.07854104
121	0xbd018eee	-0.03163045
122	0xbccf473b	-0.02530252
123	0xbe96e318	-0.29470134
124	0xbd2c8c6c	-0.042126104
125	0x3bdb9dfd	0.0067021833
126	0xbb6a6f33	-0.0035771846
127	0xbd5e7848	-0.054313928
128	0xbd006921	-0.03135026
129	0x3d06c384	0.032901302
130	0x3c41f9f8	0.011839382
131	0x3d8a02b0	0.06738794
132	0x3dca4607	0.09876638
133	0x3c93bf6e	0.018035617
134	0x3d8cbd29	0.06872017
135	0xbc24c029	-0.01005558
136	0xbd9b85c5	-0.07593874
137	0xbd51aa87	-0.05118802
138	0x3e1faa80	0.15592384
139	0xbdda4c80	-0.106591225
140	0xbf0ffec5	-0.5624812
141	0x3dc6d102	0.09707834
142	0x3da35f98	0.079772174
143	0xbd91dafb	-0.07121845
144	0xbd897510	-0.06711781
145	0x3e863333	0.26210937
146	0x3b314edc	0.002705506
147	0x3e91eba3	0.2850009
148	0xbde3579e	-0.11100696
149	0x3de633a4	0.112403184
150	0xbe1a15dd	-0.15047403
151	0x3ed637f7	0.41839573
152	0xbd9e3201	-0.07724381
153	0xbb82af0e	-0.0039881533
154	0xbe352b90	-0.17692399
155	0x3ea5f1b3	0.32410964
156	0xbd20b6d4	-0.03923686
157	0xbce385d9	-0.027773784
158	0xbd65f132	-0.056138225
159	0x3b9e22f9	0.0048259464
160	0x3da0a158	0.07843274
161	0xbb1ce1cd	-0.0023938299
162	0x3d663c08	0.056209594
163	0xbd901885	-0.07035927
164	0xbe828859	-0.2549465
165	0x3d41415f	0.047181483
166	0x3dda9d59	0.10674543
167	0xbe1c5969	-0.15268482
168	0xbf02b8e8	-0.51063395
169	0x3d0b659c	0.03403245
170	0xbd814374	-0.06311694
171	0x3ed0305c	0.40661895
172	0x3e9962be	0.29958147
173	0xbdb6a8d1	-0.08918918
174	0xbf039919	-0.51405483
175	0x3f22adff	0.63546747
176	0x3bb2178c	0.005434936
177	0x3b3906de	0.0028232853
178	0x3dd7827f	0.10522937
179	0xbc786c91	-0.015162603
180	0xbf0b5198	-0.5442138
181	0x3d6ee5f8	0.058324784
182	0x3c6584a1	0.014008672
183	0xbcf7db17	-0.030255837
184	0xbf016035	-0.50537425
185	0x3ce8590a	0.02836277
186	0xbd8b11ab	-0.06790479
187	0xbca2e87f	-0.019886253
188	0xbe403e83	-0.18773846
189	0xbd442784	-0.047889248
190	0x3cea67c7	0.028613938
191	0xbadc112c	-0.0016789786
192	0x3e505e91	0.20348574
193	0x3d52e573	0.05148835
194	0xbdb60190	-0.08887017
195	0xbe4bde0e	-0.19908926
196	0xbe7ea02c	-0.24865788
197	0x3e209b64	0.15684277
198	0xbda3450c	-0.07972154
199	0x3ec1d632	0.3785873
200	0xbe6b36d9	-0.22970141
201	0xbda4db76	-0.08049671
202	0x3e7ac373	0.2448862
203	0x3d4d1364	0.05006732
204	0xbe8b0b6e	-0.27157158
205	0x3c4cd442	0.012501778
206	0x3cde1382	0.027108911
207	0xbe8b2bd8	-0.27181888
208	0xbb324325	-0.0027200666
209	0xbcf25e6b	-0.029586038
210	0xbc800e6a	-0.015631873
211	0xbcba0113	-0.02270559
212	0xbc06b82d	-0.008222622
213	0xbb07415a	-0.0020638318
214	0xbc2e41ad	-0.0106357755
215	0xbc975c0b	-0.018476507
216	0x3796cef5	1.7977765e-05
217	0xbc7a68f3	-0.015283811
218	0x3c4358b3	0.011923003
219	0xbc74f3cf	-0.014950707
220	0x3b101718	0.0021986421
221	0x3e09f29f	0.13471459
222	0x3e6ebd9a	0.23314515
223	0xbcb83836	-0.022487741
224	0x3f0e7b64	0.5565703
225	0x3f130886	0.5743488
226	0x3f4954cf	0.7864503
227	0xbdbabae4	-0.09117678
228	0x3f45fadc	0.77335906
229	0x3f1a1578	0.6018901
230	0xbdb1703f	-0.08663987
231	0xbe6a08e3	-0.22854953
232	0x3e80c40e	0.25149578
233	0x3e9e88a8	0.30963635
234	0xbe0fe013	-0.14050321
235	0x3ed47efd	0.41503134
236	0xbe1ab6fb	-0.15108864
237	0xbd9d58da	-0.07682963
238	0x3f31cd91	0.69454294
239	0x3f604061	0.87598234
240	0x3c0ea0c8	0.008705325
241	0xbc882d86	-0.01662327
242	0x3d097519	0.03355894
243	0xbc81d211	-0.015847238
244	0x3e14febc	0.14550298
245	0x3dbbfe0a	0.091793135
246	0x3c7c884e	0.015413357
247	0xbd77c3e9	-0.06048957
248	0x3d4f8551	0.05066425
249	0x3e051b0a	0.12998596
250	0x3d5002e6	0.050784014
251	0xbd168071	-0.036743585
252	0xbd7a90b2	-0.06117315
253	0x3df95bb8	0.12175697
254	0x3e1f4d90	0.15556931
255	0x3b0a42ca	0.0021096938

layer1.bias f4 [256]
0	0xbd292eb6	-0.041304313
1	0x3ca18bcc	0.01971998
2	0xbd93aeef	-0.072111
3	0xbd0be9b1	-0.034158412
4	0xbc924af5	-0.017858008
5	0xbba88805	-0.005143168
6	0xbb80283d	-0.003911047
7	0x3d214c5e	0.03937947
8	0xbcbdf863	-0.02318973
9	0xbbcd6510	-0.006268151
10	0x3cac9bbd	0.021070356
11	0x3ce219a3	0.027600115
12	0x3cbfc54a	0.023409504
13	0xbb8d049e	-0.004303529
14	0xbd0ac7e7	-0.033882048
15	0xbbbf2632	-0.0058334107
16	0x3d32c10b	0.04364113
17	0x3c8bd080	0.017067194
18	0x3c9ba754	0.019000687
19	0x3cfc701d	0.030815179
20	0x3d1d855c	0.03845726
21	0xb970e983	-0.00022975173
22	0xbd65206b	-0.05593912
23	0xbcb36b69	-0.021901803
24	0xbb56fe95	-0.0032805551
25	0x3d520f77	0.05128428
26	0xbccfcbb4	-0.025365688
27	0xbd0b5473	-0.034016084
28	0xbcbc4b61	-0.022985162
29	0xbd05efa9	-0.03269926
30	0xbbe834d5	-0.007086376
31	0x3d3da428	0.04629913
32	0x3c7514fe	0.014958618
33	0xbd480516	-0.048832975
34	0xbd548625	-0.051885743
35	0x3c7c3ce2	0.015395375
36	0x3cbf7f6b	0.023376187
37	0xbd98fc74	-0.074700266
38	0x3c428fd3	0.011875111
39	0x3b9105b0	0.004425727
40	0xbd65be1f	-0.056089517
41	0x3d2237e0	0.039604068
42	0x3b48139e	0.003052927
43	0x3d262563	0.040563
44	0xba69bdb2	-0.00089165114
45	0x3c5328c7	0.01288814
46	0xbd4c64a2	-0.04990066
47	0x3b9b2753	0.0047349124
48	0x3c461d96	0.012092015
49	0x3d114101	0.035462383
50	0xbd098e65	-0.033583064
51	0x3ba9e00a	0.0051841782
52	0xbb23f7b1	-0.0025019462
53	0xbd5dac4d	-0.054119397
54	0x3cb737e6	0.022365522
55	0x3b0ae8b0	0.0021195821
56	0xbc6018d9	-0.013677799
57	0xbcdccc44	-0.02695287
58	0xbcb3e51c	-0.021959834
59	0x3d365274	0.044512227
60	0xbce20708	-0.027591243
61	0xbd126ce7	-0.03574839
62	0xbcf11519	-0.029429005
63	0xbd1c3b29	-0.038142357
64	0xb969e1e9	-0.0002230477
65	0xbd24f0af	-0.040268596
66	0xbcfb424f	-0.030671267
67	0xbd2fe016	-0.042938314
68	0x3dc121ea	0.09430297
69	0x3d10dded	0.035367895
70	0x3c901319	0.017587231
71	0xbcec915c	-0.028877907
72	0x3d0c0699	0.03418598
73	0xbd05a3ab	-0.03262679
74	0x3c3130da	0.01081487
75	0x3d7c1b0b	0.061549228
76	0xbdcd6754	-0.10029474
77	0xbd0e1601	-0.034688953
78	0x3d6dcdc3	0.058057558
79	0x3d3b5cdc	0.045742854
80	0xbd139e90	-0.03603989
81	0xbc8d2fe8	-0.017234758
82	0x3c84f062	0.016227905
83	0xbbc949f0	-0.0061428472
84	0xbd53775a	-0.051627494
85	0xbd1e93c3	-0.038715135
86	0xbd230e49	-0.039808545
87	0xbc91f75d	-0.017818147
88	0xbc4feb7b	-0.01269042
89	0x3c895434	0.016763784
90	0xbc99c4a6	-0.018770527
91	0x3c6f0120	0.014587671
92	0x3d3f4a03	0.046701442
93	0x3d476925	0.048684258
94	0x3cf23ced	0.029570067
95	0xbd3ed621	-0.046590928
96	0xbc2a9c88	-0.0104132965
97	0x3bde321b	0.0067808754
98	0x3c44cdde	0.012011973
99	0x3b867ebc	0.0041044634
100	0xbd09f731	-0.033683006
101	0xbd374ce4	-0.044751063
102	0xbc902253	-0.017594492
103	0xbd09dd36	-0.03365823
104	0x3b714665	0.003681564
105	0x3a42e4d7	0.00074346125
106	0xbbe3695e	-0.006940051
107	0xbcd64889	-0.026157634
108	0x3ce782b1	0.02826056
109	0x3ce8a9c5	0.028401265
110	0x3b4efbb8	0.0031583142
111	0xbd75fad2	-0.060053654
112	0x3bcb8bd4	0.006211737
113	0x3d16334f	0.036670025
114	0x3d8d507c	0.06900117
115	0xbd07b6d9	-0.03313336
116	0x3c28b182	0.010296227
117	0x3cf58ccf	0.02997437
118	0xbba1f81a	-0.004942906
119	0x3c55536c	0.013020378
120	0x3b616a52	0.0034395647
121	0x3c2d124e	0.010563446
122	0xbba47aa8	-0.0050195046
123	0x3d604cd7	0.05476078
124	0x3cee08fa	0.029057015
125	0xbc5f803f	-0.013641416
126	0xbb95fa3b	-0.004576949
127	0xbc62a67a	-0.013833636
128	0xbaccd163	-0.0015626367
129	0x3c9717d3	0.018443977
130	0xbc09bc42	-0.008406701
131	0x3c2c0be6	0.010500884
132	0xbd724b32	-0.059153743
133	0xbcd49a19	-0.025952386
134	0x3c2f9fa8	0.010719217
135	0x3b607890	0.0034251548
136	0xbde48cae	-0.11159645
137	0x3d1320d1	0.035919968
138	0x3c975a08	0.018475547
139	0x3b4d0d5f	0.0031288487
140	0xbb8f74bf	-0.004377931
141	0x3d0074d1	0.031361405
142	0x3c1b8ecb	0.009494494
143	0xbd18f8df	-0.037346717
144	0xbb6006a3	-0.0034183643
145	0xbac59cd9	-0.0015076651
146	0xbd2f061c	-0.042730436
147	0xbcbe3126	-0.023216795
148	0xbce63d9f	-0.028105555
149	0x3d0b7565	0.034047503
150	0x3cab1abf	0.020886777
151	0x3bbefd69	0.0058285487
152	0x3d1824ab	0.037144344
153	0x3c93f235	0.01805983
154	0x3da14c9e	0.07875942
155	0xbb9ae21b	-0.004726661
156	0xbc87f68e	-0.016597059
157	0x3cdad57d	0.026713127
158	0x3bec0b73	0.0072035133
159	0xba4e747e	-0.0007875635
160	0xbc1e6e20	-0.0096698105
161	0x3d0187f0	0.03162378
162	0xbca46861	-0.020069303
163	0x3bee6517	0.0072752344
164	0x3b0bd3fd	0.0021336072
165	0xbd225501	-0.039631847
166	0xbbc0dedb	-0.0058859414
167	0xbd26e43e	-0.040745012
168	0x3cc33b3b	0.023831954
169	0xbbfe937c	-0.0077690464
170	0xbb847ff5	-0.004043574
171	0xbd26c7cc	-0.040717885
172	0xbc0d855a	-0.0086377505
173	0xbcc02e7b	-0.023459664
174	0xbc4df187	-0.012569792
175	0x3d27ad8d	0.040936995
176	0xbc8442d1	-0.016145142
177	0xbc65c494	-0.014023919
178	0xbbea7a28	-0.0071556754
179	0x3d093221	0.033495072
180	0x3bc822a7	0.0061076465
181	0xbbe36aa4	-0.006940203
182	0xbcf6ce92	-0.030127797
183	0xbd0126d0	-0.031531155
184	0x3d1b72fa	0.037951447
185	0xbc37b77f	-0.0112131825
186	0xbbd5b562	-0.0065218667
187	0x3d2fafd2	0.042892285
188	0x3cd007e4	0.025394388
189	0x3bcfb785	0.006339016
190	0x3c35e8aa	0.011102835
191	0xbc02e003	-0.007987979
192	0x3c9e7601	0.019343378
193	0xbd6b9e7f	-0.0575242
194	0x3ce02c53	0.027364885
195	0x3d14c47d	0.0363202
196	0x3d17d200	0.037065506
197	0xbc7cdc5c	-0.015433397
198	0xbc72a024	-0.014808688
199	0xbd18b357	-0.037280407
200	0x3d34ab54	0.044108704
201	0xbc306c45	-0.010768001
202	0xbc509b41	-0.012732328
203	0x3c007fdd	0.007842985
204	0xbcd9bf17	-0.026580377
205	0x3d89a958	0.06721753
206	0xbd03ee59	-0.032209728
207	0x3dcad30c	0.09903535
208	0x3d22f4c8	0.039784223
209	0x3d4673c0	0.04845023
210	0x3c668028	0.014068641
211	0x3c766b70	0.0150402635
212	0xbce9e412	-0.028551135
213	0xbcf5e87e	-0.030018087
214	0x3ccd5cd9	0.025068687
215	0x3d662a2f	0.056192573
216	0x3cbd6486	0.023119222
217	0x3cb315a7	0.02186091
218	0xbba06a60	-0.0048954934
219	0x3d4e9758	0.0504373
220	0xbd916ae6	-0.071004674
221	0x3d16c8ff	0.03681278
222	0xbca99c99	-0.020704554
223	0xbc0a973c	-0.008458909
224	0x3c95fb15	0.018308202
225	0xbc6bd1df	-0.014393299
226	0xbd2ead24	-0.04264559
227	0xbd248132	-0.040162273
228	0x3ce433f0	0.027856797
229	0xbd30067e	-0.04297494
230	0x3d4a3630	0.049368083
231	0xbbac00bf	-0.0052491124
232	0xbd2a5658	-0.04158625
233	0xbd047a37	-0.032343116
234	0xbca05746	-0.019572865
235	0x3ccff4d2	0.025385294
236	0x3d92a56b	0.07160457
237	0x3d8071af	0.062716834
238	0x3d094f5e	0.033522956
239	0xbcd0ee0c	-0.025504135
240	0xbbf5dba5	-0.0075029903
241	0x3caff560	0.021479309
242	0xbcd0ea1e	-0.02550226
243	0x3d06861a	0.032842733
244	0xbca68a12	-0.020329509
245	0x3cb092fd	0.021554464
246	0xbd118523	-0.03552736
247	0x3bdb4a47	0.006692204
248	0x3d1b3c50	0.037899315
249	0x3d3507c9	0.044196878
250	0x3bbb2690	0.005711384
251	0x3d2b0af2	0.041758485
252	0x3adc544f	0.0016809794
253	0x3b0954b6	0.0020955033
254	0xbc79f324	-0.015255723
255	0x3cf0d28f	0.029397277

layer2.weight f4 [64, 256]
0	0xbeaa1148	-0.3321631
1	0xbd0039e0	-0.031305194
2	0x3eb5f679	0.35539606
3	0x3d850f5f	0.064970724
4	0x3cbe0c0c	0.023199104
5	0x3dc289d6	0.09498946
6	0xbd6cc779	-0.05780742
7	0x3dc9b64b	0.09849223
8	0x3c2c841b	0.010529543
9	0xbdb29f55	-0.087217964
10	0xbce2c88e	-0.027683523
11	0x3d63a35a	0.055575706
12	0x3e9357cb	0.28777918
13	0xbe700c4a	-0.23442188
14	0xbd1cd2ad	-0.038286854
15	0xbddadd0f	-0.10686695
16	0xbe06b458	-0.13154733
17	0xbe3de100	-0.18542862
18	0x3cd52fed	0.02602383
19	0x3d37e7b7	0.044898715
20	0xbea6f737	-0.32610485
21	0xbce3b014	-0.027793922
22	0xbe2bcb15	-0.16776688
23	0x3dc62967	0.096758656
24	0x3e701b62	0.23447946
25	0xbe01f31f	-0.126904
26	0x3e598672	0.21242693
27	0x3d07b18c	0.033128306
28	0x3e4872fd	0.19575115
29	0x3e33cf1c	0.17559475
30	0xbe3621e0	-0.1778636
31	0xbf2759ba	-0.65371287
32	0xbc5eda31	-0.013601826
33	0x3ed89095	0.42297807
34	0xbbf81535	-0.0075708875
35	0x3de38339	0.11109013
36	0xbd0c1ec1	-0.034209017
37	0x3e863c0d	0.2621769
38	0xbe1a4cd7	-0.15068375
39	0xbdc7387d	-0.09727571
40	0x3eafb782	0.34319693
41	0x3d827ecc	0.06371841
42	0xbcff75e5	-0.031184146
43	0xbda52d02	-0.08065225
44	0xbd7faf53	-0.06242306
45	0xbdfc9127	-0.12332373
46	0x3e454931	0.19266202
47	0x3e9531cc	0.29139555
48	0xbd53cd22	-0.0517093
49	0xbe52c77a	-0.20583907
50	0x3e208fb5	0.1567982
51	0x3e656b12	0.22404125
52	0xbe2ec782	-0.17068294
53	0x3dcb3bc8	0.09923512
54	0x3c70743b	0.014676149
55	0xbcf98a66	-0.030461501
56	0xbe0cc31b	-0.13746302
57	0xbd82f5fc	-0.06394574
58	0x3dceef8f	0.10104286
59	0xbe6b9812	-0.23007229
60	0xbe391e39	-0.18077935
61	0x3d8052a0	0.062657595
62	0x3e82fc88	0.2558329
63	0xbc19cd24	-0.009387288
64	0xbdcc6584	-0.099803
65	0xbd63d4ed	-0.055622984
66	0x3d668516	0.056279264
67	0x3dcd5376	0.100256845
68	0x3cd5f374	0.026117064
69	0x3d55be54	0.052183464
70	0x3e054a83	0.13016705
71	0xbd303baf	-0.04302567
72	0x3cea4aa1	0.028600039
73	0xbc788555	-0.015168508
74	0x3e6f2976	0.2335566
75	0xbe193ff3	-0.14965801
76	0x3d312aaa	0.04325358
77	0xbb834bad	-0.004006824
78	0xbe392e91	-0.1808417
79	0xbe10cc3d	-0.1414041
80	0xbc440675	-0.01196443
81	0x3ed2c298	0.41164088
82	0x3e5ce2d5	0.21570905
83	0xbce79797	-0.028270526
84	0xbe0a2c48	-0.13493454
85	0x3e1b356c	0.15157098
86	0x3ea63317	0.32460853
87	0x3e811cce	0.2521729
88	0xbd94cab5	-0.07265226
89	0x3dc608d6	0.09669654
90	0xbd8b1c5f	-0.06792521
91	0xbc9a5219	-0.018837975
92	0x3d7ca13d	0.061677206
93	0x3e1e2ec5	0.15447529
94	0xbc8c487d	-0.017124409
95	0x3e3f17ea	0.18661466
96	0xbca791e6	-0.020455312
97	0x3e893a6a	0.2680238
98	0xbe028aae	-0.12748215
99	0x3e6a4921	0.22879459
100	0x3db4109c	0.087922305
101	0x3e2a0ef8	0.16607273
102	0xbeb9f9db	-0.36323437
103	0x3e482b58	0.19547784
104	0xbc8b154a	-0.016977925
105	0xbc8602ed	-0.016358817
106	0x3d7f7375	0.062365968
107	0x3c226906	0.009912735
108	0xbe57ea05	-0.21085365
109	0x3c1d48bf	0.009599864
110	0x3dc6470d	0.096815206
111	0x3dc1b86f	0.09459006
112	0x3cb04be2	0.021520559
113	0x3d1accab	0.037792843
114	0xbaa07f06	-0.0012244887
115	0xbd623105	-0.05522253
116	0x3c983b6e	0.018583026
117	0xbd22febf	-0.039793726
118	0x3cfb9815	0.030712167
119	0x3d5038cd	0.05083542
120	0x3e0494c3	0.12947373
121	0xbf0dfd8e	-0.5546502
122	0x3e6c730c	0.23090762
123	0xbde54e54	-0.111965805
124	0xbe2b8891	-0.16751315
125	0xbe7bee3e	-0.24602601
126	0x3e91ffe5	0.28515545
127	0xbd053466	-0.032520674
128	0xbe1ba035	-0.15197833
129	0xbe1d2739	-0.15346994
130	0x3e2de089	0.16980185
131	0xbd9d7a9a	-0.076894
132	0xbd9c9b32	-0.07646789
133	0x3d916406	0.07099156
134	0x3d775440	0.06038308
135	0xbd1cb124	-0.038254872
136	0x3e435e77	0.19079004
137	0xbe976b03	-0.2957383
138	0xbdf4512a	-0.11929543
139	0xbb4354f9	-0.0029805286
140	0x3d88f5ca	0.066875055
141	0x3dc5c91e	0.09657501
142	0x3e2eed35	0.17082675
143	0xbdacbac5	-0.08434061
144	0xbd4fc017	-0.0507203
145	0x3cbe444b	0.023225924
146	0x3cbf21bd	0.023331517
147	0xbd00a025	-0.031402726
148	0xbd578e93	-0.052626204
149	0xbd76dd4e	-0.060269646
150	0xbd3d87c2	-0.046272047
151	0xbe04ab9d	-0.1295609
152	0xbe545a15	-0.20737489
153	0xbc5e321d	-0.013561753
154	0xbd500231	-0.05078334
155	0x3d054fc8	0.03254679
156	0xbab2dcc4	-0.0013646116
157	0xbe3994ad	-0.18123122
158	0xbda0ecfa	-0.078577
159	0x3d9aea2a	0.075641945
160	0xbd7732dc	-0.060351238
161	0x3e031186	0.12799653
162	0x3e9c8e34	0.30577242
163	0x3e6acb6d	0.22929163
164	0x3d9f5a6c	0.077809185
165	0xbe073fb8	-0.132079
166	0xbeb7005e	-0.35742468
167	0xbdfb740f	-0.12277996
168	0x3c4b4210	0.012405887
169	0x3e8cedd5	0.275252
170	0x3eba7b57	0.36422226
171	0xbc4f5f8f	-0.01265706
172	0x3e3489fa	0.17630759
173	0x3dc16c2b	0.094444595
174	0x3e5551b9	0.20831956
175	0x3e2d7aaf	0.16941331
176	0xbbc27e1b	-0.005935443
177	0xbd0d36f7	-0.034476247
178	0xbe865fb6	-0.26244897
179	0xba553204	-0.0008132758
180	0xbd0ec9e3	-0.034860503
181	0xbde54c4f	-0.11196195
182	0x3db4c927	0.08827429
183	0xbcb7b0ca	-0.022423167
184	0x3d851632	0.06498374
185	0xbdbff369	-0.09372599
186	0xbdc21771	-0.09477127
187	0xb8b1bc0a	-8.475043e-05
188	0x3d147485	0.036243934
189	0x3dd8058c	0.10547933
190	0x3e9f48bf	0.31110188
191	0xbee2851a	-0.44242173
192	0x3e43b86b	0.19113319
193	0x3dddf24d	0.10837231
194	0xbdcc75a9	-0.099833794
195	0xbf2434f3	-0.64143294
196	0x3e33d529	0.17561783
197	0x3e091c00	0.13389587
198	0xbccb3504	-0.024805553
199	0x3ccb030d	0.024781728
200	0x3da82271	0.08209694
201	0xbd0a72a2	-0.03380073
202	0x3e8e9410	0.27847338
203	0x3db8baea	0.09020026
204	0x3bdec874	0.006798798
205	0xbd7844fc	-0.060612664
206	0x3b241930	0.0025039427
207	0x3e61e4ae	0.2205989
208	0xbe8af258	-0.2713802
209	0xbd85db2c	-0.06535944
210	0x3cb4e721	0.022082867
211	0xbc9db45a	-0.019251037
212	0x3e94cddd	0.2906331
213	0xbe82746d	-0.2547945
214	0x3c7257ff	0.014791488
215	0xbc8af72b	-0.016963562
216	0x3eac4d45	0.33652702
217	0xbc749cde	-0.014929978
218	0xbd1b9da2	-0.037992127
219	0x3dcb972c	0.09940943
220	0xbe03b821	-0.12863208
221	0x3ced8afa	0.028996933
222	0x3e2de41b	0.16981547
223	0xb9dcce04	-0.00042115164
224	0x3dccd17a	0.10000892
225	0x3d66319f	0.056199666
226	0xbc58f092	-0.01324095
227	0x3e74bd1b	0.23900263
228	0x3d3b2400	0.04568863
229	0x3e4f35e5	0.20235403
230	0x3e801810	0.25018358
231	0xbe8037a2	-0.25042444
232	0xbc3a38da	-0.0113660935
233	0x3dbdc202	0.0926552
234	0x3e26fa1e	0.1630635
235	0xbd81b25c	-0.063328475
236	0xbd2702c4	-0.040774122
237	0xbe1fb330	-0.15595698
238	0x3cb8abd8	0.022542879
239	0xbd3afd40	-0.045651674
240	0xbde0d277	-0.10977643
241	0xbd6a5b7f	-0.057216164
242	0x3b846beb	0.004041185
243	0x3e1722ae	0.14759323
244	0xbd99f476	-0.0751733
245	0x3e11cd73	0.14238529
246	0xbd4d9ab7	-0.050196376
247	0xbd3ee260	-0.046602607
248	0x3bd4c2be	0.0064929416
249	0xbe9cdfda	-0.30639535
250	0xbe94cd4a	-0.29062873
251	0xbed8d86a	-0.4235261
252	0xbe854f6a	-0.2603715
253	0xbbe80817	-0.0070810425
254	0x3cd47c4e	0.02593818
255	0x3bda8214	0.0066683386

layer2.bias f4 [64]
0	0x3c324ef3	0.010883081
1	0xbdc68a6f	-0.09694373
2	0xbd6923f8	-0.056919068
3	0xbc6c2a02	-0.014414312
4	0xbd2adb2e	-0.041712932
5	0x3d1da9b2	0.038491912
6	0x3b893ed7	0.0041883993
7	0xbc528cbf	-0.012850939
8	0xbcb3ed94	-0.021963872
9	0xbcd74051	-0.026275786
10	0x3c8f376f	0.017482487
11	0xbd620c1d	-0.055187333
12	0x3c90eaa6	0.017690014
13	0xbd97c8fb	-0.07411381
14	0x3ca90546	0.020632397
15	0xbd1e9850	-0.038719475
16	0x3d131bbd	0.035915125
17	0x3d53b6de	0.051688068
18	0x3d1be548	0.038060457
19	0xbbd215a4	-0.006411271
20	0xbc6d5bf7	-0.014487258
21	0xbc7f53fa	-0.015583986
22	0x3cd946c9	0.02652301
23	0x3d0a436f	0.033755716
24	0xbd13b43e	-0.036060564
25	0xbb920b06	-0.0044568805
26	0xbd868661	-0.065685995
27	0x3c1234a9	0.008923688
28	0x3ccbe79b	0.024890712
29	0xbc305492	-0.010762351
30	0xbc4d8080	-0.012542844
31	0x3cdcb86c	0.026943408
32	0x3cc91440	0.024545789
33	0xbd7b3dea	-0.061338343
34	0xbcfef5ff	-0.03112316
35	0xbcb2ce42	-0.021826867
36	0x3ce247eb	0.027622184
37	0xbc8621d1	-0.016373547
38	0xbd85339a	-0.06503983
39	0x3d59bf4d	0.053160954
40	0xbcd6241b	-0.026140263
41	0xbc3f48fb	-0.011675115
42	0xbd598c5f	-0.053112384
43	0xbd8a03a7	-0.06738978
44	0xbd49f974	-0.049310163
45	0xbaf1c88f	-0.0018446612
46	0xbd6080f5	-0.054810483
47	0xbcd1609a	-0.025558759
48	0x3cfa426e	0.030549254
49	0x3cfdf578	0.031000838
50	0x3d1aea2e	0.037820987
51	0xbd3ce0a0	-0.046112657
52	0xbcfe36da	-0.031032015
53	0x3d20184a	0.039085664
54	0xbd998f2a	-0.074980095
55	0x3d1932e9	0.037402067
56	0xbd6619c7	-0.056176927
57	0xbb424fed	-0.002964969
58	0x3cba60f6	0.022751313
59	0x3d41bd0e	0.047299437
60	0xbd05580d	-0.032554675
61	0x38807bb5	6.126558e-05
62	0x3c920b8f	0.017827777
63	0xbc70e302	-0.01470256

layer3.weight f4 [1, 64]
0	0xbeb698f3	-0.35663566
1	0x3eb3c4e5	0.35111156
2	0x3ebb09f7	0.3653104
3	0xbe1b23c5	-0.15150364
4	0xbe32461f	-0.17409562
5	0xbea7be7d	-0.3276252
6	0x3e7a45e3	0.24440722
7	0x3efb7006	0.49108905
8	0x3e103e5b	0.14086287
9	0x3ecdd9e5	0.40205303
10	0x3f0a3a36	0.5399507
11	0x3ef37fc5	0.47558418
12	0xbe5dda2a	-0.21665254
13	0xbec24f20	-0.37950993
14	0xbe779185	-0.24176605
15	0xbe8f5c35	-0.28000036
16	0x3ecdbcf0	0.4018321
17	0xbe26b31b	-0.16279261
18	0x3ea26fd3	0.3172594
19	0xbe92bc38	-0.28659225
20	0xbe8157ba	-0.25262243
21	0xbe20eda3	-0.15715651
22	0x3e7ad7e6	0.24496421
23	0x3e8daa77	0.27669117
24	0x3e98f8d7	0.2987735
25	0x3ece6b20	0.40316105
26	0xbea95896	-0.33075398
27	0x3e006159	0.12537135
28	0xbeac71dc	-0.33680618
29	0xbe88f1c8	-0.26746964
30	0x3ed7ea0a	0.42170745
31	0xbead2434	-0.33816683
32	0xbec0e6c1	-0.3767605
33	0xbe2b525b	-0.16730635
34	0xbe9112dc	-0.283347
35	0xbeb6e4ab	-0.35721335
36	0xbe503f7f	-0.20336722
37	0x3e9ab057	0.30212662
38	0xbe8faaa0	-0.28059864
39	0xbe5bd55c	-0.21468109
40	0xbe636d71	-0.22209717
41	0x3e8bdc70	0.27316618
42	0xbe842509	-0.25809506
43	0xbeba189d	-0.36346903
44	0xbe90b3d0	-0.28262186
45	0xbec86540	-0.39139748
46	0xbecd9289	-0.4015086
47	0x3e6d2bab	0.2316119
48	0x3e922904	0.28546917
49	0x3ed56312	0.41677147
50	0x3e8f9459	0.28042868
51	0xbeccdbf4	-0.4001156
52	0x3efb6d8a	0.4910701
53	0x3e19c52a	0.15016618
54	0x3e601519	0.21883048
55	0xbe3c9518	-0.1841625
56	0xbeac6bcf	-0.33676
57	0xbe20a277	-0.15686975
58	0xbed85fbd	-0.42260543
59	0xbe77f4e1	-0.24214508
60	0xbebb8722	-0.36626536
61	0xbe9f7241	-0.31141856
62	0xbe87ae3e	-0.26500124
63	0x3eaac216	0.333512
