test/ens_models/ens_model_2_CB.pt (torch, 654739 bytes, 6 tensors)

weight f4 [20, 10]
-0.14623185 -0.80727 -0.5419734 0.3305288 -0.3719178 0.2515492 0.54269624 -1.2784898
-0.1667696 -0.11003143 0.49766454 0.6998886 -0.8695908 -0.010210764 0.33533078 0.33179116
0.19798803 -1.2434806 0.26735407 0.27249423 -0.055138797 -0.6181627 0.8372574 0.6160689
0.4271621 1.0789809 0.05182949 -0.55365276 0.017025566 -0.46001863 0.33851865 -0.8627667
0.81892145 0.018525848 -0.1993576 -0.6441836 -0.6293755 -0.24742223 -0.15820405 -0.54940784
0.041735936 -1.1270983 0.47388697 1.0972646 0.5547886 -0.090841904 -0.05928047 0.80105036
0.2385288 0.5291405 0.15546434 0.21811956 0.65708506 0.5972277 -0.29686177 1.1395626
0.462144 -0.85541517 -0.1447119 -0.011375673 -0.8815203 -0.10262479 0.25190428 0.21547697
-0.1241761 0.37666377 0.37089038 0.99684906 1.3394082 0.14115888 0.6577557 0.12349564
1.0116751 -0.5358739 1.1503172 0.70784897 -1.7084495 -1.43422 1.2750244 -0.73040825
0.54025114 0.48074198 -0.20923653 -0.23647094 -0.93963915 -1.1857685 -0.21727718 0.20640083
0.5902739 0.75460213 -0.37374994 -0.67424136 -0.10380402 -1.1706057 -0.040959068 -0.03557443
0.6462763 0.7170009 0.5001904 0.053668715 -0.27243504 -1.0967126 0.4171279 0.35678884
-0.5635464 0.32028282 -0.15004522 -0.146082 -0.073569946 1.0036334 0.30763736 0.4966463
-0.9712629 -0.14303377 -0.050728247 -0.41605467 0.7823684 -0.33401352 -0.9433216 0.45403022
-0.07409307 0.46661273 0.30736953 -0.94816256 0.37128672 -0.7114757 0.7615805 1.068589
0.20765395 0.24322186 -1.3714852 -0.21069238 -0.19313377 -0.052598353 -0.12635952 -0.03322627
-0.3115965 -0.8701197 -0.07209368 0.6757318 -0.3007247 -0.28783393 0.35007268 0.14907555
0.469639 -0.59522575 -0.40164867 0.4605358 0.43980736 1.4740446 0.103795685 -0.8779572
-0.23570824 0.70796585 -1.0143281 -0.38646677 -0.41488993 -0.5177463 0.29340628 0.5001153
-0.5569273 0.17786932 0.2404306 -0.24397717 -0.5693577 0.6077129 0.6229224 1.0365301
-0.35446918 0.4882709 -0.6443347 0.926922 -1.1407605 -0.16419053 -0.36676157 0.42490217
0.8377918 -0.39504716 0.01694896 0.4695039 0.94314617 0.25535056 0.15693125 0.8363966
0.07066983 -0.4994642 -1.061778 0.31138778 -0.5169853 -0.3765002 -0.75070274 0.5234605
0.6651713 -0.8065866 -0.10412614 -0.7288651 0.6554994 -0.33890113 -0.023735106 -0.040393297
00000000: cdbd 15be 3fa9 4ebf c5be 0abf 123b a93e
00000010: 036c bebe 0fcb 803e 24ee 0a3f 8ea5 a3bf
00000020: a6c5 2abe 2958 e1bd e3cd fe3e e62b 333f
00000030: 819d 5ebf 0c4b 27bc 7ab0 ab3e 88e0 a93e
00000040: 60bd 4a3e 5f2a 9fbf a2e2 883e 5d84 8b3e
00000050: 38d9 61bd e93f 1ebf 8056 563f b1b6 1d3f
00000060: feb4 da3e 0c1c 8a3f 294b 543d 30bc 0dbf
00000070: 3379 8b3c 9087 ebbe 5152 ad3e 47de 5cbf
00000080: d6a4 513f 85c3 973c 6624 4cbe 37e9 24bf
00000090: c11e 21bf 415c 7dbe 3e00 22be fea5 0cbf
000000a0: 4df3 2a3d c244 90bf 50a1 f23e 2b73 8c3f
000000b0: a006 0e3f 520b babd 14d0 72bd a311 4d3f
000000c0: e540 743e c075 073f 0b32 1f3e bc5a 5f3e
000000d0: ba36 283f eae3 183f 44fe 97be 30dd 913f
000000e0: 239e ec3e 7dfc 5abf 5b2f 14be 0861 3abc
000000f0: 50ab 61bf f22c d2bd 99f9 803e ffa5 5c3e
00000100: 0a50 febd 13da c03e 58e5 bd3e 8031 7f3f
00000110: ba71 ab3f f48b 103e ad62 283f 48eb fc3d
00000120: 927e 813f 082f 09bf 983d 933f 9735 353f
00000130: 79ae dabf 8594 b7bf 0034 a33f 09fc 3abf
00000140: e64d 0a3f d023 f63e 1a42 56be 7025 72be
00000150: 318c 70bf 43c7 97bf e97d 5ebe bd5a 533e
00000160: 311c 173f 9b2d 413f 275c bfbe 159b 2cbf
00000170: 3497 d4bd 68d6 95bf b2c4 27bd 7eb6 11bd
00000180: 5d72 253f 5f8d 373f 7a0c 003f bad3 5b3d
00000190: 9b7c 8bbe 1461 8cbf ca91 d53e 07ad b63e
000001a0: 9444 10bf 1cfc a33e 74a5 19be 8596 15be
000001b0: d7ab 96bd 0f77 803f a582 9d3e 6d48 fe3e
000001c0: afa4 78bf 7277 12be 6cc8 4fbd 1e05 d5be
000001d0: 4c49 483f d203 abbe 867d 71bf a676 e83e
000001e0: 1cbe 97bd dde7 ee3e 8a5f 9d3e c8ba 72bf
000001f0: 4b19 be3e 4523 36bf f1f6 423f 86c7 883f
00000200: 3da3 543e 270f 793e d48c afbf bebf 57be
00000210: dcc4 45be 5f71 57bd 6464 01be 4518 08bd
00000220: 9489 9fbe 2ac0 5ebf daa5 93bd c2fc 2c3f
00000230: 96f8 99be f85e 93be ba3c b33e 43a7 183e
00000240: 8674 f03e b760 18bf e5a4 cdbe 59cb eb3e
00000250: 6e2e e13e 7ead bc3f d592 d43d cec1 60bf
00000260: 805d 71be 403d 353f 81d5 81bf f9de c5be
00000270: 746c d4be 068b 04bf 5939 963e 8e07 003f
00000280: ca92 0ebf 6023 363e 7033 763e 27d5 79be
00000290: 6dc1 11bf 1393 1b3f d877 1f3f 05ad 843f
000002a0: fc7c b5be a5fe f93e 1ef3 24bf c34a 6d3f
000002b0: 7104 92bf 9021 28be 2cc8 bbbe c78c d93e
000002c0: 8679 563f 9f43 cabe 8cd8 8a3c d162 f03e
000002d0: 0772 713f 4fbd 823e 96b2 203e 161e 563f
000002e0: 58bb 903d c6b9 ffbe 57e8 87bf 386e 9f3e
000002f0: 2659 04bf a2c4 c0be 0e2e 40bf 8201 063f
00000300: ab48 2a3f 767c 4ebf 1640 d5bd e796 3abf
00000310: cfce 273f 7384 adbe 2070 c2bc 7173 25bd

weight f4 [256, 570]
-0.040954493 0.009742675 0.0013264852 0.04903934 0.12473753 0.06415832 -0.03026717 0.009046298
-0.09878826 -0.046506755 0.22639364 0.050066315 0.015663065 -0.2706489 -0.8412317 -1.1152042
-0.5590365 -0.060292456 -0.045252 0.038644716 0.017926838 -0.0016943244 0.053743225 0.027509434
-0.3344109 -0.69444394 -0.23297383 -0.3734642 -0.35110113 -0.17562333 -0.03834762 0.2569945
-0.015007209 0.010351448 -0.012132325 -0.11174415 -0.03666029 -0.054427966 -0.0009967085 0.118949145
0.45307675 0.10375169 0.19212306 -0.32358593 1.0024289 1.2009681 0.8648138 0.5160748
0.115163945 0.089010365 -0.004005222 -0.084959716 -0.11867904 -0.3327018 -0.009537149 0.4385355
0.026998557 -0.2087689 0.10409615 0.10299409 -0.25163212 -0.41822213 0.05990197 -0.40125287
-0.0030068057 -0.0068478333 0.3514037 0.22650784 -0.023890259 -0.2889726 -0.35976392 -0.13615032
0.52093965 1.248809 -0.43999624 -0.41377342 0.82109714 0.64236915 0.39135715 0.86591595
-0.12278589 -0.04151921 -0.039668918 -0.13020638 -0.06891865 -0.008916651 0.02783858 -0.0837818
0.18430045 0.12358472 0.010171949 -0.036383152 -0.142013 -0.027770082 -0.04817317 0.10998868
-0.041424867 -0.06337904 0.0119071845 0.036313664 0.05825956 0.16324185 -0.014866339 -0.04557636
-0.0013245257 -0.13015077 -0.030973267 0.091188826 0.2030492 -0.18841912 -0.042434983 -0.1757499
-0.1110816 -0.03500286 -0.04270219 0.00090015953 -0.013586289 0.0026381223 -0.025598546 -0.03028544
0.019591244 0.036443353 -0.027967691 0.031674553 0.02903934 0.012778209 0.028661981 -0.0020644849
0.018756723 0.034898356 -0.018212361 -0.113659434 -0.16682261 -0.010140357 0.061256368 -0.019819105
0.037202265 -0.008544827 -0.07815623 -0.16148548 0.044429798 -0.13675126 -0.2580394 -0.28109515
0.056515712 -0.059826583 0.062416364 -0.021263491 0.58066815 -0.2552245 0.121546865 -0.090226
0.40475017 -0.21071436 0.11833264 0.029995957 0.34066015 -0.2192406 0.042102896 0.007991935
0.33938354 0.040797092 -0.04839092 0.09789543 0.24983196 0.1149586 -0.07570319 -0.05948648
0.10489141 0.08026559 0.19780283 0.1730327 -0.010948192 -0.23008084 0.1778629 0.19311672
-0.3280895 -0.061222065 -0.034581184 -0.02653537 -0.05655049 -0.03506853 -0.055268988 -0.036912184
0.08391146 -0.018564306 -0.012296132 0.017464194 0.13163245 0.019194592 0.10274555 -0.008518163
0.22754522 -0.09402516 0.07517484 -0.1613453 0.12200122 -0.022603145 -0.06097638 -0.23304677
-0.14090137 0.18108082 -0.012083833 0.007875325 -0.24293542 0.17514053 -0.43653607 -0.51541525
0.042341936 0.1597503 0.21372502 0.13250756 0.03168915 0.13830894 0.10775889 0.13973933
0.5615014 0.076366276 0.06487053 0.10286082 0.62688553 -0.14937453 -0.0053059165 0.40915048
0.26067126 -0.08063582 -0.11348087 0.20806476 -0.04974562 0.03537779 0.25584158 -0.34334964
-0.60917246 -0.13668402 0.22027743 0.20840095 -1.5286261 -0.8512567 -0.3094121 0.9111436
-0.061368193 -0.09756604 -0.046185512 -0.31436092 -0.55581504 -0.09184316 -0.0020698959 -0.06749027
-0.008473143 -0.124655575 -0.00078956404 0.04906301 0.027061729 -0.043324754 0.03442307 -0.017798021
00000000: e6bf 27bd be9f 1f3c 75dd ad3a 7add 483d
00000010: 6476 ff3d 7065 833d dbf2 f7bc ed36 143c
00000020: 8051 cabd de7d 3ebd bcd3 673e 5612 4d3d
00000030: d44f 803c 7e92 8abe f65a 57bf 03bf 8ebf
00000040: 041d 0fbf 39f5 76bd 295a 39bd ec49 1e3d
00000050: 4edb 923c 1814 deba db21 5c3d 775b e13c
00000060: e837 abbe 14c7 31bf b190 6ebe b336 bfbe
00000070: 87c3 b3be 9ad6 33be 6512 1dbd c894 833e
00000080: cce0 75bc 1f99 293c a9c6 46bc 1eda e4bd
00000090: 1a29 16bd dcef 5ebd fda3 82ba 9c9b f33d
000000a0: adf9 e73e c47b d43d e8bb 443e 0ead a5be
000000b0: 974f 803f 53b9 993f 7064 5d3f 7a1d 043f
000000c0: 13db eb3d 114b b63d 3d3e 83bb 5cff adbd
000000d0: ff0d f3bd e457 aabe b441 1cbc ba87 e03e
000000e0: 142c dd3c 84c7 55be 5d30 d53d 91ee d23d
000000f0: edd5 80be 3621 d6be c55b 753d 0471 cdbe
00000100: d40d 45bb ca63 e0bb 30eb b33e acf1 673e
00000110: 81b5 c3bc 37f4 93be fa32 b8be fd6a 0bbe
00000120: 4d5c 053f f9d8 9f3f 3047 e1be 1cda d3be
00000130: 6c33 523f 4e72 243f f75f c83e abac 5d3f
00000140: 2b77 fbbd 0c10 2abd e07b 22bd d254 05be
00000150: 3925 8dbd 2517 12bc bc0d e43c cb95 abbd
00000160: 42b9 3c3e fc19 fd3d 3fa8 263c 8006 15bd
00000170: db6b 11be 157e e3bc 3b51 45bd bf41 e13d
00000180: 1fad 29bd dfcc 81bd 5a16 433c a3bd 143d
00000190: 94a1 6e3d df28 273e f291 73bc 47ae 3abd
000001a0: b59b adba 3e46 05be a6bb fdbc 35c1 ba3d
000001b0: 21ec 4f3e f1f0 40be 4ed0 2dbd c8f7 33be
000001c0: c07e e3bd 295f 0fbd 7ee8 2ebd aff8 6b3a
000001d0: 0799 5ebc 59e4 2c3b 0bb4 d1bc 2c19 f8bc
000001e0: d17d a03c a045 153d 801c e5bc 2dbd 013d
000001f0: e9e3 ed3c b15b 513c 88cc ea3c 4f4c 07bb
00000200: b3a7 993c 94f1 0e3d 1732 95bc 47c6 e8bd
00000210: 8cd3 2abe bd23 26bc f5e7 7a3d ad5b a2bc
00000220: 6761 183d 9aff 0bbc 6010 a0bd 735c 25be
00000230: 05fc 353d 8608 0cbe be1d 84be b4eb 8fbe
00000240: 057d 673d b80c 75bd 4da8 7f3d c630 aebc
00000250: aba6 143f c9ac 82be 90ed f83d 69c8 b8bd
00000260: 6a3b cf3e 81c5 57be 6258 f23d 15ba f53c
00000270: 026b ae3e 9c80 60be 1674 2c3d 9bf0 023c
00000280: aec3 ad3e da1a 273d 8f35 46bd 667d c83d
00000290: f3d3 7f3e 6a6f eb3d 460a 9bbd 18a8 73bd
000002a0: 4fd1 d63d 4962 a43d d38c 4a3e 7c2f 313e
000002b0: 0c60 33bc 509a 6bbe b121 363e 64c0 453e
000002c0: 59fb a7be fdc3 7abd 00a5 0dbd b460 d9bc
000002d0: 7da1 67bd 05a4 0fbd bc61 62bd 3b31 17bd
000002e0: c6d9 ab3d 2c14 98bc b775 49bc 1211 8f3c
000002f0: a8ca 063e fa3d 9d3c 426c d23d c48f 0bbc
00000300: 9d01 693e 4390 c0bd 44f5 993d b437 25be
00000310: c7db f93d 3b2a b9bc 5ec2 79bd d0a3 6ebe
00000320: 7348 10be 406d 393e 45fb 45bc 8207 013c
00000330: 10c4 78be 0a58 333e a881 dfbe 41f2 03bf
00000340: bd6e 2d3d 9595 233e bbda 5a3e 10b0 073e
00000350: 7bcc 013d dca0 0d3e b1b0 dc3d d417 0f3e
00000360: 8ebe 0f3f ec65 9c3d d7da 843d b2a8 d23d
00000370: 927b 203f a3f5 18be 41dd adbb 2c7c d13e
00000380: b476 853e 6524 a5bd a968 e8bd ee0e 553e
00000390: 10c2 4bbd 4de8 103d abfd 823e 86cb afbe
000003a0: baf2 1bbf e5f6 0bbe 6890 613e 0f67 553e
000003b0: 05aa c3bf f6eb 59bf 436b 9ebe b540 693f
000003c0: 375d 7bbd b4d0 c7bd 052d 3dbd eaf3 a0be
000003d0: e549 0ebf 4418 bcbd 17a7 07bb 5738 8abd
000003e0: f0d2 0abc 6c4b ffbd bffa 4eba 4bf6 483d
000003f0: 8fb0 dd3c 4c75 31bd 34ff 0c3d 28cd 91bc

bias f4 [256]
-0.0032832462 -0.030369468 -0.03155313 0.014785881 -0.0016194383 -0.015475104 0.03900381 -0.0159946
-0.00047527786 0.0069840373 0.006713956 0.0025402755 0.035745937 -0.00801479 -0.017368153 -0.008994435
0.027173039 0.045412995 0.009694752 -0.043007214 -0.00044456302 0.012870249 0.012975637 -0.0085399095
0.030938616 0.0042394185 0.022296285 -0.03313534 -0.011815189 -0.03959569 -0.0068337615 0.030461878
-0.045275513 0.0069230334 0.03889269 0.027842643 0.0040480415 -0.024702616 0.00029377584 -0.0021879373
-0.0152575 -0.010463208 -0.0072183046 0.03628229 0.026270626 -0.10069113 -0.03717766 0.00644375
0.029650716 0.013131249 -0.017853277 0.0028031955 -0.032276772 -0.024501968 -0.0041768034 -0.030018048
0.04004346 0.006520182 0.01657651 0.002396794 0.006651699 0.020781312 0.038330607 -0.0062461277
0.024412658 0.021609085 0.0073520225 0.037557505 0.016944185 0.03973215 0.0082188845 -0.026119417
0.0029254952 -0.051238295 0.024666678 -0.007693635 -0.0145032 0.032466758 0.0075310436 -0.037101258
0.0017300813 -0.025640253 0.0107344305 -0.037624594 0.010972608 -0.04934059 0.013356463 0.015919726
0.024906224 0.012104434 -0.033965405 -0.026365306 -0.018780487 -0.0055499054 -0.0011684515 -0.017647473
0.00873885 0.021724142 0.015969386 0.022461642 -0.015791295 0.0024645657 0.028277434 -0.010678299
-0.033420485 0.033782102 -0.0027379985 0.03901473 0.002228091 0.002659363 0.024496727 -0.020475412
0.026444167 0.021307262 -0.018779075 -0.031324953 0.041205212 -0.03597429 0.010473523 -0.01303359
-0.011320041 0.03337898 0.024649596 0.011418199 0.02714236 0.013359257 -0.033732634 -0.03311153
0.014094141 -0.0061593265 0.04174061 0.018682597 0.015574452 -0.0206469 0.018696865 0.034852672
0.008342617 -0.03989222 -0.027918668 0.0431227 0.03217709 0.024484703 0.093679436 -0.004888092
-0.02749856 0.029815953 -0.02113948 0.032714456 0.05331865 -0.043662764 -0.0008011639 0.02946846
0.026820969 -0.005452536 -0.007579421 -0.019256128 0.021083545 0.015516551 0.0037892046 0.027496327
0.013983157 -0.0032525123 0.010958995 -0.0035888522 -0.016483229 -0.02091121 -0.01018779 0.045930263
0.010188372 -0.038656812 0.028847797 -0.0064056083 -0.037144586 -0.0034065754 0.041873224 0.03250628
0.025009768 -0.0062667243 -0.01948508 0.028327772 0.007969809 0.0045259516 -0.0060797534 0.03360801
0.004636283 -0.010919865 0.013001186 0.032684125 -0.008436692 -0.030168608 0.02059317 -0.023769118
0.050327767 0.041788142 0.028046465 0.023894517 -0.024222765 -0.04139693 -0.040119514 0.00086033286
0.0141182905 -0.0016773572 0.010643859 0.019999683 -0.013463658 0.027260762 0.032360904 -0.0014443432
-0.025923612 0.036965623 -0.013325807 -0.009045971 0.046920862 -0.03486574 -0.0029944761 0.0031500887
-0.0161465 -0.03298705 0.00048608298 0.0446449 0.021633148 -0.014591317 -0.00594335 -0.008602646
-0.016357047 0.010161802 0.037385613 0.026172044 0.0036208655 -0.038631465 -0.014738139 -0.03520234
-0.040341254 0.012363327 0.016977599 -0.042619932 -0.032027204 0.0015578228 -0.058995858 -0.01975399
-0.02257894 -0.013575207 0.008395821 -0.016851636 -0.031746026 0.043034885 -0.031484216 -0.029658334
-0.012825354 -0.02974916 -0.02186993 0.026407637 0.023388635 -0.03296763 0.033257935 -0.033842303
00000000: bb2b 57bb 64c9 f8bc db3d 01bd 7b40 723c
00000010: 5543 d4ba 4a8b 7dbc 76c2 1f3d 1b07 83bc
00000020: b72e f9b9 5ada e43b bf00 dc3b c07a 263b
00000030: 556a 123d 7750 03bc a847 8ebc 655d 13bc
00000040: fe99 de3c fa02 3a3d bdd6 1e3c 5528 30bd
00000050: 3d14 e9b9 bddd 523c c497 543c faea 0bbc
00000060: fb72 fd3c d2ea 8a3b b3a6 b63c ecb8 07bd
00000070: 7f94 41bc 172f 22bd bfed dfbb 308b f93c
00000080: d172 39bd 9dda e23b f14d 1f3d 4116 e43c
00000090: 6fa5 843b 245d cabc ed05 9a39 7f63 0fbb
000000a0: 98fa 79bc e06d 2bbc 8787 ecbb bd9c 143d
000000b0: 7f35 d73c 2737 cebd 9a47 18bd 1826 d33b
000000c0: 0fe6 f23c 7324 573c 0941 92bc d1b5 373b
000000d0: a634 04bd 5ab8 c8bc 91dd 88bb 69e8 f5bc
000000e0: 9c04 243d 40a7 d53b 76cb 873c 8813 1d3b
000000f0: 7ff6 d93b 923d aa3c 8e00 1d3d 51ac ccbb
00000100: 0efd c73c 8905 b13c 3ce9 f03b e6d5 193d
00000110: 88ce 8a3c 2ebe 223d 80a8 063c 63f8 d5bc
00000120: aab9 3f3b 3fdf 51bd c611 ca3c e31a fcbb
00000130: d49e 6dbc ddfb 043d f9c6 f63b 7df7 17bd
00000140: e5c3 e23a 820b d2bc 77df 2f3c 3f1c 1abd
00000150: 74c6 333c 5c19 4abd 11d5 5a3c 166a 823c
00000160: 2308 cc3c ad51 463c 4f1f 0bbd 0efc d7bc
00000170: 89d9 99bc fbdb b5bb ba26 99ba 6f91 90bc
00000180: 652d 0f3c d4f6 b13c 3bd2 823c 7a01 b83c
00000190: bf5c 81bc 8d84 213b 14a6 e73c 08f4 2ebc
000001a0: ebe3 08bd 1a5f 0a3d fe6f 33bb e9cd 1f3d
000001b0: 2a05 123b b548 2e3b 5cad c83c 0dbc a7bc
000001c0: 70a1 d83c 918c ae3c 93d6 99bc 984e 00bd
000001d0: ccc6 283d c759 13bd 2499 2b3c d78a 55bc
000001e0: b177 39bc 66b8 083d f3ed c93c 6613 3b3c
000001f0: a859 de3c c9e0 5a3c 3b2b 0abd f59f 07bd
00000200: 1deb 663c 2dd4 c9bb 34f8 2a3d 3f0c 993c
00000210: fc2b 7f3c b023 a9bc 2b2a 993c adc1 0e3d
00000220: 79af 083c 0666 23bd b1b5 e4bc 6ea1 303d
00000230: 20cc 033d 2594 c83c 01db bf3d 4a2c a0bb
00000240: a944 e1bc 9640 f43c b42c adbc 98ff 053d
00000250: a864 5a3d bad7 32bd 3305 52ba d767 f13c
00000260: a6b7 db3c 30ab b2bb cb5c f8bb 07bf 9dbc
00000270: 66b7 ac3c 2239 7e3c 4e54 783b fa3f e13c
00000280: 9d19 653c 1a28 55bb 5b8d 333c f332 6bbb
00000290: d607 87bc fc4d abbc b0ea 26bc 5f21 3c3d
000002a0: 21ed 263c 9b56 1ebd 3752 ec3c 23e6 d1bb
000002b0: ec24 18bd da40 5fbb 4283 2b3d 4e25 053d
000002c0: 49e1 cc3c 1859 cdbb 2d9f 9fbc a50f e83c
000002d0: cd93 023c 6f4e 943b ab38 c7bb 8da8 093d
000002e0: f6eb 973b 3ce9 32bc ed02 553c cadf 053d
000002f0: 0d3a 0abc 2824 f7bc 02b3 a83c 74b7 c2bc
00000300: 7d24 4e3d 0b2a 2b3d b3c1 e53c 6fbe c33c
00000310: d26e c6bc d48f 29bd 5c54 24bd f687 613a
00000320: 6750 673c c5da dbba 9563 2e3c 60d6 a33c
00000330: ad96 5cbc f651 df3c de8c 043d 1e50 bdba
00000340: c15d d4bc 4469 173d 7c54 5abc 8d35 14bc
00000350: 1730 403d 61cf 0ebd f93e 44bb b871 4e3b
00000360: aa45 84bc 6e1d 07bd f4d8 fe39 92dd 363d
00000370: 0038 b13c 6b10 6fbc 6fc0 c2bb 1df2 0cbc
00000380: 37ff 85bc b07d 263c a821 193d c166 d63c
00000390: 0b4c 6d3b 073c 1ebd 3c78 71bc 5430 10bd
000003a0: df3c 25bd 8d8f 4a3c 9b14 8b3c 3d92 2ebd
000003b0: f52e 03bd dc2f cc3a a4a5 71bd 1fd3 a1bc
000003c0: 78f7 b8bc 8c6a 5ebc a08e 093c 710c 8abc
000003d0: 1f08 02bd 5945 303d 98f5 00bd 09f6 f2bc
000003e0: 6f21 52bc 83b4 f3bc 9128 b3bc d454 d83c
000003f0: 8699 bf3c 1109 07bd 7939 083d 3a9e 0abd

weight f4 [64, 256]
-0.04523443 0.040525656 0.044168275 0.052722 0.083715074 0.06921999 -0.010705657 -0.035686176
-0.015846392 -0.10123037 -0.008756573 -0.079980485 0.055580746 -0.033075538 0.023409734 -0.036754765
-0.07973698 -0.056317277 -0.044096284 0.04567264 -0.04258489 0.008104757 -0.06514994 -0.010922633
-0.0019660678 -0.08352058 0.01787439 0.00930551 -0.006359343 0.0390464 0.0047383 0.031226147
0.019945128 -0.0954803 -0.049628686 -0.00949729 0.026556384 0.07898702 0.03219838 -0.024822596
-0.052356593 -0.06491896 -0.01277219 0.048562687 -0.059838567 0.20640412 0.076112606 0.01842176
-0.07586477 0.058586497 -0.00212514 -0.009651914 -0.0017605431 -0.032220468 0.014442963 -0.007445627
-0.00042012852 0.091101475 -0.10489182 -0.02545217 -0.05047232 -0.0017639613 -0.083035894 -0.079825155
-0.026253315 0.05674867 0.09707542 -0.1383243 0.052751906 0.046206385 -0.12910105 0.18916138
-0.04281817 0.03441654 0.0036700882 0.08879306 -0.04502014 -0.04178593 0.10222516 0.03294753
0.16526121 0.0899415 0.0032030279 0.089310974 0.094875015 0.09113195 0.045341738 0.0526421
-0.111231014 0.12527865 0.035637718 -0.09844945 0.0217178 -0.017626373 -0.148475 -0.09016989
-0.049697142 0.011206563 0.02420435 -0.044420477 0.04688422 0.032881197 -0.08342291 -0.12956029
0.054002054 0.042096324 0.0051522823 -0.09113221 -0.049575653 0.10386683 0.07892675 0.029328072
0.06277093 0.02083836 0.03010719 -0.009000229 -0.04095737 -0.033849873 0.02821168 0.15986976
0.041892637 -0.030805472 0.031939726 -0.009707967 -0.037094768 0.21798658 -0.004897438 0.024511691
-0.043854717 -0.053176884 -0.10092446 -0.064867064 -0.02298548 -0.049522333 -0.07825877 0.0002171526
-0.047663547 0.063168876 0.0059649637 -0.027412964 -0.13572699 -0.06139744 -0.07434408 0.12584008
0.09051365 -0.02474716 -0.11220552 0.04842435 -0.047332827 0.107379384 -0.056201957 -0.0210346
0.0062706596 -0.010301583 0.0003443186 -0.048226476 -0.08541976 0.022432582 0.021874288 0.04136066
-0.025442375 -0.043276533 0.006050042 -0.048376117 0.011926497 0.08814399 -0.010744676 -0.022951404
0.05640834 0.032646418 -0.07891857 -0.013299808 0.057444975 -0.012722009 -0.035309102 -0.12308762
-0.024488848 -0.02234642 -0.059905075 -0.03587909 -0.101650186 -0.06194142 -0.0376034 0.05061145
0.0026827622 -0.045309786 0.0450131 0.025865255 0.0072079697 0.06452416 0.005267292 0.021373732
-0.08386816 -0.1376851 0.022438603 0.038100537 -0.04744428 0.049514752 -0.020829048 -0.06953033
0.019391542 -0.042018145 -0.0030345481 -0.030108636 -0.018625664 -0.11076149 -0.057042502 -0.028557027
0.017959267 0.022683421 -0.0071897404 0.010362306 -0.044314 0.00044438036 0.05224007 0.04501135
0.076743804 0.06593875 -0.07608401 -0.098674625 -0.0024738845 -0.014679943 -0.048789617 0.17825562
-0.08122916 0.012448606 -0.052268136 0.031592187 -0.05624233 0.06315459 -0.01477121 0.028379578
0.008793501 0.13253967 0.026392395 0.04685939 -0.050297324 -0.06926496 0.14714313 -0.11619831
-0.06142627 0.007921239 -0.13119018 -0.08464315 0.04800692 -0.07785935 0.06841155 0.043191787
-0.106570326 0.070558645 -0.0373125 -0.012555175 -0.04254941 0.033835333 -0.04984642 0.07124153
00000000: bd47 39bd 3bfe 253d cbe9 343d 06f3 573d
00000010: cf72 ab3d 36c3 8d3d c866 2fbc ab2b 12bd
00000020: 4bd0 81bc de51 cfbd bb77 0fbc cfcc a3bd
00000030: a3a8 633d 377a 07bd c5c5 bf3c 2a8c 16bd
00000040: 244d a3bd f2ac 66bd 4e9e 34bd 3c13 3b3d
00000050: 7e6d 2ebd d1c9 043c 556d 85bd d8f4 32bc
00000060: 25d9 00bb d60c abbd 506d 923c 2376 183c
00000070: 0962 d0bb 1eef 1f3d be43 9b3b facd ff3c
00000080: f763 a33c 2d8b c3bd 7347 4bbd 859a 1bbc
00000090: c68c d93c f2c3 a13d 73e2 033d c258 cbbc
000000a0: de73 56bd 3bf4 84bd 7342 51bc abe9 463d
000000b0: 4919 75bd 9a5b 533e ede0 9b3d 3be9 963c
000000c0: fd5e 9bbd 65f8 6f3d ef45 0bbb 1023 1ebc
000000d0: 06c2 e6ba 9cf9 03bd 2da2 6c3c 72fa f3bb
000000e0: b244 dcb9 6993 ba3d 86d1 d6bd 1281 d0bc
000000f0: 10bc 4ebd b834 e7ba b90e aabd 5f7b a3bd
00000100: 3111 d7bc 4b71 683d 7acf c63d e3a4 0dbe
00000110: 6212 583d e842 3d3d 1133 04be 85b3 413e
00000120: 1b62 2fbd 5cf8 0c3d dd85 703b 23d9 b53d
00000130: 0a67 38bd b927 2bbd 6d5b d13d fdf3 063d
00000140: 3c3a 293e 4033 b83d e4e9 513b ace8 b63d
00000150: d54d c23d 63a3 ba3d 42b8 393d 3e9f 573d
00000160: 16cd e3bd 0c49 003e dbf8 113d de9f c9bd
00000170: 87e9 b13c 2f65 90bc d509 18be feaa b8bd
00000180: 3b8f 4bbd bb9b 373c 3348 c63c 3ff2 35bd
00000190: ab09 403d 6fae 063d a1d9 aabd 74ab 04be
000001a0: 4231 5d3d 326d 2c3d 7ad4 a83b 86a3 babd
000001b0: d70f 4bbd 22b8 d43d 59a4 a13d 6d41 f03c
000001c0: 0c8e 803d 35b5 aa3c 5ba3 f63c b275 13bc
000001d0: eac2 27bd 2aa6 0abd 2e1c e73c e6b4 233e
000001e0: 9d97 2b3d c25b fcbc 3bd3 023d 2a0e 1fbc
000001f0: aff0 17bd e037 5f3e b07a a0bb becc c83c
00000200: 01a1 33bd 01d0 59bd 7cb1 cebd 06d9 84bd
00000210: 0c4c bcbc eed7 4abd 2246 a0bd 75b3 6339
00000220: da3a 43bd af5e 813d be75 c33b 2791 e0bc
00000230: 04fc 0abe e27b 7bbd b641 98bd 39dc 003e
00000240: 385f b93d 8eba cabc 02cc e5bd 9c58 463d
00000250: 11e0 41bd b9e9 db3d 0634 66bd c150 acbc
00000260: 1b7a cd3b f9c7 28bc a985 b439 2089 45bd
00000270: 8ef0 aebd 89c4 b73c b531 b33c cc69 293d
00000280: 876c d0bc bc42 31bd 6e3f c63b 0926 46bd
00000290: 5b67 433c d684 b43d 700a 30bc 9504 bcbc
000002a0: 6e0c 673d 40b8 053d 0fa0 a1bd 70e7 59bc
000002b0: 6c4b 6b3d f96f 50bc 47a0 10bd 5d15 fcbd
000002c0: d69c c8bc d70f b7bc 065f 75bd f4f5 12bd
000002d0: f92d d0bd 49b6 7dbd 0606 1abd f44d 4f3d
000002e0: 48d1 2f3b c196 39bd a85f 383d 5fe3 d33c
000002f0: d530 ec3b 3e25 843d 3f99 ac3b f717 af3c
00000300: 12c3 abbd 53fd 0cbe 29d1 b73c 4f0f 1c3d
00000310: ef54 42bd fbcf 4a3d aea1 aabc eb65 8ebd
00000320: 03db 9e3c 381b 2cbd 45df 46bb 63a6 f6bc
00000330: d994 98bc ecd6 e2bd 66a5 69bd 6df0 e9bc
00000340: 501f 933c 95d2 b93c ea97 ebbb a9c6 293c
00000350: 9982 35bd b9fb e839 aff9 553d d25d 383d
00000360: db2b 9d3d e50a 873d efd1 9bbd ec15 cabd
00000370: e520 22bb 2584 70bc 9fd7 47bd a488 363e
00000380: 795b a6bd 3df5 4b3c 1d17 56bd cf66 013d
00000390: 5c5e 66bd 3257 813d f202 72bc 4a7c e83c
000003a0: 9e12 103c 7bb8 073e dd34 d83c a2ef 3f3d
000003b0: 9104 4ebd cada 8dbd b0ac 163e 61f9 edbd
000003c0: 1d9a 7bbd 16c8 013c b856 06be 6359 adbd
000003d0: e7a2 443d b974 9fbd 5b1b 8c3d dfe9 303d
000003e0: 8b41 dabd 0d81 903d fed4 18bd 39b4 4dbc
000003f0: 4a48 2ebd eb96 0a3d c22b 4cbd 14e7 913d

bias f4 [64]
-0.008012879 0.027872035 0.03525839 -0.0038022678 -0.023930818 0.053498417 0.028564874 -0.03695919
0.0059426697 0.05196014 0.025527198 -0.0004230537 0.04937929 0.04419528 -0.049769558 0.023264203
-0.041936256 0.009131854 -0.006215878 -0.030606668 0.040285364 0.050723866 0.03729636 -0.010102807
0.005674026 -0.03138651 -0.039875604 0.04363202 0.025143474 -0.0048107 -0.012168794 0.033134773
-0.013221805 -0.034769654 0.035308454 -0.049306355 -0.03884542 0.018129809 -0.035658736 -0.029995814
-0.009987297 0.059650548 -0.012404105 -0.02609674 -0.009093394 0.021232745 0.030115444 0.040502284
-0.03470072 -0.019948775 -0.017945811 0.0076086903 0.008057077 -0.055105153 -0.053875603 -0.049753398
-0.05611926 0.018953048 0.01786928 0.024663027 -0.05493013 -0.0053318683 -0.05085867 -0.05877772
00000000: 7348 03bc e553 e43c 1a6b 103d 782f 79bb
00000010: 900a c4bc 2821 5b3d e200 ea3c 8562 17bd
00000020: baba c23b 28d4 543d 6a1e d13c 4ecd ddb9
00000030: f041 4a3d 1c06 353d 2adb 4bbd 9294 be3c
00000040: 5ac5 2bbd c69d 153c 90ae cbbb d6ba fabc
00000050: 4402 253d d4c3 4f3d 11c4 183d 3e86 25bc
00000060: 2eed b93b 248f 00bd 9a54 23bd 7db7 323d
00000070: b0f9 cd3c 14a3 9dbb 9f5f 47bc 54b8 073d
00000080: 45a0 58bc a06a 0ebd 999f 103d 76f5 49bd
00000090: 601c 1fbd f784 943c e50e 12bd c8b9 f5bc
000000a0: c2a1 23bc 2254 743d 963a 4bbc d5c8 d5bc
000000b0: 75fc 14bc 4bf0 ad3c aab4 f63c b9e5 253d
000000c0: 5822 0ebd 9d6b a3bc 1803 93bc 5252 f93b
000000d0: d501 043c f1b5 61bd aaac 5cbd 38ca 4bbd
000000e0: 4fdd 65bd 6c43 9b3c 9962 923c 1e0a ca3c
000000f0: 6afe 60bd f4b6 aebb 2e51 50bd e8c0 70bd

weight f4 [1, 64]
-0.15061186 0.09595857 0.12068538 -0.14024547 -0.15501674 0.09090308 0.17328505 -0.081847124
0.1836657 0.1144308 -0.124832556 0.17420395 0.1386602 0.19629574 -0.18186443 0.19034822
-0.18080917 -0.07085921 -0.16021508 0.18177031 0.23363489 0.17874445 0.120229326 0.13563225
-0.08324171 -0.04413906 -0.15084247 0.22251269 0.18986179 -0.032491576 -0.14067508 -0.07920865
0.1393674 -0.0852256 0.11342961 -0.12087923 0.15801324 -0.16564058 -0.07763932 0.1703785
0.08276988 0.10244034 -0.076513216 -0.08488561 0.16158369 -0.17434916 0.13113117 -0.05647184
-0.16658874 0.13839771 -0.15249626 0.09422642 0.08587174 0.08322355 0.15602805 0.11074275
-0.16492988 0.11935157 -0.118184194 -0.12012757 -0.08082557 -0.055991273 -0.08780369 -0.17081076
00000000: ff39 1abe ed85 c43d e629 f73d 829c 0fbe
00000010: b5bc 1ebe 652b ba3d a371 313e 779f a7bd
00000020: dc12 3c3e b25a ea3d 36a8 ffbd 8562 323e
00000030: f1fc 0d3e c001 493e ab3a 3abe a5ea 423e
00000040: 0a26 39be a21e 91bd 6c0f 24be ff21 3a3e
00000050: fc3d 6f3e c908 373e cb3a f63d 2ee3 0a3e
00000060: a17a aabd 29cb 34bd 7376 1abe 5eda 633e
00000070: 216b 423e e315 05bd 210d 10be 2538 a2bd
00000080: 54b6 0e3e c28a aebd c94d e83d 888f f7bd
00000090: 39ce 213e af9d 29be 5d01 9fbd b477 2e3e
000000a0: 4183 a93d 3ecc d13d f6b2 9cbd 82d8 adbd
000000b0: 3276 253e 9688 32be 4047 063e 044f 67bd
000000c0: 3d96 2abe 21b8 0d3e fb27 1cbe c8f9 c03d
000000d0: 86dd af3d 1c71 aa3d d1c5 1f3e 18cd e23d
000000e0: 61e3 28be 996e f43d 8e0a f2bd 7205 f6bd
000000f0: e087 a5bd 1b57 65bd 6cd2 b3bd 04e9 2ebe
