test/ens_models/ens_model_1_HA.pt (torch, 654481 bytes, 6 tensors)

layer0.weight f4 [20, 10]
-0.75757664 0.9997438 -0.4542985 -0.35915917 0.5458406 0.12591106 0.039245307 -0.61207
0.2175675 0.21587008 0.44904688 -0.37277985 0.5079553 -0.24416205 -0.26574793 0.41398883
-0.499762 0.28005388 -1.6291306 0.34276885 -0.17263882 0.48204827 0.50533533 0.72984767
0.9186406 -0.11983838 -1.1019295 -0.37364495 0.734253 0.25706068 0.21293238 -0.18510453
0.70869774 -1.0026548 -0.25160712 0.9807346 -0.05583409 0.2476712 0.78727734 -0.3192038
-0.52616507 0.5837561 -0.20301443 0.16355816 -0.37363043 -0.8230165 -0.15413399 -0.35480276
-0.36056867 -0.74890274 0.76763904 0.44054842 0.1976797 0.054880545 0.47130373 0.22453736
0.22033584 0.70934653 -0.31640452 -0.53287673 0.14131087 0.05831182 0.951633 0.018292747
0.72012013 -0.03403154 0.5581427 -0.0816332 1.4160798 -0.474078 0.22879891 0.35184544
0.9313061 0.32927817 -0.30044678 -0.17047146 -0.06365851 0.18533345 0.15843852 -0.091370724
0.46204513 0.083242945 -0.24305357 -0.22519115 -0.25658366 0.65098387 0.012655155 -0.6970378
0.10984903 -0.13775504 0.030857775 -0.17955837 -0.22120947 0.062119342 -0.8085198 -0.3996928
-0.19656354 -0.26403376 0.967025 0.68455726 0.2596054 0.5190852 0.1666443 -0.38782692
0.2233753 -1.3250159 -0.16660511 -0.00452009 0.16743602 -0.16711003 -0.29379946 0.9813513
-0.48436737 0.5685644 -0.17142172 0.25755066 0.09732975 -0.5415667 0.9407474 0.057114072
1.1290584 -0.6796849 -0.02082794 -0.12888533 0.37307295 0.43551224 -0.69246906 -0.20499474
0.111652456 -0.7397861 0.73496574 0.008008683 -0.16293454 -0.4475249 -0.30738217 0.22577825
0.096524715 -0.97893983 -1.4543942 -0.0676181 0.63496333 -0.34964335 -0.027842473 -1.3790948
-0.052593634 0.47542623 0.2075406 -0.610988 0.19675325 -0.11702249 0.048659477 -0.40835503
-0.88386583 -0.91164804 0.823166 -0.55747455 -0.15439537 0.7353176 -0.1534422 0.09278891
-0.70507234 -0.7451444 0.2650478 -0.6309811 -0.051920872 -0.15021601 0.23951113 -0.65220493
-0.05810038 -0.70182955 0.1953017 -0.60916305 0.057363283 -0.0705741 -0.2684862 -0.35687888
1.3437214 -0.21960457 -0.06696732 1.234702 0.9749451 0.12501103 -0.6148508 0.59345305
0.626055 0.14499074 0.8860412 -0.94437325 -0.09934893 -0.07890377 -0.15699497 0.1545459
0.53279155 0.22263072 -0.6053802 -0.7570166 0.3602268 0.12588862 0.6943316 -0.1922078
00000000: 8bf0 41bf 36ef 7f3f d099 e8be b6e3 b7be
00000010: 36bc 0b3f d4ee 003e b0bf 203d 9fb0 1cbf
00000020: 04ca 5e3e 0c0d 5d3e 79e9 e53e 00dd bebe
00000030: 5c09 023f 9e05 7abe 1d10 88be 58f6 d33e
00000040: cee0 ffbe 3963 8f3e 5a87 d0bf 667f af3e
00000050: 3bc8 30be 08cf f63e a85d 013f 4cd7 3a3f
00000060: 082c 6b3f d36d f5bd 070c 8dbf 644e bfbe
00000070: 01f8 3b3f 759d 833e f20a 5a3e 0b8c 3dbe
00000080: 376d 353f fe56 80bf a6d2 80be 6c11 7b3f
00000090: 49b2 64bd 859d 7d3e 028b 493f ae6e a3be
000000a0: c1b2 06bf 0a71 153f 04e3 4fbe ca7b 273e
000000b0: 7d4c bfbe 36b1 52bf 4dd5 1dbe b5a8 b5be
000000c0: 759c b8be 17b8 3fbf fe83 443f 908f e13e
000000d0: 8c6c 4a3e 6cca 603d b94e f13e 1fed 653e
000000e0: b89f 613e bc97 353f c6ff a1be 9c6a 08bf
000000f0: ccb3 103e 60d8 6e3d 389e 733f acda 953c
00000100: cb59 383f a864 0bbd 71e2 0e3f 4f2f a7bd
00000110: 1a42 b53f 5aba f2be 434a 6a3e 1625 b43e
00000120: 146a 6e3f 2697 a83e 29d4 99be 1290 2ebe
00000130: 655f 82bd 0dc8 3d3e b53d 223e 9320 bbbd
00000140: 2e91 ec3e 477b aa3d 09e3 78be 8298 66be
00000150: ef5e 83be e1a6 263f 9157 4f3c 1271 32bf
00000160: 87f8 e03d a80f 0dbe 72c9 fc3c 26de 37be
00000170: bc84 62be da70 7e3d 27fb 4ebf 89a4 ccbe
00000180: f447 49be 6f2f 87be f38e 773f 253f 2f3f
00000190: 00eb 843e c5e2 043f cea4 2a3e 4091 c6be
000001a0: 7fbc 643e 1f9a a9bf 889a 2abe 431d 94bb
000001b0: 5974 2b3e e41e 2bbe e26c 96be d739 7b3f
000001c0: 00ff f7be 708d 113f 2d89 2fbe aedd 833e
000001d0: d254 c73d 1ea4 0abf d2d4 703f 72f0 693d
000001e0: fc84 903f d4ff 2dbf 5b9f aabc 84fa 03be
000001f0: 6b03 bf3e 76fb de3e a745 31bf 24ea 51be
00000200: 0baa e43d 9f62 3dbf b726 3c3f da36 033c
00000210: 50d8 26be fc21 e5be 3261 9dbe 6a32 673e
00000220: c0ae c53d cd9b 7abf 9729 babf 5c7b 8abd
00000230: f58c 223f 7404 b3be e615 e4bc 2e86 b0bf
00000240: 6c6c 57bd 116b f33e 8685 543e b669 1cbf
00000250: af79 493e 7da9 efbd 294f 473d e913 d1be
00000260: 0845 62bf c461 69bf 02bb 523f a7b6 0ebf
00000270: d219 1ebe c63d 3c3f f41f 1dbe 1d08 be3d
00000280: 9f7f 34bf c9c1 3ebf 58b4 873e fa87 21bf
00000290: fbaa 54bd 3ad2 19be 6842 753e e7f6 26bf
000002a0: aafa 6dbd 1aab 33bf 2bfd 473e 1cf2 1bbf
000002b0: c3f5 6a3d 2789 90bd 0677 89be d4b8 b6be
000002c0: 10ff ab3f 05e0 60be 2a26 89bd b70a 9e3f
000002d0: 0196 793f e402 003e dd66 1dbf 8aec 173f
000002e0: 2445 203f 7478 143e 99d3 623f 72c2 71bf
000002f0: 7477 cbbd 4d98 a1bd 4ac3 20be 4841 1e3e
00000300: 0765 083f 4ff9 633e 32fa 1abf d7cb 41bf
00000310: a66f b83e f2e8 003e b7bf 313f 1fd2 44be

layer1.weight f4 [256, 570]
-0.18958253 0.022440096 0.3947364 -0.16505039 0.0082149245 0.005965724 -0.013456505 0.08559149
0.07440458 0.16597664 -0.09298863 -0.016328543 0.39415392 0.36579996 0.043106362 -0.16526957
0.07031695 0.04021434 0.04245562 -0.27690464 -0.049533106 0.06422079 -0.12465933 -0.039960485
-0.14728358 -0.16653763 -0.34039825 -0.15461141 -0.35989946 -0.08598491 -0.0525351 -0.56601167
-0.0126567455 -0.0047649215 -1.2370814 -0.37898725 -0.088272385 0.08517411 0.022168698 -0.079789944
-0.1742635 -0.053781215 0.03276257 -0.55701023 -0.45196074 0.43375823 -0.009359702 0.5474917
-0.0012975823 0.059025653 0.50328493 0.59058595 0.20681712 -0.18351649 0.15699825 -0.0459398
-0.27939323 -0.0036879545 -0.13365105 -0.07710065 -0.21215402 -0.03329813 0.44776094 0.4047734
0.02543656 0.022276916 0.046892826 0.021505417 -0.063925155 0.7204814 -0.22301605 0.20554389
0.3684246 -0.03793857 1.9103218 1.0688199 0.1213395 -0.09485745 0.18018152 0.30264354
-0.19679762 0.047221582 -0.044140898 -0.09471109 -0.050198402 -0.05261965 0.013703083 -0.07690663
-0.11548793 -0.021659313 -0.031872578 -0.24395561 -0.19238806 0.08990112 -0.2629886 -0.16844323
0.012902957 -0.04741978 0.02093345 -0.014177092 0.11157484 -0.025401248 -0.009272939 -0.4143094
-0.1461823 0.15394573 -0.038964134 -0.061736677 -0.29538134 0.18789773 0.34040564 -0.12269457
-0.17738064 -0.05991544 -0.095122114 -0.15433393 0.11088764 0.30073634 -0.29877448 -0.6230216
0.1306358 0.010432418 -0.07481617 -0.04908806 0.068119474 -0.022391425 0.0929778 0.11666777
-0.04280423 -0.084891446 0.042463165 0.00094645296 -0.10848104 -0.054251164 -0.006423377 0.096361876
-0.13469787 0.0067186835 0.02385204 -0.004284519 -0.24749267 0.06827235 -0.27535382 0.10203425
0.1598989 -0.21758199 -0.4649641 0.26224574 0.27030963 0.25819018 -0.03499188 0.50080657
-0.3492035 0.38046446 0.014721344 0.2423777 -0.46477458 -0.013410607 0.04559713 -0.46895373
-0.2476674 -0.13145538 0.13317183 -0.01043773 0.0047333655 0.106619634 0.16410318 -0.25587168
-0.29710233 0.016037676 0.30882502 0.030731017 0.006521333 -0.043581534 -0.124801055 0.23169194
-0.8237405 0.19431123 -0.1064073 -0.54742205 -0.25933948 0.43838507 -0.10958636 -0.11593259
-0.098193824 -0.021628685 -0.2912051 -0.04004601 0.25119194 0.7438555 0.11446662 -0.17892253
0.025482897 0.071438745 0.007415751 0.34307265 0.066496946 0.002322367 -0.051481076 0.098039135
0.3344951 0.04294873 0.038263105 0.15507987 0.5195726 0.26082548 -0.3449498 0.03138082
0.035781838 0.013229609 0.030142859 -0.034403577 -0.023358341 -0.0059265383 0.001714013 0.005928425
0.030658249 0.102772705 -0.042317566 -0.030177604 0.23264515 0.28175363 -0.9728478 -1.2665998
0.31929266 0.6875496 -0.48184368 -1.5481712 0.15834254 0.3721961 0.68404305 -0.47868988
0.524161 -0.077700056 1.1544249 0.841043 -0.9168278 -0.35759312 1.4410796 1.7383635
-0.13905214 -0.2525148 0.04003111 -0.3396468 -0.057101168 -0.05558623 0.24787787 -1.6195072
0.028838502 -0.033816796 -0.008581194 -0.51732886 0.032382466 0.015243634 -0.19171682 -0.57196295
00000000: ec21 42be 4bd4 b73c e41a ca3e f802 29be
00000010: e497 063c 1f7c c33b ac78 5cbc 974a af3d
00000020: 6e61 983d c8f5 293e d370 bebd 70c3 85bc
00000030: 8bce c93e 224a bb3e 4c90 303d 6d3c 29be
00000040: 5502 903d cbb7 243d f2e5 2d3d 72c6 8dbe
00000050: 3ae3 4abd 3186 833d 644d ffbd 9bad 23bd
00000060: 82d1 16be d788 2abe ae48 aebe 7452 1ebe
00000070: be44 b8be db18 b0bd 0c2f 57bd 24e6 10bf
00000080: 3d5e 4fbc 0f23 9cbb af58 9ebf 9e0a c2be
00000090: 27c8 b4bd c46f ae3d 219b b53c e968 a3bd
000000a0: 2272 32be b149 5cbd 0b32 063d 3998 0ebf
000000b0: 6667 e7be 8f15 de3e 6f59 19bc 6b28 0c3f
000000c0: a313 aaba e2c4 713d 48d7 003f a430 173f
000000d0: dec7 533e bfeb 3bbe 26c4 203e 5f2b 3cbd
000000e0: a10c 8fbe 9cb1 71bb d2db 08be f2e6 9dbd
000000f0: e73e 59be 9f63 08bd ec40 e53e 763e cf3e
00000100: 5560 d03c 147e b63c b112 403d 212c b03c
00000110: 31eb 82bd 7871 383f 525e 64be 197a 523e
00000120: 26a2 bc3e 7965 1bbd 6d85 f43f 17cf 883f
00000130: d880 f83d 9f44 c2bd 8181 383e 18f4 9a3e
00000140: 5185 49be 6b6b 413d 16cd 34bd e3f7 c1bd
00000150: d79c 4dbd b487 57bd e582 603c 3981 9dbd
00000160: f084 ecbd df6e b1bc d28c 02bd 80cf 79be
00000170: 6001 45be 141e b83d 71a6 86be 627c 2cbe
00000180: ed66 533c 3e3b 42bd a07c ab3c 0947 68bc
00000190: 5a81 e43d 4716 d0bc 86ed 17bc 5d20 d4be
000001a0: d0b0 15be f3a3 1d3e db98 1fbd 99df 7cbd
000001b0: 393c 97be 4368 403e a649 ae3e 4a47 fbbd
000001c0: 45a3 35be e469 75bd 62cf c2bd b709 1ebe
000001d0: 0f19 e33d 1dfa 993e f8f8 98be 587e 1fbf
000001e0: 64c5 053e bcec 2a3c 3839 99bd 9010 49bd
000001f0: 3982 8b3d 396e b7bc 256b be3d 83ef ee3d
00000200: 7d53 2fbd 91db adbd dbed 2d3d 621b 783a
00000210: 4f2b debd 7836 5ebd 317b d2bb 6059 c53d
00000220: 3dee 09be 6728 dc3b 5a65 c33c 2665 8cbb
00000230: b86e 7dbe 60d2 8b3d 2dfb 8cbe 55f7 d03d
00000240: 8abc 233e d0cd 5ebe c60f eebe 1345 863e
00000250: 0666 8a3e 8131 843e a553 0fbd dc34 003f
00000260: cdca b2be 3dcc c23e cb31 713c dc31 783e
00000270: eff6 edbe 2ab8 5bbc 0ec4 3a3d b41a f0be
00000280: 869c 7dbe 3d9c 06be 325e 083e 0303 2bbc
00000290: 591a 9b3b 655b da3d aa0a 283e 9d01 83be
000002a0: cc1d 98be 7261 833c 501e 9e3e 9dbf fb3c
000002b0: e8b0 d53b 8d82 32bd b297 ffbd a740 6d3e
000002c0: a8e0 52bf 86f9 463e 12ec d9bd da23 0cbf
000002d0: 25c8 84be 0274 e03e d06e e0bd 116e edbd
000002e0: d819 c9bd a42e b1bc d618 95be 4907 24bd
000002f0: 3b9c 803e 506d 3e3f 7a6d ea3d 7837 37be
00000300: 82c1 d03c 7a4e 923d d4ff f23b 38a7 af3e
00000310: 8d2f 883d da32 183b d2dd 52bd bec8 c83d
00000320: f142 ab3e 02eb 2f3d c6b9 1c3d 42cd 1e3e
00000330: b602 053f eb8a 853e 439d b0be 2d89 003d
00000340: fa8f 123d 00c1 583c 28ee f63c c4ea 0cbd
00000350: fe59 bfbc 6833 c2bb bca8 e03a 3c43 c23b
00000360: 0227 fb3c 7f7a d23d 2f55 2dbd 0637 f7bc
00000370: 883a 6e3e 0342 903e 8e0c 79bf f11f a2bf
00000380: 547a a33e 4003 303f 37b4 f6be 792a c6bf
00000390: 8c24 223e 7d90 be3e 721d 2f3f d716 f5be
000003a0: 6a2f 063f 3521 9fbd 32c4 933f 984e 573f
000003b0: 3ab5 6abf 7216 b7be 4c75 b83f b282 de3f
000003c0: af63 0ebe 9f49 81be a9f7 233d 2fe6 adbe
000003d0: eae2 69bd 63ae 63bd b2d3 7d3e 034c cfbf
000003e0: b93e ec3c 7b83 0abd 2398 0cbc aa6f 04bf
000003f0: 7aa3 043d 6fc0 793c 6a51 44be 2a6c 12bf

layer1.bias f4 [256]
-0.002714126 -0.019184528 -0.040427208 -0.009419286 0.024911549 -0.06681957 -0.005655277 -0.027199017
-0.0589774 -0.0014131601 -0.017888192 -0.026076596 -0.06296118 -0.029116893 -0.03515164 0.054723073
-0.019011864 -0.05468438 -0.035203367 0.0013961856 -0.059053015 0.014949858 -0.029559372 -0.024630634
-0.11702086 -0.017060505 -0.052776393 0.026416034 -0.011833333 0.03464659 -0.047766812 0.03531648
-0.023104625 -0.026930645 0.01577936 -0.03558943 -0.03516362 -0.050873235 0.1061314 0.07447814
-0.026189897 -0.03786382 -0.027096026 -0.012761615 0.008261425 -0.03590901 0.035378966 0.038066927
0.029440368 8.650551e-05 0.04865992 -0.036616657 -0.067809895 0.019845517 0.050962996 -0.05410945
-0.03485402 -0.027837405 0.030925687 -0.059178334 -0.03289032 -0.021954168 0.031587075 0.011616067
-0.045431435 0.04234688 0.013116292 -0.024592305 -0.0077705695 -0.04697071 -0.029648958 0.078987
-0.018266482 -0.072940856 0.0121902 0.033852573 -0.02067488 0.04069044 0.0012311392 0.02880322
-0.06341325 0.006258469 -0.014597936 0.0076760137 0.03421454 0.06249284 -0.026870785 -0.032221988
-0.03689011 0.0035983482 -0.04588249 -0.010166815 0.024192525 0.0035438822 0.04531269 0.032358825
-0.076619744 -0.04431758 -0.0073316633 0.007889393 0.017076684 -0.060019888 0.005877302 -0.030435046
0.013256738 -0.06790714 -0.020834763 -0.016374398 0.015080101 -0.049036026 0.07068031 0.001998475
-0.036097005 -0.012649432 -0.0074214316 -0.055295274 -0.018392691 -0.019844566 -0.027746357 0.03292008
-0.010459316 -0.045384027 0.020421393 -0.06315808 -0.005970405 -0.0392789 0.030602446 0.039744996
0.019355176 -0.019200372 -0.024027983 0.08345991 0.0052159643 -0.07628272 0.041109692 0.009899327
0.04020144 -0.060059965 -0.014377951 -0.027489308 -0.012320249 -0.043635856 -0.016605565 0.0058914674
0.03686273 0.035851285 -0.061464515 -0.031511657 -0.0030491892 -0.056718268 0.08163538 0.028469937
-0.032489836 0.012308091 -0.012467527 -0.046731938 0.049969666 0.06625349 -0.023443352 0.0069293045
-0.037087213 -0.016271707 0.04814938 -0.018111952 -0.008927557 0.014282069 0.013903565 -0.0017724821
0.064728856 -0.007752284 0.015914606 -0.03735841 -0.015688945 -0.009910205 -0.0470985 0.017859453
0.046984065 0.049515113 -0.016603358 0.031177072 -0.048494227 0.063130364 -0.043116815 0.002978826
-0.036511417 0.026256815 0.060311172 0.007335511 -0.03272756 0.03718087 0.028964855 0.043471336
0.03602031 0.0344842 0.07637467 0.06367068 -0.010231014 -0.02711185 -0.0049137766 -0.0052200314
-0.07351567 -0.02436118 -0.015269273 0.04114191 0.047201052 0.01693911 -0.11034153 0.14478876
0.0027925018 -0.020059647 -0.059064608 -0.025085766 -0.047821615 0.025428433 0.0155028915 -0.026659075
0.083557576 -0.046872027 0.025440566 0.029031264 0.039765593 -0.001706747 -0.044848554 -0.0006805126
-0.00809808 0.024115361 -0.024245886 0.0018188903 -0.06214282 -0.019486062 0.021299567 -0.030602288
-0.0035132407 0.005764094 -0.023320504 -0.029847478 -0.006584927 -0.019773688 -0.00927845 -0.06374918
-0.022656746 0.002911523 0.08191193 -0.0027183674 -0.007737261 0.027798302 0.027074875 0.019141993
-0.03471495 -0.027872624 0.024546724 0.0203778 0.006073958 -0.0129063735 -0.039687186 -0.010188674
00000000: 7adf 31bb df28 9dbc 0097 25bd 5953 1abc
00000010: 4e13 cc3c b3d8 88bd e74f b9bb 79d0 debc
00000020: 4992 71bd c939 b9ba 428a 92bc 969e d5bc
00000030: cbf1 80bd 8d86 eebc 2bfb 0fbd 4d25 603d
00000040: c5be 9bbc bafc 5fbd 6831 10bd 3700 b73a
00000050: 93e1 71bd 40f0 743c 7f26 f2bc 2fc6 c9bc
00000060: a2a8 efbd 79c2 8bbc 0f2c 58bd 7066 d83c
00000070: 99e0 41bc 95e9 0d3d 22a7 43bd 03a8 103d
00000080: e945 bdbc a89d dcbc b743 813c 39c6 11bd
00000090: ba07 10bd 7460 50bd 6b5b d93d ff87 983d
000000a0: 328c d6bc 1817 1bbd 7cf8 ddbc 1816 51bc
000000b0: ee5a 073c 5315 13bd 89e9 103d 11ec 1b3d
000000c0: ed2c f13c 4b6a b538 a04f 473d 59fb 15bd
000000d0: eadf 8abd 1193 a23c 93be 503d dfa1 5dbd
000000e0: 17c3 0ebd 450b e4bc de57 fd3c fb64 72bd
000000f0: 00b8 06bd 3ad9 b3bc 7361 013d 5151 3e3c
00000100: 5016 3abd ec73 2d3d b7e5 563c cd75 c9bc
00000110: 43a0 febb 5c64 40bd 5fe2 f2bc f0c3 a13d
00000120: 97a3 95bc 0462 95bd 68b9 473c ffa8 0a3d
00000130: 5e5e a9bc 05ab 263d 2d5e a13a bbf4 eb3c
00000140: cede 81bd d813 cd3b 2e2c 6fbc 1287 fb3b
00000150: 8c24 0c3d 7ef8 7f3d 1f20 dcbc 34fb 03bd
00000160: 151a 17bd 44d2 6b3b 47ef 3bbd b692 26bc
00000170: 672f c63c 7a40 683b cd99 393d b08a 043d
00000180: d0ea 9cbd 5a86 35bd 733e f0bb 8342 013c
00000190: 67e4 8b3c 6ad7 75bd 6296 c03b eb52 f9bc
000001a0: ca32 593c e612 8bbd aaad aabc 9a23 86bc
000001b0: 8712 773c 00da 48bd d7c0 903d d9f8 023b
000001c0: 74da 13bd 903f 4fbc 7b2f f3bb 4c7d 62bd
000001d0: 45ac 96bc 1291 a2bc 544c e3bc 35d7 063d
000001e0: 8d5d 2bbc 9ae4 39bd c44a a73c 0659 81bd
000001f0: 63a3 c3bb e9e2 20bd fbb1 fa3c a6cb 223d
00000200: bf8e 9e3c 194a 9dbc 55d6 c4bc 07ed aa3d
00000210: aeea aa3b 1d3a 9cbd a362 283d c930 223c
00000220: 44aa 243d 7001 76bd 7f91 6bbc 4231 e1bc
00000230: dfda 49bc 83bb 32bd 6508 88bc 360d c13b
00000240: 60fd 163d ccd8 123d 37c2 7bbd 5e12 01bd
00000250: e8d4 47bb 6a51 68bd 7330 a73d c939 e93c
00000260: 1014 05bd e0a7 493c 9944 4cbc fd69 3fbd
00000270: feac 4c3d e9af 873d 460c c0bc 380f e33b
00000280: c3e8 17bd 3e4c 85bc 4938 453d 845f 94bc
00000290: e344 12bc 57ff 693c c7cb 633c a152 e8ba
000002a0: 9090 843d df06 febb 595f 823c 2205 19bd
000002b0: 1a86 80bc 6a5e 22bc 5bea 40bd fd4d 923c
000002c0: 5d72 403d 5cd0 4a3d c403 88bc 0f67 ff3c
000002d0: e2a1 46bd 7e4a 813d 429b 30bd 6838 433b
000002e0: ff8c 15bd 8818 d73c d908 773d ba5e f03b
000002f0: 550d 06bd f84a 183d b447 ed3c 000f 323d
00000300: 088a 133d 4e3f 0d3d 536a 9c3d c665 823d
00000310: fc9f 27bc ac19 debc bf03 a1bb cc0c abbb
00000320: 628f 96bd 1991 c7bc f92b 7abc 6b84 283d
00000330: e455 413d e3c3 8a3c bdfa e1bd 8143 143e
00000340: 6802 373b 2154 a4bc bbed 71bd aa80 cdbc
00000350: 99e0 43bd 4a4f d03c d7ff 7d3c 2264 dabc
00000360: 3c20 ab3d e2fc 3fbd bc68 d03c f9d2 ed3c
00000370: 3fe1 223d edb4 dfba 1eb3 37bd 6d64 32ba
00000380: cfad 04bc 948d c53c 4f9f c6bc d567 ee3a
00000390: 7889 7ebd 3ca1 9fbc 6e7c ae3c a6b1 fabc
000003a0: 663e 66bb bae0 bc3b a40a bfbc b382 f4bc
000003b0: 5fc6 d7bb 6efc a1bc a404 18bc ee8e 82bd
000003c0: a49a b9bc 40cf 3e3b 71c1 a73d a326 32bb
000003d0: d988 fdbb 44b9 e33c 21cc dd3c abcf 9c3c
000003e0: 4331 0ebd 2155 e4bc 3616 c93c 58ef a63c
000003f0: 0d08 c73b 4175 53bc 088f 22bd 65ee 26bc

layer2.weight f4 [64, 256]
-0.24169853 -0.16245236 0.04531525 -0.18961228 -0.03533876 -0.039245587 -0.009567961 0.075891584
0.15585153 -0.014347641 0.059006047 0.31339765 0.12549865 -0.027392935 0.272118 -0.15475626
0.087553345 -0.3178141 -0.05184566 -0.3386137 0.19936545 0.06617628 0.07462496 0.086893566
0.41046783 -0.049134318 0.22358315 0.20994088 -0.024821112 0.063272856 -0.118618436 0.24889052
0.028022198 -0.10241436 0.25326398 -0.123915836 -0.030579366 0.12835002 -0.02644232 0.097805254
0.19414712 0.37142503 0.13355386 0.20015153 0.039150223 0.17107294 0.019861441 0.15400289
0.23947121 -0.12146449 0.07083613 -0.096757 0.051672608 -0.0059111468 -0.008129962 -0.08964849
0.13423683 0.16524677 -0.21684058 0.15801965 -0.07732722 0.13477035 -0.20305046 0.17518441
-0.04288946 -0.25504234 -0.1627024 0.0029990892 -0.24138829 0.086707376 -0.015098941 -0.0057829055
0.19101831 -0.05980487 -0.15269804 -0.31814444 0.095249265 0.142655 0.118307486 -0.04965859
0.08576702 -0.03713908 -0.084528886 -0.08971942 -0.06724266 0.19115862 0.094158 0.14466505
0.07226026 -0.026577458 0.15653698 0.045567848 -0.012645359 0.0024097248 -0.010109884 -0.12976934
0.048140388 0.027593002 -0.054555748 0.23705816 0.030186152 0.22360845 -0.058225356 -0.09750718
-0.2688776 0.11375357 -0.086484626 0.07361327 -0.018941963 -0.039682217 0.07209142 0.21731497
0.050767757 0.24887909 0.23989896 0.10747355 -0.0025767058 0.0677483 0.155401 -0.25768325
0.051217493 0.27933156 0.08246144 0.17506446 -0.3793662 0.23524965 -0.09952652 -0.102362454
0.030752813 0.032220714 -0.1025003 0.07277481 -0.03200917 -0.06623456 -0.090571485 -0.028206367
0.37164134 0.17204851 -0.07190245 0.19089112 -0.2547332 0.04676544 0.06110138 0.00048231045
-0.19048052 -0.37893027 -0.24614453 0.171477 0.27626243 0.20757283 0.13379493 -0.092149176
-0.18230353 0.05902109 -0.0066401227 0.1283028 0.009483134 -0.06257804 0.11549773 -0.018319389
0.13015626 -0.083275445 0.12592626 0.18235548 0.113410994 -0.36123124 0.04900583 -0.10629033
0.19093707 -0.113357574 0.119238965 0.13527568 0.082821324 -0.1543056 0.0845089 0.04317304
-0.035596263 0.05173406 0.017308053 -0.067926854 -0.034908272 -0.14742954 0.04288235 -0.069437474
-0.23737931 0.14214747 -0.10693574 0.049950007 0.037485816 0.09784083 -0.09604193 -0.14811072
0.005753126 0.30062938 -0.03321942 -0.15462866 -0.07141998 -0.0015059934 -0.24160922 0.24861357
0.05348312 -0.26302257 -0.047157124 -0.066637784 0.0328253 0.09100607 0.44258684 -0.09713944
0.25608924 -0.14691304 -0.022249838 -0.092918806 0.06328914 -0.032878116 -0.008476949 0.23667954
-0.0052928035 0.06618873 0.38457435 0.040604953 0.007230508 -0.111700214 0.0045322524 0.075919084
0.20141143 0.046922527 0.06978307 -0.0011428354 -0.13606872 -0.13688694 0.15603745 0.10149939
0.0333812 0.26880488 0.0994854 0.33676 0.31521192 0.1706934 -0.2038948 0.28770146
0.14803685 0.07636765 -0.3614579 0.2220555 0.11794926 -0.14447245 -0.43077382 -0.034458317
0.15515593 0.28533518 0.030493163 -0.16758858 0.038416434 0.10577282 0.08574183 -0.014929166
00000000: d27f 77be e959 26be 7c9c 393d b929 42be
00000010: 60bf 10bd fbbf 20bd f0c2 1cbc 0c6d 9b3d
00000020: 8b97 1f3e 5e12 6bbc 53b0 713d a875 a03e
00000030: b882 003e 2667 e0bc 0d53 8b3e 6d78 1ebe
00000040: 2b4f b33d 88b8 a2be 1d5c 54bd c65e adbe
00000050: 7526 4c3e 6e87 873d f9d4 983d 41f5 b13d
00000060: d728 d23e 1141 49bd fbf2 643e befa 563e
00000070: a555 cbbc 3395 813d 39ee f2bd 28dd 7e3e
00000080: cf8e e53c 9fbe d1bd d1ab 813e 96c7 fdbd
00000090: 9481 fabc 306e 033e 909d d8bc 1f4e c83d
000000a0: 81ce 463e 6c2b be3e 58c2 083e 86f4 4c3e
000000b0: fc5b 203d bf2d 2f3e 76b4 a23c efb2 1d3e
000000c0: f137 753e 60c2 f8bd 8812 913d 8928 c6bd
000000d0: a8a6 533d 4bb2 c1bb 8833 05bc a199 b7bd
000000e0: 6175 093e 7336 293e 750b 5ebe e7cf 213e
000000f0: bc5d 9ebd 3d01 0a3e 76ec 4fbe 8b63 333e
00000100: dcac 2fbd e994 82be 759b 26be 5e8c 443b
00000110: 7e2e 77be a393 b13d 8c61 77bc 877e bdbb
00000120: 4e9a 433e f4f5 74bd e05c 1cbe d4e3 a2be
00000130: 0c12 c33d 2714 123e 324b f23d ce66 4bbd
00000140: 9fa6 af3d 261f 18bd 7b1d adbd d1be b7bd
00000150: 85b6 89bd 16bf 433e e9d5 c03d 1323 143e
00000160: 30fd 933d f8b8 d9bc 3b4b 203e 5aa5 3a3d
00000170: 7b2e 4fbc 79ec 1d3b eda3 25bc 41e2 04be
00000180: db2e 453d b80a e23c d975 5fbd 60bf 723e
00000190: f348 f73c 9df9 643e b67d 6ebd d8b1 c7bd
000001a0: 53aa 89be a2f7 e83d da1e b1bd 8ec2 963d
000001b0: 2d2c 9bbc d289 22bd aba4 933d d187 5e3e
000001c0: daf1 4f3d 29da 7e3e 13a8 753e 181b dc3d
000001d0: f3dd 28bb 9fbf 8a3d 7121 1f3e 0fef 83be
000001e0: 6fc9 513d 8c04 8f3e 8be1 a83d 1944 333e
000001f0: 493c c2be 49e5 703e 8fd4 cbbd 68a3 d1bd
00000200: 53ed fb3c def9 033d adeb d1bd f60a 953d
00000210: 0c1c 03bd fca5 87bd 8b7d b9bd 0a11 e7bc
00000220: c647 be3e 7c2d 303e 9741 93bd f678 433e
00000230: 646c 82be 1e8d 3f3d 7145 7a3d 9dde fc39
00000240: 530d 43be 2603 c2be 500d 7cbe ab97 2f3e
00000250: 4572 8d3e f98d 543e 8a01 093e b5b8 bcbd
00000260: c7ad 3abe 19c0 713d 6395 d9bb cf61 033e
00000270: 265f 1b3c ea28 80bd 138a ec3d 8b12 96bc
00000280: af47 053e 518c aabd d0f2 003e 65bb 3a3e
00000290: 0644 e83d 4df3 b8be 56ba 483d bfae d9bd
000002a0: 0285 433e 0428 e8bd 8f33 f43d b585 0a3e
000002b0: 3a9e a93d 4a02 1ebe 0113 ad3d 37d6 303d
000002c0: 63cd 11bd 18e7 533d 9ec9 8d3c 3c1d 8bbd
000002d0: fafb 0ebd c5f7 16be 67a5 2f3d 3c35 8ebd
000002e0: 9013 73be 1b8f 113e 2001 dbbd 6198 4c3d
000002f0: ba8a 193d c660 c83d a2b1 c4bd 56aa 17be
00000300: b884 bc3b 18ec 993e 1611 08bd fa56 1ebe
00000310: a344 92bd c164 c5ba 6868 77be 8e94 7e3e
00000320: 1e11 5b3d e5aa 86be d427 41bd 6479 88bd
00000330: d273 063d 6461 ba3d be9a e23e 0bf1 c6bd
00000340: 211e 833e 5f70 16be 4b45 b6bc 374c bebd
00000350: bd9d 813d 34ab 06bd e7e2 0abc 1f5c 723e
00000360: 416f adbb f58d 873d eee6 c43e 6151 263d
00000370: e6ed ec3b 15c3 e4bd 4a83 943b 777b 9b3d
00000380: cc3e 4e3e d631 403d 6dea 8e3d 31cb 95ba
00000390: 9955 0bbe 172c 0cbe 48c8 1f3e eade cf3d
000003a0: baba 083d cba0 893e 00bf cb3d cf6b ac3e
000003b0: 7563 a13e 40ca 2e3e ccc9 50be 9b4d 933e
000003c0: f996 173e a466 9c3d 0311 b9be 8462 633e
000003d0: 628f f13d 96f0 13be 638e dcbe 2a24 0dbd
000003e0: 32e1 1e3e 7417 923e cccc f93c 579c 2bbe
000003f0: 8d5a 1d3d 6c9f d83d 6a99 af3d 7699 74bc

layer2.bias f4 [64]
-0.025779285 -0.029521005 0.03043728 0.030341716 -0.07405542 0.060544863 0.014855746 0.025340503
-0.052275464 0.03753519 0.031796765 0.057012144 -0.077998124 0.05254583 -0.025586486 -0.06002525
0.014040849 -0.02958955 -0.02677076 0.003208428 -0.023956617 -0.08930094 -0.04316895 -0.036745727
-0.089501664 -0.04581614 0.002086096 -0.025673604 -0.078029536 -0.06355606 -0.078769706 -0.10205794
-0.020910919 -0.038149096 -0.06920776 -0.04167662 0.06849177 -0.11950979 0.004315372 0.01420971
-0.044985946 0.006323861 0.0127614485 0.014524981 -0.033243027 -0.040195826 -0.03533711 -0.03712095
-0.02245118 -0.079276696 -0.093090534 -0.0643015 0.068624936 0.004576644 -0.06598899 0.04232929
-0.04612551 -0.024070058 -0.0063020377 -0.055785205 0.013621436 0.025693549 -0.021456681 -0.08955376
00000000: 142f d3bc 09d6 f1bc 9a57 f93c 318f f83c
00000010: 5eaa 97bd e4fd 773d 8465 733c e396 cf3c
00000020: cc1e 56bd 80be 193d 533d 023d 9185 693d
00000030: 7bbd 9fbd 4c3a 573d c09a d1bc 09dd 75bd
00000040: 970b 663c c965 f2bc 5a4e dbbc 7d44 523b
00000050: ab40 c4bc 69e3 b6bd edd1 30bd b082 16bd
00000060: a64c b7bd b4a9 3bbd e2b6 083b 7351 d2bc
00000070: f3cd 9fbd ae29 82bd 0352 a1bd c103 d1bd
00000080: 604d abbc 3a42 1cbd ccbc 8dbd 1ab5 2abd
00000090: 6a45 8c3d 8cc1 f4bd f767 8d3b d8cf 683c
000000a0: 2f43 38bd 6438 cf3b 6515 513c 30fa 6d3c
000000b0: d729 08bd 61a4 24bd a5bd 10bd 230c 18bd
000000c0: 89eb b7bc d25b a2bd 40a6 bebd 81b0 83bd
000000d0: 3b8b 8c3d acf7 953b 3c25 87bd 7a61 2d3d
000000e0: 1aee 3cbd 922e c5bc 5381 cebb 077f 64bd
000000f0: 722c 5f3c 477b d23c ecc5 afbc f667 b7bd

layer3.weight f4 [1, 64]
-0.22055887 0.09535252 0.24084908 -0.25078064 0.24353853 0.32523134 0.17902678 -0.238112
-0.2517263 0.30215856 0.25466508 0.28376532 -0.2826772 0.23216352 -0.18674368 -0.31854802
0.19325513 0.28141218 -0.20683526 -0.18076344 0.30331638 -0.1676927 0.11158277 -0.34381756
-0.14186451 -0.24353528 -0.19785504 0.22727644 0.22536394 -0.13535284 0.27849138 0.33002323
-0.23641077 -0.1784059 -0.23832169 -0.15764752 0.20001535 0.21526527 0.19433166 0.28705359
-0.24756514 -0.16020192 0.37817633 -0.1219921 0.18992183 0.42232996 0.27782318 -0.27337602
0.30731374 -0.20592132 -0.22164945 -0.18755524 0.38650578 -0.33559352 0.255688 -0.1878475
0.13226454 0.24732119 0.18888697 0.2178435 -0.1333317 0.5563464 -0.18110444 -0.20357127
00000000: 2fda 61be 2f48 c33d 24a1 763e 5266 80be
00000010: 2a62 793e b984 a63e cc52 373e a2d3 73be
00000020: 45e2 80be 87b4 9a3e 7663 823e b049 913e
00000030: 11bb 90be 46bc 6d3e bc39 3fbe ba18 a3be
00000040: ace4 453e 4215 903e 9fcc 53be 0d1a 39be
00000050: 494c 9b3e a3b7 2bbe 8285 e43d db08 b0be
00000060: ee44 11be 5061 79be 839a 4abe 28bb 683e
00000070: cec5 663e ef99 0abe 6c96 8e3e cef8 a83e
00000080: aa15 72be 09b0 36be 9a0a 74be 5a6e 21be
00000090: d3d0 4c3e 806e 5c3e e1fe 463e b0f8 923e
000000a0: b781 7dbe f90b 24be 54a0 c13e fed6 f9bd
000000b0: de7a 423e a23b d83e d73e 8e3e f1f7 8bbe
000000c0: 3a58 9d3e 0add 52be 13f8 62be 7b0e 40be
000000d0: 16e4 c53e ead2 abbe 8ae9 823e 185b 40be
000000e0: 5b70 073e c441 7d3e 966b 413e 5e12 5f3e
000000f0: 1b88 08be b86c 0e3f 7173 39be fd74 50be
