test/ens_models/ens_model_3_N.pt (torch, 654739 bytes, 6 tensors)

weight f4 [20, 10]
0	0xbe85fa2c	-0.26167428
1	0x3e7e99e2	0.24863389
2	0xbe7afadd	-0.24509759
3	0xbf730058	-0.949224
4	0x3e9343bd	0.28762618
5	0x3ea5fa73	0.3241764
6	0x3f0c23f1	0.5474234
7	0x3e7f3192	0.24921253
8	0x3e566041	0.20935155
9	0x3e3261e8	0.17420161
10	0xbdfd895b	-0.12379714
11	0xbf507147	-0.8142285
12	0x3e812199	0.25220945
13	0xbe49093c	-0.19632429
14	0x3ea03005	0.31286636
15	0xbe9bb091	-0.30408147
16	0x3e055295	0.13019784
17	0xbf1bee38	-0.6091037
18	0xbe92ecc6	-0.2869627
19	0xbd8d6317	-0.069036655
20	0xbe85b1aa	-0.2611211
21	0xbf48d7bc	-0.78454185
22	0x3e9c9420	0.3058176
23	0x3cd14443	0.025545245
24	0xbf0584cb	-0.5215575
25	0xbea06dbb	-0.31333718
26	0x3ee3872c	0.44439065
27	0x3f0c27da	0.5474831
28	0x3c0e11a9	0.008671203
29	0xbe9c8c40	-0.30575752
30	0xbef2cab1	-0.47420266
31	0x3cd0aef9	0.025474058
32	0xbe9961d3	-0.29957446
33	0x3f3ad976	0.7298807
34	0xbf1d8bc5	-0.61541396
35	0x3f861121	1.0473977
36	0x3e99b76c	0.30022752
37	0xbe8005d3	-0.25004444
38	0x3d52a0e3	0.051422965
39	0x3e8f5414	0.27993834
40	0xbd73b794	-0.059501246
41	0xbe8c9a58	-0.27461505
42	0xbf44e9de	-0.76919353
43	0xbf3fb959	-0.74892193
44	0x3d074717	0.03302678
45	0xbf24910e	-0.64283836
46	0x3dd82366	0.10553627
47	0x3ebf2561	0.37333205
48	0xbe434230	-0.19068217
49	0x3ec6434c	0.38723218
50	0x3e753f40	0.23949909
51	0x3e9b3f80	0.30321884
52	0x3e504ad3	0.20341043
53	0xbec73307	-0.38906118
54	0x3efd27d4	0.4944445
55	0x3eaa3620	0.3324442
56	0x3ebce1d2	0.36891037
57	0x3bec6a12	0.007214793
58	0xbef002d0	-0.46877146
59	0xbf6e8250	-0.9316759
60	0x3f0b9740	0.54527664
61	0x3e72738e	0.23676893
62	0x3eead373	0.45864448
63	0x3ea0cb46	0.31405085
64	0xbe29419a	-0.16528931
65	0x3de0965c	0.10966179
66	0x3a9a409c	0.0011768523
67	0x3f0ea70c	0.55723643
68	0xbe7c4adf	-0.24637936
69	0xbe70c035	-0.23510821
70	0x3e590d98	0.21196592
71	0x3f0ed093	0.5578701
72	0x3db7ee35	0.08980981
73	0x3d5d6daa	0.054059662
74	0xbc993d6c	-0.018706046
75	0xbf41fcb0	-0.75776196
76	0x3f1e1f54	0.6176655
77	0xbe61ab3f	-0.22037981
78	0xbe90e658	-0.28300738
79	0x3e673fb4	0.22582895
80	0xbe5b2d21	-0.21403934
81	0x3eccfcb0	0.40036535
82	0xbe936583	-0.28788385
83	0x3fd82e57	1.6889142
84	0x3d6d2086	0.057892345
85	0x3ea06122	0.31324106
86	0x3edb8471	0.42874482
87	0x3c4188c8	0.011812396
88	0x3f25ed26	0.64814985
89	0xbec84e3a	-0.39122182
90	0xbe20b5a7	-0.15694295
91	0x3dcf8682	0.10133077
92	0xbe96df70	-0.29467344
93	0xbe9154e8	-0.2838509
94	0xbf039c5d	-0.51410466
95	0xbe90e092	-0.28296334
96	0xbf745738	-0.95445585
97	0xbd921c80	-0.07134342
98	0xbd0c39a4	-0.034234658
99	0xbb978e67	-0.00462513
100	0x3d97657e	0.07392405
101	0xbec01224	-0.3751384
102	0xbdaa1e9b	-0.08306619
103	0x3ddc91f6	0.10770027
104	0xbe3bb7af	-0.18331788
105	0x3f29bc4c	0.66302943
106	0xbe5760bd	-0.21032996
107	0x3ebb4e91	0.3658338
108	0xbedfd2a5	-0.43715397
109	0xbd86e0f8	-0.06585878
110	0xbd659166	-0.056046866
111	0x3efec578	0.49760032
112	0x3f204fa9	0.6262155
113	0x3f251132	0.6447936
114	0x3dae17cd	0.085006334
115	0xbd057583	-0.03258277
116	0xbd93c7d4	-0.072158486
117	0xbdb3469a	-0.087537006
118	0x3e34bc17	0.17649876
119	0xbefbcbd4	-0.49178946
120	0xbfaaa0a1	-1.333027
121	0xbd0f36f1	-0.034964506
122	0xbe7d849f	-0.24757622
123	0x3eadc7e4	0.33941567
124	0xbd661268	-0.056169897
125	0x3f1db884	0.61609674
126	0xbe8218ac	-0.25409448
127	0x3f425367	0.7590851
128	0xbf09c01a	-0.5380875
129	0xbdf95830	-0.121750236
130	0x3f2026f5	0.62559444
131	0xbe7106eb	-0.23537795
132	0x3e917486	0.28409213
133	0x3be230ff	0.0069028134
134	0x3ec77c51	0.38962033
135	0xbedb73d4	-0.42861807
136	0xbe104b70	-0.14091277
137	0xbefbd4f2	-0.49185902
138	0x3eac29a9	0.33625534
139	0x3ecc98e9	0.3996041
140	0xbece9912	-0.40351158
141	0x3e3c611c	0.1839642
142	0x3cee5647	0.029093875
143	0x3f027ff2	0.5097648
144	0x3f084347	0.5322766
145	0x3c0012ff	0.007817029
146	0xbf03f033	-0.5153839
147	0x3e60d850	0.21957517
148	0xbf49b450	-0.7879076
149	0xbf1908b1	-0.5977889
150	0xbdd0fd7b	-0.102045976
151	0xbe55096a	-0.20804372
152	0x3e0d3ee0	0.13793516
153	0x3dc701f8	0.097171724
154	0xbd50d674	-0.05098577
155	0xbddf862a	-0.10914262
156	0x3e2e0b13	0.16996412
157	0x3f1e5587	0.61849254
158	0x3e80c030	0.25146627
159	0x3f5bec47	0.85907406
160	0xbcc8f794	-0.024532117
161	0xbe44d63f	-0.19222353
162	0xbf6af29b	-0.91776437
163	0x3e8e1620	0.27751255
164	0x3f0c8332	0.5488769
165	0xbe9ae5b6	-0.3025338
166	0xbed77e47	-0.4208853
167	0x3e87489c	0.26422584
168	0x3d15f764	0.036612883
169	0x3da4754b	0.08030184
170	0x3bc9f511	0.0061632474
171	0xbe572129	-0.21008743
172	0x3f98de83	1.1942905
173	0xbe3c8be6	-0.18412742
174	0xbe21000a	-0.15722671
175	0x3e0d1502	0.13777545
176	0x3ea2d182	0.31800467
177	0xbf97fba9	-1.1873676
178	0x3f2d4b8b	0.67693394
179	0x3def6e63	0.116909765
180	0x3ee1c014	0.44091856
181	0xbe72923a	-0.23688594
182	0xbdd381ab	-0.103274666
183	0x3f0a1943	0.53944796
184	0xbeea7a81	-0.45796588
185	0x3ed72998	0.4202392
186	0xbd44f499	-0.04808483
187	0xbd9fa791	-0.07795633
188	0xbe004a52	-0.12528351
189	0x3e04cae3	0.1296802
190	0x3e6e23c6	0.23255834
191	0xbe77b6c9	-0.24190821
192	0xbee719dc	-0.45136917
193	0xbd83cbb1	-0.064353354
194	0x3e299c98	0.16563642
195	0xbf32f7ef	-0.69909567
196	0xbf397252	-0.72440064
197	0xbde2d8f8	-0.1107654
198	0x3caecff2	0.02133939
199	0xbd9951f6	-0.07486336

weight f4 [256, 570]
0	0xbd2449f1	-0.04010958
1	0xbc98a7e3	-0.018634742
2	0xbb1f1f50	-0.0024280138
3	0xbe5f84d6	-0.21828017
4	0xbdd39bbd	-0.10332439
5	0x3d2a5300	0.04158306
6	0x3ca66a15	0.020314256
7	0x3d40c66c	0.04706423
8	0xbc9ce05d	-0.019149953
9	0x3da8d34c	0.08243427
10	0x3cbcf53d	0.023066157
11	0xbddd34dd	-0.108010985
12	0xbe0abdc4	-0.13548952
13	0x3df1a051	0.11798156
14	0xbe1f70b1	-0.15570332
15	0x3eaa2768	0.3323319
16	0x3ed55087	0.41663
17	0x3dd16cf4	0.10225859
18	0xbd49720e	-0.049181037
19	0x3cc729bd	0.024311895
20	0xbd10b728	-0.03533092
21	0xbb9c563f	-0.0047710235
22	0x3d516673	0.051123094
23	0xbe27e3f3	-0.1639555
24	0xbda40584	-0.080088645
25	0x3e4a6a45	0.19767101
26	0x3d8ff201	0.070285805
27	0x3dc3c0b9	0.09558243
28	0x3d67df25	0.05660929
29	0xbd74aff3	-0.05973811
30	0xbecf6582	-0.40507132
31	0xbf0cdcfc	-0.55024695
32	0xbb422b8c	-0.0029628007
33	0x3c906530	0.017626375
34	0xbbfdf433	-0.007750058
35	0x3d8172b9	0.0632071
36	0x3f2de662	0.6792966
37	0x3ed2f74d	0.412043
38	0xbc15c52a	-0.009141246
39	0xbd65c4d4	-0.056095913
40	0x3c9f97b5	0.01948152
41	0x3e94fe5a	0.29100305
42	0x3d8b9d7d	0.06817148
43	0xbf030cf1	-0.5119162
44	0xbf17eb24	-0.5934317
45	0x3e4d2e08	0.20037091
46	0x3ec75624	0.38932908
47	0x3f15ddb6	0.5854143
48	0xbbd45523	-0.0064798757
49	0x3c1c5582	0.009541871
50	0xbe69071e	-0.22756621
51	0x3f2abe1b	0.6669633
52	0x3e3e2082	0.18567088
53	0xbd1d1515	-0.038350184
54	0xbcda7af8	-0.026669964
55	0xbc24712c	-0.010036748
56	0xbcba0f60	-0.02271241
57	0x3de7737f	0.11301326
58	0x3df7ee7d	0.12106035
59	0x3d6547b0	0.05597657
60	0x3cf34f6b	0.029700955
61	0x3eb20de8	0.34776235
62	0xbe9d9ddf	-0.3078451
63	0xbea3cc64	-0.31991875
64	0xbcae450b	-0.021273157
65	0xbba5276e	-0.005040101
66	0x3c511c45	0.012763088
67	0x3c95ad4d	0.018271113
68	0x3cfbc1db	0.030732086
69	0xbd6d28c0	-0.05790019
70	0xbfef1da8	-1.8680925
71	0xbf530380	-0.82427216
72	0x3f238294	0.6387112
73	0x3dd2f3ce	0.10300408
74	0x3ee3f8e5	0.4452583
75	0xbee04286	-0.43800753
76	0x3f49b72a	0.7879511
77	0x3fcdb4cb	1.6070799
78	0x3e4d1dd2	0.20030907
79	0xbf5d89f0	-0.865386
80	0xbe082db5	-0.13298686
81	0xbd554af0	-0.05207342
82	0xbd72cd4d	-0.05927782
83	0xbd8060da	-0.06268473
84	0x3c1d0c1d	0.009585408
85	0x3c8b6ddb	0.017020157
86	0xbdcc1b6f	-0.0996617
87	0x3d612ea8	0.054976135
88	0x3d01d5ca	0.031698026
89	0xbd93df69	-0.072203465
90	0x3c8c6ce7	0.017141772
91	0x3c5f7b0f	0.013640179
92	0x3e11834e	0.14210245
93	0x3e0b38c1	0.13595869
94	0xbd2071f4	-0.039171174
95	0xbe18d62e	-0.14925453
96	0x3e400829	0.18753113
97	0x3c0bb393	0.008526701
98	0xbb5e8e13	-0.0033959195
99	0xbc7d8ce4	-0.0154754855
100	0x3be2ce02	0.0069215307
101	0x3dc1ccc5	0.09462885
102	0x3db1997c	0.08671853
103	0xbd8594d5	-0.06522528
104	0x3e1294dc	0.14314598
105	0xba929d2e	-0.0011185759
106	0xbd8a0ebf	-0.06741094
107	0xbd59c899	-0.05316982
108	0x3e5a7583	0.2133389
109	0xbe00827d	-0.12549777
110	0x3ea70407	0.3262026
111	0xbd43b2bf	-0.047777887
112	0xbd9c1b3d	-0.07622383
113	0x3c626519	0.013818049
114	0x3d2ff5ed	0.042959142
115	0x3c20e51c	0.009820249
116	0xbdc2c50c	-0.0951024
117	0xbdbf11d5	-0.09329573
118	0xbcbe5f6f	-0.023238866
119	0xbca9d23e	-0.020730134
120	0xbdab484b	-0.08363398
121	0x3c8c37a1	0.01711637
122	0xbb8503ce	-0.0040592914
123	0x3d3dc63b	0.046331625
124	0xbd6cd923	-0.057824265
125	0xbcb22e00	-0.02175045
126	0x3ca50433	0.020143604
127	0x3d66c259	0.056337688
128	0x3d1f16dc	0.03884016
129	0x3e09dbed	0.13462801
130	0x3b8ac6f7	0.0042351442
131	0xbdb65376	-0.08902638
132	0x3e209d62	0.15685037
133	0x3e03f8b4	0.12887841
134	0x3d275040	0.040848017
135	0x392a0e84	0.00016217871
136	0x3e2db67d	0.16964145
137	0x3e09936b	0.13435142
138	0xbcb8299b	-0.022480777
139	0x3e3d31b1	0.18475987
140	0x3dd26022	0.10272242
141	0x3e54a53b	0.20766155
142	0xbe8fcab4	-0.28084338
143	0x3f13e15c	0.57765746
144	0x3b0fe604	0.0021957168
145	0x3d930684	0.07178977
146	0xbd2ca7e5	-0.042152304
147	0x3d480b69	0.048839007
148	0x3eff649b	0.49881443
149	0x3df39710	0.11894047
150	0x3cb31dbd	0.021864766
151	0x3f4c9ff8	0.7993159
152	0x3e6c5d00	0.23082352
153	0xbe3001ea	-0.1718823
154	0x3e0adef9	0.1356162
155	0x3ed02833	0.4065567
156	0x3cdf3cc3	0.027250653
157	0xbe0359bb	-0.12827198
158	0x3da53c54	0.08068147
159	0x3e059194	0.13043815
160	0x3c58dd59	0.013236367
161	0x3d48c702	0.049017914
162	0xbd25deb5	-0.040495593
163	0xbe81b041	-0.25329784
164	0x3e392e31	0.18084027
165	0x3d937772	0.07200517
166	0x3e3f3b71	0.18675019
167	0xbd7e8a19	-0.06214342
168	0xbdbc8ec6	-0.09206919
169	0xbd2c31c2	-0.04203964
170	0x3d9cd3e2	0.07657601
171	0xbe04b206	-0.12958536
172	0xbe6bf737	-0.23043524
173	0x3e716eba	0.23577395
174	0xbe587292	-0.21137455
175	0x3f4f9bf7	0.8109736
176	0xbf5630d6	-0.8366827
177	0xbf8f2f4b	-1.1186308
178	0x3e0a8d7b	0.13530533
179	0x3e1c61c0	0.15271664
180	0xbf98182b	-1.1882375
181	0xbf8ace0f	-1.0844134
182	0x3d3c5384	0.045978084
183	0x3cf0dca9	0.029402094
184	0xbe299641	-0.16561224
185	0xbd5e3fa2	-0.054259904
186	0xbd8af746	-0.06785445
187	0x3c39f074	0.011348832
188	0x3de4d1c4	0.11172822
189	0xbd5d45e0	-0.054021716
190	0xbe384fbb	-0.17999165
191	0xbb99ad58	-0.0046898536
192	0xbdca35f4	-0.09873572
193	0x3d4f9307	0.050677326
194	0xbbdd9dee	-0.0067632115
195	0xbe1a00b1	-0.15039326
196	0xbe44d5df	-0.1922221
197	0xbcc94178	-0.02456735
198	0x3db79d30	0.08965528
199	0xbe2d0796	-0.16897425
200	0xbdecb123	-0.11557224
201	0x3dcf7d16	0.1013128
202	0xbce859d7	-0.028363151
203	0xbe60fee1	-0.21972229
204	0xbf105d24	-0.5639212
205	0xbde9c95d	-0.1141536
206	0xbef0ccbb	-0.47031197
207	0x3fa698eb	1.3015417
208	0x3c17610c	0.009239446
209	0xbc9fa456	-0.019487541
210	0xbc65ebed	-0.0140333
211	0x3cce2743	0.025165206
212	0x3cd95a58	0.026532337
213	0xbdbf2835	-0.09333841
214	0xbd821e16	-0.06353395
215	0x3c94213e	0.018082257
216	0x3f945d51	1.1590978
217	0xbf5c1d8e	-0.85982597
218	0xbe5bb808	-0.21456921
219	0xbeca51b2	-0.39515454
220	0x3f86b7d3	1.0524849
221	0xbea84c99	-0.3287094
222	0x3f5d0eef	0.8635091
223	0xbfe512aa	-1.7896321
224	0xbe261783	-0.16219907
225	0xbe13c6b3	-0.14431266
226	0x3f915928	1.1355333
227	0xc00e8fb6	-2.2275214
228	0xbf199efa	-0.60008204
229	0x3f1e4c4b	0.61835164
230	0x3fc1a253	1.5127662
231	0xbf4ed26c	-0.8078983
232	0x4009f5b7	2.1556222
233	0x3fec7a60	1.8474846
234	0x3f6c1f9b	0.92235726
235	0xc00fa827	-2.2446382
236	0x40029901	2.0405886
237	0x3eb82143	0.35962877
238	0x3fd06175	1.6279742
239	0xbe5f837e	-0.21827504
240	0x3cd57b91	0.026059898
241	0x3e0ebdc2	0.13939574
242	0xbd3cbb0e	-0.046076827
243	0x3b889c34	0.0041690115
244	0xbeab08c5	-0.33405128
245	0x3dfc8fd5	0.12332121
246	0xbcde1b9c	-0.027112775
247	0xbc9787b6	-0.01849733
248	0xbe30c928	-0.17264235
249	0x3d83370a	0.06406982
250	0x3caf7234	0.021416761
251	0xbbe174d0	-0.00688038
252	0x3cdaf0d1	0.026726158
253	0x3d38771f	0.045035478
254	0xbcaa4e96	-0.020789426
255	0x3db5b09c	0.08871576

bias f4 [256]
0	0xbd8fceac	-0.070218414
1	0x3db68e47	0.08913856
2	0xbca98aff	-0.020696161
3	0x3caeb695	0.021327296
4	0xbd5abf88	-0.053405315
5	0x3d59e385	0.053195495
6	0xbd9c56c1	-0.076337345
7	0xbd0afc05	-0.03393175
8	0x3cd13f9e	0.02554303
9	0xbd24ab89	-0.04020265
10	0xbbac989a	-0.005267215
11	0xbe161f90	-0.14660478
12	0x3d57e601	0.052709583
13	0x3d3c755d	0.046010364
14	0x3cd4c445	0.025972495
15	0x3c0257cc	0.007955503
16	0xbd314e63	-0.043287646
17	0x3c34c65e	0.011033623
18	0xbd2e4229	-0.042543564
19	0xbd223866	-0.039604567
20	0xbb8fb544	-0.004385622
21	0xbcf57869	-0.029964643
22	0x3c7f3457	0.015576444
23	0x3d085cd4	0.033291653
24	0xbc6c0fa3	-0.014408025
25	0xbe0a1cb0	-0.13487506
26	0x3d10901d	0.035293687
27	0x3d785abe	0.060633413
28	0xb946c19a	-0.00018954874
29	0xbc2127dc	-0.009836163
30	0x3d3cb23b	0.04606841
31	0xbc288f26	-0.0102880355
32	0x3e117f7b	0.14208786
33	0xbd016bc6	-0.03159692
34	0xbc9aa65d	-0.018878156
35	0x3daee152	0.0853907
36	0xbbd6ad71	-0.0065514375
37	0x3bb227a1	0.005436853
38	0x3cf3ca96	0.029759686
39	0xbc5e0532	-0.013551043
40	0x3c5815d7	0.013188801
41	0x3ce125c6	0.027483832
42	0x3dba6ca2	0.09102751
43	0x3c90e912	0.017689262
44	0xbcbc5e2e	-0.022994127
45	0x3c83cfd4	0.016090311
46	0xbe3b022e	-0.1826255
47	0xbd761557	-0.060078945
48	0x3dbc018d	0.09179983
49	0xbcf4c040	-0.029876828
50	0x3db4e0a3	0.088319086
51	0xbd2bc241	-0.0419333
52	0xbc43a958	-0.01194223
53	0x3ce31b86	0.027723085
54	0xbd8b23d6	-0.067939445
55	0xbad94a89	-0.0016577999
56	0xbc7c75eb	-0.015408973
57	0x3da8185d	0.08207772
58	0x3da2a474	0.07941523
59	0x3d2603d7	0.040531006
60	0x3bb4f0b1	0.0055218567
61	0x3cd2322e	0.025658693
62	0x3c806ba4	0.015676327
63	0xbd50a54d	-0.050938893
64	0x3d898964	0.06715658
65	0x3d385f4b	0.045012753
66	0xbd443f6f	-0.047912057
67	0x3d3c3436	0.04594823
68	0xbd8aec3a	-0.06783338
69	0xb9c58bc6	-0.00037678907
70	0xbcbe509d	-0.023231799
71	0xbcb7b72a	-0.022426207
72	0x3cc0ab29	0.023519116
73	0x3d103a7b	0.03521202
74	0x3c5bb258	0.01340922
75	0xbd9ec602	-0.07752611
76	0xbce6010a	-0.028076667
77	0xbd363d9e	-0.044492356
78	0xbcf51a73	-0.029919839
79	0x3c50aebc	0.012736972
80	0xbccececd	-0.025245095
81	0xbb276270	-0.002554085
82	0x3d651b5c	0.055934295
83	0xbbd79196	-0.0065786345
84	0xbd5da05c	-0.05410801
85	0xbccef5ae	-0.025263634
86	0xbc12a258	-0.008949839
87	0xbd3d372e	-0.0461952
88	0xbd61285c	-0.05497013
89	0xbce78e3c	-0.028266065
90	0x3d897444	0.06711629
91	0x3e04e6cb	0.12978666
92	0x3c8a46b6	0.01687942
93	0xbb17e93c	-0.002317979
94	0x3bb3b05d	0.0054836706
95	0xbd81b644	-0.063335925
96	0xbcf1f23a	-0.029534448
97	0x3cd24dfa	0.025671948
98	0x3d49849c	0.04919873
99	0xba8c7774	-0.0010716752
100	0xbadcf093	-0.0016856365
101	0x3bfe0053	0.0077515035
102	0x3d4bc290	0.049746096
103	0x3c8fbe8b	0.017546913
104	0xb921981b	-0.0001541082
105	0x3cc2abac	0.0237635
106	0x3c6a22b4	0.0142905
107	0xbadb1712	-0.001671525
108	0xbb5a4c5f	-0.003330968
109	0xbcf526b6	-0.029925685
110	0xbc66716e	-0.01406513
111	0xbc1a63be	-0.009423194
112	0x3cc9a248	0.024613515
113	0xbc38248f	-0.011239185
114	0x3c7c8529	0.015412607
115	0xbcef2301	-0.029191496
116	0x3a866932	0.0010254739
117	0xbad031bb	-0.0015883961
118	0xbd18847c	-0.037235722
119	0xbd4e8a5b	-0.050424915
120	0x3c94943b	0.018137088
121	0x3e29ff17	0.16601215
122	0xbc1661fe	-0.009178637
123	0x3c768627	0.015046633
124	0xbbf5d6f2	-0.00750243
125	0xbaa6de28	-0.0012731003
126	0x3d138b93	0.03602178
127	0xbc06f6a8	-0.008237518
128	0xbcfa3f75	-0.030547837
129	0xbb21c3b0	-0.002468329
130	0xbcd44d55	-0.025915781
131	0xbd698b7c	-0.05701779
132	0xbc941f96	-0.018081468
133	0x3c75a679	0.014993303
134	0x3d216cb6	0.039410315
135	0xbd214a79	-0.039377663
136	0x3c81f800	0.015865326
137	0x3d3349b2	0.043771453
138	0xbc528f2b	-0.012851517
139	0x3c45be9f	0.012069373
140	0x3bfd5cc1	0.0077320044
141	0xbd29be40	-0.041441202
142	0x3d14ec9c	0.03635846
143	0x3cac36f0	0.02102229
144	0xbbbe3ff0	-0.005805962
145	0x3bfaf309	0.0076583666
146	0xbce55003	-0.027992254
147	0xbc3bbddd	-0.011458841
148	0x3ce3cdff	0.027808188
149	0xbc6d8ada	-0.014498437
150	0xbceb14c1	-0.02869642
151	0xbc3298d3	-0.010900694
152	0xbc47d684	-0.012197141
153	0xbc21ee36	-0.009883454
154	0xbd9beaba	-0.0761313
155	0x3d923a0f	0.0713998
156	0xbcbc6d81	-0.023001434
157	0x3ca09ee5	0.019607017
158	0x3c174558	0.009232841
159	0x3d8cd2ba	0.068761304
160	0xbce2221d	-0.027604157
161	0x3caaf7c4	0.020870097
162	0xbd797187	-0.060899284
163	0x3c744c14	0.014910717
164	0xbce9a64f	-0.028521685
165	0xbcd5ffe0	-0.026122987
166	0xbd9edd4b	-0.07757052
167	0xbb04aed6	-0.0020245812
168	0x3d2d45c3	0.042302858
169	0xbc00f2ae	-0.007870359
170	0x3d4d0819	0.05005655
171	0x3cb13782	0.021632914
172	0xbcbd4698	-0.02310495
173	0xbba35960	-0.0049850196
174	0x3d5c08bb	0.053719264
175	0xbce19b2e	-0.027539816
176	0xbc01c55d	-0.00792059
177	0x3d76dbc5	0.060268182
178	0xbd527bb8	-0.05138752
179	0xbd8c622c	-0.06854662
180	0x3d69f191	0.05711514
181	0x3c2ae44e	0.010430409
182	0xbcf986a4	-0.03045971
183	0xbd815b6b	-0.06316265
184	0x3a1f6fa2	0.0006082003
185	0xbd59de21	-0.053190354
186	0xbd531c9a	-0.05154095
187	0x3d2e3aa7	0.042536404
188	0xbc679ffa	-0.0141372625
189	0xbd42089c	-0.04737149
190	0xbde129dc	-0.10994312
191	0xbe1a7eac	-0.15087384
192	0xbd7cc85e	-0.061714523
193	0xbd1b8283	-0.037966263
194	0x3d0941b9	0.033509944
195	0xbc2731db	-0.010204758
196	0x3d173db3	0.036924075
197	0xba743fc2	-0.0009317362
198	0x3caa1b42	0.02076495
199	0xbdd5b175	-0.10434238
200	0x3cc6b4d9	0.024256157
201	0x3c66d19d	0.014088062
202	0x3d5c4eae	0.053785972
203	0x3d1ac1da	0.037782528
204	0xbcdaee51	-0.026724966
205	0xbd5a5708	-0.053305656
206	0x3d30a214	0.04312332
207	0xbd009f18	-0.031401724
208	0xbdc70513	-0.09717765
209	0xbd13d9b6	-0.036096297
210	0xbcb94cfa	-0.022619713
211	0x3c6306f8	0.013856642
212	0x3dabf1bc	0.083957165
213	0xba8dac88	-0.0010808865
214	0x3d35c31e	0.04437553
215	0x3d5de80c	0.054176375
216	0xbd400c3a	-0.04688666
217	0x3de2dc74	0.11077204
218	0xbc32d38c	-0.0109146945
219	0xbc7a1832	-0.015264558
220	0x3d2cbbd4	0.042171314
221	0xbbebe0c7	-0.0071984264
222	0x3c7d9e27	0.015479601
223	0x3d04740f	0.032337245
224	0x3bb38aeb	0.005479207
225	0x3d348726	0.0440742
226	0x3cfd2fc4	0.030906565
227	0xbce26d8d	-0.027640129
228	0xbd01a871	-0.03165478
229	0x3c601540	0.013676941
230	0xbce1f3af	-0.027582018
231	0xbd505df0	-0.050870836
232	0x3ca33690	0.019923478
233	0xbde13057	-0.10995548
234	0xbd8088f3	-0.06276121
235	0x39938df6	0.00028143794
236	0x3d787544	0.06065871
237	0xbcaada3f	-0.020856021
238	0xbb616a93	-0.0034395799
239	0xbd1ce568	-0.038304716
240	0x3d83b585	0.064311065
241	0xbd0f76dc	-0.035025463
242	0x3c192c92	0.009349005
243	0x3bfd8357	0.007736604
244	0xbbf86f26	-0.0075816093
245	0xbd26ff3d	-0.040770758
246	0x3c25902d	0.010105175
247	0xbc0f5a1b	-0.00874951
248	0xbe05ca5b	-0.13065474
249	0x3d89da46	0.067310855
250	0xbccd6fa4	-0.025077648
251	0xbd0f44c3	-0.034977686
252	0x3df36b92	0.11885752
253	0x3c09a2b6	0.00840061
254	0x3d3a30df	0.045456763
255	0xbd06edcc	-0.032941625

weight f4 [64, 256]
0	0x3d9dfd60	0.07714343
1	0xbdced1d9	-0.10098619
2	0x3e9cfd84	0.30662167
3	0x3f020924	0.507952
4	0xbe11f422	-0.14253286
5	0xbbbe1727	-0.0058011
6	0xbc100ccb	-0.008792113
7	0xbce0e3d2	-0.027452383
8	0x3d77907f	0.060440537
9	0xbdb1c5c4	-0.08680299
10	0xbc5d1d7c	-0.013495799
11	0x3e3b569e	0.1829476
12	0x3ea4acce	0.3216309
13	0xbeafaf09	-0.3431323
14	0xbe63b585	-0.22237213
15	0x3e287e63	0.16454463
16	0x3b8ed1f7	0.004358526
17	0x3d9ad005	0.07559208
18	0x3f1903df	0.5977153
19	0xbe4701ee	-0.1943433
20	0x3c8bd484	0.017069109
21	0xbeef43eb	-0.46731505
22	0xbeadae06	-0.33921832
23	0x3d953e8b	0.0728732
24	0xbde435d7	-0.11143082
25	0x3eb7a5c0	0.35868645
26	0xbe26f7b3	-0.16305427
27	0xbefb3f2e	-0.4907164
28	0x3d70f3e6	0.05882635
29	0x3c2ab8a2	0.010419996
30	0x3d0c8f38	0.03431627
31	0x3e649de6	0.22325858
32	0x3de91ec4	0.11382821
33	0x3d85053b	0.06495138
34	0xbd55e951	-0.05222446
35	0x3d9bc487	0.07605844
36	0xbe0d38f5	-0.13791259
37	0x3c51dd0b	0.012809048
38	0x3e894786	0.2681238
39	0xbe86573f	-0.26238438
40	0x3eb2b05c	0.34900177
41	0x3e4bc95c	0.19901031
42	0xbf35cff0	-0.7102041
43	0x3e6a2c31	0.2286842
44	0xbd8a1b8c	-0.067435354
45	0x3d4cda8a	0.050013103
46	0x3f18633a	0.5952641
47	0xbe0a83e7	-0.13526879
48	0x3d4fffd4	0.050781086
49	0x3d09d8ca	0.03365401
50	0xbe460246	-0.19336805
51	0xbde6df15	-0.11273018
52	0x3efc957d	0.493328
53	0xbd95eb7f	-0.07320308
54	0x3e974889	0.29547527
55	0xbe073983	-0.13205533
56	0xbd8a62f5	-0.06757156
57	0xbdc8ec5b	-0.09810706
58	0xbded6e05	-0.1159325
59	0xbe1fe20d	-0.15613575
60	0xbcdfb98d	-0.027310157
61	0x3de9e37c	0.11420342
62	0xbdaa7ee8	-0.08324987
63	0x3d676830	0.056495845
64	0xbcdcd58f	-0.026957301
65	0x3d120e1a	0.03565798
66	0xbdcc5985	-0.09978012
67	0xbcbb6f15	-0.022880116
68	0xbdfb2808	-0.12263495
69	0xbcd72eb4	-0.026267387
70	0xbea6f498	-0.32608485
71	0xbe05f4f2	-0.1308172
72	0x3d6b2829	0.057411347
73	0x3e07eced	0.13273974
74	0x3e74325f	0.2384734
75	0x3e468e7e	0.19390294
76	0xbe7fcb0a	-0.24979797
77	0x3e7abf65	0.24487074
78	0x3e016f51	0.1264012
79	0x3ec78194	0.38966048
80	0xbd3c7324	-0.046008244
81	0x3c67c3dc	0.014145818
82	0xbe276321	-0.16346408
83	0xbcfa4948	-0.030552521
84	0x3df4a15d	0.1194484
85	0x3def3269	0.11679537
86	0x3eab4dc1	0.3345776
87	0x3eb1f0ec	0.3475412
88	0x3dba5353	0.09097924
89	0x3d869286	0.06570916
90	0xbdf1135d	-0.117712714
91	0xbe82f62c	-0.2557844
92	0x3e2e532c	0.17023915
93	0xbb98f868	-0.004668284
94	0x3e5519a5	0.20810564
95	0xbe1480b6	-0.14502224
96	0x3d6d04ae	0.05786579
97	0xbe7f60c0	-0.24939251
98	0xbef1f9bb	-0.47260842
99	0xbdc61c9b	-0.09673425
100	0x3e117995	0.14206536
101	0x3e06f4cf	0.13179325
102	0xbe22e9bc	-0.15909475
103	0xbd85f203	-0.06540301
104	0x3e9bc43d	0.30423155
105	0x3c3cd351	0.011524991
106	0xbdb1e9ba	-0.08687158
107	0x3efa37b4	0.48870623
108	0x3e26b5d6	0.16280302
109	0xbdb69d23	-0.0891669
110	0x3db2ef01	0.087369926
111	0x3df9ad04	0.12191203
112	0x3d48391a	0.04888258
113	0xbe2c711d	-0.16840024
114	0x3ed63d3c	0.41843593
115	0xbcb95aee	-0.022626366
116	0xbdec370d	-0.115339376
117	0xbd703123	-0.05864061
118	0xbdc1e23d	-0.0946698
119	0x3e0180ae	0.12646744
120	0xbdd68d55	-0.10476176
121	0xbf42fd41	-0.76167685
122	0xbdaada14	-0.08342376
123	0x3e666447	0.2249919
124	0x3e141c43	0.14463906
125	0xbd4774f0	-0.048695505
126	0xbe307a94	-0.1723426
127	0xbd2fdcd2	-0.0429352
128	0xbc6c7967	-0.014433241
129	0x3db2954e	0.08719884
130	0xbdc03269	-0.09384615
131	0xbe96e8a4	-0.29474366
132	0x3da9fa82	0.08299734
133	0xbd8a2ec8	-0.06747204
134	0x3da38b27	0.079855256
135	0xbcb84bce	-0.022497084
136	0xbe822117	-0.2541587
137	0xbcb6db12	-0.022321258
138	0x3f0c182c	0.54724383
139	0x3e04bca3	0.12962584
140	0x3a44363c	0.0007484888
141	0x3a31c4ed	0.00067813584
142	0xbc03dc09	-0.008048066
143	0x3e96d5d6	0.2946002
144	0xbde8fdda	-0.11376543
145	0xbdee65ed	-0.116405345
146	0xbd8fceed	-0.0702189
147	0x3ee6537f	0.44985577
148	0x3c6dfb43	0.0145252375
149	0xbd483976	-0.048882924
150	0xbd131b19	-0.035914514
151	0xbdfdc675	-0.12391368
152	0x3e48cebf	0.19610117
153	0x3ecb5c59	0.39718893
154	0x3e63de34	0.22252733
155	0xbd73479f	-0.059394475
156	0x3d4a82e7	0.049441244
157	0x3d1623c4	0.036655203
158	0x3d808e26	0.06277113
159	0xbda123ae	-0.078681335
160	0x3df9b49c	0.12192652
161	0xbd95a87b	-0.07307526
162	0x3e003f90	0.12524247
163	0xbf0afc2e	-0.54291046
164	0x3d439b4c	0.047755525
165	0x3d7c8f9f	0.061660405
166	0xbe11a4ab	-0.14222972
167	0xbd260c6f	-0.0405392
168	0xbdc2c6b0	-0.09510553
169	0x3e883fcb	0.2661117
170	0xbe74df4a	-0.23913303
171	0x3e690dbb	0.22759144
172	0x3e3bb230	0.18329692
173	0xbc5a140c	-0.013310444
174	0x3e909b55	0.2824351
175	0xbd12a06a	-0.035797514
176	0xbee74fc9	-0.4517806
177	0xbdfe0ffe	-0.12405394
178	0xbcda8123	-0.026672905
179	0xbecba7b5	-0.39776388
180	0x3cbd69d9	0.023121761
181	0xbda81eb4	-0.08208981
182	0x39a30495	0.00031093197
183	0x3d7ff9b7	0.062494006
184	0xbd628d77	-0.055310693
185	0xbd0c5529	-0.034260903
186	0xbd881234	-0.06644097
187	0x3f08725a	0.53299487
188	0x3f35eb59	0.7106224
189	0x3e81ced4	0.2535311
190	0x3d7919d3	0.060815644
191	0x3eeef6ce	0.46672672
192	0x3e5c7ade	0.21531245
193	0xbd03a429	-0.032138977
194	0xbed37358	-0.41298938
195	0x3e03f160	0.12885046
196	0xbecaa031	-0.3957534
197	0x3ecaf971	0.39643434
198	0xbe1a3e63	-0.15062861
199	0x3f10a47c	0.56500983
200	0xbe028b43	-0.12748437
201	0xbe8a52df	-0.2701635
202	0xbede4189	-0.43409374
203	0x3e10eef7	0.14153658
204	0x3d0b6fcd	0.03404217
205	0x3d187fef	0.037231382
206	0xbdcb7084	-0.0993357
207	0x3dfec01a	0.12438984
208	0x3ed6c77f	0.41949078
209	0x3ef8cccd	0.4859375
210	0x3d77dc62	0.060512908
211	0xbe46f725	-0.19430216
212	0xbdf1fd76	-0.11815922
213	0x3efaf897	0.49017784
214	0x3ed0a1cc	0.4074844
215	0x3da595c9	0.0808521
216	0xbc35bcf7	-0.011092416
217	0x3e5e2533	0.21693878
218	0xbe370d2e	-0.17876121
219	0x3d980143	0.07422116
220	0xbac76fd2	-0.001521582
221	0x3deb2261	0.11481167
222	0x3da0aa66	0.07845001
223	0xbedcead2	-0.43147904
224	0x3d85ab81	0.065268524
225	0xbe604d98	-0.219046
226	0xbd88438b	-0.06653508
227	0x3e393f71	0.18090607
228	0xbdeb852e	-0.115000114
229	0x3d793a65	0.060846705
230	0x3e1ce363	0.15321116
231	0x3d23788b	0.03990988
232	0x3e412b61	0.18864204
233	0x3e0cc3d1	0.13746573
234	0xbdc4997c	-0.09599587
235	0x3e7bd290	0.24592042
236	0xbe9a44fa	-0.3013075
237	0xbd8b6994	-0.06807247
238	0xbdce3139	-0.10067982
239	0xbe5a5b3d	-0.21323867
240	0x3de59ba3	0.11211326
241	0x3df5a016	0.119934246
242	0x3e3ff261	0.18744804
243	0x3e5a9b3b	0.21348278
244	0xbed77c62	-0.42087084
245	0x3da29a0b	0.079395376
246	0xbe50ba04	-0.2038346
247	0xbdad9df4	-0.08477393
248	0x3f05781b	0.5213639
249	0x3c9cc2ad	0.019135797
250	0x3eb5f57b	0.3553885
251	0x3dabe787	0.0839377
252	0xbd06a74d	-0.032874394
253	0x3ebfe425	0.37478748
254	0x3d6c895e	0.05774819
255	0xbe704ead	-0.23467512

bias f4 [64]
0	0xbb0cdf00	-0.0021495223
1	0xbc5d62d6	-0.013512334
2	0xbd3dc270	-0.04632801
3	0xbda4b174	-0.08041659
4	0xbd553840	-0.052055597
5	0x3c73c352	0.014878111
6	0x3cf1201a	0.029434253
7	0x3d0121cc	0.03152637
8	0x3d31618a	0.04330591
9	0xbd47c47b	-0.048771363
10	0x3c945074	0.01810477
11	0x3d029859	0.03188357
12	0xbc15851c	-0.009125974
13	0x3c84debf	0.016219495
14	0xbca018ae	-0.019543018
15	0xbda35de4	-0.079768926
16	0xbc667a03	-0.014067176
17	0x3ca5110e	0.020149734
18	0xbd474bd4	-0.0486563
19	0xbd194776	-0.037421666
20	0xbd14c27b	-0.036318284
21	0xbc4d0889	-0.012514242
22	0xbca7e507	-0.020494951
23	0xbc75c3ad	-0.015000266
24	0xbcfe4306	-0.031037819
25	0x3d7d545d	0.061848033
26	0xbdc1f9cc	-0.09471473
27	0x3cb2e025	0.021835396
28	0xbd17527b	-0.036943894
29	0xbb34e16b	-0.002760018
30	0xbd3a6c1e	-0.045513265
31	0xbcd5e3bf	-0.026109574
32	0xbc50e39b	-0.012749578
33	0x3c64c132	0.013962077
34	0x3aa70eca	0.0012745496
35	0xbd7df469	-0.062000666
36	0xbd46c194	-0.048524454
37	0xbb2b3382	-0.002612323
38	0x3dab7538	0.08371967
39	0xbe0c5f92	-0.13708332
40	0xbd48779b	-0.04894219
41	0x3cb5fa46	0.022214066
42	0x3c5f3f58	0.013625942
43	0xbde3c9b8	-0.11122459
44	0xbdb4dd6a	-0.08831294
45	0xbe00356a	-0.12520376
46	0x3ca71478	0.020395502
47	0xb8e4ef2c	-0.000109164364
48	0x3dca1fbd	0.09869335
49	0x3cf682c0	0.030091643
50	0xbc20e3c7	-0.009819931
51	0xbd13ae51	-0.036054913
52	0xbc098e59	-0.008395755
53	0x3c9dc599	0.019259261
54	0xbdde0586	-0.10840897
55	0xbc53372f	-0.012891575
56	0x3c3b2455	0.011422236
57	0xbda518f7	-0.08061402
58	0xbd964a8c	-0.073384374
59	0xbddf5ff6	-0.10906975
60	0xbcf821b3	-0.030289507
61	0xbd34162d	-0.04396646
62	0xbd2f3643	-0.042776357
63	0xbdd2a8c3	-0.10286095

weight f4 [1, 64]
0	0xbec8585a	-0.39129907
1	0x3ec84bc9	0.3912032
2	0x3ed391f2	0.41322285
3	0x3ea66643	0.32499894
4	0xbe79e12b	-0.24402301
5	0xbe929a12	-0.2863317
6	0xbed1b993	-0.40961894
7	0xbe4c15b7	-0.19930159
8	0xbe577825	-0.21041925
9	0x3ecd7906	0.40131396
10	0xbeaf14f9	-0.34195688
11	0x3e811ec7	0.25218794
12	0xbe89ce9e	-0.2691545
13	0xbebcd2ff	-0.36879727
14	0xbe8b220b	-0.2717441
15	0xbeafc01e	-0.3432626
16	0xbece541a	-0.4029854
17	0xbe9187e3	-0.28423986
18	0x3e8a419c	0.2700318
19	0x3ef617f0	0.48065138
20	0xbe12b04b	-0.14325063
21	0x3e9d94c8	0.30777574
22	0x3ea59ac7	0.32344648
23	0xbe8e6b00	-0.2781601
24	0x3edcdfb0	0.4313941
25	0xbea254c1	-0.31705287
26	0x3eac8664	0.33696282
27	0xbe36b7e0	-0.1784358
28	0x3eb1712c	0.34656656
29	0xbea7ae7f	-0.32750317
30	0xbe6ee1cb	-0.2332832
31	0x3ebde4ab	0.37088522
32	0x3ed96b89	0.42464855
33	0xbe8c5717	-0.27410194
34	0x3ebca2c2	0.36842924
35	0x3e851436	0.25991982
36	0x3ea6c956	0.32575482
37	0xbe044a1c	-0.12918895
38	0xbe60372e	-0.2189605
39	0x3ead9e57	0.33909866
40	0x3ea00dda	0.31260568
41	0x3eb1c5a9	0.34721115
42	0x3e822f57	0.25426742
43	0x3eb13a4f	0.34614798
44	0xbe8ff582	-0.28116995
45	0xbe8f0cec	-0.27939546
46	0xbeb3a921	-0.35089973
47	0xbe707ca7	-0.23485051
48	0xbec5cde4	-0.38633645
49	0xbe60d59c	-0.21956486
50	0xbec60e80	-0.38682938
51	0xbe731cb9	-0.23741426
52	0x3e5b4b4c	0.21415442
53	0x3edc48c0	0.43024254
54	0x3f066517	0.52498
55	0xbe83032d	-0.2558836
56	0x3e6e8dd3	0.23296289
57	0x3ef6cd73	0.4820362
58	0x3eda7742	0.42669111
59	0x3e94a76c	0.29033983
60	0xbe691135	-0.2276047
61	0xbec8e2be	-0.3923549
62	0x3ec342a2	0.38136774
63	0xbe47dd19	-0.19517936
