test/ens_models/ens_model_1_CB.pt (torch, 654739 bytes, 6 tensors)

weight f4 [20, 10]
0	0xbdcb0d5a	-0.09914656
1	0x3f01b67b	0.5066907
2	0xbea048af	-0.31305453
3	0xbe83538b	-0.25649676
4	0xbe1a35e2	-0.15059617
5	0x3d30745c	0.04307972
6	0x3f133784	0.57506585
7	0x3f65b3eb	0.8972766
8	0xbecac6e3	-0.39604864
9	0xbf0b6750	-0.5445452
10	0xbe2f6759	-0.17129268
11	0xbf738dd0	-0.95138264
12	0xbd308683	-0.04309703
13	0x3e536db4	0.20647317
14	0xbe67f867	-0.22653352
15	0x3f387731	0.7205687
16	0xbf19aaab	-0.60026044
17	0x3ebb0175	0.3652455
18	0x3e206f0d	0.15667363
19	0x3d94562c	0.072429985
20	0xbe041449	-0.12898363
21	0xbec1f48b	-0.37881884
22	0x3f47a9f1	0.77993685
23	0xbf082c47	-0.5319256
24	0xbf4732aa	-0.7781168
25	0xbf0802db	-0.5312936
26	0x3e30ab47	0.17252837
27	0xbf32a124	-0.6977713
28	0xbe85eecb	-0.26158747
29	0x3f320d3b	0.6955144
30	0xbd3c4503	-0.045964252
31	0xbe7b8a51	-0.24564482
32	0x3ea212e2	0.3165503
33	0xbf248701	-0.642685
34	0x3c06ceb7	0.008227996
35	0x3f1722af	0.590373
36	0xbe20a83c	-0.15689176
37	0x3e951af7	0.29122135
38	0x3d95861b	0.07300969
39	0xbf580c2d	-0.8439358
40	0xbcba1af8	-0.022717938
41	0x3dacf517	0.08445185
42	0x3f0ac110	0.5420084
43	0x3e3c675f	0.18398808
44	0x3d5404f7	0.051762547
45	0xbdeb7476	-0.114968225
46	0xbeffc58f	-0.49955413
47	0x3e354690	0.17702699
48	0xbef62a4d	-0.48079148
49	0x3fe28b73	1.7698807
50	0x3d09c6aa	0.033636726
51	0x3d2eeaa5	0.042704243
52	0x3f13655b	0.5757653
53	0xbea9db71	-0.33175233
54	0xbf789a3e	-0.97110355
55	0x3e87e8fb	0.26544937
56	0x3f3ba907	0.7330479
57	0x3edc619e	0.43043226
58	0x3f2d664d	0.67734224
59	0xbee93da8	-0.45554852
60	0x3a9ed491	0.0012117793
61	0x3ece82ad	0.40334073
62	0xbed3987e	-0.4132728
63	0x3e935d20	0.28781986
64	0x3f9aaeaf	1.2084559
65	0x3eef1534	0.46695864
66	0x3d90dcc5	0.070733584
67	0xbf2c1636	-0.6722139
68	0x3f893096	1.0717952
69	0x3dbfb220	0.093601465
70	0xbed1c9d5	-0.40974298
71	0x3eb40e0a	0.3516696
72	0xbfb2e8a9	-1.3977252
73	0xbfc2399f	-1.5173835
74	0xbf93c897	-1.154559
75	0x3f2398af	0.6390485
76	0x3f89e5b4	1.0773225
77	0xbf7307af	-0.949336
78	0xbec7c99c	-0.39021003
79	0x3f6d395f	0.92665666
80	0x3f8128be	1.0090559
81	0x3ed54bc9	0.41659382
82	0xbe5707f2	-0.20999125
83	0x3f1e8c43	0.6193277
84	0xbf13aa87	-0.5768208
85	0x3ec6afe4	0.3880607
86	0x3e1a1771	0.15048005
87	0x3eeb1cbe	0.45920366
88	0x3e4674f1	0.19380547
89	0xbf275cef	-0.6537618
90	0xbee9d2e6	-0.45668715
91	0x3e5929b6	0.21207318
92	0xbf626d55	-0.8844808
93	0xbe4b6b63	-0.19865184
94	0xbee754e8	-0.45181966
95	0xbef6a83f	-0.48175237
96	0xbf2b43c0	-0.66900253
97	0x3b590099	0.0033111928
98	0xbe775e98	-0.24157178
99	0x3e6d686c	0.23184365
100	0x3e122b92	0.14274433
101	0x3ecd6875	0.40118757
102	0xbcb9d80c	-0.022686027
103	0xbd615310	-0.055010855
104	0xbf45618f	-0.7710199
105	0xbe886501	-0.2663956
106	0xbda226be	-0.07917546
107	0x3ef3612b	0.4753507
108	0xbf2338b4	-0.637584
109	0x3e9c1cf4	0.3049084
110	0xbdec6140	-0.115419865
111	0x3d2ca409	0.042148624
112	0xbf25678d	-0.6461113
113	0x3f7068aa	0.93909705
114	0xbe32c6f3	-0.17458706
115	0xbf45e53d	-0.77302915
116	0xbf15135c	-0.58232665
117	0xbf0574d9	-0.5213142
118	0x3f21c25d	0.631872
119	0xbd97eaf0	-0.07417858
120	0x3c8ec0ae	0.017425861
121	0xbddd4d1c	-0.10805723
122	0x3f3e1d17	0.7426314
123	0x3e3e6b78	0.18595684
124	0xbf0d1d60	-0.5512295
125	0xbde80b04	-0.11330226
126	0xbf1e31f4	-0.6179497
127	0xbeefe3c5	-0.46853462
128	0x3e44a37e	0.19202992
129	0xbf50f475	-0.8162301
130	0x3e941874	0.28924906
131	0xbfbf636b	-1.4952215
132	0xbf2516d7	-0.64487976
133	0xbd15ffd5	-0.036620934
134	0x3f2a3df7	0.665008
135	0x3ece1d58	0.40256763
136	0x3f0144b5	0.50495464
137	0xbcfba17d	-0.030716652
138	0xbe885ebd	-0.2663478
139	0x3ecc8b21	0.39949897
140	0xbe9ebbfe	-0.31002802
141	0x3da1e4a0	0.07904935
142	0x3ee7004d	0.45117417
143	0xbe41cfc3	-0.18926911
144	0x3ea183f5	0.31545988
145	0xbf8ad801	-1.0847169
146	0xbf742635	-0.953708
147	0x3c663e94	0.014053006
148	0x3eb3c456	0.3511073
149	0x3ea5d705	0.3239061
150	0x3e8224ac	0.25418603
151	0x3f60d6c6	0.8782772
152	0xbef2c982	-0.47419363
153	0x3f4e12dc	0.8049753
154	0x3f2a68d7	0.6656622
155	0xbe18b699	-0.14913405
156	0xbeb91980	-0.36152267
157	0xbf192d18	-0.5983443
158	0xbf18bed9	-0.5966621
159	0xbe249f04	-0.16076285
160	0xbe84bce6	-0.25925368
161	0xbe78cded	-0.24297304
162	0xbd953c28	-0.072868645
163	0xbeafaead	-0.34312955
164	0x3e34732e	0.17622063
165	0x3e80669b	0.25078282
166	0x3e6144a7	0.21998845
167	0x3f44b2ea	0.768355
168	0xbf337e15	-0.7011426
169	0x3d86214e	0.06549321
170	0x3ebd3290	0.3695264
171	0xbef89c17	-0.48556587
172	0xbfa357ae	-1.2761133
173	0xbc0e8d07	-0.008700616
174	0xbf0198c9	-0.50623757
175	0xbe641139	-0.22272195
176	0xbf36916b	-0.7131564
177	0xbeffc8f7	-0.49958012
178	0x3f30a85c	0.69006896
179	0xbec9d07c	-0.39416873
180	0xbd09f874	-0.03368421
181	0x3f369a41	0.7132912
182	0x3f052daf	0.5202283
183	0xbe87d9a2	-0.26533228
184	0x3cea4553	0.02859751
185	0x3f12bf77	0.573234
186	0xbe911dff	-0.28343198
187	0xbf6252a4	-0.8840735
188	0x3f104abc	0.56364036
189	0x3f14a1c8	0.5805936
190	0x3ec01aed	0.37520543
191	0x3f4c0474	0.79694295
192	0x3f02f3fa	0.5115353
193	0xbe69a19a	-0.22815552
194	0x3e34ce96	0.17656931
195	0x3f279b82	0.6547166
196	0x3f14bb04	0.58097863
197	0x3d98db00	0.07463646
198	0xbed33a01	-0.4125519
199	0xbd5eaa56	-0.054361664

weight f4 [256, 570]
0	0xbc8aa5ae	-0.016924705
1	0xbc972cb6	-0.018453937
2	0x3ce00b7b	0.027349224
3	0x3cafc3cc	0.021455668
4	0x3c8c9eae	0.017165508
5	0x3bfb4f43	0.007669361
6	0xbd6531a7	-0.055955555
7	0x3da529d0	0.08064616
8	0x3daba66a	0.0838135
9	0xbccdd7f8	-0.025127396
10	0xbd4013d7	-0.04689392
11	0xbdd309da	-0.103046134
12	0xbd5ee39c	-0.054416284
13	0x3d69648b	0.05698065
14	0x3cb38ccc	0.021917723
15	0xbde996e8	-0.11405736
16	0xbf19cf49	-0.6008192
17	0xbc444297	-0.011978767
18	0xbc14fb01	-0.009093047
19	0xbd1dc8ed	-0.038521696
20	0x3cf96f8e	0.030448701
21	0x3d494b46	0.049144052
22	0x3d547186	0.051866077
23	0xbd1c685b	-0.03818546
24	0xbeb705aa	-0.3574651
25	0xbd8d6b22	-0.069051996
26	0x3da84c39	0.08217663
27	0xbe15407a	-0.14575377
28	0x3dc662bf	0.09686803
29	0x3d7214e1	0.059101943
30	0x3c9aaf3a	0.018882383
31	0x3e29d820	0.16586351
32	0xbce403ed	-0.027833903
33	0x3ba64f31	0.0050753583
34	0x39ad73c1	0.00033083375
35	0xbf81990b	-1.012483
36	0xbdc184ab	-0.094491325
37	0x3dd098ed	0.10185418
38	0x3c52102c	0.0128212385
39	0xbd2dc627	-0.0424253
40	0xbd4d2c8d	-0.050091315
41	0x3c6fac97	0.014628551
42	0xbbf174a0	-0.007368639
43	0xbde90b4a	-0.11379106
44	0x3ecfa614	0.40556395
45	0x3e9aaa25	0.30207935
46	0x3ddc116b	0.1074551
47	0xbeb32776	-0.34991044
48	0xbca24fef	-0.019813506
49	0xbcdc09f1	-0.02686021
50	0x3c65a251	0.01401575
51	0x3d9beb3d	0.076132275
52	0x3e4d36dd	0.2004046
53	0xbd1186c5	-0.035528917
54	0x3d50539b	0.050860982
55	0x3e4cd071	0.20001389
56	0xbc46a820	-0.012125045
57	0xbbe55e76	-0.006999786
58	0x3dbc3765	0.09190253
59	0x3d71fdbe	0.059079878
60	0x3ba6c350	0.005089201
61	0x3d39e64c	0.045385644
62	0x3decbeed	0.11559854
63	0xbd357a23	-0.04430593
64	0xba88b5a9	-0.0010430116
65	0xbd7df46b	-0.062000673
66	0xbdab67dc	-0.08369419
67	0x3ddd23ed	0.10797868
68	0x3d4d5848	0.05013302
69	0xbd4256c4	-0.047446027
70	0xbe1f1e70	-0.15538955
71	0x3cc82982	0.024433855
72	0x3eaa028e	0.33205074
73	0x3f1a38a7	0.60242695
74	0xbd16d531	-0.03682441
75	0xbe9a778d	-0.30169335
76	0x3ea495da	0.32145578
77	0x3e9cefa9	0.30651596
78	0xbdf9e8f9	-0.12202639
79	0xbf755b8c	-0.95842814
80	0x3d55897a	0.05213306
81	0x3cfbdafd	0.03074407
82	0xbd0c8f76	-0.034316503
83	0xbd128bc0	-0.035777807
84	0x3d9203ac	0.071296066
85	0x3d673059	0.056442592
86	0xbc8db8eb	-0.01730009
87	0xbd12d489	-0.03584722
88	0x3d45e2cc	0.048311993
89	0x3b1656e1	0.0022939967
90	0xbc43a41d	-0.011940983
91	0xbb8cd787	-0.004298154
92	0xbdd22b8b	-0.102622114
93	0x3c4dde3c	0.012565192
94	0x3c08ec1f	0.008357077
95	0xbbfab127	-0.0076505127
96	0xbd1e64e4	-0.038670436
97	0x3cf353fd	0.029703135
98	0x3cea4ec6	0.028602015
99	0x3d4a23a0	0.04935038
100	0x3d3017f8	0.04299161
101	0x3c93f07e	0.018059012
102	0x3c422af0	0.011851057
103	0xbdcc0186	-0.09961228
104	0x3cd1d432	0.025613878
105	0xbe1690b2	-0.14703634
106	0x3c73c32a	0.014878074
107	0x3c81285a	0.015766311
108	0xbefd8371	-0.49514344
109	0x3d9ac45a	0.07556982
110	0x3db9db7b	0.09075066
111	0xbed507d7	-0.41607544
112	0xbf75a0b1	-0.9594832
113	0x3c8f6087	0.017502083
114	0x3a6bdf36	0.00089977996
115	0xbd4481d9	-0.047975395
116	0xbe89dc48	-0.26925874
117	0xbb6417ee	-0.0034804302
118	0xba5ef1f9	-0.00085046847
119	0xbcadd75f	-0.021220861
120	0x3d48c779	0.049018357
121	0x3cdc85d0	0.026919276
122	0xbbaf0aec	-0.005341878
123	0x3d738bb4	0.059459403
124	0x3c007327	0.007839954
125	0x3cd7e1c1	0.026352765
126	0xbca9991e	-0.020702895
127	0x3d036b5f	0.03208482
128	0x3ced16e6	0.028941583
129	0xbd1a2068	-0.03762856
130	0xbc433488	-0.01191438
131	0xbd0b8853	-0.034065556
132	0x3e2bd09a	0.16778794
133	0x3cc0bd8b	0.023527881
134	0xbd5d178c	-0.053977534
135	0xbd529d95	-0.051419813
136	0x3e850f54	0.25988257
137	0xbe15bb7e	-0.14622304
138	0x3db7390b	0.08946427
139	0xbe6fe41e	-0.23426864
140	0x3f401a7d	0.7504042
141	0xbe98bf77	-0.29833576
142	0x3e8ab580	0.270916
143	0xbe41677b	-0.18887131
144	0xbeb41b60	-0.35177135
145	0xbd80c47b	-0.06287476
146	0xbd56fa38	-0.05248472
147	0x3d3f58c9	0.04671553
148	0xbf886126	-1.0654647
149	0x3d0866a2	0.033301003
150	0x3d658566	0.05603542
151	0x3e0a91d0	0.13532186
152	0xbca97f87	-0.020690693
153	0x3bf4bba9	0.00746866
154	0x3c66f510	0.014096513
155	0x3d0457db	0.032310348
156	0x3dab4fce	0.08364831
157	0xbd3da771	-0.046302263
158	0xbd4d9dda	-0.050199367
159	0x3d428eb6	0.04749938
160	0xbd8866e5	-0.066602506
161	0x3904b6fa	0.00012656665
162	0x3d1d85a7	0.03845754
163	0xbbe14824	-0.006875055
164	0xbdcde290	-0.10052979
165	0x3a92c562	0.0011197741
166	0x3d0268bb	0.03183816
167	0x3d13699d	0.035989393
168	0x3e4065fa	0.18788901
169	0xbe578520	-0.21046877
170	0x3b4791c7	0.003045188
171	0xbd5f7ad4	-0.054560497
172	0xbe241915	-0.16025193
173	0xbe47dd4d	-0.19518013
174	0x3e96e5b2	0.2947212
175	0xbde6f204	-0.112766296
176	0x3e16f0cf	0.14740299
177	0xbd045cc3	-0.032315027
178	0xbd22d6ec	-0.039755747
179	0x3d3d7c1a	0.04626093
180	0x3d62935f	0.055316325
181	0x3cb643cc	0.022249125
182	0x3d0cb3ba	0.034351088
183	0x3d5e365f	0.05425107
184	0x3ba97144	0.005170973
185	0x3b71801b	0.0036850038
186	0xbc8c2273	-0.01710627
187	0x3db19c12	0.08672346
188	0x3d610c1e	0.054943196
189	0x3d2d9d32	0.04238624
190	0x3ca26746	0.019824635
191	0x3cb878e7	0.022518588
192	0x3d92a9fb	0.071613275
193	0x3d03f989	0.032220397
194	0xbc4b8c50	-0.01242359
195	0xbc612822	-0.013742479
196	0x3b640d7d	0.0034798079
197	0x3d809a60	0.06279445
198	0xbdc9f0cb	-0.09860381
199	0xbdedef76	-0.11617939
200	0xbe41e96c	-0.189367
201	0x3d9e5d70	0.077326655
202	0x39c12d59	0.00036845615
203	0x3c8828f0	0.016621083
204	0x3ef0ed76	0.47056168
205	0x3b97a5a7	0.0046279016
206	0xbd6e73cf	-0.058215912
207	0x3d6a7afb	0.05724619
208	0x3d32194f	0.043481167
209	0x3de879a8	0.11351329
210	0x3d6f6212	0.058443137
211	0x3d98585d	0.07438729
212	0x3c77e655	0.015130599
213	0x3dc5c750	0.096571565
214	0x3c89b6b0	0.016810745
215	0x3d0f3715	0.03496464
216	0x3f15d5f7	0.5852961
217	0xbcc1fa9d	-0.023679072
218	0xbcee3565	-0.029078195
219	0x3c69a60f	0.014260783
220	0x3f4e1ce9	0.80512863
221	0x3dd20494	0.102547795
222	0x3d33864d	0.04382925
223	0x3e22c156	0.15894064
224	0xbcc55e8c	-0.024092935
225	0x3eabfa96	0.3358962
226	0x3dd251b0	0.10269487
227	0x3d934644	0.071911365
228	0xbeb0bbdd	-0.34518328
229	0x3e01180b	0.12606828
230	0x3df88faf	0.121367805
231	0xbe80fe0b	-0.2519382
232	0xbeafc1e1	-0.34327605
233	0x3d7dd26b	0.06196825
234	0xbe239050	-0.1597302
235	0x3ee0a0ef	0.43872783
236	0xbfad4af8	-1.3538504
237	0xbeb048ad	-0.34430447
238	0xbdb7125c	-0.08939049
239	0x3fcee093	1.6162285
240	0xbd25971a	-0.040427305
241	0xbe0515d7	-0.12996612
242	0xbdb1cc84	-0.086815864
243	0xbde31dbe	-0.11089657
244	0xbe82c464	-0.2554046
245	0xbd6cd758	-0.057822555
246	0xbd34020e	-0.043947272
247	0xbbd1726e	-0.006391815
248	0xbdea04ab	-0.114266716
249	0xbd559d10	-0.05215174
250	0xbc850428	-0.016237333
251	0xbcbf5d8f	-0.023360042
252	0xbd9681d1	-0.07348979
253	0xba167be5	-0.00057405076
254	0x3c9fa1f6	0.019486409
255	0x3dc9bb39	0.09850163

bias f4 [256]
0	0x3af4c054	0.0018673041
1	0xbe0c664f	-0.13710903
2	0x3dbf7260	0.09347987
3	0x3a59f22a	0.00083139783
4	0xbc35754a	-0.011075327
5	0x3c3ed3b7	0.011647156
6	0xbcd63885	-0.026149997
7	0x3c1780e8	0.009247042
8	0xbada401a	-0.0016651184
9	0xbd0eff27	-0.0349113
10	0x3d9cdb97	0.07659071
11	0xbcf237ef	-0.029567687
12	0xbc757bfc	-0.014983173
13	0x3d52ac0f	0.05143362
14	0x3c260184	0.010132197
15	0xbd0032f7	-0.031298604
16	0x3de22c74	0.11043635
17	0xbd058d7c	-0.032605633
18	0xbc16aa4c	-0.009195875
19	0x3c99e052	0.018783722
20	0x3de2977b	0.11064049
21	0x3b5ffe88	0.0034178812
22	0xb98960f4	-0.00026202912
23	0x3bdb0c40	0.00668481
24	0x3d068786	0.03284409
25	0x3cb78993	0.022404468
26	0x3d194b69	0.037425432
27	0x3d8011f7	0.062534265
28	0x3ca95d55	0.020674387
29	0x3da7728f	0.08176147
30	0x3c2d9b75	0.010596146
31	0x3c362dbd	0.011119303
32	0xbd60ba35	-0.05486508
33	0xbd6e141d	-0.05812465
34	0xbc936416	-0.01799206
35	0x3cbd67dd	0.023120815
36	0xbd186eda	-0.03721509
37	0xbc125543	-0.008931461
38	0xbcc41af9	-0.023938643
39	0x3cedd547	0.029032363
40	0xbd2c4eac	-0.042067215
41	0x3d3d31d5	0.0461901
42	0xbcca16e5	-0.02466912
43	0xbd6196ec	-0.05507557
44	0x3bb7b3ea	0.005606164
45	0x3c3b106d	0.01141749
46	0x3c56633f	0.013085186
47	0x3c9a9914	0.018871821
48	0xbc764df5	-0.015033235
49	0xbd28bf35	-0.041197974
50	0x3d065cc9	0.03280333
51	0xbc93bbe9	-0.018033938
52	0xbc4ddbf4	-0.012564648
53	0xbd078f97	-0.033095922
54	0xbddc87a4	-0.10768059
55	0x3d0db6bf	0.03459811
56	0x3ce9b04a	0.028526444
57	0xbcbe4813	-0.023227727
58	0xbb9673ab	-0.0045914254
59	0xbccec41f	-0.025240002
60	0xbbe5abe1	-0.007009015
61	0x3c4606b7	0.012086562
62	0x3d09b174	0.033616498
63	0xbcf9ca89	-0.030492084
64	0x3b44b3c2	0.003001437
65	0xba5c98c2	-0.00084150967
66	0xbd338a4c	-0.043833062
67	0xbd44bcd0	-0.048031628
68	0x3d58ad5e	0.05289971
69	0xbcd6b7fd	-0.02621078
70	0x3bfb90a5	0.007677155
71	0xbcaeb2e1	-0.02132553
72	0xbc5bf372	-0.013424741
73	0xbd342ace	-0.043986134
74	0x3cb8f9f9	0.022580134
75	0x3d4358b2	0.04769201
76	0x3d857e39	0.06518216
77	0xbd3c47aa	-0.04596678
78	0x3de464f1	0.111520655
79	0x3cba5f52	0.02275053
80	0x3c4c3a90	0.012465134
81	0x3c38b13e	0.011272727
82	0xbe09a6d6	-0.13442549
83	0xbcae507b	-0.02127861
84	0xbd6adc67	-0.0573391
85	0x3d131a8f	0.035914
86	0xbcf31370	-0.029672354
87	0x3b42bd2a	0.0029714801
88	0x3d2cbdb3	0.0421731
89	0x3cbb2f0c	0.022849582
90	0x3d44efa4	0.0480801
91	0x3cfba86f	0.030719964
92	0xbcbc2541	-0.022966983
93	0xbd0c2406	-0.034214042
94	0xbd06d2fc	-0.032916054
95	0x3d1b7025	0.037948746
96	0x3ba6eef8	0.0050944053
97	0xbbcc7003	-0.006238939
98	0x3bf8ce10	0.007592924
99	0xbbdf002d	-0.006805441
100	0xbc9f3773	-0.01943562
101	0xbb9fea06	-0.0048801927
102	0x39ec66d5	0.00045090044
103	0x3d5809a7	0.05274358
104	0xbd509d30	-0.050931156
105	0xbc55f6b5	-0.013059308
106	0x3c8a6591	0.016894134
107	0x3d06260d	0.03275113
108	0x3ac6d1b9	0.0015168703
109	0x3cced435	0.025247673
110	0xbd60085f	-0.054695483
111	0x3d7eecdb	0.0622376
112	0xbc2cc107	-0.010544068
113	0x3c9377dc	0.01800149
114	0x3d264d9d	0.04060136
115	0x3cc28513	0.023745095
116	0x3d20518c	0.03914027
117	0x3b5d3a9c	0.0033756858
118	0x3d832a1e	0.064045176
119	0xbcc6168d	-0.024180675
120	0x3c71ba3e	0.014753876
121	0xbd07157d	-0.032979477
122	0xbbf10cdb	-0.007356269
123	0x3d4226fb	0.047400456
124	0xbc78230e	-0.015145076
125	0xbbce2bb6	-0.006291832
126	0x3c87c0d4	0.01657144
127	0x3bcbccb7	0.0062194723
128	0xbd0b30b2	-0.033981986
129	0x3c7c1ce2	0.015387746
130	0x3cfe7382	0.031060938
131	0xbcc5645d	-0.024095709
132	0x3c0f697f	0.00875318
133	0xbca5a450	-0.020219952
134	0xbac7eca6	-0.0015253022
135	0xbd4db479	-0.05022094
136	0xbbd8ea6f	-0.0066197435
137	0xbd7d836f	-0.061892923
138	0xbc3de118	-0.011589311
139	0xbdd52812	-0.104080334
140	0xba1d3e03	-0.0005998315
141	0x3c5325ec	0.012887459
142	0xbcb06dd6	-0.021536749
143	0x3d3d3de6	0.04620161
144	0x3d1f737f	0.038928505
145	0x3cb901d5	0.022583881
146	0x3bac8653	0.005265036
147	0xbcfd63c9	-0.03093137
148	0x3cb4d015	0.022071877
149	0xbcb30bdd	-0.021856243
150	0xbd09536a	-0.033526815
151	0xbc2bb8ef	-0.010481103
152	0xbcec1c52	-0.028822098
153	0x3c9241ef	0.017853705
154	0x3a33fbf2	0.0006865851
155	0x3c17052c	0.009217542
156	0x3bcf2379	0.0063213673
157	0x3c9bc40e	0.019014385
158	0x3abcb5b5	0.0014397415
159	0x3da6e295	0.08148686
160	0xbb2eb6e4	-0.0026659304
161	0xb9321450	-0.0001698297
162	0x3c806542	0.015673283
163	0x3cffa534	0.031206705
164	0xbb9d564a	-0.004801546
165	0xbcdd5669	-0.027018743
166	0xbc033c7c	-0.008010026
167	0xbad0eb59	-0.001593928
168	0x3bff5f7a	0.007793364
169	0x3d8744cf	0.06604921
170	0xbc9a0238	-0.018799886
171	0x3b88b0ee	0.0041714823
172	0x3bc76c93	0.006085941
173	0x3cd69db3	0.026198244
174	0xbaf43614	-0.0018631839
175	0x3c8eb212	0.017418895
176	0x3d0c4a64	0.034250632
177	0x3d2c213e	0.04202389
178	0x3cef790e	0.029232528
179	0x3b4f263c	0.0031608483
180	0xbd812561	-0.063059576
181	0x3c113db1	0.008864806
182	0xbc3b8885	-0.011446123
183	0xbce2952f	-0.027659027
184	0x3c0b5228	0.008503474
185	0xbce3b99d	-0.027798468
186	0xbc219f6e	-0.009864671
187	0xbd3da503	-0.046299946
188	0x3bb8a892	0.0056353295
189	0xbd387797	-0.045035925
190	0xbb9f0c57	-0.004853766
191	0xbc853c0c	-0.016263984
192	0xbd42ef37	-0.047591414
193	0xbb97d7c8	-0.0046338774
194	0xbd58d153	-0.052934002
195	0x3b381c32	0.0028092978
196	0xbd11b834	-0.03557606
197	0x3cdfcd2d	0.027319515
198	0xbc2e259b	-0.010629083
199	0xbd604b2c	-0.05475919
200	0x3c3f8cc5	0.011691277
201	0x3ce058f7	0.027386172
202	0xbce4b223	-0.027916973
203	0x3d3a8bc7	0.04554346
204	0x3b83e265	0.004024791
205	0xbc363374	-0.011120666
206	0x3c41bdac	0.011825006
207	0xbcec1892	-0.02882031
208	0xbcd8791f	-0.026424943
209	0xbd1015ae	-0.035176925
210	0x3cf87be8	0.03033252
211	0xbd082915	-0.033242304
212	0xbb9b6069	-0.0047417176
213	0xbd608ad6	-0.054819904
214	0xbce372f7	-0.02776478
215	0x3ca44265	0.02005119
216	0x3c8998c0	0.01679647
217	0xbc05946d	-0.008153063
218	0xbd44c614	-0.048040465
219	0x3d008216	0.03137406
220	0xbd4b4da6	-0.0496346
221	0xbd6dd0b8	-0.058060378
222	0x3c0ada84	0.00847495
223	0x3abae801	0.0014259816
224	0xbcfeed29	-0.031118946
225	0xbd3f7487	-0.04674199
226	0xbd385bb1	-0.04500932
227	0x3cec88c1	0.028873803
228	0x3ccfeb7e	0.025380846
229	0x3c86d72b	0.016460022
230	0xbd0bf5e7	-0.034170058
231	0xbcbc1f7d	-0.022964234
232	0x3bbff7c9	0.0058583957
233	0xbd1fc182	-0.039002903
234	0x3c2e1f46	0.010627573
235	0xbc164690	-0.009172097
236	0xbc689609	-0.014195927
237	0xbd4cbaea	-0.049982943
238	0xbd41008d	-0.047119666
239	0xbcce9eed	-0.025222266
240	0x3d1e03a0	0.038577676
241	0x3da3500a	0.079742506
242	0x3cbfffbe	0.023437377
243	0xbb59d0c8	-0.0033236016
244	0xbcd119ab	-0.025524935
245	0x3c4c6e15	0.0124774175
246	0x3d7897df	0.06069171
247	0x3c2cd0a6	0.010547793
248	0x3d8446c8	0.06458813
249	0x3bcb2da4	0.006200509
250	0x3ddd8806	0.1081696
251	0xbd24bb15	-0.040217478
252	0x3d2a7b0b	0.04162125
253	0xbc862f3e	-0.016379949
254	0xbc74720e	-0.014919771
255	0xbcce8176	-0.025208216

weight f4 [64, 256]
0	0x3dacf18d	0.0844451
1	0x3e560b24	0.20902687
2	0xbe5e8194	-0.21729118
3	0x3d40cb19	0.04706869
4	0x3b5adad4	0.0033394592
5	0x3c364eaa	0.011127153
6	0xbcc22a5c	-0.02370184
7	0xbe2d1d14	-0.16905624
8	0x3c80cc8e	0.01572254
9	0xbe7cb196	-0.24677119
10	0x3d71cabc	0.059031233
11	0xbcf01f2e	-0.029311743
12	0xbe59512f	-0.21222375
13	0x3d04d54b	0.032429975
14	0xbe0cecc4	-0.13762194
15	0xbda52bb7	-0.080649786
16	0xbbc9b020	-0.006155029
17	0xbe01632a	-0.12635484
18	0xbd3fba70	-0.04680866
19	0xbd806db0	-0.06270921
20	0xbd63852e	-0.055546932
21	0x3d4ba3b9	0.049716685
22	0xbd887bc4	-0.066642314
23	0xbe7e3bde	-0.24827525
24	0xbc809e22	-0.015700404
25	0x3cc21746	0.023692738
26	0x3d38fd21	0.045163278
27	0x3e1b65fb	0.15175621
28	0x3d66b365	0.056323428
29	0xbd4a0ed5	-0.04933055
30	0xbd40647d	-0.046970833
31	0x3e0fddda	0.14049473
32	0xbe4834d5	-0.19551404
33	0x3e18b17b	0.14911453
34	0xbdf81796	-0.12113874
35	0x3e2d4917	0.16922413
36	0xbdc2200a	-0.09478767
37	0x3e04020a	0.12891403
38	0xbca4edea	-0.020132978
39	0x3d83ca69	0.06435091
40	0x3e4e73bb	0.20161335
41	0x3d93cf94	0.07217327
42	0x3c085a2a	0.008322278
43	0xba94f3a3	-0.0011364113
44	0x3c81935a	0.015817333
45	0xbde1d107	-0.11026197
46	0x3e1d7cc7	0.1537963
47	0xbe808002	-0.25097662
48	0x3d4728dd	0.048622955
49	0xbe3a1172	-0.18170717
50	0xbcca855b	-0.024721792
51	0xbd1d45f8	-0.038396806
52	0xb9821fcb	-0.0002481922
53	0xbd440cfe	-0.047863953
54	0x3de7d9f2	0.11320867
55	0xbd5672bd	-0.052355517
56	0xbd7cc61b	-0.061712366
57	0x3d10a958	0.03531775
58	0xbd47dd93	-0.048795294
59	0x3e8cee8b	0.27525744
60	0x3b9123bd	0.004429309
61	0xbde28dbb	-0.11062189
62	0xbd2bb728	-0.04192272
63	0x3e361f2f	0.17785333
64	0xbdcd66fa	-0.10029407
65	0x3e2674df	0.1625552
66	0xbcd484e7	-0.025942279
67	0xbd3a4b95	-0.045482237
68	0x3cb818ef	0.022472827
69	0xbdb9b5cd	-0.09067879
70	0xbdf7e524	-0.12104252
71	0xbe015fc6	-0.12634191
72	0xbe14b2d6	-0.14521345
73	0x3d94120f	0.07230007
74	0xbd92b6dc	-0.07163784
75	0x3e01f2d7	0.12690292
76	0xbeefff8e	-0.4687466
77	0xbc90f8b5	-0.017696718
78	0xbcb1b622	-0.021693293
79	0x3e4a1bce	0.19737169
80	0x3c7be94d	0.015375447
81	0xbe1ee08c	-0.15515345
82	0x3e3a6c76	0.18205437
83	0x3dc627c2	0.09675552
84	0x3e0c3d17	0.13695179
85	0x3dd2b7ed	0.10288987
86	0xbc706caf	-0.01467435
87	0x3dd52647	0.104076914
88	0xbe08c34f	-0.13355754
89	0x3dc12161	0.09430195
90	0xbe2d8fac	-0.16949338
91	0x3c28a2a5	0.010292684
92	0x3d836609	0.06415946
93	0x3d559b28	0.05214992
94	0x3d54d888	0.051964313
95	0x3de58b15	0.112081684
96	0x3cb9109a	0.022590924
97	0x3e0546f0	0.13015342
98	0x3db0ff8c	0.08642492
99	0x3defa8b1	0.11702097
100	0xbd10da89	-0.03536466
101	0xbca06ba6	-0.01958258
102	0x3d0f9c70	0.0350613
103	0xbcb2c861	-0.021824064
104	0xbe1c5c0f	-0.15269493
105	0xbe8ba9cc	-0.27277982
106	0xbdbc7e9b	-0.092038356
107	0xbedb8754	-0.42876685
108	0x3db20125	0.086916246
109	0x3dfc06b4	0.12305966
110	0x3bc446da	0.0059898915
111	0xbdbe9194	-0.093051106
112	0xbe592a2e	-0.21207497
113	0xbd5dc7ac	-0.0541455
114	0x3d8aac88	0.06771189
115	0xbd5da033	-0.054107856
116	0xbdb4d95a	-0.08830519
117	0x3e38f471	0.18061997
118	0xbbf5a5bf	-0.007496565
119	0x3eaafd13	0.33396205
120	0x3d789676	0.060690366
121	0xbce02978	-0.027363524
122	0xbdbbd6f8	-0.091718614
123	0xbd79acca	-0.0609558
124	0x3da677a9	0.08128292
125	0xbdf9767f	-0.121808045
126	0x3d91d94c	0.07121524
127	0x3dfa6656	0.1222655
128	0x3e37e892	0.17959812
129	0x3dbac335	0.09119264
130	0xbe81d396	-0.2535674
131	0x3e3ede48	0.18639481
132	0xbd9f00af	-0.07763802
133	0xbdb97332	-0.09055175
134	0xbd417248	-0.047228128
135	0x3d87dc33	0.066337965
136	0xbd5fe0ed	-0.054657865
137	0xbe0bd448	-0.13655198
138	0xbe12fa23	-0.14353232
139	0x3e42d389	0.19026007
140	0xbdf1a8d4	-0.117997795
141	0xbdc39a92	-0.09550966
142	0x3cc3c1c0	0.023896098
143	0x3e29e282	0.16590312
144	0x3d12a1eb	0.03579895
145	0xbd418c55	-0.04725297
146	0x3d0e31db	0.034715515
147	0xbeaa4487	-0.33255407
148	0xbe1e38e8	-0.15451396
149	0x3df3bd38	0.11901325
150	0x3cfd07dd	0.030887539
151	0x3d79b8d3	0.060967278
152	0x3dc8376d	0.09776197
153	0x3d0604bc	0.03271936
154	0x3ce94865	0.028476903
155	0x3d93db0a	0.07219513
156	0xbe4aca8a	-0.19803825
157	0xbd2b8ff4	-0.04188533
158	0xbded6968	-0.1159237
159	0xbdb78f8c	-0.08962926
160	0xba8840df	-0.001039531
161	0xbd878fcd	-0.06619225
162	0xbcf3ee0f	-0.029776601
163	0x3d41aef8	0.047286004
164	0x3e1cf555	0.15327962
165	0xbd43ddcb	-0.04781894
166	0x3d1962ed	0.03744786
167	0xbe139b3c	-0.14414686
168	0xbb7f6e81	-0.0038975778
169	0x3dd5aa85	0.10432915
170	0xbe1efb24	-0.1552549
171	0x3dacc06b	0.08435138
172	0x3e6de5f7	0.23232256
173	0x3c0cfca4	0.008605156
174	0xbd1eed48	-0.038800508
175	0xbd31278a	-0.043250598
176	0x3e2818c3	0.16415696
177	0xbe74a1e3	-0.2388988
178	0xbc922d32	-0.017843816
179	0xbd9b2763	-0.07575872
180	0x3e4c2ce3	0.19938998
181	0xbcfe52e6	-0.031045388
182	0xbdc3f13c	-0.09567496
183	0x3df53c22	0.1197436
184	0xbe9174db	-0.28409466
185	0x3d0b50e3	0.034012686
186	0xbe1d6462	-0.15370324
187	0x3dbb1a0d	0.09135828
188	0x3dc92e63	0.09823301
189	0x3dc3b38c	0.0955573
190	0xbdcae817	-0.09907549
191	0xbd93c0ab	-0.07214483
192	0xbd986421	-0.07440973
193	0x3db87f6b	0.09008678
194	0x3d028334	0.031863406
195	0xbe006d52	-0.12541702
196	0xbd3ee885	-0.046608467
197	0x3dbea640	0.093090534
198	0x3e19dd78	0.1502589
199	0xbd66a434	-0.05630894
200	0xb775dc74	-1.4654466e-05
201	0x3d88423f	0.066532604
202	0x3e0f799d	0.14011236
203	0xbd4f6d65	-0.050641436
204	0xbd7754c7	-0.060383584
205	0x3dfb3f0b	0.12267884
206	0xbd9e81bc	-0.077395886
207	0x3d50ac2c	0.050945446
208	0xbdae06f6	-0.084974214
209	0xbd3ef101	-0.046616558
210	0x3d84c331	0.06482542
211	0xbe2ffcfd	-0.17186351
212	0xbda6ced0	-0.08144915
213	0xbdeae1ed	-0.11468873
214	0xbdacb9eb	-0.084338985
215	0xbb9a9ead	-0.0047186227
216	0xbe2bfdc9	-0.1679603
217	0xbdbc4778	-0.09193319
218	0x3d8f1dda	0.069881156
219	0xbd05d7b9	-0.032676432
220	0x3eb250a4	0.3482715
221	0x3d5558ad	0.05208652
222	0x3d5f5345	0.05452277
223	0xbcf68965	-0.030094812
224	0xbe1dabd0	-0.15397573
225	0x3d770669	0.060308848
226	0x3e261a7f	0.16221045
227	0xbd97303d	-0.073822476
228	0x3dc7b355	0.09751002
229	0x3e053fa9	0.13012566
230	0x3cb7477b	0.022372952
231	0xbdcd24e8	-0.10016805
232	0x3d9accd0	0.07558596
233	0x3bee2f68	0.007268835
234	0xbc49daa8	-0.012320198
235	0xbc0fe145	-0.008781736
236	0x3dbcfd63	0.09228017
237	0xbdd530c2	-0.104096904
238	0xbe0f4055	-0.13989384
239	0xbd179aeb	-0.037012976
240	0x3d77ae16	0.060468756
241	0xbd8da1ce	-0.069156274
242	0xbd9591cd	-0.073032
243	0x3dcd59db	0.10026904
244	0xbe2bbb93	-0.16770773
245	0x3d95e706	0.07319455
246	0xbd58ab2d	-0.05289762
247	0xbdddac4f	-0.10823881
248	0xbdbff41b	-0.09372731
249	0xbe05d68c	-0.13070124
250	0x3d822b5b	0.06355926
251	0xbe7ad5b9	-0.24495591
252	0xbe7c7e0f	-0.24657463
253	0xbceaba49	-0.02865328
254	0xbdc7d71e	-0.09757827
255	0xbe0b978f	-0.13632034

bias f4 [64]
0	0x3cb162ef	0.02165362
1	0xbca8070a	-0.020511169
2	0xbd069d11	-0.032864634
3	0xbd566d78	-0.05235049
4	0xbc33ed28	-0.010981835
5	0x3c97d7f7	0.018535597
6	0x3bdf1a05	0.0068085217
7	0xbd33712c	-0.0438091
8	0xbd72c17c	-0.059266552
9	0x3ad9322f	0.0016570742
10	0x3bd0557c	0.006357847
11	0x3bf681db	0.007522804
12	0xbab970c8	-0.0014147991
13	0x3d1403b2	0.036136337
14	0xbae83b2c	-0.001771783
15	0xbd8d6a11	-0.06904996
16	0xbd0d9cbf	-0.034573313
17	0x3a0d0b7b	0.0005380434
18	0x3cab5335	0.0209137
19	0xbd0a62af	-0.03378552
20	0x3c4ead71	0.012614594
21	0xbd470b8d	-0.048595
22	0xbd8d2fc5	-0.06893877
23	0x3bd10923	0.006379263
24	0x3c3997c2	0.011327686
25	0xbd2a8d01	-0.041638378
26	0xbdb307f5	-0.08741752
27	0xbd2e5be0	-0.042568088
28	0xbd6aff06	-0.057372116
29	0xbdb9ff3b	-0.090818845
30	0x3b846e29	0.0040414524
31	0xbbc32088	-0.0059548058
32	0xbc8d99e4	-0.017285295
33	0xba887ea3	-0.0010413717
34	0xbc6ca3ff	-0.014443397
35	0xbac6b5b0	-0.0015160348
36	0xbd187e67	-0.03722992
37	0xbcbf7bb1	-0.02337441
38	0xbda0547f	-0.07828616
39	0x3d3f9b9f	0.04677927
40	0xbcd18e71	-0.025580617
41	0x3c96c3b1	0.01840386
42	0xbcf28851	-0.029606016
43	0x3d001c18	0.031276792
44	0xbd212ef8	-0.039351434
45	0xbd2cd1c4	-0.042192236
46	0xbd236385	-0.03988983
47	0xbdb73f6f	-0.08947646
48	0x3c84760a	0.016169567
49	0xbbf69ddc	-0.0075261425
50	0x3d93c1d3	0.072147034
51	0xbbc096d6	-0.005877356
52	0xbd672616	-0.056432806
53	0x3cc08e59	0.023505377
54	0x3c8ca3d7	0.017167969
55	0xbcff4bed	-0.031164134
56	0xbcd79cf1	-0.026319953
57	0xbcc8d20c	-0.02451422
58	0xbd393da1	-0.04522479
59	0xbd74f8d3	-0.05980761
60	0x3ccbafcc	0.0248641
61	0xbd4906ff	-0.049078938
62	0xbab4d94b	-0.0013797669
63	0x3c64f091	0.013973371

weight f4 [1, 64]
0	0x3df8cd50	0.12148535
1	0x3e84a8bf	0.25909993
2	0x3e5d6176	0.2161921
3	0x3e7f1d3a	0.24913493
4	0x3e719585	0.23592193
5	0xbe4708bf	-0.1943693
6	0x3e55677f	0.20840262
7	0x3ea9eca7	0.33188364
8	0xbe34a61c	-0.1764149
9	0xbe1373e6	-0.1439968
10	0x3ea16cac	0.31528223
11	0x3e6ccea3	0.231257
12	0xbe612f2c	-0.21990651
13	0xbea0e3b6	-0.3142373
14	0x3e62e32b	0.2215697
15	0xbe2887ea	-0.16458097
16	0xbe22ad49	-0.15886416
17	0xbe02d63a	-0.12777033
18	0x3e4bbd72	0.19896486
19	0x3e5dd617	0.216637
20	0xbddf2c06	-0.10897069
21	0xbe9a8cff	-0.30185696
22	0xbe66edbb	-0.22551624
23	0x3eab9a89	0.33516338
24	0x3e3caea7	0.18426
25	0xbe8a7758	-0.27044177
26	0xbe805a98	-0.25069118
27	0xbe4e076f	-0.20120023
28	0xbe756198	-0.2396301
29	0x3e013b41	0.1262026
30	0x3e4c03d0	0.1992333
31	0x3e4f5398	0.20246732
32	0xbe9dde59	-0.308337
33	0x3e80e70f	0.25176284
34	0xbe875c59	-0.26437643
35	0xbe346826	-0.17617854
36	0x3e95bbb7	0.29244778
37	0x3df0d4ce	0.11759339
38	0x3e8c2856	0.27374524
39	0x3e7efda2	0.2490144
40	0x3e87763b	0.2645739
41	0x3e770e08	0.24126446
42	0xbe55c0f7	-0.20874391
43	0xbdf4ffb1	-0.11962832
44	0x3e38ab8f	0.18034194
45	0xbeb2a66c	-0.34892595
46	0xbe85e5b7	-0.2615182
47	0xbe79c71d	-0.24392362
48	0x3e8efaea	0.27925807
49	0x3e5d585a	0.21615735
50	0xbe5722ef	-0.2100942
51	0x3e96f4aa	0.2948354
52	0x3e33bcbf	0.1755247
53	0x3e44498e	0.19168684
54	0x3eab6aa4	0.33479798
55	0xbe9fb6d6	-0.3119418
56	0xbe7764a8	-0.24159491
57	0x3e41a5f8	0.18910968
58	0x3e9d3e45	0.3071157
59	0x3e0cd436	0.13752827
60	0x3e4d4281	0.200449
61	0xbea9725e	-0.33095068
62	0xbe9bed33	-0.30454406
63	0xbdc085c2	-0.09400512
