test/ens_models/ens_model_4_N.pt (torch, 654739 bytes, 6 tensors)

weight f4 [20, 10]
-0.32518864 0.110083 1.0898799 0.027503178 -0.3344154 -0.19472076 0.6902303 0.41383824
0.3517392 0.15815149 -0.38384023 -0.37974155 -0.4766321 -0.3527037 -0.77748036 -0.046143923
-0.6284348 -0.48859072 -0.2677872 0.08694449 -0.39461744 -0.71390504 -0.4409843 0.5236896
-0.80906713 -0.927047 -0.32859373 -0.14343026 -0.84018385 -0.34833223 -0.015662566 0.41356337
0.83315027 0.8050267 -0.13351056 0.2164415 0.8343013 0.3612338 0.63682705 -0.21560068
-0.844741 0.0069543566 -0.06750935 -0.13158028 -0.837572 -0.09768848 0.11343861 -0.4878061
-0.32256982 -0.35444397 -0.48883545 -0.057206824 0.602327 -0.031273477 -0.45818636 0.5276481
1.3161937 -0.063139744 -0.27756634 -0.20533878 0.8435992 -0.47831485 0.7170109 0.0044567673
-0.05560812 -0.12932347 0.026366128 -0.45099598 -0.54245305 0.41943112 -1.1547006 0.3166348
-0.3539534 0.5806439 0.7497317 0.05932757 0.35918406 -0.30555928 0.41554648 -0.056948267
0.103626065 0.36206594 0.42733717 -0.48676515 0.21589477 0.5611553 -0.1046538 -0.17550512
0.2668878 -0.813544 -0.082785696 0.60588646 -0.29182854 0.04253232 0.5512728 -0.89752436
0.8177356 0.60927594 -0.16160026 0.49017704 0.66157156 0.2669837 1.2012087 0.035437826
0.1958306 0.35353777 0.33238083 -0.2308744 -0.82193846 -0.4442669 -0.27050927 0.56051606
-0.162449 0.42348468 0.20149578 0.06556378 0.37266973 -1.2868853 -0.11164133 -0.34384856
0.2518787 -0.51562476 -0.14626935 -0.75942886 -1.1418712 -0.7307969 -0.40642866 -0.6735635
0.08761083 -0.62045336 0.27732444 -0.45772177 -0.6641937 -0.020673264 -0.42734113 0.34050012
-0.02280406 0.13028608 -0.53198445 0.930737 -0.8408293 1.4616754 -0.0745204 0.4057811
-0.53068835 -0.0624995 0.23306793 0.011134949 -0.27488402 0.052717563 -0.6367206 0.10280147
0.30636454 -0.14513105 -0.63895094 -0.0044924747 -0.5006854 0.094868146 -0.09819985 -0.68554175
0.72206444 -0.3068489 -0.61458147 -0.36577213 0.4463531 0.74599934 0.12584144 1.1775589
0.45378968 0.6896947 -0.0110370265 0.5627933 0.015706277 0.84963125 0.34890375 -0.12284493
1.0256166 -0.37626302 0.091027565 0.15850505 0.43859807 0.27410775 -0.333102 0.26829997
-0.73273826 0.63436043 0.47314498 0.46151805 0.2343571 -0.41889432 -0.22586751 0.92507106
-1.1669608 -0.4049047 0.5409861 -0.48019454 0.3900253 0.0074931784 0.0910191 0.3320335
00000000: 207f a6be 3273 e13d 2f81 8b3f 584e e13c
00000010: 7f38 abbe e164 47be efb2 303f 9be2 d33e
00000020: 2917 b43e 77f2 213e b586 c4be 7c6d c2be
00000030: 1f09 f4be 9495 b4be f408 47bf 6901 3dbd
00000040: 1ae1 20bf 9028 fabe 671b 89be f40f b23d
00000050: 4c0b cabe 7bc2 36bf b2c8 e1be 8610 063f
00000060: 061f 4fbf f452 6dbf 703d a8be 62df 12be
00000070: 4a16 57bf 9a58 b2be c84e 80bc 94be d33e
00000080: 5649 553f 3b16 4e3f feb6 08be d7a2 5d3e
00000090: c594 553f a3f3 b83e 1907 233f 6dc6 5cbe
000000a0: f240 58bf 5fe1 e33b 5842 8abd fbbc 06be
000000b0: 1e6b 56bf e610 c8bd 8152 e83d b9c1 f9be
000000c0: df27 a5be ae79 b5be a448 fabe b451 6abd
000000d0: 1a32 1a3f 9e18 00bd 6797 eabe f213 073f
000000e0: 0979 a83f 694f 81bd 2d1d 8ebe 5444 52be
000000f0: 1ef6 573f afe5 f4be 078e 373f 130a 923b
00000100: 57c5 63bd 5f6d 04be c7fd d73c f2e8 e6be
00000110: 34de 0abf adbf d63e 3bcd 93bf f51d a23e
00000120: 6139 b5be 14a5 143f 6bee 3f3f 7701 733d
00000130: f9e6 b73e 4472 9cbe 82c2 d43e 9642 69bd
00000140: e739 d43d b560 b93e f0cb da3e 4839 f9be
00000150: 8513 5d3e e0a7 0f3f bb54 d6bd 9db7 33be
00000160: 85a5 883e 6b44 50bf 8c8b a9bd 601b 1b3f
00000170: 8d6a 95be 5f36 2e3d 3720 0d3f 28c4 65bf
00000180: 1f57 513f 82f9 1b3f 8a7a 25be 7cf8 fa3e
00000190: c15c 293f 16b2 883e 35c1 993f 4127 113d
000001a0: d187 483e e702 b53e d22d aa3e 576a 6cbe
000001b0: 8f6a 52bf f376 e3be 3180 8abe fb7d 0f3f
000001c0: 0859 26be fcd2 d83e e954 4e3e 4e46 863d
000001d0: 91ce be3e a8b8 a4bf 36a4 e4bd eb0c b0be
000001e0: 3ff6 803e fcff 03bf a2c7 15be ee69 42bf
000001f0: d628 92bf 8115 3bbf 6b17 d0be a86e 2cbf
00000200: 4f6d b33d 08d6 1ebf 78fd 8d3e 825a eabe
00000210: 9908 2abf fa5a a9bc 75cc dabe 0856 ae3e
00000220: 94cf babc b769 053e 2230 08bf c844 6e3f
00000230: 9740 57bf 2e18 bb3f 279e 98bd 8ac2 cf3e
00000240: 31db 07bf 7aff 7fbd 5ca9 6e3e 5c6f 363c
00000250: 99bd 8cbe 5fee 573d 1f00 23bf 9489 d23d
00000260: d0db 9c3e 3c9d 14be 4a92 23bf 9c35 93bb
00000270: eb2c 00bf 3b4a c23d 011d c9bd aa7f 2fbf
00000280: 37d9 383f 4d1b 9dbe 3655 1dbf 7c46 bbbe
00000290: 6588 e43e d0f9 3e3f 94dc 003e 40ba 963f
000002a0: 1f57 e83e d58f 303f a5d4 34bc 3913 103f
000002b0: 73aa 803c 6f81 593f 83a3 b23e 1f96 fbbd
000002c0: 6847 833f 8ca5 c0be a96c ba3d 264f 223e
000002d0: ed8f e03e da57 8c3e 588c aabe 9d5e 893e
000002e0: bc94 3bbf 7265 223f 0f40 f23e 184c ec3e
000002f0: 4ffb 6f3e 5179 d6be d049 67be 75d1 6c3f
00000300: f95e 95bf ab4f cfbe 117e 0a3f 0fdc f5be
00000310: 65b1 c73e 5689 f53b 3968 ba3d 4b00 aa3e

weight f4 [256, 570]
0.0031139103 -0.0058596707 0.018199582 0.016715148 0.020842485 -0.03920801 -0.021153077 -0.01767577
-0.037504558 0.04004831 -0.00065650593 -0.022781126 0.0031670455 -0.07368326 0.00258782 -0.05174723
-0.08649593 -0.02995857 0.004002727 -0.0063418853 -0.003950502 -0.05394219 0.041315187 0.026065214
-0.012268079 -0.004123512 0.10633169 0.046968117 -0.026419103 -0.02722989 -0.08763615 -0.2101431
0.0013205438 -0.015009634 -0.024053516 -0.024846535 -0.50328255 -0.576812 -0.04171922 -0.042747006
-0.07003973 0.10700886 0.10272744 -0.21185787 0.10386659 -0.026014348 0.14122385 0.074516505
0.009420196 -0.014213906 -0.43932566 -0.18048933 0.035331275 0.0021638556 -0.021522952 0.058345683
0.06562854 0.04654391 0.07474078 0.00036715236 0.004041133 -0.0009459309 0.13718304 -0.02436158
0.019153487 -0.03232572 -0.018268298 -0.019013967 -0.03081998 -0.012539116 0.15822223 0.09656666
0.0528794 -0.06647437 0.10065737 -0.1270117 -0.02225592 0.072923325 -0.15223062 -2.2193537e-05
-0.15080522 -0.005146662 -0.03374166 -0.013341259 0.31552178 -0.03560365 -0.03581281 0.03156012
0.027672837 0.012212433 -0.02841921 -0.023193661 0.019511849 0.05846971 -0.0006616375 -0.0853415
0.028823325 -0.011174123 0.025999242 0.10201065 -0.110913776 -0.00852029 -0.002668303 -0.01782132
-0.1214823 -0.030868014 -0.032431822 0.0030436474 0.23242801 0.0022937849 -0.047507692 0.070517905
0.070046544 0.042790774 0.031489477 -0.025809834 0.031135468 -0.015138677 -0.008691276 0.0025885627
-0.009626151 -0.04529643 -0.013557201 0.005130612 -0.03187755 0.003556291 -0.0028191092 0.02940989
0.032500133 -0.025902767 0.011144019 -0.03400656 0.058336627 0.0182943 -0.020096097 0.00073226576
-0.051479023 0.10154507 -0.10415565 -0.0036354556 -0.06526895 0.00445126 -0.07652621 0.039831847
-0.07607736 -0.07336369 -0.017720098 0.011572614 -0.28824106 -0.23272489 -0.003066329 0.088059165
-0.00031196876 -0.10154894 -0.046661835 0.05473051 0.07286143 -0.03871638 -0.07189847 0.02567024
0.01363201 -0.06864858 -0.009013773 -0.06856793 -0.03952722 -0.057396177 0.01657392 -0.0154358465
0.15254435 -0.09080231 0.05349108 -0.14730656 0.55083543 0.06339646 -0.0035892522 -0.3586965
-0.06591177 -0.41843262 -0.0058467025 0.021297742 -0.076452784 -0.05239976 -0.009278947 0.022723908
-0.020860694 0.008731286 -0.017449439 -0.011802097 -0.027032731 -0.010849186 0.08761611 -0.03573169
-0.07960297 0.01960842 -0.034083564 -0.05813996 -0.08988375 -0.04227065 0.06303566 0.04945675
0.01495922 0.019660868 0.026657091 -0.056727655 0.09632352 0.027232803 0.0004218292 -0.0192224
0.0046491236 0.027859893 0.007267856 0.025389545 0.008245253 0.03552616 -0.07012812 0.032662664
0.61148727 0.37185296 -0.47778544 -0.21373567 0.23707959 0.22569549 -0.1509277 -0.25238347
-0.111128055 0.054909345 -0.0015237719 -0.0854037 0.009369653 0.12778057 0.19809094 0.19064556
0.11468177 0.08418866 0.14118172 0.6695179 0.31294045 0.06720579 -0.1490335 0.2586452
-0.099182054 0.043474782 0.006071642 0.012990411 -0.1673828 0.049065944 0.01645473 0.012656757
-0.04848307 -0.010057008 0.0063793217 0.022060128 0.019158252 0.006308306 -0.025642663 0.035627667
00000000: bf12 4c3b 7b02 c0bb 4a17 953c 35ee 883c
00000010: dcbd aa3c 9498 20bd 3849 adbc c7cc 90bc
00000020: 619e 19bd b209 243d 5e19 2cba 7c9f babc
00000030: 358e 4f3b 40e7 96bd 6a98 293b e7f4 53bd
00000040: c724 b1bd ad6b f5bc 4f29 833b 97cf cfbb
00000050: 3673 81bb 7cf2 5cbd 1d3a 293d b786 d53c
00000060: 0e00 49bc 871e 87bb 6ec4 d93d a461 403d
00000070: e06c d8bc 3811 dfbc 957a b3bd c12f 57be
00000080: 1916 ad3a f8ea 75bc e10b c5bc f68a cbbc
00000090: 20d7 00bf f4a9 13bf c6e1 2abd 7c17 2fbd
000000a0: fd70 8fbd 7627 db3d c462 d23d 45f1 58be
000000b0: 02b8 d43d 0b1c d5bc fc9c 103e 1c9c 983d
000000c0: 2a57 1a3c 71e1 68bc 4bef e0be 32d2 38be
000000d0: 87b7 103d 79cf 0d3b e750 b0bc e2fb 6e3d
000000e0: 4268 863d d4a4 3e3d b211 993d 5b7e c039
000000f0: 7b6b 843b 59f8 77ba b679 0c3e f091 c7bc
00000100: c6e7 9c3c f967 04bd 66a7 95bc 2ec3 9bbc
00000110: 2f7a fcbc dd70 4dbc 0205 223e bec4 c53d
00000120: 1298 583d b723 88bd 7425 ce3d 5b0f 02be
00000130: 0c52 b6bc d358 953d 58e2 1bbe 422c bab7
00000140: af6c 1abe 54a5 a8bb b234 0abd 4c95 5abc
00000150: 128c a13e 22d5 11bd 74b0 12bd 2f45 013d
00000160: 25b2 e23c a816 483c 67cf e8bc a200 bebc
00000170: 50d7 9f3c ef7d 6f3d be71 2dba 86c7 aebd
00000180: e51e ec3c ab13 37bc 5dfc d43c f6ea d03d
00000190: c326 e3bd b098 0bbc b2de 2ebb 04fe 91bc
000001a0: b6cb f8bd ebde fcbc 3bd7 04bd ee77 473b
000001b0: 9c01 6e3e 5353 163b 6d97 42bd b16b 903d
000001c0: 9074 8f3d 6145 2f3d 1cfb 003d 256f d3bc
000001d0: cf0f ff3c 3708 78bc db65 0ebc e0a4 293b
000001e0: 01b7 1dbc c088 39bd 061f 5ebc b11e a83b
000001f0: 0992 02bd aa10 693b cec0 38bb 02ed f03c
00000200: dc1e 053d 0a32 d4bc 6795 363c 764a 0bbd
00000210: 63f2 6e3d eedd 953c 92a0 a4bc 86f5 3f3a
00000220: abdb 52bd ddf6 cf3d 8f4f d5bd d340 6ebb
00000230: baab 85bd e0db 913b c6b9 9cbd b826 233d
00000240: 72ce 9bbd b43f 96bd bd29 91bc 109b 3d3c
00000250: 5594 93be 6f4f 6ebe 77f4 48bb 5d58 b43d
00000260: bd8f a3b9 e4f8 cfbd 7b20 3fbd 192d 603d
00000270: 6038 953d 1195 1ebd 813f 93bd 654a d23c
00000280: cb58 5f3c a097 8cbd 81ae 13bc 586d 8cbd
00000290: 4be7 21bd 4118 6bbd 08c6 873c a2e6 7cbc
000002a0: 9634 1c3e 90f6 b9bd 7619 5b3d 88d7 16be
000002b0: 8d03 0d3f 01d6 813d a939 6bbb 11a7 b7be
000002c0: c0fc 86bd cd3c d6be b295 bfbb 9a78 ae3c
000002d0: 4793 9cbd 21a1 56bd b906 18bc 7d27 ba3c
000002e0: 0ce4 aabc ab0d 0f3c 20f2 8ebc 955d 41bc
000002f0: bf73 ddbc c9c0 31bc 1370 b33d 645b 12bd
00000300: e206 a3bd d6a1 a03c 359b 0bbd 2b24 6ebd
00000310: f914 b8bd fd23 2dbd d718 813d 2993 4a3d
00000320: 8417 753c d40f a13c f95f da3c 425b 68bd
00000330: 4445 c53d 5417 df3c f528 dd39 4b78 9dbc
00000340: ad57 983b 6e3a e43c 3227 ee3b bcfd cf3c
00000350: 1917 073c e183 113d 559f 8fbd 49c9 053d
00000360: 6e8a 1c3f 8363 be3e 4ba0 f4be 86dd 5abe
00000370: fec4 723e b81c 673e ca8c 1abe 6838 81be
00000380: 1b97 e3bd 9fe8 603d 4db9 c7ba 23e8 aebd
00000390: 2c83 193c e9d8 023e 5ad8 4a3e 9738 433e
000003a0: 47de ea3d 1b6b ac3d f191 103e 8665 2b3f
000003b0: bb39 a03e 30a3 893d 3d9c 18be 256d 843e
000003c0: f61f cbbd 9d12 323d a0f4 c63b bcd5 543c
000003d0: 6666 2bbe 5ff9 483d 12cc 863c 495e 4f3c
000003e0: 2f96 46bd 26c6 24bc a109 d13b 71b7 b43c
000003f0: c4f1 9c3c e8b5 ce3b 9010 d2bc 51ee 113d

bias f4 [256]
-0.015753632 0.036922477 0.022672795 -0.11621724 -0.037221767 0.002248385 0.024062337 -0.0360941
-0.032419525 0.0022334275 -0.013959302 0.008769346 -0.012429811 -0.026712483 0.01256163 -0.030257756
0.0051189302 -0.0028683173 0.010685767 0.07351866 0.02147378 -0.03375022 0.0027253726 -0.0015696124
0.0343652 0.008748592 0.045690402 -0.011751097 -0.004116172 -0.040287852 0.025127161 -0.023885414
-0.021281548 -0.00831095 -0.003545359 -0.0060792123 0.029945077 0.016318506 -0.019370459 -0.014315051
-0.05223687 -0.014883836 -0.025238294 0.019758733 -0.027983012 -0.04119363 -0.014856723 0.013411561
-0.06306992 -0.056334738 -0.030591454 0.011575842 0.011895738 -0.018383697 0.009636536 0.022760056
0.029590325 -0.025853056 0.005239186 0.029045176 -0.012430077 0.03687593 0.030539531 -0.03650446
-0.017407697 -0.009278655 -0.041137382 -0.009796028 -0.029328385 0.018836098 0.03411653 -0.0011483948
-0.018370895 -0.0058933776 0.0056301723 -0.008691792 0.037047453 -0.018331401 -0.029940905 -0.01619599
0.012816814 -0.02933722 -0.0056781406 -0.015512197 0.009813141 -0.030171884 -0.036372513 0.11726035
-0.033788577 -0.016984088 -0.030701866 0.021709956 -0.035000592 0.025300123 -0.007522976 -0.03450859
-0.031565428 0.041115254 0.024627335 -0.022057027 0.028581703 0.037522897 -0.006487703 0.02602126
-0.01880412 -0.053593345 -0.03504565 -0.004181186 0.031728532 -0.011242951 -0.019131962 -0.033518214
-0.05357687 0.019569399 0.005432322 0.014735406 -0.034546897 0.018110998 -0.035240736 -0.04003312
-0.008662463 -0.026783673 -0.067573026 0.014810365 0.029679406 -0.0012345851 -0.0016277933 0.03847148
-0.021425858 -0.006172276 -0.018216392 0.034764573 -0.0063451617 0.0071135084 -0.017524803 0.037422318
0.015033851 -0.0017091898 -0.02149782 0.019477248 -0.009930078 0.01871382 0.023310604 -0.048068747
-0.036902647 -0.010242637 0.015540545 0.07935046 0.022686172 0.032159057 0.0050864276 0.0061404076
-0.03902256 0.039709046 0.029278122 -0.02351075 0.016749067 -0.0068648206 -0.0037272791 -0.046043295
0.06016238 0.03466358 0.037789125 -0.047300637 0.019894095 0.02706053 0.0008527618 0.0007554086
0.00700597 -0.029901633 0.022335231 0.0016584531 0.028280407 -0.009783288 0.02184284 0.0155212805
0.02250882 0.0148568675 -0.017185358 -0.02252384 0.015508832 0.0035835782 0.014027779 0.012918071
0.031179372 -0.027810045 -0.019690108 0.02108975 -0.024431126 0.0093039805 -0.025322264 0.034069397
-0.006196277 0.021511696 -0.03062272 0.0013102258 -0.022072582 0.16457072 -0.027056329 0.030903574
0.032454856 -0.03013255 -0.03444586 -0.029357685 0.0018992644 0.0030785222 0.033536863 -0.024080476
-0.01327531 0.006472781 -0.028668202 0.02443684 0.0019025274 0.025007105 0.018330665 -0.015038884
-0.0123663265 -0.027036944 -0.013688679 0.029483452 0.011598588 -0.080383286 0.034210235 0.036300924
-0.051850967 -0.028660063 -0.01234796 0.030861758 -0.01923499 0.04263771 0.031379383 -0.029992497
-0.007796523 -0.0011381418 0.00722432 0.047260124 0.011880896 0.016815413 0.010739388 0.020432374
0.0858465 0.032180388 -0.033828303 0.016901126 0.029182818 -0.022326218 0.04341002 0.017503202
0.031356994 -0.005358629 -0.0071347766 0.016607678 0.017069679 0.015746929 -0.04536579 -0.038648758
00000000: c30d 81bc 063c 173d 4cbc b93c 4e03 eebd
00000010: da75 18bd a459 133b 611e c53c 68d7 13bd
00000020: 56ca 04bd b25e 123b 8eb5 64bc 4ead 0f3c
00000030: 68a6 4bbc 23d4 dabc 4ccf 4d3c 1ddf f7bc
00000040: b3bc a73b 61fa 3bbb 5b13 2f3c f490 963d
00000050: c8e9 af3c ac3d 0abd 2a9c 323b 74bb cdba
00000060: 86c2 0c3d 4156 0f3c dc25 3b3d ac87 40bc
00000070: f4e0 86bb e004 25bd 7ad7 cd3c 58ab c3bc
00000080: a456 aebc a72a 08bc 4159 68bb 2134 c7bb
00000090: 614f f53c 63ae 853c ccae 9ebc ad89 6abc
000000a0: 54f6 55bd 55db 73bc 8ac0 cebc 11dd a13c
000000b0: a13c e5bc a7ba 28bd 9d69 73bc 2abc 5b3c
000000c0: cd2a 81bd 41bf 66bd ee9a fabc 9aa8 3d3c
000000d0: 57e6 423c 6899 96bc 90e2 1d3c 4c73 ba3c
000000e0: 6967 f23c cac9 d3bc 7aad ab3b 26f0 ed3c
000000f0: 86a7 4bbc 370b 173d 0a2e fa3c b385 15bd
00000100: 969a 8ebc 8005 18bc ac7f 28bd 857f 20bc
00000110: 1542 f0bc 294e 9a3c c6bd 0b3d bc85 96ba
00000120: 8f7e 96bc 3c1d c1bb 4f7d b83b 0568 0ebc
00000130: 12bf 173d bc2b 96bc a146 f5bc 74ad 84bc
00000140: 9dfd 513c 9c54 f0bc b20f babb df26 7ebc
00000150: 4cc7 203c 072b f7bc 58fb 14bd 3226 f03d
00000160: e465 0abd 3722 8bbc 7b82 fbbc 14d9 b13c
00000170: c85c 0fbd 3442 cf3c 4c83 f6bb e158 0dbd
00000180: c04a 01bd 7868 283d 44bf c93c f0b0 b4bc
00000190: 2d24 ea3c 9cb1 193d cc96 d4bb 8a2a d53c
000001a0: 190b 9abc b284 5bbd 078c 0fbd 5502 89bb
000001b0: c7f5 013d 5b34 38bc a2ba 9cbc 654a 09bd
000001c0: 6c73 5bbd 0150 a03c 9f01 b23b c66c 713c
000001d0: 0c81 0dbd 845d 943c 9758 10bd c5f9 23bd
000001e0: 01ed 0dbc 6f69 dbbc ba63 8abd 2ca7 723c
000001f0: 3a22 f33c cdd1 a1ba ae5b d5ba 4594 1d3d
00000200: 4885 afbc ce40 cabb 8b3a 95bc 4c65 0e3d
00000210: 13eb cfbb 6f18 e93b 2d90 8fbc 2548 193d
00000220: 8b50 763c e506 e0ba 321c b0bc c08e 9f3c
00000230: c4b1 22bc ba4d 993c e1f5 be3c bce3 44bd
00000240: 3b27 17bd bcd0 27bc c59d 7e3c 7e82 a23d
00000250: 5ad8 b93c 37b9 033d 0cac a63b 7935 c93b
00000260: 1fd6 1fbd f4a5 223d acd8 ef3c 9e99 c0bc
00000270: 5735 893c 4af2 e0bb 5e45 74bb e597 3cbd
00000280: d46c 763d 66fb 0d3d c5c8 1a3d 50be 41bd
00000290: f1f8 a23c 0bae dd3c e08b 5f3a 9d06 463a
000002a0: 5692 e53b 45f4 f4bc 60f8 b63c 7460 d93a
000002b0: 50ac e73c 164a 20bc c1ef b23c f84c 7e3c
000002c0: 6b64 b83c 386a 733c 4fc8 8cbc eb83 b8bc
000002d0: c218 7e3c 77da 6a3b c5d4 653c 51a6 533c
000002e0: e26b ff3c e4d1 e3bc 264d a1bc 69c4 ac3c
000002f0: c923 c8bc b96f 183c a370 cfbc 5a8c 0b3d
00000300: 240a cbbb 4c39 b03c 80dc fabc e2bb ab3a
00000310: 8fd1 b4bc 3a85 283e 3ca5 ddbc 7e29 fd3c
00000320: 62ef 043d 8ad8 f6bc 1a17 0dbd 877f f0bc
00000330: bdf0 f83a 08c1 493b f35d 093d 6b44 c5bc
00000340: b080 59bc 9f19 d43b 94d9 eabc c52f c83c
00000350: 3a5e f93a b3db cc3c 312a 963c a765 76bc
00000360: 229c 4abc 957c ddbc 7b46 60bc 4887 f13c
00000370: 0108 3e3c fe9f a4bd 0820 0c3d 47b0 143d
00000380: ae61 54bd 82c8 eabc 194f 4abc ccd1 fc3c
00000390: b392 9dbc e1a4 2e3d ab87 003d d3b2 f5bc
000003a0: fa79 ffbb b42d 95ba fdb9 ec3b d593 413d
000003b0: 17a8 423c 7ac0 893c 42f4 2f3c cb61 a73c
000003c0: 4ad0 af3d 95cf 033d 8c8f 0abd 3b74 8a3c
000003d0: ce10 ef3c 79e5 b6bc b5ce 313d e062 8f3c
000003e0: 3170 003d 7097 afbb d8ca e9bb d30c 883c
000003f0: b6d5 8b3c b4ff 803c 7bd1 39bd 294e 1ebd

weight f4 [64, 256]
-0.03434509 -0.127798 0.010170584 0.2053297 -0.13196024 0.04904042 -0.03218188 0.08463633
-0.09639764 -0.054278895 -0.061214503 -0.08427077 0.027714003 0.045954373 0.0067765983 0.122103676
0.045604553 -0.0056856815 -0.08647436 -0.027196283 0.05675214 0.030467322 0.026031978 0.010905361
-0.033887792 0.0286945 0.12166832 0.046055425 0.015458655 0.097524166 0.029141 -0.08280274
0.023148222 -0.010140226 -0.0887587 -0.12807736 0.013427197 0.1340488 0.012357754 -0.07251394
-0.06509081 0.17653897 -0.09281202 0.008563236 -0.004553084 0.001399848 -0.08072545 0.15183388
0.080289595 0.06806935 0.13776566 -0.17912468 0.0061504934 -0.03341485 0.031042626 0.06420677
0.1511717 -0.07676036 -0.048467193 0.011902058 -0.040028725 0.0618371 0.10741306 0.1362397
-0.12101643 0.015395112 -0.08940472 -0.05791622 0.0786404 -0.11110477 0.040867064 0.060680363
-0.06356021 -0.05745647 -0.003439448 -0.027269177 -0.014885436 0.049843278 0.05628145 -0.009117737
-0.0053706747 0.14152464 0.07218829 0.017862745 -0.06909415 0.09366905 0.03611651 -0.08376181
0.06083704 0.021275792 0.14395124 -0.11788876 0.022279117 0.057948757 0.06046723 -0.14193395
0.08735345 0.10212405 -0.0122085735 -0.102129884 -0.0986982 0.004858456 0.02266363 -0.15189826
-0.050364148 0.008233163 0.0834477 0.00923561 0.014431903 0.07486299 0.010594517 0.10880423
0.058906622 -0.013311614 -0.0059945527 -0.08924865 -0.005629852 -0.10793281 -0.07901229 0.014490187
-0.04377121 0.11564251 -0.01729395 -0.007596201 0.091490686 -0.070729 0.045318566 0.12863377
-0.051256806 0.07334526 0.12446458 0.086156555 0.090570934 0.07832354 0.037051834 -0.043737855
-0.046939854 0.06903063 0.232894 0.059046917 0.12274469 -0.06359844 -0.04195871 0.0073765563
-0.04269431 0.0950478 0.073349684 -0.121431686 -0.067146175 -0.04875874 -0.080173284 -0.01304794
-0.1293738 0.15665181 0.035069823 0.12900782 -0.054926638 -0.045557518 -0.07390998 -0.02592823
-0.04621836 0.014694422 0.037217066 -0.021557303 0.12669581 -0.045536842 0.06307306 -0.050035372
0.058272865 0.06970382 0.101514824 0.022279374 -0.007871163 0.20479244 -0.019935692 -0.08929731
0.0062396596 0.011202806 0.09847399 -0.003514295 -0.07951084 0.00529163 0.017348228 0.070749976
-0.0061511146 -0.10251236 -0.115377836 0.075391814 0.056801695 -0.04134526 -0.020805964 0.074117124
0.0066931336 0.019966224 -0.07512087 0.028420059 0.047697447 -0.05845621 -0.023106605 0.05637329
-0.018723268 0.10341683 0.063499756 0.057799123 0.11278536 -0.11514765 -0.03454567 -0.06754741
-0.00637782 -0.11838124 0.06731152 -0.08986186 0.038452502 -0.04069706 0.1882361 0.025990624
0.013501803 -0.04684707 -0.05634196 -0.012643412 -0.039769027 0.13365191 0.08538775 0.20116328
0.18456347 -0.04288576 0.053007293 -0.059169907 -0.056115475 -0.06258697 0.019808553 -0.0043940246
0.042984843 -0.0401825 -0.08569323 0.0015682726 -0.03787669 -0.016839538 0.0465543 0.03567276
-0.06145571 -0.016755069 -0.04776931 0.20534174 0.12331926 -0.039470427 0.11646684 -0.079014175
0.009142983 -0.048370373 0.18368492 -0.011424025 0.15522683 0.04477522 -0.05252228 -0.060050473
00000000: 70ad 0cbd 7bdd 02be 85a2 263c f341 523e
00000010: 9620 07be 9cde 483d 26d1 03bd d055 ad3d
00000020: 206c c5bd 8c53 5ebd 0fbc 7abd 2796 acbd
00000030: 7a08 e33c a73a 3c3d 3a0e de3b 7e11 fa3d
00000040: d7cb 3a3d f44e babb 7819 b1bd bdca debc
00000050: ef74 683d 9b96 f93c 0441 d53c 66ac 323c
00000060: edcd 0abd ba10 eb3c 3d2d f93d 9da4 3c3d
00000070: 4c46 7d3c c0ba c73d 1bb9 ee3c 7c94 a9bd
00000080: 57a1 bd3c 3123 26bc 1fc7 b5bd b626 03be
00000090: bffd 5b3c 1744 093e 2d78 4a3c 3082 94bd
000000a0: 554e 85bd a2c6 343e 3a14 bebd d14c 0c3c
000000b0: 0932 95bb 1b7b b73a 6253 a5bd 577a 1b3e
000000c0: df6e a43d f267 8b3d 7112 0d3e 766c 37be
000000d0: 148a c93b 02de 08bd 1b4d fe3c d77e 833d
000000e0: c1cc 1a3e 8934 9dbd 8985 46bd d900 433c
000000f0: 29f5 23bd e648 7d3d 61fb db3d 6b82 0b3e
00000100: 76d7 f7bd c83b 7c3c d219 b7bd 8f39 6dbd
00000110: 380e a13d e68a e3bd 3964 273d f98b 783d
00000120: db2b 82bd 7a57 6bbd 5d68 61bb 9c63 dfbc
00000130: 0be2 73bc 7728 4c3d 6187 663d 9062 15bc
00000140: 7cfc afbb d6eb 103e 74d7 933d e454 923c
00000150: 3c81 8dbd 8fd5 bf3d e8ee 133d 508b abbd
00000160: 4330 793d 924a ae3c f467 133e aa6f f1bd
00000170: b282 b63c ad5b 6d3d 7cac 773d 2257 11be
00000180: 5ee6 b23d 6a26 d13d 7806 48bc 7929 d1bd
00000190: 4822 cabd af33 9f3b 14a9 b93c 388b 1bbe
000001a0: a34a 4ebd 63e4 063c a1e6 aa3d f550 173c
000001b0: ca73 6c3c c451 993d a094 2d3c c1d4 de3d
000001c0: 1248 713d f518 5abc f46d c4bb ffc7 b6bd
000001d0: 9f7a b8bb e10b ddbd 32d1 a1bd 4068 6d3c
000001e0: 7149 33bd fbd5 ec3d 0bac 8dbc 8de9 f8bb
000001f0: 785f bb3d 5eda 90bd f69f 393d 92b8 033e
00000200: a8f2 51bd 0a36 963d 49e7 fe3d d972 b03d
00000210: 417d b93d 1868 a03d aac3 173d 7726 33bd
00000220: 0144 40bd ee5f 8d3d c47b 6e3e 2edb 713d
00000230: 9161 fb3d e63f 82bd e5dc 2bbd 0ab7 f13b
00000240: 3be0 2ebd 6ca8 c23d 5c38 963d 2db1 f8bd
00000250: ef83 89bd 3fb7 47bd e431 a4bd 07c7 55bc
00000260: 917a 04be 5569 203e 60a5 0f3d a01a 043e
00000270: c1fa 60bd 859a 3abd 1e5e 97bd 7067 d4bc
00000280: 774f 3dbd dfc0 703c ec70 183d f198 b0bc
00000290: 8cbc 013e d784 3abd 732c 813d e4f1 4cbd
000002a0: 87af 6e3d e0c0 8e3d 01e7 cf3d 3c83 b63c
000002b0: 0df6 00bc 1cb5 513e 2d50 a3bc 82e1 b6bd
000002c0: 0f76 cc3b f98b 373c bbac c93d 1650 66bb
000002d0: 94d6 a2bd 6965 ad3b df1d 8e3c 5de5 903d
000002e0: 4a8f c9bb 00f2 d1bd 374b ecbd 0667 9a3d
000002f0: e5a8 683d a659 29bd 4571 aabc b8ca 973d
00000300: 1352 db3b 3590 a33c f8d8 99bd 2fd1 e83c
00000310: 665e 433d c76f 6fbd 104a bdbc aee7 663d
00000320: 8a61 99bc 34cc d33d 290c 823d c6be 6c3d
00000330: 03fc e63d 88d2 ebbd c37f 0dbd 4c56 8abd
00000340: 08fd d0bb dd71 f2bd 9fda 893d 7f09 b8bd
00000350: 5f80 1d3d f6b1 26bd f7c0 403e 4aea d43c
00000360: ab36 5d3c b7e2 3fbd d4c6 66bd 5026 4fbc
00000370: d9e4 22bd 0cdc 083e c6df ae3d bffd 4d3e
00000380: 35fe 3c3e fba8 2fbd 2d1e 593d 255c 72bd
00000390: 57d9 65bd 992d 80bd 8c45 a23c c0fb 8fbb
000003a0: e010 303d 6896 24bd ef7f afbd 7f8e cd3a
000003b0: 9724 1bbd 12f3 89bc b9af 3e3d 9a1d 123d
000003c0: fcb8 7bbd ed41 89bc c1a9 43bd 1b45 523e
000003d0: cf8e fc3d beab 21bd 2b86 ee3d 2fd2 a1bd
000003e0: 73cc 153c 0320 46bd e617 3c3e d52b 3bbc
000003f0: c8f3 1e3e 3966 373d 9a21 57bd 7cf7 75bd

bias f4 [64]
0.0006604682 -0.0079825455 -0.051446475 -0.009172209 0.047043644 0.020714631 -0.041803133 -0.0013384208
0.038077958 0.038382206 0.016331 -0.055440843 0.015486917 -0.032088883 0.018667208 -0.028690327
-0.05165772 0.027605128 0.0059334254 -0.041300774 -0.058314446 -0.05975772 0.030191328 0.022014255
-0.006048422 -0.012568518 -0.06232953 -0.07125476 -0.054907896 -0.05390104 0.02340332 -0.018309597
0.06605195 0.025461769 -0.016477326 0.019214418 -0.027942456 -0.06316357 -0.024408493 -0.068852566
-0.07748202 -0.004779908 0.02637948 -0.013014456 -0.027629586 0.0052566794 0.04132075 0.032448307
-0.021671372 -0.057209883 -0.022698853 0.049106516 0.038335517 -0.05625803 -0.034330495 0.01632362
-0.040369693 -0.040248305 -0.019041978 0.046883073 0.0353517 0.005373214 -0.031577643 0.018400257
00000000: 4523 2d3a 39c9 02bc 8ab9 52bd 0847 16bc
00000010: d6b0 403d bbb1 a93c c339 2bbd f36d afba
00000020: a2f7 1b3d a936 1d3d 97c8 853c f015 63bd
00000030: d7bc 7d3c a26f 03bd f9eb 983c fa07 ebbc
00000040: 0c97 53bd 2624 e23c 2e6d c23b 002b 29bd
00000050: 21db 6ebd 83c4 74bd ce53 f73c 3d57 b43c
00000060: d731 c6bb 2fec 4dbc 404d 7fbd 04ee 91bd
00000070: 1ae7 60bd 56c7 5cbd 52b8 bf3c 02fe 95bc
00000080: 3f46 873d 3395 d03c 75fb 86bc 8e67 9d3c
00000090: 94e7 e4bc e75b 81bd 52f4 c7bc 9302 8dbd
000000a0: e5ae 9ebd c6a0 9cbb c719 d83c 963a 55bc
000000b0: 7157 e2bc 3940 ac3b f23f 293d 84e8 043d
000000c0: 2988 b1bc e954 6abd f2f2 b9bc ea23 493d
000000d0: b405 1d3d d26e 66bd 229e 0cbd 1db9 853c
000000e0: b15a 25bd 68db 24bd ecfd 9bbc 7708 403d
000000f0: f2cc 103d c911 b03b 8f57 01bd 23bc 963c

weight f4 [1, 64]
-0.14637351 -0.17033258 0.11425927 -0.06766005 -0.080486536 0.17923258 -0.19828205 0.10259565
-0.08636769 -0.094680265 -0.17759363 -0.18000966 0.18084413 -0.14578776 0.24197552 0.1908586
-0.14074098 0.060874615 -0.15584768 -0.1471073 0.14322783 -0.11295769 0.12566122 -0.13733223
-0.12330024 -0.12745693 -0.16588639 0.16032644 -0.08447414 0.19299714 0.15632366 0.21198358
-0.13606997 0.2167871 -0.11723939 -0.15054873 0.16803999 -0.15373242 0.16495056 0.18151276
0.13263842 -0.10745983 0.1307677 -0.1258878 0.23647815 0.15621342 0.13809505 0.087953545
-0.12567122 -0.12021928 0.11603012 -0.07128395 0.105390936 -0.15723006 0.18894276 0.1261341
0.084343195 -0.051648762 -0.12408913 -0.13656405 0.2019131 -0.13544872 0.100314595 0.1601182
00000000: f0e2 15be aa6b 2ebe c400 ea3d 5a91 8abd
00000010: 20d6 a4bd bf88 373e 730a 4bbe ab1d d23d
00000020: 8be1 b0bd bae7 c1bd 1bdb 35be 7454 38be
00000030: 342f 393e 6349 15be 6ec8 773e 7070 433e
00000040: 671e 10be a957 793d 8996 1fbe 4ca3 16be
00000050: 51aa 123e 5d56 e7bd 56ad 003e d2a0 0cbe
00000060: d684 fcbd 1284 02be 1fde 29be 9d2c 243e
00000070: c700 adbd 0ba1 453e 4f13 203e 3912 593e
00000080: ed55 0bbe 70fd 5d3e 351b f0bd 7229 1abe
00000090: ad12 2c3e 086c 1dbe cde8 283e 7bde 393e
000000a0: 5ed2 073e e613 dcbd f8e7 053e bbe8 00be
000000b0: 5427 723e 69f6 1f3e ca68 0d3e fd20 b43d
000000c0: f5af 00be 8735 f6bd 33a1 ed3d 52fd 91bd
000000d0: 34d7 d73d eb00 21be 367a 413e 4c29 013e
000000e0: 20bc ac3d a78d 53bd 7122 febd 72d7 0bbe
000000f0: 4fc2 4e3e 12b3 0abe bd71 cd3d 07f6 233e
