test/ens_models/ens_model_3_H.pt (torch, 654739 bytes, 6 tensors)

weight f4 [20, 10]
0.6598929 0.025429178 0.6178848 0.1586192 -0.43554786 0.12619911 0.08798829 -0.43508923
0.7626089 -0.13016741 -0.22368278 1.0940552 -0.47970745 0.72136515 -0.021461371 0.35602358
-0.6955635 -0.37178102 -0.23214304 -0.29059157 0.9296926 0.25236142 0.82500696 -0.7341867
0.039251853 -0.16146286 -0.25552297 0.019144984 0.7555529 0.2929765 0.043905634 -0.3277827
-0.10838879 0.8729232 -0.97721195 0.07247126 0.2941353 -0.33214533 -1.0893233 -0.41310748
0.050496012 0.90751415 -0.2747957 -0.26879033 -0.36920038 -0.44073603 -0.32317936 0.27935225
-0.150413 0.27962458 -0.055001583 -0.28563595 -0.3521736 0.8113379 -0.89623183 -0.099933155
0.1622168 0.32141396 -0.3578645 -0.5577738 0.06466957 -0.42984658 -0.18055725 -0.87399703
-0.8880191 -0.3650395 -0.37302235 0.28833216 -0.036262475 -0.34381738 0.43165997 -0.34853527
-0.113863945 -0.32491276 0.28772715 0.9862894 -0.73666155 0.65840703 -1.2198955 0.1280507
-0.46336704 -0.43816674 0.6802394 0.53850585 -0.40384763 0.4299128 0.8486386 0.4579827
-0.016915547 0.37890318 -0.18778671 -0.019496137 -0.044760317 1.1788396 0.63495284 -0.253563
-0.03219513 0.22603388 0.7597963 1.1857035 0.025267517 -0.067072764 0.03267036 0.45861918
0.8629904 -0.37461117 -0.23736337 -0.12953709 0.05679927 -0.46416295 0.82316405 -0.023720302
-0.22321023 -0.92510617 -0.34096235 -0.805983 0.21561378 -0.32707116 -0.63268846 0.25306424
0.6905328 0.48340097 0.3241232 0.78075206 -0.60208017 -0.118266955 0.49235618 -0.24539918
0.046110272 0.8155493 -0.7010359 -0.30340895 -0.26071915 -0.6129254 -0.26408973 -0.021047104
0.24451132 -0.14522831 0.12214684 0.108113654 -0.10901065 -0.10077279 1.6119087 -0.49815172
-0.5551285 -0.09795518 -1.0263983 -0.6739722 0.7737577 0.21087264 0.39639345 0.7066795
0.06487693 0.15785624 0.5286359 0.12674573 -0.6143984 0.2380053 -0.25987938 -0.34108382
0.68466765 0.3253561 -0.02118917 -0.53958154 0.22731382 -0.09549292 0.6638508 0.422564
0.6504641 0.48969513 0.04053501 -0.7811466 -0.13311936 -1.0209312 0.31171077 -0.85139555
0.08279148 -0.13532491 -0.40826583 1.146411 0.11724869 -0.094513774 0.2555614 -0.13864645
0.37175664 0.4976353 0.26360604 0.22584233 -0.6757609 -0.102052346 -0.81389415 -0.112831146
-1.0525247 0.27735147 -0.18752776 0.5238452 -0.06942965 -0.4184354 0.7896108 0.2911554
00000000: beee 283f da50 d03c b32d 1e3f 126d 223e
00000010: 2100 dfbe 573a 013e 3433 b43d 04c4 debe
00000020: 563a 433f 9b4a 05be 190d 65be 000a 8c3f
00000030: 379c f5be 63ab 383f c2cf afbc b948 b63e
00000040: 7310 32bf 155a bebe e8b6 6dbe 6bc8 94be
00000050: 5600 6e3f 8435 813e a833 533f a9f3 3bbf
00000060: 8dc6 203d 8556 25be e8d3 82be f1d5 9c3c
00000070: ea6b 413f 0401 963e 65d6 333d 22d3 a7be
00000080: f1fa ddbd e577 5f3f 902a 7abf d06b 943d
00000090: e798 963e f40e aabe f26e 8bbf d382 d3be
000000a0: e8d4 4e3d d952 683f 06b2 8cbe e39e 89be
000000b0: d507 bdbe 27a8 e1be c477 a5be 4207 8f3e
000000c0: de05 1abe f42a 8f3e 5749 61bd e03e 92be
000000d0: 1950 b4be d7b3 4f3f 736f 65bf c1a9 ccbd
000000e0: 291c 263e 5f90 a43e 043a b7be 44ca 0ebf
000000f0: 7b71 843d da14 dcbe 00e4 38be 45be 5fbf
00000100: 3855 63bf 75e6 babe c9fc bebe 46a0 933e
00000110: f687 14bd d508 b0be 8902 dd3e 3773 b2be
00000120: 8031 e9bd f75a a6be f950 933e 767d 7c3f
00000130: da95 3cbf 5d8d 283f 8925 9cbf b91f 033e
00000140: 723e edbe 6457 e0be 2b24 2e3f 85db 093f
00000150: 1ec5 cebe 881d dc3e 6140 593f b57c ea3e
00000160: 7992 8abc 99ff c13e 294b 40be 5db6 9fbc
00000170: 9856 37bd 37e4 963f 458c 223f 02d3 81be
00000180: 0adf 03bd 6d75 673e 0382 423f 22c5 973f
00000190: d3fd ce3c 725d 89bd 5bd1 053d 22d0 ea3e
000001a0: f0ec 5c3f 09cd bfbe 620f 73be 5fa5 04be
000001b0: 5aa6 683d c4a6 edbe e1ba 523f 1451 c2bc
000001c0: 3991 64be c2d3 6cbf 9e92 aebe e754 4ebf
000001d0: dcc9 5c3e df75 a7be dff7 21bf a391 813e
000001e0: c2c6 303f 5580 f73e 7af3 a53e 5edf 473f
000001f0: ed21 1abf f235 f2bd 1c16 fc3e ec49 7bbe
00000200: 20de 3c3d d7c7 503f 1777 33bf 6b58 9bbe
00000210: fb7c 85be aee8 1cbf c536 87be fa6a acbc
00000220: 2d61 7a3e bbb6 14be 1f28 fa3d b16a dd3d
00000230: fa40 dfbd f761 cebd 0653 ce3f be0d ffbe
00000240: e71c 0ebf ba9c c8bd 0561 83bf 7189 2cbf
00000250: fc14 463f ffee 573e 15f4 ca3e f3e8 343f
00000260: 32de 843d 11a5 213e af54 073f a2c9 013e
00000270: 3749 1dbf a9b7 733e e90e 85be 8aa2 aebe
00000280: 6146 2f3f 1395 a63e e994 adbc 0422 0abf
00000290: f4c4 683e cb91 c3bd 20f2 293f 4f5a d83e
000002a0: d184 263f 52b9 fa3e 0a08 263d 39f9 47bf
000002b0: 7150 08be e0ad 82bf 8e98 9f3e 0ff5 59bf
000002c0: 948e a93d 9d92 0abe 3808 d1be 98bd 923f
000002d0: 1520 f03d 7090 c1bd f2d8 823e 56f9 0dbe
000002e0: e356 be3e 0eca fe3e 5ff7 863e 3643 673e
000002f0: abfe 2cbf d200 d1bd 5e5b 50bf 0414 e7bd
00000300: 21b9 86bf 0301 8e3e 4707 40be b81a 063f
00000310: 2231 8ebd 2a3d d6be ef23 4a3f 5212 953e

weight f4 [256, 570]
-0.029233964 -0.2585257 0.089470334 -0.1472516 0.08842916 0.038862664 -0.047927022 0.03902905
0.06565853 -0.1262511 -0.079319045 -0.0351747 -0.09800662 -0.19206013 -0.04574685 -0.3358576
-0.04188122 -0.103539184 -0.19160613 0.0016800958 0.015163143 -0.015994603 0.022844188 -0.026442086
0.078434385 0.012870785 0.1312746 0.3369333 0.18366045 0.09351222 -0.042468615 -0.10669292
0.0005137318 -0.015646266 -0.027099628 -0.3195728 -0.020728337 -0.086095564 -0.12665656 0.07606507
0.026955275 0.16520606 -0.1253406 -0.08552847 0.06606044 -0.17251979 0.17820051 0.6824629
-0.18395263 -0.5021401 0.66733176 -0.052268073 0.0530323 -0.003576091 0.13860619 -0.07577127
-0.007019156 -0.0009926899 0.23453374 0.049809124 0.17639975 0.115673386 -0.17944217 -0.096844226
0.010916645 -0.017734015 0.03049617 0.0066685244 0.12706397 0.09730492 -0.08125846 0.22759476
0.047204323 -0.33992404 0.03794935 -0.37542006 0.027518677 0.5642516 0.749815 0.31810784
-0.16092868 -0.22703092 -0.0430045 -0.009389639 -0.26093048 -0.34015697 0.07686228 0.18732876
-0.07850432 -0.20617187 -0.027705967 -0.29801616 -0.6027334 0.0121626165 -0.17344156 -0.5713453
0.06653697 0.12066688 0.017211378 -0.14826348 0.19427298 -0.006071753 0.06207801 0.046876084
0.09739965 -0.04612417 0.044175275 0.02660998 0.43287545 -0.13262512 0.18724057 0.03847783
0.06201903 -0.20042907 0.026319485 0.02654108 -0.016477445 -0.40139744 -0.09886423 -0.041028302
-0.20947137 -0.004082009 -0.15835488 -0.042883724 0.11509146 -0.06305937 -0.0014120274 -0.030667523
0.10641609 -0.06387157 0.031618584 -0.03341585 0.056751776 -0.046660453 0.015738297 0.014101728
0.07867724 -0.03659979 0.05929138 0.106829256 0.19020513 -0.11888474 0.20375194 0.01305009
0.35669336 0.18074153 -0.21757655 -0.06543416 0.68129224 0.12450838 -0.10764516 0.031171722
0.101363294 -0.010813644 0.004424025 -0.07820439 0.025038946 -0.03469301 -0.064510554 0.0854698
0.1695248 -0.040416464 -0.07133415 0.09853701 0.06195794 0.05411432 -0.16820705 0.032842696
0.051826954 -0.007463957 -0.15287764 -0.016027763 0.28061578 -0.18580142 -0.015336838 -0.16046466
-0.11823145 0.06749968 0.07487851 -0.026528109 0.08606539 0.37559807 0.65354955 0.23473474
-0.005541472 -0.23087184 -0.1106642 0.037803076 0.009168386 -0.10752948 -0.14489007 -0.17304537
-0.10930609 -0.043010578 -0.039858382 -0.004302349 0.2082139 -0.046286214 -0.0108625805 0.054880515
0.20929317 0.009691308 0.007897326 0.14317383 0.086647846 0.070119336 0.09510769 -0.18685584
-0.027803449 0.019651059 0.024842942 -0.0054623913 0.037914842 0.015014485 -0.005359735 -0.012106415
-0.0174231 0.0036588125 -0.028177032 0.009128332 0.3632662 0.24335611 0.20009178 0.26835975
0.36159667 0.04953027 0.2055531 0.54312885 0.40455922 -0.1706822 0.27797663 0.5442887
0.6494533 0.13359334 0.48048544 0.58577746 0.75513655 0.49587736 0.34434605 0.47315112
0.019068113 0.005457071 -0.008702153 0.023044247 -0.10203431 -0.09724246 -0.10502508 -0.114349395
0.0020856662 -0.06402285 -0.19109452 -0.3311288 0.13775493 -0.018340716 0.028265692 0.081223115
00000000: 117c efbc 7b5d 84be 393c b73d 20c9 16be
00000010: 591a b53d 752e 1f3d 204f 44bd eddc 1f3d
00000020: fb77 863d f847 01be 0672 a2bd 5913 10bd
00000030: b2b7 c8bd 69ab 44be 0d61 3bbd 87f5 abbe
00000040: a48b 2bbd 5a0c d4bd 6634 44be a936 dc3a
00000050: d56e 783c 1d07 83bc bc23 bb3c 139d d8bc
00000060: 35a2 a03d fcdf 523c d96c 063e 8682 ac3e
00000070: 7c11 3c3e 5683 bf3d 92f3 2dbd d181 dabd
00000080: f5ab 063a 992c 80bc 0a00 debc 0c9f a3be
00000090: 79ce a9bc df52 b0bd 42b2 01be 01c8 9b3d
000000a0: 4fd1 dc3c c72b 293e 4959 00be 8d29 afbd
000000b0: b24a 873d 07a9 30be 327a 363e e3b5 2e3f
000000c0: 145e 3cbe 418c 00bf 41d6 2a3f 0c17 56bd
000000d0: 6638 593d da5c 6abb c8ee 0d3e f82d 9bbd
000000e0: f300 e6bb 251d 82ba 9d29 703e a704 4c3d
000000f0: 23a2 343e 2be6 ec3d b0bf 37be 4456 c6bd
00000100: badb 323c ed46 91bc 1bd3 f93c a383 da3b
00000110: 0f1d 023e cd47 c73d d66a a6bd 9a0e 693e
00000120: 5259 413d 860a aebe c770 1b3d 0f37 c0be
00000130: d96e e13c cb72 103f e0f3 3f3f 08df a23e
00000140: 7dca 24be cb7a 68be 7d25 30bd 00d7 19bc
00000150: ae98 85be 0e29 aebe f969 9d3d 1cd3 3f3e
00000160: dfc6 a0bd b81e 53be a0f7 e2bc 9395 98be
00000170: bc4c 1abf b645 473c aa9a 31be b043 12bf
00000180: 8944 883d 3220 f73d e0fe 8c3c 62d2 17be
00000190: 7fef 463e 8ef5 c6bb 8345 7e3d 2301 403d
000001a0: 7879 c73d b3ec 3cbd 22f1 343d 2cfd d93c
000001b0: daa1 dd3e e1ce 07be febb 3f3e ee9a 1d3d
000001c0: ab07 7e3d 473d 4dbe f69b d73c ae6c d93c
000001d0: b5fb 86bc f783 cdbe 5479 cabd 4b0d 28bd
000001e0: aa7f 56be 60c2 85bb c827 22be d8a6 2fbd
000001f0: 12b5 eb3d 4525 81bd c713 b9ba 753a fbbc
00000200: aef0 d93d 19cf 82bd 7d82 013d 0fdf 08bd
00000210: 8d74 683d 081f 3fbd 9aed 803c ef0a 673c
00000220: 8821 a13d a9e9 15bd 85db 723d 4cc9 da3d
00000230: 22c5 423e d879 f3bd 59a4 503e 0bd0 553c
00000240: 83a0 b63e 4f14 393e 63cc 5ebe 5802 86bd
00000250: 2b69 2e3f 40fe fe3d 1175 dcbd d75b ff3c
00000260: 8f97 cf3d b62b 31bc 69f7 903b a029 a0bd
00000270: 7a1e cd3c 421a 0ebd 1c1e 84bd ca0a af3d
00000280: e997 2d3e bc8b 25bd a417 92bd c6cd c93d
00000290: 9cc7 7d3d faa6 5d3d 783e 2cbe 1086 063d
000002a0: 8048 543d 3694 f4bb f58b 1cbe a84c 83bc
000002b0: dfac 8f3e ba42 3ebe 5c47 7bbc d950 24be
000002c0: 5523 f2bd 463d 8a3d e759 993d 7a51 d9bc
000002d0: 0d43 b03d 644e c03e 064f 273f 4e5e 703e
000002e0: 3d95 b5bb ab69 6cbe e9a3 e2bd 66d7 1a3d
000002f0: 0037 163c 6a38 dcbd 105e 14be ce32 31be
00000300: dfdb dfbd dc2b 30bd 8b42 23bd b8fa 8cbb
00000310: 0636 553e 9d96 3dbd f7f8 31bc 64ca 603d
00000320: f350 563e 4bc8 1e3c c963 013c 299c 123e
00000330: 6d74 b13d ba9a 8f3d d2c7 c23d 2357 3fbe
00000340: 0fc4 e3bc 42fb a03c 6d83 cb3c dcfd b2bb
00000350: 984c 1b3d 51ff 753c b7a0 afbb fc59 46bc
00000360: e4ba 8ebc b0c8 6f3b 85d3 e6bc 008f 153c
00000370: 07fe b93e 5832 793e dce4 4c3e 7366 893e
00000380: 3323 b93e 41e0 4a3d 837c 523e 7e0a 0b3f
00000390: 6322 cf3e 51c7 2ebe f452 8e3e 8156 0b3f
000003a0: 9242 263f b1cc 083e 3002 f63e 83f5 153f
000003b0: a150 413f a3e3 fd3e 204e b03e dd40 f23e
000003c0: bb34 9c3c 3bd1 b23b 7a93 0ebc 4ac7 bc3c
000003d0: 5df7 d0bd 0e27 c7bd 6417 d7bd 0430 eabd
000003e0: acaf 083b 691e 83bd 48ae 43be b789 a9be
000003f0: a10f 0d3e 453f 96bc 748d e73c 4e58 a63d

bias f4 [256]
0.011559023 0.03902122 -0.01968942 0.03644711 0.022308728 0.000260912 -0.020340439 -0.029743766
-0.016742814 -0.023892978 0.015465741 -0.006274253 0.004662984 -0.022255497 -0.020051641 0.034965493
0.042067945 0.031532764 -0.0060381466 -0.025732927 0.012574045 0.00037277536 0.025073275 -0.03325687
-0.025167992 0.02807662 -0.033089664 -0.07478183 0.016733091 0.13131031 -0.011634756 -0.005164406
-0.0033163528 -0.0086218 0.008130866 0.0021040877 0.030636694 0.027878456 -0.025703285 -0.0015882588
-0.09543285 -0.02652972 -0.0057349843 -0.01105935 0.03875397 0.03759218 0.049255613 0.015804147
0.025726087 -0.03847992 -0.061440956 -0.03357682 3.2006108e-05 -0.012081025 -0.041354395 0.034244772
-0.015613084 -0.014818206 0.037753023 -0.002509443 0.025471268 -0.016480446 -0.03638911 -0.00661572
0.042186275 0.014903093 -0.016015427 -0.005088771 -0.019887514 -0.035847403 -0.0076166806 0.05773003
0.033010803 0.019135542 -0.035235163 0.06777389 -0.02546769 -0.028797533 0.028676214 -0.04168694
0.002117187 0.0042696265 -0.0085961055 0.013021659 -0.026938273 -0.0076259254 -0.006013388 0.012832137
-0.011626329 -0.003439274 -0.02888575 -0.022863023 0.0048394375 -0.057815116 0.087167285 0.022731412
-0.020109802 0.04243235 -0.007057226 0.03094527 0.017996248 0.057482228 0.02548667 0.037494246
-0.037932135 0.021451231 -0.06999408 -0.007940338 -0.016421221 -0.010457586 0.0126491105 -0.00960009
0.004460362 -0.0037517014 -0.047537602 -0.0033435991 -0.014119737 -0.016787734 -0.0006207457 -0.054408204
0.0047048237 -0.024192888 0.07535684 0.018069195 -0.020199208 0.015695026 -0.022266798 0.020995881
0.031102931 0.062437274 -0.018439613 0.02274551 -0.012369998 0.05788854 0.021271477 -0.10010957
0.015829636 -0.0036153777 -0.020550994 0.006198975 0.007383477 -0.024899656 -0.022373209 -0.011090163
-0.004044836 -0.018603645 -0.023844967 0.020341938 -0.03324943 -0.039048415 -0.037506837 -0.026696887
0.07772906 -0.014119343 -0.017244993 0.037692655 -0.0100720525 -0.057356417 -0.029918317 0.032886256
-0.025131857 0.04598229 -0.037256725 -0.028944377 0.026064247 -0.020563988 -0.016061852 -0.036630183
0.026116338 0.021181857 -0.0017393853 0.001552845 0.044122376 -0.014381319 0.06223569 -0.041411374
-0.024811897 -0.001630413 0.050512254 0.011499729 0.017955655 0.037881456 0.01938237 0.0061137984
0.026485184 0.007029126 0.027385667 -0.022174878 0.0065964325 -0.07921643 -0.019021269 0.026835559
0.0003473901 0.013034463 -0.04821888 0.04543642 -0.017729735 0.0066294046 -0.0048883217 -0.005788203
-0.030546166 -0.013977705 0.007489538 0.000617492 0.033579387 -0.031965937 -0.025983915 -0.030052667
0.011350363 -0.073828615 -0.040887497 -0.0046065203 0.0004938636 -0.009336414 -0.06569197 0.089096285
0.022666417 0.016209435 -0.0010726176 -0.015506439 -0.014205664 0.02740493 -0.025533793 0.031474717
0.029604752 0.010720931 -4.6731813e-05 0.048997518 0.01999767 0.0073356065 -0.024175018 -0.06077321
0.015358881 0.03497789 0.034306373 0.013622672 0.015827702 0.008024685 -0.018947586 -0.031734057
-0.022341259 -0.01680715 -0.0033896202 0.039937675 -0.0013041118 0.007979486 -0.0064493343 0.023713795
-0.02850135 0.029336954 -0.018057821 -0.022117205 0.0038456218 0.0038315663 0.018373141 0.03743467
00000000: 0e62 3d3c b7d4 1f3d b54b a1bc 9149 153d
00000010: cbc0 b63c 04cb 8839 fea0 a6bc 33a9 f3bc
00000020: 3a28 89bc 35bb c3bc 0564 7d3c 4098 cdbb
00000030: f2cb 983b 2951 b6bc 5743 a4bc fa37 0f3d
00000040: 704f 2c3d 8028 013d a5db c5bb dccd d2bc
00000050: 5e03 4e3c 1071 c339 7866 cd3c 5b38 08bd
00000060: 1b2d cebc f100 e63c 0789 07bd 3727 99bd
00000070: d613 893c 3676 063e b49f 3ebc 2d3a a9bb
00000080: 2b57 59bb 7342 0dbc 5337 053c bce4 093b
00000090: cef9 fa3c 5c61 e43c b28f d2bc 1f2d d0ba
000000a0: 4c72 c3bd db54 d9bc 89ec bbbb 4732 35bc
000000b0: 7cbc 1e3d 42fa 193d 41c0 493d b377 813c
000000c0: 84bf d23c 1f9d 1dbd 83a9 7bbd d987 09bd
000000d0: 4c3e 0638 7eef 45bc 3a63 29bd 3f44 0c3d
000000e0: 05ce 7fbc 10c8 72bc eaa2 1a3d 7875 24bb
000000f0: 1fa9 d03c 0002 87bc bf0c 15bd afc8 d8bb
00000100: 84cb 2c3d 1a2c 743c c932 83bc b5bf a6bb
00000110: 24eb a2bc bad4 12bd 5995 f9bb 5376 6c3d
00000120: 5636 073d 24c2 9c3c bf52 10bd 0acd 8a3d
00000130: 9ea1 d0bc cee8 ebbc 61ea ea3c edbf 2abd
00000140: 81c0 0a3b 39e8 8b3b aed6 0cbc cc58 553c
00000150: a7ad dcbc e6e2 f9bb f40b c5bb e23d 523c
00000160: 5c7c 3ebc 7165 61bb cfa1 ecbc 3c4b bbbc
00000170: 2594 9e3b 8bcf 6cbd c384 b23d 3a37 ba3c
00000180: 50bd a4bc 8bcd 2d3d 4d40 e7bb ef80 fd3c
00000190: de6c 933c 7c72 6b3d 6cc9 d03c 9193 193d
000001a0: ba5e 1bbd 7eba af3c 0e59 8fbd 3118 02bc
000001b0: cc85 86bc 4b56 2bbc 373e 4f3c b249 1dbc
000001c0: 3a28 923b 1bdf 75bb cab6 42bd 4920 5bbb
000001d0: 7856 67bc 6e86 89bc 8ab9 22ba 23db 5ebd
000001e0: ec2a 9a3b 2a30 c6bc b054 9a3d d905 943c
000001f0: cf78 a5bc db92 803c dc68 b6bc 8eff ab3c
00000200: 93cb fe3c 3abe 7f3d ac0e 97bc cb54 ba3c
00000210: 88ab 4abc 891c 6d3d 8541 ae3c 3f06 cdbd
00000220: 27ad 813c f9ef 6cbb 8f5a a8bc c520 cb3b
00000230: 18f1 f13b 5dfa cbbc 0548 b7bc 84b3 35bc
00000240: 8b8a 84bb ac66 98bc 8556 c3bc 23a4 a63c
00000250: 8e30 08bd 3bf1 1fbd c5a0 19bd 6eb3 dabc
00000260: 6a30 9f3d d154 67bc 5f45 8dbc 9d63 1a3d
00000270: 4005 25bc 90ee 6abd 4217 f5bc bdb3 063d
00000280: 53e1 cdbc ed57 3c3d 829a 18bd c21c edbc
00000290: b084 d53c cf75 a8bc 2594 83bc 8809 16bd
000002a0: eef1 d53c 9385 ad3c 16fc e3ba d588 cb3a
000002b0: aab9 343d a09f 6bbc daea 7e3d f99e 29bd
000002c0: 5242 cbbc 95b3 d5ba f0e5 4e3d 5c69 3c3c
000002d0: bd17 933c 9629 1b3d c7c7 9e3c 4256 c83b
000002e0: 75f7 d83c 9554 e63b e857 e03c 17a8 b5bc
000002f0: e326 d83b 393c a2bd 7ed2 9bbc 3fd6 db3c
00000300: e921 b639 808e 553c 2981 45bd 8a1b 3a3d
00000310: f33d 91bc 7a3b d93b 372e a0bb f7aa bdbb
00000320: f43b fabc be02 65bc cc6a f53b 30df 213a
00000330: 8a8a 093d b7ee 02bd 38dc d4bc 0331 f6bc
00000340: dff6 393c 7533 97bd a679 27bd 4bf2 96bb
00000350: a076 013a c2f7 18bc 8389 86bd 1d78 b63d
00000360: ecae b93c a6c9 843c 1397 8cba b80e 7ebc
00000370: e0be 68bc 4e80 e03c 3f2c d1bc a2eb 003d
00000380: aa85 f23c d8a6 2f3c e701 44b8 9fb1 483d
00000390: 27d2 a33c 875f f03b b00a c6bc 54ed 78bd
000003a0: d1a3 7b3c fa44 0f3d d784 0c3d a131 5f3c
000003b0: 19a9 813c f879 033c f837 9bbc 92fb 01bd
000003c0: 0405 b7bc 26af 89bc 6424 5ebb b095 233d
000003d0: bbee aaba 64bc 023c f054 d3bb 6f43 c23c
000003e0: aa7b e9bc 0d54 f03c ffed 93bc 242f b5bc
000003f0: d406 7c3b 041b 7b3b 4583 963c 1955 193d

weight f4 [64, 256]
-0.044462357 -0.16222808 0.12797657 -0.18411885 -0.09122991 -0.011738368 -0.09684393 0.18851459
-0.082667485 -0.09368518 -0.007838218 -0.13598257 -0.07041569 -0.08048539 -0.0763591 -0.24644774
-0.111696966 -0.029214399 0.21220003 -0.04393255 -0.01718495 -0.06432787 -0.1701655 -0.18435043
-0.040118434 -0.059564576 0.1643457 0.1303125 0.10427377 -0.03820838 -0.1160632 -0.04096563
0.08454684 -0.017902408 0.17176361 -0.10367639 0.09637223 -0.0010020789 -0.052228864 0.02187026
0.13076322 0.032695122 -0.4104296 0.12396753 -0.11405879 -0.065286815 -0.20511496 -0.029740129
0.040092077 0.03025893 -0.05547378 0.14539476 -0.15520385 -0.11369476 -0.1719594 0.17597209
0.10052106 0.059969638 -0.2557774 -0.0057400456 0.14638498 -0.015065024 0.120963916 -0.15363775
-0.019262388 0.21093187 0.054214325 0.18647131 0.0025466029 -0.08276177 0.3137628 -0.0754836
-0.16058062 -0.08748737 -0.001740715 -0.18198831 0.15601595 0.009896549 -0.10842146 0.047661867
0.008913782 0.10803302 0.010886174 -0.040737115 0.221495 -0.1081764 -0.06346058 0.13859612
0.073683865 -0.091013454 0.06395777 0.14176701 -0.16930775 0.04915254 -0.20034476 -0.031135272
0.024686938 0.052767653 0.009431315 0.014827024 -0.105956145 -0.17000811 -0.16004254 -0.1022458
0.06923702 -0.10573215 0.22603005 0.26086542 0.11506903 -0.2107014 -0.13876392 -0.1942512
-0.06996095 0.019302784 0.113782205 0.1760579 -0.0307848 -0.17896345 0.066428155 0.045188177
-0.050678935 -0.118835315 -0.32993814 -0.15239337 -0.17857923 -0.05925541 0.13778542 0.015517639
-0.023881327 -0.2212366 -0.13643107 0.40228978 -0.048695236 -0.1768129 -0.031091603 0.24739686
-0.063357934 0.025947206 -0.12541677 -0.14750755 0.0016519162 -0.09323834 -0.024011802 -0.006610495
-0.279147 -0.08965334 -0.026725527 0.112423114 0.015964568 -0.00808042 -0.12940195 0.13114156
-0.09906013 0.15374708 0.31374165 -0.12581262 0.12740256 0.41325834 0.105407916 -0.23436287
0.07384943 -0.37308452 0.0037269073 0.022718636 0.023413617 0.04502037 0.021588786 -0.086416245
-0.0034428735 -0.18321554 -0.13646734 0.017837116 -0.14350727 -0.12305518 -0.017263694 -0.026351163
-0.027655473 0.124551624 -0.011590456 0.020648016 -0.15672316 -0.13318811 -0.12671198 -0.08300652
0.006496439 0.0135709075 -0.17290886 0.059672218 -0.120061316 -0.011671652 0.039106764 0.03984663
0.12615763 -0.030002948 -0.028560113 0.05505125 0.03935036 -0.05541536 -0.05896805 0.10388067
-0.05159436 -0.15095858 0.16429807 -0.12114211 0.16668774 0.16618142 0.013862225 0.024671573
-0.1174228 0.08379072 0.001183154 -0.21207315 -0.15679125 -0.029384645 0.36814794 -0.07072739
-0.31630582 -0.3328232 -0.07465322 0.049908187 -0.07859336 -0.0029576689 0.06751164 -0.33496192
0.109760106 0.16668287 -0.17092316 -0.0065683867 -0.11738854 0.21402742 0.35181335 0.23344629
0.17768672 -0.12102298 -0.03298894 -0.109961234 -0.013019216 0.11448868 0.09394666 0.2247061
0.18417613 0.14356144 0.009018384 -0.02763349 -0.07976129 -0.06333445 -0.05106497 -0.024272365
-0.016684216 0.11877158 0.045450754 -0.12587073 -0.020374976 -0.09546312 0.014030211 -0.05857186
00000000: 291e 36bd 1e1f 26be 4a0c 033e a789 3cbe
00000010: bfd6 babd 4952 40bc 1c56 c6bd f809 413e
00000020: 924d a9bd 04de bfbd de6b 00bc 043f 0bbe
00000030: 1a36 90bd 86d5 a4bd 2962 9cbd cc5c 7cbe
00000040: 61c1 e4bd 0953 efbc f74a 593e 9ef2 33bd
00000050: 74c7 8cbc 55be 83bd dd3f 2ebe 5cc6 3cbe
00000060: 3a53 24bd fcf9 73bd 3d4a 283e a470 053e
00000070: 7c8d d53d 6480 1cbd 8bb2 edbd 94cb 27bd
00000080: e526 ad3d 12a8 92bc cde2 2f3e 4a54 d4bd
00000090: ce5e c53d 3058 83ba efed 55bd 4229 b33c
000000a0: cbe6 053e 52eb 053d d423 d2be b0e2 fd3d
000000b0: a897 e9bd 18b5 85bd a809 52be 92a1 f3bc
000000c0: 9737 243d 93e1 f73c 7938 63bd 5de2 143e
000000d0: c2ed 1ebe ccd8 e8bd 2016 30be 0732 343e
000000e0: fcdd cd3d b9a2 753d 41f5 82be fe16 bcbb
000000f0: f2e5 153e 4ad3 76bc eebb f73d 3753 1dbe
00000100: 28cc 9dbc 86fe 573e d70f 5e3d 56f2 3e3e
00000110: e8e4 263b 017f a9bd 85a5 a03e 2597 9abd
00000120: 3f6f 24be 942c b3bd b428 e4ba 255b 3abe
00000130: a5c2 1f3e 2325 223c 120c debd 1739 433d
00000140: 1d0b 123c 6a40 dd3d ec5b 323c f6db 26bd
00000150: 96cf 623e 978b ddbd 9ff7 81bd 24ec 0d3e
00000160: 91e7 963d 4365 babd 4bfc 823d 5f2b 113e
00000170: 035f 2dbe 2c54 493d 2d27 4dbe 660f ffbc
00000180: 433c ca3c e522 583d cd85 1a3c 0ced 723c
00000190: 89ff d8bd 9b16 2ebe 31e2 23be 3f66 d1bd
000001a0: 24cc 8d3d 198a d8bd 6c74 673e 2790 853e
000001b0: 50a9 eb3d 1cc2 57be 2118 0ebe c9e9 46be
000001c0: b047 8fbd df20 9e3c a506 e93d 8648 343e
000001d0: 6830 fcbc 3242 37be 7c0b 883d 3d17 393d
000001e0: b794 4fbd ee5f f3bd a7ed a8be 020d 1cbe
000001f0: 79dd 36be cdb5 72bd 9f17 0d3e b23d 7e3c
00000200: c6a2 c3bc d98b 62be 96b4 0bbe edf8 cd3e
00000210: a874 47bd 710e 35be d1b3 febc 9a55 7d3e
00000220: cec1 81bd 3c8f d43c 416d 00be 380c 17be
00000230: 1c85 d83a bef3 bebd 66b4 c4bc da9c d8bb
00000240: 5bec 8ebe 2c9c b7bd 7eef dabc 173e e63d
00000250: 20c8 823c bd63 04bc f281 04be f949 063e
00000260: 0ae0 cabd e06f 1d3e bfa2 a03e 06d5 00be
00000270: d175 023e 9996 d33e 1be0 d73d d2fc 6fbe
00000280: 5f3e 973d ef04 bfbe 213f 743b 6f1c ba3c
00000290: eacd bf3c 4867 383d f7da b03c 00fb b0bd
000002a0: d5a1 61bb db9c 3bbe 18be 0bbe 251f 923c
000002b0: 92f3 12be 5b04 fcbd 976c 8dbc 65de d7bc
000002c0: bb8d e2bc ec14 ff3d e5e5 3dbc 0726 a93c
000002d0: 097c 20be 7762 08be c9c0 01be 53ff a9bd
000002e0: 15e0 d43b 8358 5e3c 050f 31be db6a 743d
000002f0: b5e2 f5bd 753a 3fbc 6a2e 203d 3836 233d
00000300: 772f 013e bec8 f5bc e6f6 e9bc 6b7d 613d
00000310: d82d 213d 37fb 62bd 7b88 71bd 64bf d43d
00000320: 9c54 53bd e394 1abe c13d 283e 5b19 f8bd
00000330: 31b0 2a3e 762b 2a3e 631e 633c 0a1c ca3c
00000340: 5d7b f0bd 789a ab3d 0f14 9b3a b429 59be
00000350: e38d 20be 11b8 f0bc e37d bc3e 86d9 90bd
00000360: d6f2 a1be cd67 aabe cae3 98bd 876c 4c3d
00000370: 8ef5 a0bd 73d5 41bb 8b43 8a3d 2180 abbe
00000380: e8c9 e03d eaae 2a3e 7b06 2fbe 9f3b d7bb
00000390: 6769 f0bd 012a 5b3e e120 b43e 8b0c 6f3e
000003a0: 82f3 353e e5da f7bd 691f 07bd 5b33 e1bd
000003b0: 8d4e 55bc 0b79 ea3d 1b67 c03d 5b19 663e
000003c0: ab98 3c3e c501 133e d8c1 133c a15f e2bc
000003d0: e359 a3bd 7eb5 81bd 8129 51bd d7d6 c6bc
000003e0: 56ad 88bc 843e f33d 922a 3a3d 42e4 00be
000003f0: 6ce9 a6bc 2b82 c3bd f8de 653c 0ce9 6fbd

bias f4 [64]
-0.065028384 -0.01151669 -0.06225314 0.022584569 0.004322159 -0.06703445 0.02323121 -0.044006377
-0.04910807 -0.019230552 -0.052947156 -0.03470125 -0.03318249 0.019318167 -0.04495139 -0.057827808
-0.002196607 0.006085447 -0.037641123 -0.07089606 -0.004079615 0.053493153 -0.0049467715 -0.03218034
-0.053259045 0.006503005 -0.053809218 -0.084945746 0.0118526025 -0.04959392 0.011294889 0.013306074
0.080650866 -0.03452227 0.012271034 -0.030888077 -0.040820908 0.021031268 0.068854704 -0.0037300168
0.040581204 -0.036234837 0.031001039 -0.044683598 0.051180348 -0.045622963 0.038529597 -0.041941125
-0.034454163 -0.030547597 0.023091812 -0.07476103 -0.047687247 -0.12454723 -0.057154868 -0.031398837
-0.05251523 0.019080978 0.017105905 -0.02015407 -0.014404179 -0.089553304 -0.04018641 0.0012800437
00000000: 9a2d 85bd 80b0 3cbc 26fd 7ebd 4603 b93c
00000010: e6a0 8d3b 5c49 89bd 614f be3c 0840 34bd
00000020: 8b25 49bd 6489 9dbc 1edf 58bd e622 0ebd
00000030: 5dea 07bd 2241 9e3c f31e 38bd dadc 6cbd
00000040: f3f4 0fbb 6e68 c73b 942d 1abd f431 91bd
00000050: 4bae 85bb a31b 5b3d 8718 a2bb 88cf 03bd
00000060: 2826 5abd 2917 d53b 0e67 5cbd 09f8 adbd
00000070: 6b31 423c ff22 4bbd 330e 393c b801 5a3c
00000080: 482c a53d 3967 0dbd 720c 493c fe08 fdbc
00000090: d333 27bd c449 ac3c b203 8d3d 4c73 74bb
000000a0: 7a38 263d fb6a 14bd e4f5 fd3c 2606 37bd
000000b0: 7ca2 513d 25df 3abd 36d1 1d3d 75ca 2bbd
000000c0: cf1f 0dbd f43e fabc 0a2b bd3c 501c 99bd
000000d0: b453 43bd 9e12 ffbd 391b 6abd 119c 00bd
000000e0: 361a 57bd b64f 9c3c af21 8c3c 261a a5bc
000000f0: 81ff 6bbc b967 b7bd 819a 24bd 24c7 a73a

weight f4 [1, 64]
-0.18083999 -0.08426907 -0.24458122 -0.2452981 0.1955698 -0.1668241 -0.22039828 0.12845546
0.14576447 -0.17872125 0.1375701 0.16750558 0.1616749 0.30044964 -0.095821895 0.19531274
-0.34667704 0.22475806 0.24314062 -0.14508376 -0.31562352 -0.163735 0.13060485 -0.28497398
0.14294006 0.1649912 0.16318054 0.24181062 0.1554999 -0.23704559 -0.00010340717 -0.10966311
0.3226189 -0.28965393 0.11768688 -0.17547627 -0.11093855 -0.18974507 0.2409638 -0.19177893
-0.33336246 -0.2780964 -0.1449032 -0.061244607 -0.16545184 0.20332743 -0.12655577 0.17223123
-0.31756067 -0.16983606 -0.14551431 0.21092868 0.35623983 -0.34694275 -0.14938632 -0.19016612
0.14436929 -0.22828366 -0.19751045 0.18021072 -0.24215761 -0.2771167 -0.0922208 -0.1870041
00000000: 1e2e 39be 4395 acbd 8073 7abe 6d2f 7bbe
00000010: 7343 483e f0d3 2abe 16b0 61be d489 033e
00000020: 4843 153e b402 37be 2ddf 0c3e 9586 2b3e
00000030: 1b8e 253e 89d4 993e 453e c4bd 1000 483e
00000040: a77f b1be fa26 663e dbf9 783e d690 14be
00000050: 6899 a1be 26aa 27be 47bd 053e 1ce8 91be
00000060: e15e 123e 74f3 283e cd18 273e 349d 773e
00000070: 5e3b 1f3e 14bc 72be 4ddc d8b8 0d97 e0bd
00000080: 4e2e a53e 854d 94be d205 f13d 0db0 33be
00000090: c033 e3bd 884c 42be 37bf 763e b261 44be
000000a0: 7cae aabe a762 8ebe 8161 14be a0db 7abd
000000b0: 356c 29be 1135 503e d697 01be 625d 303e
000000c0: 5097 a2be 81e9 2dbe b401 15be b0fd 573e
000000d0: 1165 b63e 7ba2 b1be baf8 18be e8ba 42be
000000e0: 8bd5 133e 31c3 69be 2e40 4abe 2989 383e
000000f0: 2af8 77be 3de2 8dbe 42de bcbd 017e 3fbe
