test/ens_models/ens_model_5_N.pt (torch, 654470 bytes, 6 tensors)

layer0.weight f4 [20, 10]
000000 44 68 bc bc f2 af 8c be 43 c8 01 3e 0b 67 a4 3e
       -0.022998936 -0.27477986 0.1267405 0.32109866
000010 1d 15 d5 3c fe 09 49 bd b5 6f 9e 3f c9 3c 30 3e
       0.026011044 -0.049081795 1.237784 0.17210688
000020 1a 52 90 be b2 60 1c be ed 50 9c 3e c1 35 e7 be
       -0.2818764 -0.15271261 0.3053049 -0.45158198
000030 d6 53 63 bf 99 03 df 3e ad c2 4a be 9b f8 66 3e
       -0.887998 0.43557432 -0.19800825 0.22555773
000040 50 dd 11 bf 2f 2c 6e be 4b 99 2b bf 6b ee 2b 3c
       -0.5697832 -0.23259042 -0.6703078 0.010493855
000050 63 a1 57 be 53 1a 53 be 10 a5 2f bd 7d 5e 66 3f
       -0.21057658 -0.2061551 -0.042882025 0.8998793
000060 6c 5c fc bd fb d8 58 3e c3 2c 9c be 31 b0 4f 3f
       -0.123223156 0.21176521 -0.305029 0.8112822
000070 49 f8 1e 3f 21 e7 1c 3f 13 c0 85 be 46 05 88 bd
       0.62097603 0.61290175 -0.26123103 -0.06641631
000080 86 0c f5 be 4b 41 6b be eb 14 23 3f 2f d4 c1 3e
       -0.47861117 -0.22974126 0.63703793 0.37857196
000090 1a 17 68 3e 64 9a 51 3f e5 b9 c6 3e 96 ac 23 3d
       0.22665063 0.81876206 0.388137 0.039959513
0000a0 db 0e 14 3d 5b c1 91 bd ad e8 b3 be c1 90 6a 3d
       0.03614698 -0.07116958 -0.35138455 0.057266954
0000b0 8a 1a 8f bf 8d 4e 09 bf 96 31 63 bd 64 72 37 3e
       -1.1179974 -0.53635484 -0.05546721 0.1791473
0000c0 86 cd 47 3e 8f 77 92 be 80 f7 7a 3e e8 3e fe 3e
       0.19511995 -0.2860684 0.24508476 0.4965737
0000d0 fa 97 64 be bb 8e 87 be b0 db e5 3b 75 58 87 3e
       -0.223236 -0.26476082 0.007014714 0.26434675
0000e0 ff 29 18 3d 41 28 f7 be 68 87 2a 3f 8c c9 dc bd
       0.037149426 -0.482729 0.66612864 -0.107806295
0000f0 15 d5 85 3e fa db 9e 3d 95 b5 ce bb c1 f2 3c 3c
       0.2613913 0.07756801 -0.0063082674 0.011532486
000100 88 70 57 3f d7 85 d1 be 83 47 c6 3e 1a 1b 52 3d
       0.84156084 -0.40922424 0.38726434 0.051295377
000110 8e 23 2e 3f ea 13 a3 be 8a 5f 43 bf 37 05 60 3e
       0.68023 -0.3185113 -0.76317656 0.2187699
000120 27 0c 31 be a6 b6 1f bf c3 9a 0a be b6 3f 56 be
       -0.17289792 -0.62388074 -0.135356 -0.20922741
000130 72 d8 c8 3e 8d 10 a0 3e 19 b5 e6 be eb 1c 47 3e
       0.39227635 0.31262627 -0.45060042 0.19444625
000140 26 12 8d be b0 df 88 3e 08 51 18 3f 8a 99 cf be
       -0.2755291 0.2673316 0.59498644 -0.40546829
000150 0d 60 55 3e 03 4e 4d bd 4e d7 01 be 4d e5 1d bf
       0.20837422 -0.050123226 -0.12679788 -0.6167801
000160 13 b4 88 3e bb 88 64 3f 58 c0 80 3c 11 98 42 bf
       0.26699886 0.89271134 0.015716717 -0.76013285
000170 e3 ad 3c 3f a4 d3 05 bf 03 f7 2c 3e 2c 1e d2 3e
       0.7370283 -0.5227606 0.16891102 0.41038644
000180 19 5e 3b 3e 46 6f 25 be 38 1d b6 be 8b 5e 80 be
       0.18297614 -0.16155729 -0.35569167 -0.2507213
000190 93 f7 f3 3e e5 b8 3f 3e 3c cf ef bd f6 8f 9a bc
       0.47649822 0.18722875 -0.11709449 -0.018867474
0001a0 23 8e b9 3e 5e 4d f1 3e 8a 24 a9 be 81 ab b6 3e
       0.36241254 0.4712934 -0.3303569 0.35677722
0001b0 ba 6d 8d bf bf 63 82 be 76 95 a5 be ca 3f 1f be
       -1.1049111 -0.25466725 -0.32340592 -0.15551677
0001c0 51 9f 86 3e b8 df b9 3e 1f 31 02 bf 1d e9 f5 3e
       0.26293424 0.36303496 -0.508562 0.48029414
0001d0 d0 6f d9 3d 33 93 1d bf 79 7d 26 3e f6 98 0a 3f
       0.1061703 -0.61552733 0.16258802 0.5413965
0001e0 51 c5 25 3f 94 3c f0 bd 2a 2e 11 3f 1b 23 28 3d
       0.64754206 -0.11730304 0.56711066 0.041049104
0001f0 3c e8 04 be 71 e9 6e 3f 0c c9 1b 3f f9 23 86 bc
       -0.12979215 0.93324953 0.6085365 -0.016374575
000200 c2 8c 49 bf 86 7c 9a 3e e9 17 15 be c7 28 82 3e
       -0.78730404 0.3017313 -0.14559902 0.25421736
000210 2a b5 3f 3e a1 1d a1 3d 84 40 d3 3e b6 35 97 bf
       0.18721452 0.078669794 0.4126016 -1.1813266
000220 3d 00 ce bd 5d 69 be be 96 e4 9d be c9 09 e3 be
       -0.10058639 -0.3718976 -0.3083846 -0.44343403
000230 15 5c 97 3e 3f 79 d1 3e ee 62 be be dd 4e cc 3e
       0.2956244 0.40912816 -0.37184852 0.39903918
000240 0a 8d 4e 3f d6 e2 35 3e 25 39 90 3c 49 95 06 bf
       0.8068396 0.17762312 0.017605374 -0.5257154
000250 95 8f 97 bf ec 99 07 3f 4a 09 13 3f 3b eb 44 3f
       -1.1840693 0.5296924 0.5743605 0.76921433
000260 3d 0d ba 3e d2 9c 19 3f 7c 03 91 be ca 92 9b be
       0.36338225 0.60004914 -0.2832297 -0.3038543
000270 35 6b 4c 3e 85 18 22 3f c6 f4 2b bd 71 c6 e7 3d
       0.19962771 0.63318664 -0.04198148 0.113171466
000280 8e 56 29 3f d4 b2 5b be 7f 9e 19 bc 64 54 d7 be
       0.66147697 -0.21454936 -0.009376167 -0.42056572
000290 09 54 e7 be 0d d1 9d be 13 7a 11 bf 14 72 30 bc
       -0.451813 -0.30823556 -0.56826895 -0.010769386
0002a0 28 e1 d6 be c1 68 b6 3e 8a 23 ff be e0 da 25 3d
       -0.41968656 0.35626796 -0.49831802 0.04049194
0002b0 bd 0d 7d 3e 6a df 15 3f c9 f4 56 3f ba 62 96 bf
       0.24712272 0.5854403 0.8396726 -1.1748879
0002c0 5b 74 41 3e 1f eb 39 bf 36 06 13 3f 96 44 1b 3f
       0.18892042 -0.7262439 0.5743135 0.6065153
0002d0 d1 fb 80 bf 43 c5 7d 3f a5 c1 06 3e 12 f6 8a be
       -1.0076848 0.9912912 0.13159807 -0.27140862
0002e0 6e 5e f4 be fd d4 b8 3e 82 d0 cb be b5 5a 59 be
       -0.47728294 0.36099997 -0.39807516 -0.21226008
0002f0 f1 40 ca be bb ee 3b bd a7 66 b6 3c 3a 2d 0c bf
       -0.3950267 -0.045881968 0.022265745 -0.5475651
000300 7a 9a 1f 3e 1f fa 24 be ce 47 e5 be ab 32 16 bf
       0.15586272 -0.16111039 -0.44781345 -0.58671063
000310 41 3a 9c be 4b 42 db 3e fb 21 03 3f 60 0b 73 bf
       -0.30513194 0.42824015 0.51223725 -0.9493923

layer1.weight f4 [256, 570]
000000 51 6c f0 3b 18 7b 1b 3d 00 88 58 3c f4 b4 31 bf
       0.007337131 0.03795919 0.013216019 -0.6941674
000010 ee 38 89 3c 9a 69 be bc 14 77 87 3d 79 70 31 3d
       0.016750779 -0.023243714 0.06614509 0.043320153
000020 9c ff 98 bc 98 ce 26 be 56 0b 9d bd 16 93 bb bd
       -0.018676572 -0.16289747 -0.07668178 -0.09158914
000030 3c 1c 78 bc 83 04 4e be 70 7c 0e 3e 17 74 23 bf
       -0.01514345 -0.20118909 0.13914657 -0.63849014
000040 7c 70 bb be e0 af 2d be d3 e5 72 3d 96 4f 3e bd
       -0.36609256 -0.16961622 0.05930121 -0.046462618
000050 cb bf 26 bc 17 f9 e4 3d f6 2a fc 3b a0 f9 a7 bd
       -0.010177563 0.111803226 0.007695551 -0.08201909
000060 c8 c8 f5 bb a4 66 ca be f9 df c4 bd 47 ed 75 bd
       -0.0075007416 -0.39531434 -0.09613032 -0.06004074
000070 b3 da 01 be f7 b0 0d 3e 14 25 1f 3d 3d 22 9a 3e
       -0.12681083 0.13837038 0.03885372 0.30104247
000080 4e ed b2 3c 34 7b 03 3c 44 32 06 3c 24 97 04 3e
       0.021841671 0.008024979 0.008190695 0.1294828
000090 0e 07 6e 3f 3b 1a 2b 3f c0 88 3d bd d3 87 9f 3d
       0.92979515 0.668369 -0.046272993 0.07789578
0000a0 e6 53 88 3d e7 0f 1c bf f6 96 ab be 4b 16 4c 3e
       0.06656627 -0.60961765 -0.33513612 0.19930379
0000b0 39 60 2e be b3 1b 45 3e 4b 1e 4c be 66 0d 26 3f
       -0.17028894 0.19248848 -0.19933431 0.64864194
0000c0 63 60 1c 3c 4b c4 62 3c 81 06 9a bc dc 5c 6a bf
       0.009544465 0.013840745 -0.01880193 -0.9154794
0000d0 d9 ed 82 be ff 60 29 3d 88 28 48 bd b6 3c 34 3d
       -0.25572088 0.04135227 -0.04886678 0.04400321
0000e0 26 f6 f6 bd b3 c7 a6 bd 82 ae 7f 3d b3 6c 60 3e
       -0.12058668 -0.08143558 0.062422283 0.21916465
0000f0 f8 f7 a5 bd af 68 3b 3f a5 9c 52 3f 02 7e 38 3f
       -0.08103937 0.7320661 0.8227027 0.7206727
000100 ec f0 47 3b dc 39 12 bb e4 c3 32 3c fb 2e 85 bc
       0.003050859 -0.002231232 0.010910962 -0.016257754
000110 b4 ae aa 39 09 c4 26 bb ab dc a0 be cb 53 bd be
       0.0003255509 -0.0025446436 -0.31418356 -0.3697799
000120 eb ab 42 3d 27 ac eb 3e 6f a0 09 3f 1f 34 37 be
       0.047527235 0.4602978 0.5376043 -0.17890976
000130 0a 7f 16 bf 34 3d 73 bf 89 4a 7a 3f af a3 c9 3f
       -0.58787596 -0.95015264 0.9776998 1.5753077
000140 37 17 aa bd 78 1b c7 bb 26 ac 9c 3c 42 35 8e bd
       -0.08305209 -0.0060762726 0.019125056 -0.06943752
000150 b2 35 4e bd cd 7e c5 3d 48 71 6e 3d 08 81 84 be
       -0.050344177 0.09643326 0.058213502 -0.25879693
000160 0a e8 b9 3e 70 cd 01 3e 7d 29 d5 3c 2e e9 b7 bd
       0.36309844 0.12676024 0.02602076 -0.08980022
000170 ed 6d e4 3d 85 ca c5 bc 4d e0 8e 3c e7 be 1a bb
       0.11153779 -0.02414442 0.01744094 -0.0023612322
000180 d8 a0 3a bd 6a ed af 3d f9 aa 3c 3e 50 b0 29 3e
       -0.04556355 0.08590205 0.18424596 0.16571164
000190 70 c5 ea be 05 19 d5 bc 4f c8 c3 3c a8 9d 96 3e
       -0.45853758 -0.026012907 0.023899226 0.29417157
0001a0 be 80 e3 bd 2c 55 0b bd 96 ae 82 3e ee 3d 75 3e
       -0.1110854 -0.034016773 0.25523823 0.23949406
0001b0 57 71 86 be fb e4 b4 3b 2e 1a 75 be b2 d4 7b bd
       -0.26258346 0.0055204607 -0.23935768 -0.06148214
0001c0 f6 f0 0a bc b9 a4 90 bd fa 43 b1 bd 9b d4 b9 3c
       -0.008480301 -0.07062668 -0.086555436 0.022684386
0001d0 37 c5 91 3d f2 ae c3 bc 84 38 c2 bc 3e b5 fc 3c
       0.07117694 -0.023887131 -0.02370859 0.030848142
0001e0 3a 10 d2 3d 65 68 9c bc 7c c5 41 bd 1d 4e 74 bd
       0.10257001 -0.019092748 -0.047307476 -0.059644807
0001f0 f8 d9 b1 3d f1 a5 3a 3b 99 f4 9a 3c e5 3b 2f bd
       0.08684152 0.0028480256 0.018915461 -0.04278173
000200 b5 8a c4 bd 9f 5d ee 3b 70 3e bd 3d 83 4b 22 3e
       -0.09596769 0.007274344 0.09240425 0.15849118
000210 ae ee 87 be 17 2d b6 bd b3 b0 ca 3c b7 16 89 bc
       -0.26549286 -0.08895319 0.02474246 -0.016734464
000220 91 7c 82 be 5e cf 21 3d 8b 4c f7 3d e6 e0 07 be
       -0.25485662 0.0395044 0.12075146 -0.13269386
000230 37 01 a0 be 5d a1 5b 3b f8 3f ec 3e dd ea 27 bf
       -0.31250927 0.0033512928 0.46142554 -0.6559275
000240 24 fe d6 bd 81 f4 08 3e e5 08 f1 3d 72 9f 2f 3e
       -0.10497692 0.13374521 0.117692746 0.17150667
000250 e4 ef 25 bf cc 9b 95 3e d9 8a 42 be b5 b8 86 3f
       -0.6481917 0.29220426 -0.18998279 1.0525118
000260 21 73 02 bf 84 75 4e 3d 33 90 2d be 46 87 68 3f
       -0.5095692 0.05040504 -0.16949539 0.9083141
000270 75 1b e7 be 83 78 c4 bd 01 6f 2c 3e e1 de 85 bb
       -0.45138136 -0.09593298 0.1683922 -0.004085407
000280 29 54 91 be f5 02 a5 bd 25 a3 3d 3e 3f c5 40 be
       -0.28384522 -0.08057205 0.18519266 -0.18825243
000290 cc db 18 3e cc 6e 91 3e 93 62 e2 bd 73 80 20 bc
       0.14927596 0.28404844 -0.11053958 -0.00979625
0002a0 02 f8 da 3d c3 21 87 bc 57 6a 82 3c 36 08 6b 3e
       0.10691835 -0.016495591 0.015919847 0.22952351
0002b0 d0 58 83 3e 02 e3 e7 3d 98 fa fe ba a9 36 df be
       0.25653696 0.11322595 -0.0019453345 -0.4359639
0002c0 08 bf 69 bf 67 72 91 3d 8d ec 73 bd 57 b6 8f be
       -0.91307116 0.07101899 -0.059551764 -0.28068802
0002d0 46 02 95 be 4f 7b 50 3f 07 d6 a0 bd 4f 68 14 be
       -0.29103297 0.81438154 -0.078533225 -0.14492916
0002e0 a7 17 41 3d 77 79 a9 3d 2b 30 aa 3c 3d de 80 bd
       0.047141697 0.08275121 0.020774921 -0.062923886
0002f0 3d 2b 75 bd 48 9e f4 3d 63 a0 7b bd 8d 12 f3 3b
       -0.05985569 0.11944252 -0.061432254 0.007417983
000300 9c 57 ed bd 89 e8 b2 3d 14 2b 9d bc 55 07 8c 3e
       -0.11588976 0.08735759 -0.01918558 0.27349344
000310 d9 7a 80 bc b9 90 4c bc a4 26 12 bd be 79 05 be
       -0.015683578 -0.012485676 -0.03568138 -0.13034722
000320 97 fe b8 3e d1 ff 00 be 2c ce 2b be 81 f6 01 3e
       0.36131737 -0.12597586 -0.16777867 0.1269169
000330 8b 65 6b 3e d2 ce 69 be a1 cb 26 3f d2 51 84 bf
       0.22987954 -0.22832802 0.65154463 -1.033747
000340 11 48 aa bb d0 8f 8e ba d2 56 cc bc e5 d4 af bc
       -0.0051965793 -0.00108766 -0.024943743 -0.02146382
000350 be 0f c7 bd dc 68 11 3c 93 26 58 3d ba 9e 5d bc
       -0.097197995 0.008875098 0.052771162 -0.013526613
000360 90 9f e3 be 3b d6 e9 bd 66 bf 8c 3e 36 42 2a 3f
       -0.44457674 -0.11417814 0.27489775 0.6650728
000370 15 4e 91 3e 83 cf b2 bd f0 91 77 3d 42 af 5b 3f
       0.28379884 -0.08730986 0.06044191 0.858143
000380 a4 f5 0a 40 99 c8 25 be 86 2a 9f 3d b0 b6 29 3f
       2.1712427 -0.16189803 0.077717826 0.66294384
000390 b7 75 e3 3f 81 29 a8 3b 67 aa 55 bf c0 d8 9e bf
       1.7770299 0.005131901 -0.8346314 -1.2409897
0003a0 d8 4f 21 bf bc 82 c5 bd e1 af 25 bf a1 0d 2a bf
       -0.63012457 -0.09644076 -0.64721495 -0.66427046
0003b0 58 87 ef be f6 82 24 3f 06 59 16 be c8 3e e4 bd
       -0.46782947 0.6426233 -0.14682397 -0.11144787
0003c0 1c ed 3e bd f5 27 ab bd 79 56 8a bc 21 24 fc bd
       -0.046612844 -0.083572306 -0.016886937 -0.123115785
0003d0 7e 3e e6 3e 61 c6 d0 bd 5c 9f 31 bd 44 59 0c be
       0.44969553 -0.10194088 -0.043364868 -0.13705927
0003e0 f6 9f 54 3e df 19 9a bc da a2 82 bd 96 0c f7 bd
       0.20764145 -0.018811164 -0.06378718 -0.120629475
0003f0 af 30 ae bb 16 f6 bf bb 00 45 c4 bc 55 08 96 bc
       -0.005315862 -0.005858193 -0.023958683 -0.01831452

layer1.bias f4 [256]
000000 fb 8d d4 3c 92 63 b8 3b 6b fc 06 bc 3e 97 33 3b
       0.025946608 0.005627104 -0.008238892 0.002740338
000010 45 42 ba bc 80 eb 85 bc 01 df c0 3c 20 5c d4 bd
       -0.022736678 -0.016347647 0.023543837 -0.10369134
000020 ad 36 ef bd 64 ff 19 3d 01 47 ab 3b d1 07 73 bc
       -0.116803505 0.037597075 0.00522697 -0.014833407
000030 68 f6 06 3d 8a 82 2c 3b cc 11 98 3c 96 ae 72 3d
       0.032949835 0.0026322925 0.018563174 0.05924853
000040 6a d7 2b 3b b6 46 24 bc 31 55 33 bc 88 1c 51 3a
       0.0026220926 -0.010026624 -0.010945604 0.0007976969
000050 74 fb da 3b c8 5d a6 bc 7c 0a 9d bd 71 83 86 3c
       0.0066828076 -0.02030839 -0.07668015 0.016420098
000060 f5 20 97 3d 1a 16 14 bd 39 36 f1 bb 22 b1 73 3c
       0.07379333 -0.03615389 -0.0073612 0.014873775
000070 5a 0f 4c bd 9b 34 0c 3d 2d a8 15 3b 70 93 cc bc
       -0.049819328 0.034229856 0.0022835836 -0.024972647
000080 f4 f2 b0 3c a9 67 8a 3d 4b 3a 5b bd b6 22 2c 3d
       0.021600224 0.06758053 -0.05352239 0.04202529
000090 3f 01 19 3d 46 3c 7e bd 1b 31 8f 3c af d3 fd bc
       0.037354704 -0.0620692 0.01747947 -0.030984728
0000a0 64 e0 83 bc c3 ee 94 3c 57 c0 5d bc 67 58 08 3d
       -0.016098209 0.018180257 -0.013534627 0.033287432
0000b0 a1 9e cf bd 05 c3 25 bd 07 33 95 bb a0 fb d0 3c
       -0.10137678 -0.04046919 -0.004553202 0.02551061
0000c0 10 d8 76 bd 4d bf 95 3d 7b a8 90 3d d7 82 91 bc
       -0.060264647 0.07311878 0.07063385 -0.017762585
0000d0 9c 7f f1 bc c3 83 81 3d b4 d4 05 3e 11 7f 7c bd
       -0.029479794 0.0632396 0.13069421 -0.061644617
0000e0 ea bc 09 3d ef 2a fb bc 55 5e 26 bd 8c 95 0a be
       0.033627428 -0.03066012 -0.040617306 -0.1353361
0000f0 fd 71 68 bd e5 b9 82 ba 20 2a e5 bc 1b 20 5e 3d
       -0.056749333 -0.0009973614 -0.027974188 0.054229837
000100 8e 99 c3 3c 80 77 0b bd a2 24 98 bb be 7e c5 3d
       0.023876932 -0.03404951 -0.004643039 0.09643315
000110 e1 f9 57 3d c5 f3 55 3d 10 0b 75 bd c9 6f df bc
       0.052728537 0.05223443 -0.059825003 -0.027274983
000120 4d f6 6c bd d6 f4 2c 3d 29 9f 17 bb fc c3 21 bc
       -0.05785208 0.04222568 -0.0023135638 -0.0098733865
000130 25 36 15 3d 01 90 79 3b f2 df 50 3d af 7c f1 bb
       0.03642859 0.0038080218 0.05099482 -0.0073696
000140 6d b8 aa 3c 99 b6 86 3a c3 c3 13 3b ce 8c 20 3d
       0.020839894 0.0010277807 0.0022547103 0.03919678
000150 63 84 63 3d e2 ef ed bb 74 a2 8b bd 43 1f 38 bd
       0.055546176 -0.0072612623 -0.06818095 -0.04495169
000160 11 e4 78 bd 9a 14 04 bc f1 7a 24 3d 1d 21 4c bd
       -0.060764376 -0.008061552 0.04015631 -0.049836267
000170 7a 30 5a 3d 4a 09 9f bd 0c 5f 75 bc 1c b1 8d 39
       0.053268887 -0.077654436 -0.014976274 0.00027025572
000180 71 e5 28 bc 26 7a 67 3d 68 af a8 bc 61 b2 01 3e
       -0.010308609 0.056512974 -0.020591453 0.12665702
000190 04 12 52 3d fa c3 1d bd 66 c9 5f 3c 05 95 52 bd
       0.051286712 -0.038516976 0.013658857 -0.051411647
0001a0 5e 57 3d bc 5b 0b e9 3c a6 ce e2 bd ff 53 02 3d
       -0.0115564745 0.028447798 -0.11074571 0.031818386
0001b0 bb de 15 3d f1 cf 17 3d 99 30 db 3a 54 bf 9c ba
       0.036589365 0.037063543 0.0016722857 -0.0011958876
0001c0 c6 88 25 3c fd a6 a4 bc a0 20 f7 3c 1a e0 9a 3a
       0.01010341 -0.020099157 0.030166924 0.0011816055
0001d0 bb 78 0d bd 5e c7 e2 3b cc 41 07 bc e4 5e 66 3c
       -0.034538966 0.006920739 -0.008255433 0.01406071
0001e0 c3 68 5f bc dc 71 98 3d 9a ce 07 bd 67 06 88 bc
       -0.013635817 0.07443592 -0.033156015 -0.016604615
0001f0 dd 80 ef 3c ac 22 fb bb c5 ab 37 bc 87 63 f1 bb
       0.029236251 -0.0076640453 -0.011210387 -0.007366601
000200 bb d4 5a 3c cc cb c2 bc 17 40 15 bb 1f c0 7a 3c
       0.013356383 -0.023778819 -0.0022773796 0.015304594
000210 d4 b1 12 bd 80 9b 33 3d 31 07 97 ba f3 88 5f bd
       -0.03581412 0.04384947 -0.0011522529 -0.054573964
000220 c2 6e 46 bc 82 08 a3 3c 40 44 39 bb 75 aa 3b bc
       -0.012111368 0.019901518 -0.002826944 -0.011454214
000230 6d c1 f2 3c 79 9d 40 bc 5c be 35 3c ba 6e 2d bd
       0.029633248 -0.011756294 0.0110927485 -0.042341925
000240 13 ea b1 3d 94 63 2a bd 3f d1 80 bb f0 1a 06 3d
       0.08687224 -0.04159887 -0.003931194 0.032740533
000250 60 26 0d 3d 89 90 47 3b fa a2 6f 3d 93 5c 1a 3a
       0.034460425 0.003045114 0.058505036 0.00058884284
000260 3c 41 12 3c 0d 77 3b 3b 33 a7 e1 3b c3 95 d3 bc
       0.008926686 0.0028604895 0.006886387 -0.025828248
000270 19 87 53 bd 29 20 aa bb bd f4 36 3c b6 6d 28 bc
       -0.05164251 -0.005191822 0.011166749 -0.010280063
000280 47 bc d5 3c 90 62 0d 3d 54 41 5f bc 5c a1 1b bb
       0.026090754 0.034517825 -0.013626415 -0.00237473
000290 99 75 27 3c 29 2c 86 3d 9b a2 db bc c6 a3 dc bc
       0.010220909 0.06551392 -0.026810935 -0.026933562
0002a0 bd 9c 09 bd 83 ad ee bb 46 9d a2 ba 4f 5d b9 3b
       -0.033596743 -0.007283868 -0.001240649 0.005656875
0002b0 7a 40 6d bd 5c f2 6c 3c 7c 71 05 3c c8 15 69 bd
       -0.057922818 0.01446208 0.008144733 -0.056905538
0002c0 ea a6 78 bb 40 cd aa 3d f0 53 07 3d 49 17 d3 3b
       -0.0037941285 0.083399296 0.033039033 0.006441985
0002d0 92 8b 17 3d f3 aa 11 3d 30 b8 5d bc fb b2 72 bd
       0.03699834 0.03556342 -0.013532683 -0.05925272
0002e0 eb e4 ff bc 62 66 c4 3c 53 55 5a 3c a7 df 8c 3c
       -0.031237086 0.023974601 0.013326007 0.01719649
0002f0 66 c6 5d bd a1 a9 f9 3b 4a 0d 86 3d 9d e8 8a bd
       -0.054144286 0.0076190983 0.065455034 -0.06782649
000300 1e d3 9b bc d8 93 d0 3c bc 61 0a 3d ad 36 1c 3c
       -0.019021567 0.025461122 0.033784613 0.00953452
000310 fe 02 a5 bd 8d df c5 3c 84 c1 71 3c f9 52 d1 3b
       -0.08057211 0.024154449 0.01475561 0.006388065
000320 d6 a6 cf bc fe ff 90 3d ab 90 65 3d 1c 1d b6 bc
       -0.025348108 0.07080077 0.05604617 -0.022230677
000330 dd 86 0a 3b f6 f0 2c 3d 74 fa 37 3c ad 11 1a bd
       0.0021137514 0.042221986 0.011229146 -0.037614513
000340 ff 7d 3f 3d 5b b5 88 bd 08 4e 8e 3c 09 39 94 3d
       0.04675102 -0.06675216 0.017371193 0.07237441
000350 e8 6a 02 3c 76 04 8f bd eb 1f bf 3c f5 45 a7 bc
       0.007960059 -0.06983273 0.02333065 -0.0204191
000360 7f 4b a3 bc de 6b 45 3a 62 e1 0e 3d b8 44 98 bc
       -0.01993346 0.0007531027 0.03488291 -0.018587455
000370 28 15 03 bd 19 25 70 bd c3 de a9 3d 91 76 31 bd
       -0.032002598 -0.05862913 0.082944416 -0.043325964
000380 45 97 21 bd 36 26 2a 3d d6 cc c7 3c 94 b7 5e 3d
       -0.039450902 0.041540347 0.024389666 0.054374292
000390 0d 0c 9f 3d 0f 02 13 bd 8e 78 c4 3c b4 18 13 bd
       0.077659704 -0.035890635 0.023983266 -0.03591223
0003a0 22 3a 3a bd 2b 9e 34 bd 12 1f f0 3b 0a 71 67 bd
       -0.045465596 -0.044096153 0.0073279226 -0.056504287
0003b0 8f a2 87 3c 7f 04 94 bc 4b 04 ab bc a6 29 f2 3c
       0.016557006 -0.01806855 -0.02087607 0.029560875
0003c0 91 76 27 3d 36 de 1c bd 1c 02 83 3d 51 73 c9 3c
       0.040884558 -0.038297854 0.06396887 0.02459112
0003d0 97 12 80 3a 1c 11 55 bd af 5c 79 3a 36 75 a8 3d
       0.0009771165 -0.05201827 0.0009512407 0.08225481
0003e0 76 af 80 bc cd e9 70 bd 54 c8 17 bd ce 9b 30 bd
       -0.015708666 -0.05881672 -0.037056282 -0.043117337
0003f0 39 29 1f bd 19 b7 4a bd b9 5a 47 bd 24 cf 40 3d
       -0.038857672 -0.04949102 -0.048670504 0.047072545

layer2.weight f4 [64, 256]
000000 f4 84 4b 3e 80 f0 22 3d 06 c7 eb 3d 74 41 9f be
       0.19874936 0.03978014 0.1151257 -0.31104624
000010 82 5d 09 3e ea e4 45 be ee 32 f3 3d 52 b5 0c be
       0.13414577 -0.19325605 0.118749484 -0.13741043
000020 b0 af f9 3d 7e 69 c4 3d 8a 9f 00 3e 23 e1 c7 bd
       0.12191713 0.095904335 0.1256086 -0.09759738
000030 e7 ca b5 bd ac b3 8e bb f7 b2 6c 3e 55 4a b3 be
       -0.08876591 -0.0043549147 0.23115145 -0.35017648
000040 0e 67 72 3d dd de 75 3e 13 f7 e3 bc cf 6b ec 3d
       0.05918031 0.24010797 -0.027827775 0.11544
000050 9a d2 6a be 0c fa e8 3c 18 dd f5 3e 49 69 cd 3d
       -0.229319 0.028439544 0.48020244 0.10029847
000060 3e d4 41 be bc d8 64 bd 12 1d 03 ba f6 7f 46 bd
       -0.1892862 -0.055870757 -0.0005001585 -0.048461877
000070 d8 6e 2a be 84 a0 c7 3d 34 ea b1 3d 58 17 04 be
       -0.16643846 0.09747413 0.08687249 -0.1289953
000080 47 92 8e 3c f2 4a 55 be 2a 00 7c 3e 02 32 c4 3c
       0.017403735 -0.2082937 0.24609438 0.023949627
000090 d6 87 39 bd 59 bf 7d bd a1 f8 3a be 96 e0 a2 bd
       -0.04529556 -0.06195006 -0.18258907 -0.079529926
0000a0 db 07 0f be 67 68 12 3e 0a 58 2e 3e 08 66 56 bd
       -0.1396784 0.14297639 0.17025772 -0.0523434
0000b0 3c 36 ab bd 78 be a4 be f8 c9 0f bd 0d b1 63 3d
       -0.08359954 -0.32176566 -0.03510472 0.05558877
0000c0 bc 79 81 bd ac 85 1f be fd 73 51 bd 0c 30 a1 3d
       -0.06322047 -0.15578336 -0.051136006 0.07870492
0000d0 f9 c9 34 3b 86 a9 10 be 86 ed a3 bc 7f 18 68 be
       0.0027586205 -0.14127168 -0.020010721 -0.22665595
0000e0 46 d5 1b be 2a 1b 86 bc 10 ac a5 3e f2 a4 a9 3e
       -0.15218076 -0.016370375 0.32357836 0.33133656
0000f0 62 7b c1 3d 8e 7c fe bd 6f c5 02 be 80 35 5e be
       0.094473615 -0.12426101 -0.12770627 -0.21700096
000100 04 81 4f 3d b3 3b 95 be c2 24 8a 3e 61 8f f4 3d
       0.05066015 -0.2914711 0.2698117 0.1194141
000110 90 d5 46 bd 81 27 de bc fa ac 97 3e 59 5d 91 3d
       -0.048543513 -0.027118446 0.29624158 0.07097883
000120 a4 27 33 3e f9 0c db 3c 46 75 03 bd a4 42 38 3d
       0.1749559 0.026739584 -0.032094263 0.04498543
000130 90 cf 17 be 3c 7d 13 3c 74 7a 6c be 27 91 50 be
       -0.14825273 0.009002026 -0.23093587 -0.20367871
000140 b8 78 34 3e c5 8b 2c 3f 61 08 f7 bb 97 a2 99 be
       0.17624176 0.6740077 -0.0075388406 -0.3000686
000150 dd 57 87 3e 52 96 63 bd ad dd 85 3d 41 f6 5a 3d
       0.26434222 -0.05556328 0.06536422 0.053457502
000160 fd 23 39 3e bb d1 2e be 5b 05 e6 3d 79 8c 89 be
       0.18080135 -0.17072193 0.1123149 -0.26864985
000170 91 d1 92 bd 2e cb ac 3e b6 67 22 be d1 5e 83 3e
       -0.07168878 0.33748764 -0.15859875 0.25658277
000180 77 cc b9 bd ce de 35 be 7a 07 2b 3e 4c 4a 1c bf
       -0.09072202 -0.17760774 0.16702071 -0.6105087
000190 d4 d6 72 bd b3 9a 85 3d bd b8 55 be 0f 9e 24 be
       -0.059286907 0.06523647 -0.20871253 -0.1607592
0001a0 88 b5 88 be 5e 59 b8 bd fb f6 e7 3e 37 f0 18 be
       -0.26700997 -0.090014204 0.4530562 -0.14935385
0001b0 f8 02 42 3e 3f a1 4f 3e 01 bc 1e 3d 8e 62 5a 3d
       0.18946445 0.20276354 0.038753513 0.053316645
0001c0 f6 77 73 3d f2 1a e9 bd 2f 49 02 be 25 84 70 3e
       0.059440576 -0.113820925 -0.1272323 0.23487909
0001d0 04 2b 30 3e 8e 43 da 3e e4 1a 67 be e2 11 28 3d
       0.17203909 0.42629665 -0.22568852 0.04103268
0001e0 be 4a a8 bd 8b f7 24 3e e3 45 55 3c 2a df 3d 3d
       -0.08217381 0.16110055 0.013017151 0.046355404
0001f0 04 2d 8a 3d d0 e5 9a 3c 2a e1 de 3c da 20 de bd
       0.06746867 0.018908411 0.027206976 -0.1084611
000200 07 13 37 be 29 af cb 3e 10 66 b5 be fb 11 29 be
       -0.17878352 0.39782074 -0.3542943 -0.16510765
000210 95 3b 00 3d b6 93 d8 3c 40 08 92 3e 12 47 dc bd
       0.03130682 0.026437622 0.2852192 -0.10755743
000220 fe e5 fb 3d c3 84 d3 bc b7 e9 8b 3e 6a 3f e9 3d
       0.12299727 -0.025820142 0.27326748 0.113890484
000230 13 62 4e bc 1c 7f e6 bd 79 f2 7a 3c b7 7c b2 bd
       -0.012596625 -0.11254713 0.015316599 -0.08715194
000240 74 e8 9b be 75 96 cc bd d3 a3 b9 3e 90 0a ef 3d
       -0.30450785 -0.09989635 0.362578 0.116719365
000250 98 94 c9 bb e3 1e 77 ba 8e 98 69 3e 5b bf ca 3d
       -0.006151747 -0.0009426905 0.22812101 0.098997794
000260 98 44 ea 3d 9b e8 c2 3d c1 b9 0b be ef ed f7 3c
       0.114388645 0.09517022 -0.13645078 0.030264823
000270 0d 03 17 3e 90 fa 05 3d 65 0f 2a bb 41 3b 47 3e
       0.14747258 0.03270966 -0.0025949117 0.19456197
000280 ed 25 2c 3c 16 43 68 3d a1 b4 97 be 7f d1 c3 bd
       0.010507089 0.056704603 -0.29629996 -0.095614426
000290 1a 42 fd 3a f0 8a c6 be 12 be d8 3b 37 c1 6b be
       0.0019322068 -0.38777876 0.006614455 -0.23022924
0002a0 df c2 3f b9 49 46 eb 3d c0 41 2a 3e 8f 13 39 be
       -0.00018287775 0.11488015 0.16626644 -0.18073867
0002b0 60 9d 8a 3d 07 a4 f1 bd 30 b8 69 be bf 15 ae bb
       0.06768298 -0.11798864 -0.22824168 -0.005312651
0002c0 a6 17 3b 3d 80 70 6b bc 09 1a 5b be 79 d6 82 bc
       0.04567685 -0.014370084 -0.2139665 -0.01597141
0002d0 e2 52 d6 3e 77 e8 a3 bd 8c 35 32 bd 2a c6 2b 3e
       0.4186011 -0.080033235 -0.043508098 0.16774812
0002e0 82 d5 5a be 8e 63 05 3d 64 b9 13 be 37 a1 69 bd
       -0.2137051 0.032565646 -0.1442619 -0.057038512
0002f0 29 21 23 bd 7b b8 44 be 33 dd 33 3d 48 b6 04 3e
       -0.039826546 -0.19210999 0.043912124 0.1296016
000300 2e 93 5a 3e ae 71 ef bd 48 0b e3 3d 16 66 e9 3d
       0.21345207 -0.116916046 0.11086136 0.113964245
000310 c5 ab 9a 3c 8c 42 1e be 81 75 8d 3d 3b fb 9f 3d
       0.018880734 -0.15455073 0.06907178 0.0781159
000320 04 aa e5 bd 66 bc 97 be bd 9d 12 3e c5 4f 76 3e
       -0.112140685 -0.29635924 0.14317985 0.24053867
000330 1f 44 e8 b8 03 15 9f bb 22 11 8b bd f5 7a d0 3e
       -0.000110753106 -0.0048547997 -0.06790377 0.4071881
000340 36 c0 94 3e fb 72 44 3e fa e9 71 3e a7 93 77 3d
       0.29052895 0.19184487 0.23624411 0.060443547
000350 aa 62 32 bb 31 90 5f 3d 17 b1 93 be d6 c3 ce bd
       -0.0027219453 0.05458087 -0.28846046 -0.100959465
000360 23 65 0d bc 20 88 22 3e c8 b7 10 be e1 0f 46 3d
       -0.00863007 0.1587224 -0.14132607 0.048354987
000370 4f 6a 56 bd f8 b5 27 3d b5 09 4d 3d 12 74 e8 3d
       -0.052347478 0.040945023 0.050058085 0.11350264
000380 e8 10 1d bd 49 b5 ca 3e d9 d2 93 be 70 8a ae bd
       -0.0383462 0.39591435 -0.28871801 -0.085224986
000390 3d ca 52 3c 32 0a 1b 3d ec c7 39 3e a5 a0 a7 3e
       0.0128656 0.03785152 0.1814267 0.3273975
0003a0 f3 b2 1a 3e 41 85 18 3e eb 61 66 ba 4f c3 a7 3d
       0.15107326 0.14894582 -0.00087883946 0.08191549
0003b0 d6 18 78 3e dc 63 49 bc e3 4a b1 3b 91 ea d0 3d
       0.24228224 -0.012291875 0.0054105385 0.1020099
0003c0 9e c5 cd bd e1 a4 2a be 23 27 44 be 74 13 28 3e
       -0.10047458 -0.16664459 -0.19155554 0.16413671
0003d0 0f d8 ac 3d 27 66 b5 3c 27 ad a0 bc 3b b5 6e bd
       0.084396474 0.022143437 -0.019613815 -0.058278304
0003e0 41 ee e0 bc 9d c1 e7 bc 7a 8b 80 bd 3f 62 9e bd
       -0.027457358 -0.028290564 -0.06276603 -0.07733583
0003f0 22 81 cc 3d af c2 1b bc 8e 5e b4 3c 99 52 6e 3e
       0.09985568 -0.009506865 0.022017743 0.23273696

layer2.bias f4 [64]
000000 8c 02 68 3d c0 6f 73 3d 6e a0 da bb 50 77 b4 3b
       0.056643054 0.059432745 -0.0066719567 0.005507387
000010 63 dd c9 bb 74 4c 8d 3c 24 78 b9 bc d2 33 19 bd
       -0.0061604246 0.01724837 -0.022640295 -0.037402935
000020 4f 42 30 bd a9 39 a6 ba 24 05 96 bd b8 5b 54 bd
       -0.043031987 -0.0012681979 -0.07325199 -0.051845282
000030 60 f4 87 bd c0 12 fc bc 92 76 86 bd 92 0f 1e 3c
       -0.06638408 -0.03077066 -0.06565584 0.009647267
000040 41 0e 31 bd e1 c9 26 bd 84 54 76 3b 40 01 0f bd
       -0.043226484 -0.04071987 0.0037586996 -0.0349133
000050 1d 7f bb 3c e0 35 ad 3c 2c 43 ae bd 69 8f 11 3d
       0.02288776 0.021143854 -0.08508906 0.035537157
000060 68 cf 9c bc b7 65 13 3b ec f9 1d 3d bf 6f 4d bd
       -0.019141868 0.0022491047 0.038568422 -0.050155398
000070 5c 6a 76 bc df a1 dd ba 09 34 92 bd bb 1c 4e 3d
       -0.0150400065 -0.0016909203 -0.07138831 0.05032037
000080 85 a4 96 bc 26 6e af bb 89 f3 cd bd 08 6e 3e 3b
       -0.018388996 -0.005353707 -0.10056216 0.0029057283
000090 b0 31 52 bd 7a 64 38 bc 84 aa 02 3d d9 8d 44 bd
       -0.051316917 -0.011254424 0.031900898 -0.04798684
0000a0 32 ea 1a 3c c9 dc ee bb 8c 12 f7 bc ab 28 c2 bc
       0.009455251 -0.0072895032 -0.030160211 -0.023701033
0000b0 28 83 a6 ba da 48 31 3c ef 61 8b bd da 7c c1 bc
       -0.0012703883 0.010820592 -0.06805789 -0.023619104
0000c0 36 41 ae bc ee 3b d9 bb 91 c2 24 bd b3 d1 9a bd
       -0.02127133 -0.0066294586 -0.040224615 -0.07559528
0000d0 44 f6 95 bc 9c de 87 bd e7 08 17 3b d3 32 66 bd
       -0.018305905 -0.06634256 0.0023046078 -0.056200814
0000e0 f8 5b 4c bc c4 79 11 bc 5b 1a 1b bd 82 7d 7b bd
       -0.012473099 -0.008879129 -0.03786693 -0.06139899
0000f0 74 84 e0 bd 80 e7 a7 bb ab 4e c7 3c de fa 8a 3a
       -0.109627634 -0.0051240325 0.024329504 0.0010603329

layer3.weight f4 [1, 64]
000000 97 3d 71 be c7 04 01 bf c9 11 d0 be 55 1b 99 3e
       -0.23558651 -0.50397915 -0.4063857 0.29903665
000010 d3 da 9a be 11 2f a8 be c9 3e cf 3d 15 f8 a2 3e
       -0.30245075 -0.3284841 0.10119397 0.31829897
000020 b0 91 b6 3e 37 30 28 be 30 2a ad 3e cc ba d9 be
       0.35658026 -0.16424643 0.3382125 -0.42525327
000030 65 aa c2 be 51 3f a7 be f7 24 a5 3e 44 3c d9 be
       -0.38020626 -0.32665494 0.32254764 -0.42428792
000040 3d 85 fd be ff ec a2 be d6 a8 d2 be 0c dd be 3e
       -0.49515715 -0.3182144 -0.41144437 0.3727802
000050 7c fe c7 3e 8f 65 a2 3e 3c 1f d9 3e 12 0a fc be
       0.39061344 0.31718108 0.42406642 -0.49226433
000060 da a8 b9 3e ae 7d a6 3e 82 26 8d be 1e 01 91 be
       0.36261636 0.3251776 -0.27568442 -0.28321165
000070 02 f2 dd 3e 5f be a1 3e e6 c2 9c be 0b 1e a9 be
       0.433487 0.31590554 -0.30617446 -0.33030733
000080 92 0c b9 3e d0 e3 96 3e 4a 96 89 3e 67 44 9c 3e
       0.36142403 0.29470682 0.26872474 0.30520937
000090 a2 92 45 be 67 ae c6 3e 21 cd c6 be 25 41 32 3e
       -0.19294217 0.38804933 -0.38828376 0.17407663
0000a0 48 2a 75 3e 99 6d ab be 20 d3 d1 3e 67 2f b1 3e
       0.2394191 -0.33482054 0.40981388 0.34606478
0000b0 d5 c8 4c be 9a fe 9d be 83 e5 dd 3e 9b ce a8 3e
       -0.19998486 -0.30858308 0.43339166 0.32970127
0000c0 0e f7 d8 3e 2c e8 b4 3e 32 56 ca 3e b1 f5 0c 3f
       0.42375988 0.35333383 0.39518887 0.55062395
0000d0 03 ef dc 3e 62 94 5c 3e 1a 92 79 3e 22 b1 e5 3e
       0.431511 0.21540979 0.2437214 0.44861704
0000e0 54 98 57 3e ce 6d c6 be f7 46 9f 3e 76 68 ba 3e
       0.21054202 -0.3875565 0.3110883 0.36407822
0000f0 86 84 72 3e 5e 92 ab 3e 9a e9 7d be c6 81 e6 3e
       0.23683366 0.33510107 -0.24796143 0.45020884
