test/ens_models/ens_model_5_CB.pt (torch, 654739 bytes, 6 tensors)

weight f4 [20, 10]
0	0x3e408a9d	0.18802877
1	0xbf2e8207	-0.68167156
2	0x3ed234c9	0.41055897
3	0xbe53aa35	-0.20670398
4	0x3e37dd91	0.17955615
5	0x3ec73209	0.3890536
6	0x3e223855	0.15841801
7	0xbe6539eb	-0.22385375
8	0x3e947c4b	0.29001078
9	0xbcb94841	-0.022617461
10	0x3f64dd47	0.8940014
11	0xbefa3a47	-0.48872587
12	0xbf6d032c	-0.92582965
13	0x3f09dddb	0.5385415
14	0xbe6083cc	-0.21925277
15	0x3dfb5187	0.122714095
16	0x3e6a995d	0.22910066
17	0xbee978c2	-0.45599943
18	0x3f8939d6	1.0720775
19	0x3efbd238	0.49183822
20	0x3e58f65b	0.21187727
21	0x3e9b5ff7	0.30346653
22	0x3e86a4c1	0.26297572
23	0x3e0e6430	0.13905406
24	0xbedd8a3d	-0.4326953
25	0xbe543d24	-0.20726448
26	0x3f63009f	0.8867282
27	0xbf10d024	-0.565676
28	0x3f6287c4	0.8848841
29	0x3c91103a	0.017707933
30	0xbdd5be23	-0.10436656
31	0x3ecacfb0	0.39611578
32	0x3d279c3d	0.040920485
33	0xbd6fe64e	-0.058569245
34	0xbdfc74fe	-0.12327002
35	0xbed4839c	-0.4150666
36	0x3d2b624a	0.041841783
37	0xbeb2321a	-0.3480385
38	0x3f26b310	0.6511698
39	0x3f34dd14	0.7064984
40	0xbda8308b	-0.08212384
41	0xbeece9a3	-0.46272
42	0x3e59f005	0.21282966
43	0x3efdb993	0.49555644
44	0x3d5c8005	0.053833026
45	0x3f2e6dae	0.6813611
46	0x3e8c514f	0.27405784
47	0x3f67a60f	0.9048776
48	0xbf9d5a78	-1.2293234
49	0x3df19dbc	0.117976636
50	0x3e791de0	0.24327803
51	0x3d681ca9	0.056667957
52	0xbe766cf3	-0.24064998
53	0x3e1ef519	0.15523185
54	0x3de0f777	0.109847
55	0xbe4cfdd8	-0.20018709
56	0xbf55cefe	-0.8351897
57	0x3e00cd75	0.12578376
58	0x3f4c5750	0.7982073
59	0xbf753269	-0.95780045
60	0xbf26fcbe	-0.65229404
61	0x3f1169c6	0.5680202
62	0xbf07e1c9	-0.53078896
63	0xbe630b4d	-0.2217228
64	0x3eacca7f	0.33748242
65	0x3ebc8708	0.3682177
66	0xbe9f484b	-0.31109843
67	0x3f4e13ca	0.80498946
68	0x3f78dfce	0.972165
69	0x3e7ef0bd	0.24896522
70	0xbef27b56	-0.47359723
71	0xbef9b58b	-0.4877132
72	0xbdba202a	-0.09088166
73	0xbaf325e6	-0.0018550723
74	0xbfcc8bf2	-1.5980208
75	0x3f19854c	0.5996902
76	0x3ecfe224	0.4060222
77	0x3f79c54b	0.9756667
78	0x3f876183	1.0576633
79	0xbf656478	-0.8960643
80	0xbe08cf44	-0.13360316
81	0x3ef8d693	0.48601207
82	0xbe0a674e	-0.1351597
83	0xbfb0157c	-1.3756557
84	0x3e2da0f3	0.16955929
85	0x3f0b4554	0.5440266
86	0xbf84f463	-1.0387081
87	0x3ee37b4d	0.4443001
88	0x3de6e45e	0.11274026
89	0x3eb662ea	0.3562234
90	0xbe8eed7b	-0.27915558
91	0x3eea0534	0.45707095
92	0xbf03b83e	-0.51453006
93	0xbe9a64cc	-0.30155027
94	0x3d219345	0.039447088
95	0xbe1455eb	-0.144859
96	0xbc534bca	-0.0128964875
97	0x3f0c4922	0.5479909
98	0xbe2433a4	-0.16035324
99	0xbede9822	-0.43475443
100	0x3f1e07fa	0.6173092
101	0xbe2f32fe	-0.17109296
102	0x3e08c262	0.13355401
103	0xbf12a220	-0.57278633
104	0x3e6d0906	0.23147973
105	0x3e95e436	0.29275674
106	0xbea61db0	-0.32444525
107	0x3edbf813	0.42962703
108	0xbe2ee282	-0.17078593
109	0xbe2f7a69	-0.1713654
110	0xbe97468c	-0.2954601
111	0xbf04dda3	-0.5190069
112	0x3dbd0490	0.09229386
113	0xbdc72783	-0.09724333
114	0x3f0a9649	0.54135567
115	0x3f4ad257	0.79227203
116	0x3eb9c639	0.36284044
117	0xbed9084b	-0.4238914
118	0x3ec8ea64	0.39241326
119	0x3c4a695d	0.012354222
120	0x3ee1062e	0.43950027
121	0x3f2e1d51	0.68013483
122	0xbc79674e	-0.015222384
123	0xbe6c7bdd	-0.23094125
124	0xbdf43e39	-0.119259305
125	0x3e4ba597	0.19887386
126	0x3e74d8e8	0.23910868
127	0xbf8032d5	-1.0015513
128	0xbed2397b	-0.4105948
129	0x3e31b13f	0.1735277
130	0xbc1a1c94	-0.009406228
131	0x3f4c9a36	0.7992281
132	0xbd9664e1	-0.0734346
133	0xbf417154	-0.7556355
134	0xbe97820a	-0.295914
135	0x3b48f13c	0.0030661365
136	0x3f2640ee	0.64942825
137	0xbda9c87b	-0.08290192
138	0x3e716584	0.23573881
139	0x3dcb8e85	0.09939293
140	0x3f0816ba	0.5315968
141	0x3e3abaf8	0.18235385
142	0xbe28b440	-0.1647501
143	0x3e168fea	0.14703336
144	0x3e85d1f7	0.26136753
145	0x3ef8dda0	0.48606586
146	0xbf59a606	-0.85018957
147	0xbd8e3f1c	-0.06945631
148	0xbf3f6a92	-0.7477199
149	0x3f0e36d0	0.5555239
150	0x3ef0b4a7	0.47012827
151	0xbe39bc14	-0.18138152
152	0x3e898cd7	0.26865265
153	0xbf802e67	-1.0014161
154	0xbe0da03f	-0.1383066
155	0x3ed48d4f	0.4151406
156	0x3e1c9f41	0.15295126
157	0x3f0890ef	0.5334615
158	0xbe9a8455	-0.30179086
159	0xbeb0d770	-0.34539366
160	0x3f09f542	0.5388986
161	0xbe4f68c7	-0.20254813
162	0xbe0b3aa4	-0.13596588
163	0x3f20fcb2	0.6288558
164	0xbeab9a90	-0.3351636
165	0xbef3ffbd	-0.4765605
166	0xbf48e5a9	-0.78475434
167	0x3e92240c	0.28543127
168	0x3cc2dcf4	0.023787
169	0xbe9365b1	-0.28788522
170	0xbf7a76dc	-0.97837615
171	0xbf0887e1	-0.53332335
172	0xbf2f596e	-0.68495834
173	0xbf4f13c1	-0.8088952
174	0xbf231b1c	-0.6371324
175	0x3f01e676	0.5074228
176	0xbed5ecc5	-0.41782203
177	0xbedb057b	-0.4277762
178	0x3dc60372	0.09668626
179	0xbef50d84	-0.47861874
180	0xbf4a4cf1	-0.79023653
181	0x3f496be9	0.7868028
182	0x3c683f6f	0.01417528
183	0xbde985e0	-0.11402488
184	0xbf0346c3	-0.5127985
185	0x3f0d72e3	0.5525343
186	0xbe483088	-0.19549763
187	0x3f784b5c	0.9698999
188	0x3e8bec2c	0.27328622
189	0xbdd02f89	-0.101653166
190	0x3d9260a1	0.07147337
191	0xbdedd6f0	-0.11613262
192	0x3f1f8032	0.62304986
193	0xbc74a823	-0.014932665
194	0x3e34ba7a	0.1764926
195	0xbe14ca52	-0.14530304
196	0x3e7d396d	0.24728937
197	0xbf9f68f0	-1.2453899
198	0x3f115e21	0.56784254
199	0xbe4e7fc7	-0.2016593

weight f4 [256, 570]
0	0x3d1ae358	0.03781447
1	0xbce9077f	-0.028445957
2	0x3d08f11f	0.033433076
3	0x3ee51c7d	0.44748297
4	0x3c09803d	0.008392391
5	0x3c8fc5c0	0.01755035
6	0x3c3ab73f	0.011396228
7	0xbcde65b4	-0.027148105
8	0x3d8ef1d2	0.06979717
9	0xbcfe300b	-0.031028768
10	0xbc1027b3	-0.0087985275
11	0xbe83a3f0	-0.25711012
12	0xbe31edb2	-0.1737583
13	0x3dd7655f	0.10517382
14	0xbe1daead	-0.15398665
15	0xbe7e0b71	-0.24809052
16	0xbf47cd39	-0.7804752
17	0xbe289970	-0.16464782
18	0xbc5b2d02	-0.01337743
19	0x3d1409a9	0.036142025
20	0x3df2a4a9	0.11847813
21	0x3e1a5c21	0.15074207
22	0x3dcda100	0.10040474
23	0xbb232044	-0.0024891058
24	0xbedf44b9	-0.4360712
25	0xbe757316	-0.23969683
26	0x3dba7b7e	0.091055855
27	0x3e9a331b	0.30117115
28	0x3d65aaac	0.05607097
29	0x3dbd07ae	0.092299804
30	0x3df8ac33	0.121422194
31	0x3e1646a6	0.14675388
32	0x3b6400e9	0.0034790582
33	0xbb8bd92e	-0.004267833
34	0xbd02e899	-0.031960104
35	0xbe695845	-0.22787578
36	0xbc4c7c4b	-0.012480806
37	0x3dee11e8	0.11624509
38	0xbcb4a03a	-0.022049058
39	0xbe071d0f	-0.13194679
40	0x3d0121e0	0.031526446
41	0x3efe9bb2	0.4972816
42	0xbd3f2972	-0.046670385
43	0xbe02a9f2	-0.12760141
44	0x3ec30f16	0.38097447
45	0x3f3afa10	0.73037815
46	0xbea01c83	-0.31271753
47	0xbf8a1fc4	-1.0790944
48	0x3ea4978c	0.3214687
49	0x3dfc77a5	0.12327508
50	0xbcdae6bd	-0.026721353
51	0xbb797e89	-0.0038069806
52	0x3e62b983	0.2214108
53	0x3b611e0d	0.0034350187
54	0x3d7ec5ca	0.062200345
55	0xbd4306bb	-0.04761384
56	0xbdbd44d3	-0.09241643
57	0x3d5509d7	0.052011337
58	0x3e2a10bd	0.16607948
59	0xbe25205f	-0.1612563
60	0xbe858368	-0.26076818
61	0x3c1c942e	0.009556813
62	0x3d21540c	0.039386794
63	0xbf0f4770	-0.5596838
64	0xbc29b05a	-0.010356987
65	0xbc21a10c	-0.009865057
66	0x3e4c8051	0.19970824
67	0x3db0a83b	0.086258374
68	0xbd0c6ca1	-0.034283284
69	0xbd9144b1	-0.0709318
70	0xbea2ba9e	-0.31783003
71	0x3e2bceaa	0.16778055
72	0x3d4c5fdb	0.049896102
73	0x3f3e00e4	0.7422011
74	0xbf3615cc	-0.7112701
75	0xbfa2caf7	-1.271819
76	0x3b93351b	0.0044924146
77	0x3e1bcf11	0.15215708
78	0xbf4da8bb	-0.8033559
79	0xbff4b740	-1.9118423
80	0xbdb6a5c8	-0.08918339
81	0xbd40ccd8	-0.047070354
82	0x3d3555f4	0.044271424
83	0xbe241a9c	-0.16025776
84	0xbda549e3	-0.080707334
85	0x3be21495	0.006899426
86	0x3d5104f0	0.0510301
87	0xbe092873	-0.13394336
88	0x3d9a447e	0.07532595
89	0xbb85d9e0	-0.0040848106
90	0x3cd4cf2d	0.025977695
91	0x3ddd429b	0.108037196
92	0xbd2981e1	-0.041383628
93	0x3d5d9631	0.05409831
94	0xbcb7d277	-0.022439225
95	0x3be54396	0.0069965823
96	0x3d8a0cb6	0.06740706
97	0x3d892a75	0.06697551
98	0xbd77e6dc	-0.0605229
99	0x3d1d2d0f	0.03837305
100	0x3dd6f15f	0.10495257
101	0x3d1c654f	0.038182553
102	0xbcf8da9f	-0.030377684
103	0x3d8dd34c	0.06925067
104	0xbe7d97a1	-0.24764873
105	0xbdd27bab	-0.10277494
106	0xbdffd5b1	-0.1249193
107	0xbdea375c	-0.1143634
108	0xbf765f74	-0.962394
109	0x3e101422	0.1407018
110	0x3e0dfb26	0.13865337
111	0xbf3bdb03	-0.7338106
112	0x3f6f92f8	0.9358363
113	0x3d193542	0.037404306
114	0xbd09899f	-0.03357851
115	0xbdcf3e51	-0.10119308
116	0x3e58c9cf	0.21170734
117	0x3d18a29b	0.037264448
118	0x3ab54e8c	0.0013832613
119	0xbcf457cc	-0.029827021
120	0x3c8e2cc3	0.017355328
121	0x3c8cafd0	0.017173678
122	0xbd241f98	-0.040069193
123	0x3cfa59c5	0.030560384
124	0x3cd3cb15	0.025853673
125	0xbbfebfe2	-0.007774339
126	0x3ca6cc37	0.02036105
127	0xbd175ce3	-0.036953818
128	0xbc898a8a	-0.016789693
129	0xbd80a630	-0.06281698
130	0x3c49d38e	0.012318505
131	0x3a82bb0d	0.0009973958
132	0x3d97e24e	0.07416211
133	0xbd1cd583	-0.03828956
134	0xbd2abe09	-0.041685138
135	0x3e3f2987	0.18668185
136	0x3e8457cb	0.2584823
137	0xbec85ea2	-0.391347
138	0x3c43fb0d	0.011961711
139	0x3e3fe8b6	0.18741116
140	0x3ed13126	0.4085781
141	0xbf2172f1	-0.6306601
142	0x3e4ab30b	0.19794862
143	0xbec207a9	-0.3789647
144	0xbd1be9b5	-0.038064677
145	0x3e9ae48d	0.30252495
146	0x3c9c3bbd	0.019071454
147	0xbd421fb7	-0.047393527
148	0xbf5fe597	-0.874597
149	0x3edb9519	0.4288719
150	0x3d393c86	0.045223735
151	0xbd606ee4	-0.054793254
152	0xbd8f5444	-0.06998494
153	0x3e609d26	0.21934947
154	0x3d87623e	0.06610535
155	0xbd95e5b2	-0.073192015
156	0x3e7690d6	0.24078688
157	0x3d0c776c	0.034293577
158	0x3c46d643	0.012136045
159	0xbd9cbb3b	-0.07652899
160	0xbcbe1edf	-0.02320808
161	0xbaaabc45	-0.0013026079
162	0xbc9f4822	-0.019443575
163	0xbd417496	-0.047230326
164	0xbeae8031	-0.34082177
165	0x3d959875	0.073044695
166	0x3de52b88	0.111899436
167	0x3d2a2fd9	0.041549537
168	0xbcf10459	-0.029421018
169	0xbe0faf66	-0.14031753
170	0xbd22878d	-0.039680053
171	0x3eeb9d25	0.4601833
172	0x3cde67b5	0.02714906
173	0xbd4e00ee	-0.050293855
174	0x3e454d81	0.19267847
175	0x3f8cf4be	1.1012189
176	0xbed7b069	-0.42126778
177	0xbb52ab19	-0.003214544
178	0xbd17c0f6	-0.037049256
179	0x3be2b2ef	0.006918303
180	0x3e27b058	0.16375864
181	0x3ba1bcc8	0.0049358346
182	0xbd1a4606	-0.037664436
183	0x3c0093a1	0.0078476975
184	0x3cdc24b1	0.026872965
185	0x3e6656e5	0.22494085
186	0xbd4fbebf	-0.05071902
187	0x3da446ce	0.080213174
188	0x3d4eb0f0	0.05046171
189	0x3d9aaec6	0.07552867
190	0xbdb3845e	-0.087654814
191	0xbd8549f7	-0.06508248
192	0x3d663a7b	0.056208115
193	0xbde7f240	-0.113255024
194	0xbe076f27	-0.13225995
195	0xbe85b4d4	-0.26114523
196	0xbe9d6bc1	-0.30746272
197	0xbe4027b6	-0.18765149
198	0xbdfc67c9	-0.12324483
199	0xbe2f7fc7	-0.17138587
200	0xbdfade11	-0.12249387
201	0xbdd2864b	-0.102795206
202	0xbe1001f2	-0.14063242
203	0xbe25a9c5	-0.16178043
204	0x3e20d6ce	0.15706941
205	0xbe7cb8b0	-0.24679828
206	0x3de56fd9	0.11202974
207	0xbf1fafd1	-0.6237765
208	0xbcdd9159	-0.027046846
209	0x3e751f02	0.2393761
210	0x3e3ffb6e	0.18748257
211	0x3da848ae	0.082169876
212	0x3de857c0	0.11344862
213	0x3e4be456	0.19911322
214	0x3dd01fd0	0.10162318
215	0xbc4b6119	-0.012413287
216	0xbdb9794b	-0.09056338
217	0x3d981cd4	0.074273735
218	0xbc25b1dc	-0.010113206
219	0xbc4a01d8	-0.012329541
220	0xbecacb83	-0.39608392
221	0x3b9283e8	0.004471291
222	0x3dbad010	0.09121716
223	0x3ec06413	0.3757635
224	0x3d812cdd	0.06307385
225	0x3e4edf05	0.20202263
226	0x3e116a46	0.14200696
227	0xbb373e03	-0.0027960546
228	0x3eb9b80f	0.36273238
229	0x3e86e895	0.2634932
230	0xbdbf1756	-0.09330623
231	0xbe9534f3	-0.2914196
232	0xbe5b94c0	-0.21443462
233	0xbc22466c	-0.009904485
234	0x3f535949	0.82558113
235	0x3db3b91c	0.08775541
236	0xc0537fad	-3.3046677
237	0xc01f58d5	-2.4897969
238	0x3f700ebe	0.93772495
239	0x3f6261b1	0.88430315
240	0x376ec4dd	1.4231741e-05
241	0xbea70a81	-0.326252
242	0xbe71b050	-0.23602414
243	0xbdec3edf	-0.11535429
244	0xbe5d24c7	-0.2159606
245	0xbe64708c	-0.22308558
246	0xbdd49c84	-0.103814155
247	0x3d51cca6	0.05122056
248	0xbd4fa2ca	-0.050692357
249	0xbdd37e09	-0.10326774
250	0xbcdc7b26	-0.02691419
251	0x3df5e80d	0.12007151
252	0xbd90385c	-0.07042
253	0x3d367425	0.044544358
254	0x3d75389d	0.059868444
255	0x3e20ba3c	0.15696043

bias f4 [256]
0	0x3d281048	0.041031152
1	0x3d10eff7	0.0353851
2	0x3da5d8a6	0.08097963
3	0xbd750f78	-0.059829205
4	0x3bcaebca	0.006192659
5	0xbbf49190	-0.0074636415
6	0xbce8ed5b	-0.028433492
7	0x3cbf4faf	0.023353426
8	0xbd2dcbb5	-0.0424306
9	0xbd85a8ae	-0.06526314
10	0xbd00c3ec	-0.031436846
11	0xbb2eedb0	-0.0026691966
12	0x3ab9e5d7	0.0014182877
13	0x3d857743	0.06516888
14	0xbd0e21de	-0.034700267
15	0x3ccc5aec	0.024945699
16	0xbd218500	-0.03943348
17	0xbd406a6d	-0.046976496
18	0x3d705715	0.058676798
19	0x3cf6cd35	0.030127147
20	0xbd1742ad	-0.03692882
21	0x3cfd0c12	0.030889545
22	0xbc50f8a0	-0.012754589
23	0x3c9c16e5	0.019053886
24	0xbc01e785	-0.007928734
25	0xbc924c0b	-0.017858526
26	0x3cc972e2	0.024590913
27	0x3cc868ca	0.02446403
28	0x3d9cc301	0.076543815
29	0xbd60a495	-0.054844458
30	0xbd02a2e8	-0.03189364
31	0x3cb30c51	0.021856459
32	0xbd6462c8	-0.055758268
33	0x3d43d2b6	0.04780837
34	0x3bf3406e	0.007423452
35	0xbcbd2516	-0.023088973
36	0x3c3a9914	0.011389036
37	0x3cd33104	0.025780208
38	0x3b4d06e3	0.0031284622
39	0x3cbb3eba	0.022857059
40	0xbc532713	-0.012887734
41	0xbc0ef896	-0.00872626
42	0xbab08dda	-0.001347001
43	0xbb2c72cf	-0.0026313548
44	0x3d10bd22	0.03533662
45	0xbc9371e8	-0.01799865
46	0xbc488962	-0.012239786
47	0x3d02e2ea	0.031954683
48	0xbcff5714	-0.031169452
49	0xbbfb0716	-0.007660757
50	0x3cceba79	0.025235401
51	0xbbb136aa	-0.005408128
52	0xbbe874d3	-0.0070940047
53	0x3b8088ce	0.0039225584
54	0xbd293faa	-0.04132048
55	0xbc8f5fd6	-0.017501753
56	0xbc4c3e0e	-0.012465967
57	0x3cc7f59b	0.024409106
58	0xbc421a38	-0.011847071
59	0x3ae793cd	0.001766795
60	0xbc788323	-0.015167984
61	0x3c86e203	0.016465193
62	0xbc9e98ea	-0.019360024
63	0x3d43a254	0.04776223
64	0xbb61f81b	-0.0034480158
65	0xbd136632	-0.035986133
66	0x3bfa8ccf	0.00764618
67	0xba22cd28	-0.000621038
68	0xbc3808d1	-0.011232571
69	0x3d3413b8	0.043964118
70	0xbb0d68d7	-0.0021577382
71	0xbd29fc17	-0.041500177
72	0xbc96ef6d	-0.018424714
73	0xbced2049	-0.028946059
74	0xbcf382ca	-0.029725451
75	0x3bae656a	0.005322148
76	0x3b874322	0.004127876
77	0xbcc2e8dd	-0.023792678
78	0xbcc8b268	-0.024499133
79	0xbd004c2a	-0.031322636
80	0xbd0bd3a6	-0.03413739
81	0x3d557cc2	0.05212093
82	0x3c68dfb3	0.01421349
83	0xbd05341f	-0.03252041
84	0xbd04a5a5	-0.032384533
85	0xbcc9cc70	-0.024633616
86	0xbc511fe4	-0.012763951
87	0xbc2e0f19	-0.010623717
88	0xba4335e7	-0.0007446692
89	0xbade4af7	-0.0016959597
90	0x3d44172f	0.047873672
91	0x3c985277	0.01859401
92	0x3cc27ebb	0.02374207
93	0xbb9c645d	-0.0047727064
94	0x3c0b737b	0.008511419
95	0x3d5aa31f	0.05337822
96	0x3c329a7d	0.010901091
97	0x3ccc9c46	0.02497686
98	0xbc7c093d	-0.015383062
99	0x3d2efafe	0.042719834
100	0x3c6b6901	0.014368297
101	0xbd9ca47d	-0.07648561
102	0xbce2b493	-0.027673995
103	0x3ce5729b	0.02800875
104	0x3b8ce953	0.0043002754
105	0x3c8f945a	0.017526794
106	0x3b24e2ab	0.0025159519
107	0x39e7e792	0.00044232287
108	0xba45ca2b	-0.0007545079
109	0xbca3e2fd	-0.020005697
110	0xb9ecf93c	-0.00045199122
111	0x3d358f15	0.044325907
112	0xbd08780d	-0.033317614
113	0xbd240f99	-0.040053938
114	0x3c38bb19	0.011275076
115	0xbcf646ec	-0.030063115
116	0x3e16f349	0.14741243
117	0xbcc3ef5e	-0.02391785
118	0x3cc3650f	0.0238519
119	0xbc86e9ed	-0.016468966
120	0x3c837abe	0.016049739
121	0xbc0af8f4	-0.008482207
122	0x3d7425c8	0.059606344
123	0xbd1e6436	-0.038669787
124	0xbbe6ae04	-0.0070397872
125	0xbcfda966	-0.030964565
126	0x3c392f30	0.011302754
127	0x3d30a3be	0.043124907
128	0xbcc743d8	-0.024324343
129	0x3d10010a	0.03515724
130	0x3d1db27f	0.038500305
131	0x3bf4be8e	0.007469005
132	0x3d091680	0.033468723
133	0x3cdbbfc2	0.026824836
134	0x3d1c17c9	0.03810862
135	0x3ae289f6	0.0017283547
136	0x3cdb1363	0.026742643
137	0xbca53ade	-0.020169672
138	0xbc3bdabd	-0.0114657255
139	0x3d12b68c	0.03581862
140	0x3d5de8b3	0.054176997
141	0x3c3771fc	0.01119661
142	0x3cee52d3	0.029092228
143	0xbaef34ca	-0.0018249985
144	0x3de0b332	0.10971679
145	0x3d34eb66	0.044169806
146	0xbc46647b	-0.012108917
147	0x3cef29c9	0.02919473
148	0x3cf70c49	0.030157225
149	0xbc0c9be6	-0.008582091
150	0xbc958b05	-0.018254766
151	0x3ca5a863	0.020221895
152	0xbcfc75e9	-0.030817943
153	0xbb88c23a	-0.0041735442
154	0x3d472643	0.048620474
155	0x3d4fc727	0.050727036
156	0x3d19df3b	0.037566405
157	0x3bf9b3aa	0.0076202946
158	0xbd0f40d3	-0.03497393
159	0x3cea6314	0.028611697
160	0x3c0d7127	0.008632935
161	0xbd1b4aa5	-0.037912983
162	0x3d29ebd2	0.04148466
163	0x3cc01cda	0.023451257
164	0x3ddbcbfd	0.10732267
165	0xbcc7d802	-0.024394993
166	0x3cb6ae33	0.022299862
167	0xbb8e6744	-0.0043458063
168	0xbd1ab486	-0.037769817
169	0xba0780e4	-0.00051690475
170	0xbc79c600	-0.015244961
171	0xbc7aa4af	-0.015298053
172	0x3d0fdee3	0.03512467
173	0x3c06b6ec	0.008222323
174	0xbc0fe41b	-0.008782412
175	0x3c0950ac	0.00838105
176	0xbc5e7d53	-0.013579684
177	0x3cdc775c	0.026912384
178	0xbc91d518	-0.017801806
179	0x3d0d82a9	0.034548435
180	0x3ccb724a	0.02483477
181	0xbd5b54d9	-0.053547714
182	0x3b6c316e	0.0036040205
183	0xb9a9c7f3	-0.00032383166
184	0x3d448830	0.04798144
185	0x3cc4a9ad	0.024006689
186	0xbb18e263	-0.0023328296
187	0xbc2ab1f4	-0.010418404
188	0xba2c8085	-0.000658043
189	0x3c57ec3e	0.013178883
190	0x3cced0c8	0.025246039
191	0xbca616de	-0.020274576
192	0xbcba51a1	-0.022744002
193	0x3b29ff03	0.0025939352
194	0x3c42da13	0.011892813
195	0x3d220c69	0.039562616
196	0xbcb1314a	-0.021629948
197	0xbc2fc1b3	-0.010727334
198	0x3cbaad0c	0.022787593
199	0x3d5fd592	0.054647036
200	0xbc2f5857	-0.010702214
201	0x3c5daf3d	0.01353055
202	0xbc124997	-0.008928678
203	0x3d04f3d2	0.032459088
204	0xbbac9042	-0.0052662203
205	0x3d02bca9	0.0319182
206	0x3d8d8690	0.069104314
207	0xbdc64ccd	-0.09682617
208	0x3b79ecee	0.0038135606
209	0x3c6b3e73	0.014358151
210	0xbcb780ba	-0.022400249
211	0x3c0e1e33	0.008674192
212	0xbda96687	-0.08271509
213	0x38cff68d	9.916453e-05
214	0xb9b4cbf5	-0.00034484235
215	0xbc307418	-0.010769866
216	0x3d4e06e0	0.050299525
217	0x3ba410eb	0.0050068996
218	0xbc58d860	-0.013235182
219	0x3cef4cfa	0.02921151
220	0x3c99cf20	0.018775523
221	0x3d163cc7	0.036679056
222	0x3d307910	0.043084204
223	0x3c8c3153	0.017113363
224	0x3c4f8fe0	0.01266858
225	0x3c45109a	0.012027884
226	0xbccf9910	-0.02534154
227	0xbc20102d	-0.009769482
228	0xbc1942ef	-0.009354337
229	0xb997570e	-0.00028865825
230	0x3c165bac	0.00917713
231	0x3c456ec4	0.012050334
232	0xbd34a84e	-0.04410582
233	0x3d058d94	0.032605723
234	0x3d0be26a	0.034151472
235	0xbca0335b	-0.019555738
236	0xbc26313c	-0.010143574
237	0xbb8f63cd	-0.004375911
238	0xbcb12517	-0.021624131
239	0x3c7f56ca	0.015584657
240	0x3b207e5a	0.0024489374
241	0xbc929a99	-0.017895984
242	0x3ccc299e	0.024922188
243	0xbc8d70fa	-0.017265785
244	0xbd4b3388	-0.04960969
245	0x3d4533f8	0.048145264
246	0x3d34eaa8	0.0441691
247	0xbca6f064	-0.020378299
248	0x3cc8a818	0.024494216
249	0x3e159a29	0.14609589
250	0x3d1a4de2	0.03767193
251	0x3cdfb2ed	0.027306998
252	0x3afa5bfa	0.0019100897
253	0xbc812720	-0.015765727
254	0x3cece580	0.028918028
255	0xbd23c774	-0.039985135

weight f4 [64, 256]
0	0xbe135c06	-0.14390573
1	0x3d86e65c	0.06586906
2	0xbe1fcde3	-0.15605883
3	0xbde419e3	-0.1113775
4	0x3ca7fbf7	0.020505888
5	0xbdea449f	-0.1143887
6	0x3d19217a	0.03738544
7	0x3e041478	0.12898433
8	0x3b29762c	0.002585779
9	0x3ebe99e1	0.37226775
10	0xbeacbcd1	-0.33737805
11	0xbe73dc0d	-0.23814411
12	0xbe3927e5	-0.18081625
13	0xbe760e14	-0.24028808
14	0x3e29085c	0.16507095
15	0xbdb0e8a2	-0.08638121
16	0x3de341f1	0.11096562
17	0x3ee7c65a	0.45268518
18	0xbebf12ba	-0.37318975
19	0x3e62c5b6	0.22145733
20	0xbeeb4d75	-0.45957533
21	0xbdc727e1	-0.09724403
22	0xbe9e4ff6	-0.3092038
23	0x3d7e97bd	0.062156428
24	0xbd813c1e	-0.063102946
25	0xbe15f015	-0.14642365
26	0xbf326e48	-0.69699526
27	0xbe96099c	-0.29304206
28	0xbe466218	-0.19373357
29	0xbe80e61e	-0.25175565
30	0xbe98aa53	-0.29817447
31	0xbdfc5ccc	-0.12322387
32	0x3e6f5b23	0.2337461
33	0xbb848e06	-0.004045251
34	0xbd84b3e4	-0.06479624
35	0xbe04c195	-0.1296447
36	0xbd29d79a	-0.04146538
37	0xbd27b616	-0.040945135
38	0xbe7ad329	-0.24494614
39	0xbe32e070	-0.17468429
40	0x3d11eb2c	0.035624668
41	0x3eca7b36	0.39547127
42	0xbed6a1ec	-0.41920412
43	0x3d95a020	0.07305932
44	0x3e95080c	0.29107702
45	0xbbc1d579	-0.0059153405
46	0xbdedc4f5	-0.11609832
47	0x3d7875e8	0.06065932
48	0x3d70f4e3	0.058827292
49	0x3e052389	0.13001837
50	0x3e3a8bac	0.18217343
51	0x3d9acea3	0.07558944
52	0x3e92d9f0	0.28681898
53	0x3ec2dd95	0.3805968
54	0x3d8cd03c	0.06875655
55	0x3c6a263f	0.014291345
56	0x3e846664	0.25859368
57	0x3ed91cb4	0.4240471
58	0x3cea59b8	0.028607234
59	0x3dcaeaf4	0.09908095
60	0xbdf8413d	-0.12121818
61	0xbe24afdf	-0.16082714
62	0x3e391a85	0.18076523
63	0x3de757f7	0.11296075
64	0xbcfb3f8e	-0.030669954
65	0x3ea5e27f	0.32399365
66	0x3d944440	0.0723958
67	0xbf04258e	-0.51619804
68	0x3e25eaea	0.16202894
69	0x3e5af4c4	0.21382433
70	0xbca14ce5	-0.019689986
71	0x3c9359cc	0.017987154
72	0xbd9cb410	-0.07651532
73	0xbbd594f0	-0.006517999
74	0x3e9824d2	0.29715592
75	0xbdc04b95	-0.09389416
76	0x3be23c02	0.006904126
77	0x3e4486ed	0.19192095
78	0x3ce15a1d	0.02750879
79	0x3d82952e	0.0637611
80	0xbd341d78	-0.043973416
81	0x3e4d6a35	0.20060046
82	0xbe2fc65c	-0.17165512
83	0xbe0e0871	-0.13870408
84	0xbe0323ca	-0.12806621
85	0xbccc5cd9	-0.024946617
86	0xbdbf936f	-0.093542926
87	0xbb126a13	-0.0022341057
88	0x3eb4872f	0.35259387
89	0xbd55b4c9	-0.052174363
90	0xbf0ac075	-0.54199916
91	0xbdb8fb54	-0.09032312
92	0x3a32f3de	0.00068265
93	0x3e915261	0.28383163
94	0xbe353960	-0.17697668
95	0xbd0a3374	-0.033740476
96	0x3ca54921	0.020176472
97	0x3e084497	0.13307415
98	0xbe4a6abf	-0.19767283
99	0x3d393eab	0.04522578
100	0xbbca469f	-0.0061729695
101	0x3d93e93b	0.072222196
102	0x3ca7a976	0.020466547
103	0xbe02bb58	-0.12766778
104	0xbe62161d	-0.22078748
105	0xbed8d85b	-0.42352566
106	0x3f1bbe0f	0.6083688
107	0x3da6771c	0.08128187
108	0xbee84cd7	-0.45371124
109	0x3e137ef4	0.14403898
110	0xbdcd509d	-0.100251414
111	0x3de91cb0	0.11382425
112	0x3bddb5b6	0.0067660464
113	0x3e4fc147	0.20288573
114	0xbdd7de6e	-0.10540472
115	0x39f6b7e0	0.00047057774
116	0xbdf66f6a	-0.12032969
117	0xbda338e6	-0.07969837
118	0x3dcff27d	0.10153673
119	0xbdd68a0d	-0.1047555
120	0xbe7216f6	-0.23641571
121	0xbdc11bd9	-0.0942914
122	0xbe885faa	-0.26635486
123	0xbe5bb753	-0.21456651
124	0x3da54cb5	0.08071271
125	0x3da854ad	0.082192756
126	0x3c64624d	0.013939452
127	0xbf1c81d4	-0.611356
128	0x3e554a93	0.20829229
129	0x3ee52070	0.4475131
130	0xbc7e0ffc	-0.015506741
131	0x3e86b65e	0.2631101
132	0xbd6c7e84	-0.057737842
133	0xbe41027e	-0.18848607
134	0xbe95cf51	-0.29259732
135	0x3d3fc553	0.046819042
136	0x3e2637f8	0.16232288
137	0x3ec9e88a	0.39435226
138	0x3e0a2933	0.13492279
139	0xbea258ba	-0.31708318
140	0xbdf0f813	-0.117660664
141	0xbaee670f	-0.0018188673
142	0x3d01913b	0.031632643
143	0x3d9c947a	0.07645507
144	0xbe6d70c7	-0.23187552
145	0x3e5c9d41	0.21544363
146	0x3e73015b	0.23730986
147	0xbb9374cd	-0.0045000077
148	0xbd9afc06	-0.07567601
149	0x3e09368c	0.13399714
150	0x3ddafede	0.10693143
151	0xbea6461b	-0.3247536
152	0x3db56e6d	0.08858953
153	0x3d02e07d	0.03195237
154	0x3d84d5dc	0.06486103
155	0xbe1eef5b	-0.15520994
156	0xbbb98b41	-0.0056623523
157	0xbecb274a	-0.39678413
158	0xbf237690	-0.63852787
159	0xbe9651b8	-0.2935922
160	0xbe4bec3a	-0.19914332
161	0xbd82f204	-0.06393817
162	0x3d5432a3	0.051806103
163	0xbe687e6c	-0.22704476
164	0xbd79a359	-0.060946796
165	0xbe9a4013	-0.3012701
166	0x3e696631	0.22792889
167	0xbdaadc4f	-0.08342802
168	0x3dc84c9b	0.09780236
169	0x3e0fed23	0.14055304
170	0x3d43d5f3	0.04781146
171	0x3cb41425	0.021982262
172	0x3d93518d	0.07193289
173	0x3f167eb6	0.58787096
174	0x3e0964a9	0.13417305
175	0x3e42639a	0.18983307
176	0x3dd63315	0.10458962
177	0x3d38fb57	0.04516157
178	0xbe0e2c6d	-0.13884135
179	0x3d629301	0.055315975
180	0xbae1dcb6	-0.0017231915
181	0xbc8c80dd	-0.01715129
182	0x3e917a89	0.284138
183	0x3e3bfdde	0.18358561
184	0x3e1c853c	0.152852
185	0x3e2bc5ec	0.1677472
186	0x3ed26d70	0.4109912
187	0xbe88c858	-0.2671535
188	0x3ec00baf	0.37508914
189	0x3b616890	0.00343946
190	0xbe5e597f	-0.21713828
191	0xbec4467b	-0.38335022
192	0xbd46baed	-0.04851811
193	0x3c8b81dc	0.017029695
194	0x3e76c64f	0.24099086
195	0xbe1e11e0	-0.15436506
196	0xbe8eedf6	-0.27915925
197	0xbdf7a397	-0.12091749
198	0x3d507567	0.050893214
199	0xbec42884	-0.3831216
200	0xbe50c669	-0.20388187
201	0x3e1d6c1e	0.15373275
202	0xbe13655a	-0.14394131
203	0xbd804343	-0.06262829
204	0xbea9cc4c	-0.3316368
205	0xbcdfb2df	-0.027306972
206	0x3e52dc6c	0.20591897
207	0x3e309361	0.1724372
208	0xbd0c0def	-0.034192976
209	0x3e476158	0.19470727
210	0x3e2dc901	0.16971208
211	0x3c292877	0.010324589
212	0x3b95ff87	0.0045775804
213	0x3d82f675	0.06394664
214	0xbe95e9d0	-0.29279947
215	0x3e528082	0.20556834
216	0xbdbbf798	-0.09178084
217	0xbd40dcb4	-0.04708548
218	0x3c670e12	0.014102476
219	0xbc7fd198	-0.015613936
220	0x3ea2a871	0.31769136
221	0x3ce9a761	0.028522195
222	0xbe01bf68	-0.12670672
223	0xbce3dd12	-0.027815375
224	0x3cccd6be	0.02500474
225	0x3e6443b9	0.22291459
226	0x3d8723e8	0.065986454
227	0x3df0b091	0.11752427
228	0x3c86fce7	0.016478015
229	0xbe1bda20	-0.15219927
230	0x3e01cb89	0.12675299
231	0xbd3fffdb	-0.046874862
232	0x3e9de788	0.30840707
233	0x3c881f61	0.016616525
234	0xbe1edb4f	-0.15513347
235	0xbe239e37	-0.15978323
236	0xbed25971	-0.41083863
237	0x3dc50825	0.09620694
238	0x3da79eb8	0.0818457
239	0x3e3a3cf6	0.18187317
240	0xbe082a2e	-0.1329734
241	0xbf1af85c	-0.60535216
242	0xbc8be33a	-0.017076124
243	0x3cb4f66a	0.022090156
244	0xbc8af877	-0.01696418
245	0xbd26240f	-0.040561732
246	0xbe61c4d2	-0.22047737
247	0xbd34db02	-0.044154175
248	0xbd879455	-0.06620089
249	0xbe49782b	-0.19674747
250	0xbe06da88	-0.131693
251	0xbd695573	-0.056966256
252	0xbd99d067	-0.07510453
253	0x3e958645	0.29204002
254	0x3de6122b	0.11233934
255	0x3daa2c5b	0.083092414

bias f4 [64]
0	0xbd4e0e76	-0.05030676
1	0xbd1edc92	-0.03878457
2	0xbca7daa1	-0.020489993
3	0xbcc613c8	-0.024179354
4	0xbdd12c58	-0.10213536
5	0x3b7306e8	0.0037082974
6	0x3c94a4b3	0.018144941
7	0xbbbd7897	-0.0057821977
8	0xbb842dbf	-0.0040337737
9	0x3c7eb2a3	0.01554552
10	0xbc3ec822	-0.011644395
11	0xbba18bae	-0.004929981
12	0xbd4447a6	-0.04791989
13	0xbdaee0d7	-0.085389785
14	0xbd669654	-0.056295708
15	0xbd52dfe9	-0.05148307
16	0xbc645b5a	-0.013937796
17	0xb8a9a851	-8.089899e-05
18	0xbd4295b9	-0.047506068
19	0xbd3299dd	-0.043603767
20	0xbb4fe280	-0.0031720698
21	0x3d8c7af1	0.06859387
22	0xbd351c07	-0.044216182
23	0x3d2c7f05	0.042113323
24	0xbbf23adb	-0.00739227
25	0xbd17e37e	-0.037082188
26	0xbd64e99c	-0.05588685
27	0xbbba3694	-0.0056827758
28	0x3d1fd17b	0.039018136
29	0xbc1bca7b	-0.009508724
30	0x3ced20e7	0.028946353
31	0xbd9fa82d	-0.07795749
32	0xbd12598a	-0.035729922
33	0x3ba74558	0.005104702
34	0xbd18c796	-0.037299715
35	0xbc8b4b82	-0.017003778
36	0xbdc13c6c	-0.09435353
37	0x3d40d757	0.047080364
38	0x3cad3dc5	0.021147618
39	0xbc46a208	-0.012123592
40	0x3cc93146	0.024559628
41	0xbd8ffc21	-0.07030512
42	0xbca659db	-0.020306518
43	0x3c30dac6	0.010794347
44	0x3d6df38d	0.058093596
45	0xbd6eb453	-0.05827744
46	0xbd431544	-0.047627702
47	0x3c05a972	0.008158075
48	0xbd408bd2	-0.047008343
49	0xbcf916cc	-0.030406378
50	0xbc8cd69b	-0.017192176
51	0xbce2faed	-0.027707541
52	0xbd4e49fc	-0.050363526
53	0xbd02345c	-0.031788215
54	0x3d2282e1	0.039675597
55	0x3c5cc4fa	0.013474697
56	0x3c01f94c	0.007932972
57	0xbbd3b209	-0.0064604324
58	0xbc03dcda	-0.008048261
59	0x3cd30deb	0.025763473
60	0x3cc9cdda	0.02463429
61	0x3cc277a8	0.023738697
62	0xbd8fe423	-0.070259355
63	0xbd9144eb	-0.07093223

weight f4 [1, 64]
0	0xbe9394a2	-0.28824335
1	0xbe8aa5e4	-0.2707969
2	0x3e5f0534	0.21779329
3	0x3e46a20a	0.1939775
4	0xbe2e203b	-0.17004482
5	0x3e996a24	0.2996379
6	0xbe40297b	-0.18765824
7	0xbe694a71	-0.22782303
8	0x3e4253da	0.189773
9	0x3e67014d	0.2255909
10	0xbe37ca91	-0.17948367
11	0xbe5d5233	-0.21613388
12	0xbe3aab90	-0.18229508
13	0xbe5c279d	-0.21499486
14	0xbe3e2261	-0.18567802
15	0x3e9996e7	0.29997942
16	0xbe090304	-0.13380057
17	0x3e7024b6	0.23451504
18	0x3e52caf5	0.20585234
19	0x3e41a385	0.18910034
20	0x3e970df5	0.29502836
21	0x3eae34ac	0.3402456
22	0xbe9042ca	-0.28175956
23	0xbeeb6781	-0.45977405
24	0xbf0683ab	-0.5254466
25	0xbe4a2715	-0.19741471
26	0x3ec4a7d5	0.38409296
27	0x3e82ef1b	0.25573048
28	0x3e425cb1	0.18980671
29	0x3e977848	0.29583955
30	0x3eb20dc9	0.34776142
31	0xbe0c5925	-0.13705881
32	0x3e93a798	0.288388
33	0xbe41e69e	-0.1893563
34	0xbe77fd3e	-0.24217698
35	0x3e3c6154	0.18396503
36	0xbe2f5839	-0.17123498
37	0x3e4bf9be	0.19919488
38	0x3e9669ec	0.29377687
39	0xbe6b3132	-0.22967985
40	0xbe2ef30d	-0.17084904
41	0xbe1ac986	-0.15115938
42	0xbe6e8c3b	-0.23295681
43	0xbe82fa14	-0.2558142
44	0x3ec978ac	0.39349878
45	0xbe1ac019	-0.15112342
46	0x3e45f4ab	0.19331615
47	0x3e69eb17	0.22843586
48	0x3e543fb2	0.20727423
49	0xbea2eda4	-0.3182193
50	0xbea3b7b5	-0.31976095
51	0xbe41d749	-0.18929781
52	0xbe267f43	-0.16259484
53	0x3eb16fd2	0.34655625
54	0x3eb4b7fb	0.35296616
55	0xbe3dafa0	-0.18524027
56	0x3e5a67bf	0.21328638
57	0xbe54853a	-0.20753947
58	0xbe35769a	-0.17721024
59	0xbdbda128	-0.09259254
60	0x3e501730	0.20321345
61	0x3e6750d4	0.22589427
62	0xbe48ec64	-0.19621426
63	0xbe4ed6ae	-0.20199081
