test/ens_models/ens_model_2_CA.pt (torch, 654739 bytes, 6 tensors)

weight f4 [20, 10]
00000000: e611 213f 5ba8 0b3f 2e40 cb3e c582 bebd
00000010: 5f18 043e f762 6fbd b471 7d3e dc0d 63bf
00000020: 9376 ccbd 8c6b 9fbe d3c5 643f bfd7 adbe
00000030: e135 8fbe 7908 14be bfd6 78be fbdd 37bf
00000040: 56d9 9bbd 0a4f 97be 2102 9b3d 78c8 df3d
00000050: 2f8c 3e3d b779 c73e bc79 d13e 1b15 56be
00000060: 0896 babe b6fb 3ebf 6d13 acbd ea16 e6be
00000070: 7d3e ebbe 53e8 3e3f e4a9 31bf a424 20be
00000080: ba72 05bf c7e3 88be 6d34 bcbd 8c3b 353e
00000090: 1428 38bf 9bfb b4be d3f1 c9bd e480 843e
000000a0: 54bc 36bf f6ec 943e e89b 22be 7d98 3b3e
000000b0: 6941 953e 40a5 563f d274 6ebe 31a4 0c3f
000000c0: a19a 543d 5a9d 133f 76a7 933e 7eea c7bd
000000d0: 72d3 dd3c d962 923e 3808 11bf 0884 7a3f
000000e0: 0f7e 20bf 1cd0 9abe 4238 96bd 1855 a2bd
000000f0: 9ad6 af3d f429 383e 1931 c3bc 2c19 eb3e
00000100: f2f5 063f 5926 91be 4557 d43e 4743 88be
00000110: 01cf 223d 818b 23bf bd9b 01bd 22e9 f93c
00000120: f500 1bbd 5d4f 92be cf6f 7cbc 069c 0a3f
00000130: 2572 1a3d ef7c 9e3e c0ff 2dbe e677 7ebe
00000140: c1cb 7e3f 9b72 80bd 7937 f4be 5921 513f
00000150: 8c15 bd3c 8d25 be3d 2154 f03e 6d13 953e
00000160: c2d7 703e 1bf4 5d3f 0958 ea3e 8e3a 9a3d
00000170: d06b 113e 2eef b6be d7a1 f43e 0c90 6c3e
00000180: f3ae a2bf 50b5 643e 442b 4b3d da70 703e
00000190: 10f8 3dbf e011 04bf bc4a a53e 3b12 103f
000001a0: b312 10be f60b 6a3d ac26 30bf 459f a83d
000001b0: 075f 4b3f 8d2b 2fbf 4df5 103f f411 1fbf
000001c0: 9a64 813e b318 7abf 89c3 1bbe 08b0 21be
000001d0: 3225 303f bdb3 0a3f 97d2 a53e 4313 3fbe
000001e0: 5e0b 9d3f c9ff 00bf ddfe eb3d bdcb 5d3e
000001f0: 20e1 38be 30df b9be 40b7 dbbe f6c9 f83e
00000200: e797 0bbd dfd1 1a3f 6ee7 f53e ff78 9cbe
00000210: 3854 f2be b6d6 013f 31a4 e03e 2a23 b8be
00000220: 3ce8 023f ef9f 78bd 60d8 7d3f 6201 ef3e
00000230: f237 71be 4ae1 82be 1aaf 0cbc 3840 d43d
00000240: 1eb0 2bbf 94f9 273e 8964 283f 19e7 80be
00000250: aa2a 8c3f 120b 12bf 827e bbbe 0fab 013f
00000260: 767d ad3e 80a7 0e3f 5c89 31bd 74db 4dbf
00000270: cde0 633f 8407 b0be 1866 a7be 75b2 7b3e
00000280: 4ff0 443e 6466 8d3e d869 38be 40a3 ddbd
00000290: 3c09 a5be 6f6d 5abf 9b34 abbd 6fc5 023f
000002a0: 54d8 f4bd e203 aebc 1d1a be3e 0359 6e3f
000002b0: 53df c23d dee3 66be 6290 f8be 832d ec3d
000002c0: 2d63 ee3e c6ed 0f3e 31a0 c03f a23f dc3e
000002d0: 5ebd efbe a699 2abe cdb0 893f 3162 b6be
000002e0: f5ee 413f f46a 533f fecd af3e 7cde d63d
000002f0: 838a 983d 8507 e83e e6b0 3ebe 120c 9dbb
00000300: 17da 80be ac19 88bf 8230 0a3f 9937 31bf
00000310: 435c 0b3f 248b 183e 8c5b e13e c447 4abf
0.62917936 0.54553765 0.39697403 -0.09302286 0.12899922 -0.05844399 0.24750406 -0.8869302
-0.09983554 -0.3113674 0.89364356 -0.33953664 -0.27970794 -0.14456357 -0.24300669 -0.7182309
-0.07609813 -0.2955249 0.075687654 0.10926908 0.04652041 0.3896005 0.40913188 -0.20906489
-0.3644259 -0.7460283 -0.08402143 -0.44939357 -0.45946112 0.7457325 -0.6939986 -0.15638977
-0.52128184 -0.2673628 -0.09189687 0.17698497 -0.71936154 -0.3534821 -0.098605774 0.25879586
-0.71381116 0.29087037 -0.15879786 0.18319888 0.29151466 0.838459 -0.23286751 0.54938036
0.051905278 0.57661974 0.288387 -0.09761523 0.027078364 0.2859104 -0.56653166 0.97857714
-0.6269235 -0.302369 -0.07334949 -0.079263866 0.08585854 0.17984754 -0.023827123 0.45917642
0.5271903 -0.2834957 0.4147283 -0.2661383 0.039748196 -0.6388474 -0.031642664 0.030506674
-0.03784271 -0.28576174 -0.015407517 0.5414432 0.037706513 0.30954692 -0.16992092 -0.24850425
0.99529654 -0.06271859 -0.47698572 0.8169151 0.023081563 0.09284506 0.46939185 0.29116383
0.23519805 0.867006 0.4577029 0.075307 0.14201283 -0.35729355 0.47779724 0.23101825
-1.270964 0.2233479 0.04960181 0.2348055 -0.7420664 -0.51589775 0.3228358 0.5627782
-0.14069633 0.057140313 -0.6880901 0.08233503 0.79441875 -0.6842583 0.566243 -0.6213677
0.25272065 -0.9769394 -0.1521131 -0.15789807 0.68806756 0.5418051 0.3238723 -0.18659692
1.2269094 -0.503903 0.11523221 0.21659751 -0.18054628 -0.3630309 -0.42913246 0.48591584
-0.034080412 0.6047649 0.4802813 -0.30561063 -0.4732988 0.5071825 0.43875268 -0.35964328
0.5113561 -0.0606994 0.9915829 0.46680743 -0.23556498 -0.25562507 -0.008586669 0.10363811
-0.6706561 0.164038 0.65778404 -0.25176314 1.095052 -0.5704814 -0.36619955 0.5065164
0.33884782 0.55724335 -0.043343887 -0.80412984 0.89014894 -0.34380734 -0.3269508 0.24579795
0.19232295 0.2761718 -0.18009126 -0.10822153 -0.32233608 -0.8532323 -0.08359643 0.5108251
-0.11955324 -0.021242086 0.37129298 0.9310457 0.09515252 -0.22547862 -0.48547655 0.11532118
0.4656004 0.14055547 1.5048887 0.43017298 -0.46824163 -0.16660175 1.075708 -0.3562179
0.75755244 0.8258507 0.34336847 0.10491654 0.07448294 0.45318237 -0.18622169 -0.0047926987
-0.2516639 -1.0632834 0.5398027 -0.6922546 0.54437655 0.14896828 0.44015157 -0.79015756

weight f4 [256, 570]
00000000: e006 163d 434f a03c a4fb a73c 0179 03bd
00000010: 54e8 943c 1c87 043d 14cf 5bbd 5a13 22bd
00000020: d81e a6bc 36a5 fb3d 4ea1 4cbd b75f c4bc
00000030: 2ef6 f03c 60ee 1d3e 1c69 3b3e f28c 913e
00000040: d30f 31be 3c37 13bd cf5a 123d cccb 313b
00000050: db4d ad39 111e 223d 2912 4cbd ed84 a63d
00000060: 0dc2 a3bd 1f79 e83d f34e a3bd cd93 fa3d
00000070: fc5f 513d 1a0b 80be 8b7d 85be 8dba 1a3e
00000080: f82d 0dbe dee2 e73a aa29 323d c7be 983b
00000090: 28e2 58bd 37b0 0dbc 1378 573c 7fc7 003d
000000a0: 3437 fbbd 7d58 fa3c 49b3 34bf 0a41 433e
000000b0: 7176 f43e 74b8 403f 3453 883e 7c7c e63e
000000c0: 4bc2 b639 00a6 ce3a 9bda b8bc e73f ffbd
000000d0: c6e6 6abe b2c0 183c e138 bb3c 16bb 12bd
000000e0: e739 8dbd dd9a 973e 7985 8dbc 1128 653e
000000f0: 70e8 20bd 1270 a13e 4b40 0d3f c6a4 553f
00000100: 9430 4f3b 4a83 453b 21a0 0e3b 5292 80bb
00000110: 25b8 c4bc 6fe3 3e3f 227a 863e cae3 fcbd
00000120: e88e 763d d4bd be3f 9cb6 bf3f c92e 8ebf
00000130: c54c d33f a08f b53e b548 1ac0 618a 0bc0
00000140: a5af 92bd 4f62 4a3c f8dc 25bd 1cf0 51bd
00000150: 4afa fbbd 72a2 13be b42b dfbc 468a 6b3e
00000160: 3b3b c9be 8995 0fbc ca61 6ebd 2988 1b3d
00000170: 7412 22be c3c3 afbd 340d b1bc fb6d d3bd
00000180: 585a 2cbd 0a2d 34bd 80a8 a53b 2a2a f63c
00000190: eb61 7dbd f87a 103c c9e3 86bd 7c3b 833b
000001a0: 928b 9abd 8160 06bd 130e 163e 9283 25be
000001b0: 2f11 db3e bdd9 04be a594 833e bc17 9a3e
000001c0: 857d 5d3f 9a3f 5cbd 483b e73c 6d1a a03b
000001d0: f6fa f03d 83fb 8bbd c24f 4f3d 07de 753d
000001e0: f183 5dbd 1b30 6abc 02c9 433d 4abf 17bd
000001f0: 1e3c 33bc 622e 04bd 9d4b d6bb e005 1e3e
00000200: b901 d4bc edd1 883c 71a0 b0bd d211 4dbd
00000210: 90f4 58bb bacb 333d df39 9dbd 0774 b63c
00000220: 248d 81bc 8b06 333e 26ca af3d fbd0 b2bd
00000230: 937f 153e a915 fc3e 0724 803e f06f 44be
00000240: dccf 0cbe ccf6 85bd bbf0 1abd c2ab 0e3e
00000250: 68bc f9bc 769a 22bc 1e64 11bb 36bd 503e
00000260: 109a 3b3b 78d0 92bd 9302 b13c 4981 733d
00000270: 7a11 68bd e4d5 c6bd c058 4d3d 35f8 c93d
00000280: 4023 46bd c112 983d 897e d5bc 1f08 40ba
00000290: 1fa3 e4bd 7c41 0d3d a559 8a3c 4b38 3fbd
000002a0: c0a4 453d c4a1 2bbd 8b42 a03d 26c4 3bbe
000002b0: 14d4 68be a846 50bf 3032 43bb bf9e 533f
000002c0: a403 c93c 3ba4 be3e c29f 78bd 6201 f7be
000002d0: 1648 ae3e 97df 6e3e a69e c33d f0b9 d2be
000002e0: 32b4 54bd b6d9 b6bc a856 003e 37d5 bcbd
000002f0: e781 c63b 920b a4bd 7693 383c 406e b0bd
00000300: f928 fe3d bb9a 1b3d 255e d0bd 13a6 dfbc
00000310: 38e7 0cbe 29b9 823d f3a6 96bd 57c2 763d
00000320: 3342 9bbe 4d53 2c3c 2cbe d73d 0e30 04be
00000330: 0d15 c43e 2eb6 ff3e dfc6 ef3d 7508 20bf
00000340: e9d6 a03b 0a99 2b3c e05b eb3c 29ab b6bc
00000350: 0aa2 493e a8ab 223e 2dad ee3d cdb8 04bd
00000360: ca6b 443f 55b8 93be 7901 b43e aa34 663b
00000370: b27e 8f3f a2dc dabe 2c22 9f3e 5df2 a9bd
00000380: 2dc1 253f 3d48 85be 54b3 a13e 3bcd 15be
00000390: 0e47 603e a0bd a03d c604 403e d01d c53e
000003a0: 02f9 403f 0440 253f 124b 83be 00c0 48bd
000003b0: dcc6 fdbe 0d30 283f e11b 5abf 7f6b 31bf
000003c0: bd0b 863c 7c0a 96bd 38fc 9cbc 4050 763e
000003d0: 6dba 0f3a d9c4 87bb f4e3 ddbc 4683 2c3e
000003e0: 868f 88bd ac3b 943d 9bc0 863c 3673 d93d
000003f0: 85f7 26bd 01c0 29bd 8999 823d 2aca db3c
0.03662765 0.019569045 0.020505734 -0.03209782 0.018177189 0.032355413 -0.053664282 -0.039569236
-0.02027838 0.12287371 -0.04995852 -0.023971422 0.029414263 0.15422964 0.18301815 0.28427845
-0.17291193 -0.035941347 0.035731133 0.002712953 0.00033055138 0.039579455 -0.049822006 0.08130822
-0.079959966 0.11351227 -0.07974043 0.12235222 0.05111693 -0.2500847 -0.26072344 0.15110226
-0.13787067 0.0017691513 0.043496765 0.0046614143 -0.052950054 -0.00864797 0.0131511865 0.031440254
-0.122663885 0.030559773 -0.7058607 0.19067779 0.47746614 0.75281453 0.2662598 0.4501685
0.00034858505 0.0015766025 -0.022565177 -0.1246336 -0.22939596 0.009323286 0.02285427 -0.03582295
-0.068958096 0.2961034 -0.017275559 0.22378565 -0.03928417 0.31530815 0.5517623 0.8345455
0.0031614648 0.0030138069 0.0021762925 -0.0039236927 -0.024013588 0.74565786 0.26265055 -0.12348135
0.06019488 1.4901681 1.4977603 -1.1108028 1.6507803 0.3546114 -2.4106877 -2.180321
-0.07162408 0.01235254 -0.040493935 -0.051254377 -0.12303598 -0.14417437 -0.027242519 0.23001966
-0.39303002 -0.008763679 -0.058198728 0.03797165 -0.15827352 -0.085822605 -0.021612741 -0.103237115
-0.042078346 -0.043988265 0.005055487 0.030049402 -0.06186096 0.008818381 -0.06586415 0.004004894
-0.07546152 -0.032806877 0.14653806 -0.16163471 0.42786548 -0.12973686 0.25699344 0.30096233
0.8651965 -0.053771593 0.02822651 0.0048859627 0.11766617 -0.068350814 0.050613172 0.060026195
-0.054080907 -0.014293696 0.047799118 -0.03704766 -0.010939626 -0.032270797 -0.0065397755 0.15431929
-0.025879728 0.016701663 -0.08624352 -0.050065823 -0.0033104755 0.04389546 -0.07677054 0.022272123
-0.015814371 0.17482965 0.08583479 -0.08731266 0.14599447 0.49235275 0.25027487 -0.19183326
-0.13751167 -0.065412134 -0.037827235 0.13932708 -0.030485347 -0.009924522 -0.0022184919 0.20384678
0.0028625764 -0.071686685 0.021607673 0.059449468 -0.056657292 -0.09708765 0.050133467 0.09861795
-0.04837346 0.07425452 -0.026061313 -0.0007325429 -0.111639254 0.03448628 0.016888449 -0.046684545
0.04825282 -0.04190232 0.07825192 -0.18336543 -0.22737151 -0.8135781 -0.0029784553 0.826641
0.024537869 0.37234673 -0.060699232 -0.48243243 0.34039372 0.2332748 0.09551744 -0.41157484
-0.05192966 -0.02232061 0.12533057 -0.09220355 0.006057966 -0.08010019 0.011265626 -0.086147785
0.12410159 0.03798936 -0.10174207 -0.02730087 -0.13760078 0.06382973 -0.07356062 0.06024393
-0.30323943 0.010517907 0.10534319 -0.12908956 0.3829731 0.4994368 0.117078535 -0.62512904
0.004908432 0.010473499 0.028730333 -0.022298412 0.19690719 0.15885794 0.116541244 -0.032402802
0.76726973 -0.28851572 0.35157374 0.0035126605 1.1210539 -0.42746454 0.3108076 -0.0829818
0.6474789 -0.26031676 0.3158213 -0.1462907 0.21902105 0.07848668 0.18751821 0.38499308
0.75379956 0.64550805 -0.25643212 -0.04901123 -0.4956578 0.6569832 -0.8519879 -0.6930465
0.01636302 -0.073262185 -0.019163236 0.2405405 0.00054827967 -0.004143339 -0.027086236 0.16846952
-0.06668 0.07237944 0.016449263 0.10617678 -0.040763397 -0.041442875 0.06376941 0.026829798

bias f4 [256]
00000000: 276d a93c 5484 293c 6f14 cfbb cb77 bebc
00000010: 41b4 4ebd e22b b23c ae43 a2bc 3114 4abc
00000020: 830a 923c beda 95bc e606 32bd 78b7 d63c
00000030: b13e f33c 7ef1 f53b 3f4e 553d 3a5e 773d
00000040: f09b 2cbb fa60 123d 186a 2d3d f035 01bb
00000050: 53b4 a2bc 96b8 71b9 8047 373c 016c 693d
00000060: bfde ef3c e236 70ba 9af5 ae3c a8f4 d33c
00000070: a441 2c3c f413 843c 8507 453c d15b 06bd
00000080: 4ac9 9dbc 5de6 753a d146 88bc e611 0ebd
00000090: 03ea 99b9 c2c8 843b acf2 c2bb fa41 9fbc
000000a0: 5a35 523c 31b7 933c af1f c03c d22b 10bd
000000b0: b107 a0bc 863c 7dbc e46f 2dbc 96db 11bb
000000c0: 34f8 cc39 89cd e0bc 5abb 98bc 57fe b4bb
000000d0: f31c 4f3d d40a b0bc 12c3 08bd 4409 ea3c
000000e0: 3059 073d 8917 3f3d 1d9a ffbc eeb7 0b3c
000000f0: 3a85 3d3d 2924 46bb 205d a33b d312 fd3c
00000100: 355d 8fbb a3ce fdbc 41f3 5abd ecb0 eabb
00000110: 6426 0c3d bd15 e13c fe83 f3bc f129 453a
00000120: 7e61 143b 7c2d 3cbd 00cd 4e39 c127 edbc
00000130: 29d0 f53c 5b9c d9bb 529e dc3b 6ef8 83bc
00000140: bb8b 4fbc 4135 c13c 531a a63c 2df3 b4bc
00000150: 8eda f2bc be2c 87bb ced3 a13c 0720 0e3b
00000160: a61a a2bc 9b7a 183c 814e a8bc 458c 0ab8
00000170: fbdb 613d 81b9 d9bc e741 35bc 0f32 dd3b
00000180: 4fde a73b ed81 c93c 0be0 5e3d 7e21 04bc
00000190: d258 353c b356 e23b 8e4f 073c 234d a7bc
000001a0: 8945 84bc 0e71 073b c06f c73c 10e4 a2bc
000001b0: b5bb ab3c 05b8 fbbb 0d19 1e3d 8454 2e3d
000001c0: dffb 523d 8aa0 debc cba7 df3c 7ae0 e3bb
000001d0: 5926 45bd c032 c1bc cd90 50bc c8c3 203b
000001e0: a88b e03c d915 14bc 5197 053c fa8d af3c
000001f0: 0c65 babc ad78 8abb d0bc 753c f291 2fbd
00000200: d293 3f3c 00b8 2cba 82bb 0cbc 7acf f93c
00000210: b7c7 243b 6fd8 453d 6947 e8bb 4049 17bb
00000220: 67af f53c bc5b 32bd afd3 34bc cccc 12bd
00000230: ed15 b5bc 7441 973c 8077 fa3b a276 c23c
00000240: 1f0a 6a3c 2d36 a93c 42ca d63c 8e07 4b3c
00000250: a216 07bc 2a35 a2bc 3948 2bbb 3225 d0bc
00000260: 3cf0 02bd 0c22 383d 54cd 873c 709e 59bd
00000270: 035b e7bb 5b4c 653c c45f 21bd e9b6 25bd
00000280: 4af5 52bb 57af 453c 5e35 8aba 45e6 eabc
00000290: c0e8 3a3d 28d7 a73a a143 183c 6fad d5bc
000002a0: bed1 093d e4a2 4b3d 4544 473d 6f25 bcbd
000002b0: 77f5 15bc 6e70 b6bc f1d5 1a3d f8e3 c93b
000002c0: de10 0ebd 6441 d3bb 29ce ed3c 6061 16bd
000002d0: 8f69 c6bc b988 043a 70be 5d3d 66e7 7bbc
000002e0: c3fb c83c f1c0 b6bc 8540 293c 811a 5f3c
000002f0: 2b57 61bb 103f 57bd 1978 28bb f179 793d
00000300: 969e 8e3c b30b 973b c758 8abc 6639 053c
00000310: f24a d63a e380 af3b 5687 c4bb dd76 983c
00000320: e375 cfbc 933b 193d bc36 b3bc fecd 87ba
00000330: f33a c23c 4e9b aebc 02d4 f43c 6843 0d3d
00000340: a872 363d e3a9 bfba 8975 83bd ccfc 6a3c
00000350: cbec 763b ea98 cdbc 8ec0 683d 4e3b 11bd
00000360: cb9d a43b 41e3 0a3c 8957 1cbd a1be 1e3c
00000370: e6db 3a3c 015b 2a3c 27c1 a8bc 9255 ab3c
00000380: 5def eb3c 58bf d8bc 93f5 383d 2520 453a
00000390: 9102 e93c 7399 263d 67db 18bd 71e7 173b
000003a0: c910 01bd 45a1 853d d110 d3bb 53e0 a1bc
000003b0: a9e2 62bc 4feb 05bd b97d 023d 0752 31bc
000003c0: 09e6 393d f034 91bc 7942 e7bc 4bf3 03bc
000003d0: 3b71 b3bb 14d2 c9bc 06cb 253c 5566 ebbb
000003e0: 13b9 bbbc c7f6 3d3c 4b68 c6bc ee45 01bc
000003f0: 84cb 373b 00f5 333d a175 9abc 181c 99bc
0.02068193 0.010346491 -0.0063195745 -0.023250481 -0.050464872 0.02174944 -0.019807663 -0.012333916
0.017827278 -0.018292781 -0.04346361 0.026210532 0.02969298 0.0075055948 0.052076574 0.060392596
-0.0026338063 0.035737015 0.042337507 -0.0019715987 -0.019861376 -0.00023052315 0.0111864805 0.056987766
0.029281018 -0.00091634516 0.021357346 0.025873497 0.010513697 0.016122796 0.012025719 -0.032802407
-0.019261021 0.0009380335 -0.01663533 -0.034685038 -0.00029356786 0.0040522525 -0.005949339 -0.01944064
0.012830103 0.018031688 0.023452608 -0.03519804 -0.019534918 -0.015456324 -0.010585759 -0.0022256128
0.00039094838 -0.027441757 -0.018644024 -0.0055234837 0.050564718 -0.021489538 -0.03338916 0.028568871
0.03304404 0.046653304 -0.031201417 0.008527739 0.046269633 -0.0030233955 0.0049854666 0.030892765
-0.004375125 -0.030982321 -0.05345464 -0.007162204 0.0342163 0.027476186 -0.029726025 0.00075212034
0.0022641118 -0.045941815 0.0001972206 -0.02894962 0.030006485 -0.0066409535 0.0067327404 -0.016109671
-0.012667592 0.023584964 0.020276224 -0.022088611 -0.02964523 -0.0041252067 0.019754317 0.002168657
-0.019788098 0.009306575 -0.020545246 -3.30324e-05 0.05514143 -0.026577713 -0.011063076 0.006750352
0.005122937 0.024598086 0.054412883 -0.008064626 0.01106854 0.006907308 0.008258713 -0.020422524
-0.016146438 0.002066675 0.024345279 -0.01988414 0.02096353 -0.007681849 0.03859811 0.04256107
0.051509734 -0.02717616 0.02730169 -0.00695425 -0.048132274 -0.02358377 -0.012729836 0.0024530757
0.027410343 -0.009038412 0.008153752 0.021430004 -0.022753261 -0.0042258115 0.01499863 -0.042863794
0.011692958 -0.00065886974 -0.008589627 0.03049444 0.0025143453 0.04830211 -0.007088591 -0.0023084432
0.029990865 -0.043544516 -0.011036797 -0.03583984 -0.022105182 0.018463828 0.00764364 0.02373821
0.01428464 0.020655716 0.02621949 0.012391938 -0.008245142 -0.019800741 -0.0026135577 -0.025408361
-0.031967387 0.044954345 0.0165774 -0.053129613 -0.00706041 0.013995255 -0.03939797 -0.04045764
-0.003218966 0.01206573 -0.0010544469 -0.028674254 0.045632124 0.001280521 0.009293468 -0.026083676
0.03364729 0.04971589 0.04864909 -0.091868274 -0.009152762 -0.022270408 0.037801687 0.006161209
-0.034684055 -0.006447004 0.029028969 -0.036713958 -0.024220256 0.00050557737 0.054136693 -0.015374994
0.024534112 -0.022308799 0.010330324 0.013617159 -0.0034384232 -0.052550375 -0.002570635 0.060907308
0.017409604 0.004609549 -0.016888035 0.008131361 0.001634924 0.0053559407 -0.0059975786 0.018611366
-0.025324767 0.03741033 -0.021876685 -0.0010361073 0.02370975 -0.02131429 0.02988625 0.03448811
0.04454294 -0.0014622774 -0.064189024 0.014342498 0.003767776 -0.02509733 0.05682426 -0.035456948
0.005023693 0.008477033 -0.038169418 0.009689004 0.011404967 0.010397674 -0.020599915 0.020914827
0.02880066 -0.026458427 0.045156073 0.00075197435 0.028443607 0.040673684 -0.037318613 0.0023178721
-0.03151015 0.065249 -0.0064412137 -0.019760286 -0.013847985 -0.03269511 0.03185818 -0.0108227795
0.045385394 -0.017725438 -0.028229939 -0.008053611 -0.0054761446 -0.024636306 0.010119205 -0.00718383
-0.022915399 0.011594481 -0.024219653 -0.007890208 0.0028044889 0.043934822 -0.018854918 -0.018690154

weight f4 [64, 256]
00000000: 570d b93e 9d8d ec3d fa30 473d 2138 5fbb
00000010: 8808 993e 2fdf 463d b696 23be 5cb8 f63e
00000020: 8537 ee3d facf c63d 023b 0abe 57d4 3f3e
00000030: d574 5dbd d737 8c3e 9f26 c8bd 5e97 a0be
00000040: 8728 193e 060e 4bbd 6680 b8bd 4216 88be
00000050: fa76 09be 7ddd 11bd 0d0f 993d b345 0abe
00000060: fbdf 15be fbea bd3e 39af ebbd dce0 2abd
00000070: 3cc5 84be a178 833e 05d0 debd 3818 af3d
00000080: 37a3 b23e c074 93be 9a8d 9c3e bf4f 203d
00000090: 1743 a03d 7a75 61be debc dd3e 78ff 1abd
000000a0: 6cf3 d33d 2983 e0bd 95ab 15be 8d90 ad3c
000000b0: ee06 433f 4277 c83d a096 633e 752b c2bb
000000c0: 30c1 0abd 15c0 bb3d 568f 893d ab6b 313d
000000d0: baa5 33bc 088f 183d 0d87 7c3c 6698 3bbc
000000e0: 9ebf 03be 83a0 48bc 04d8 fa3d 4213 0c3d
000000f0: 0869 5bbe 933f 9abe c8a9 9ebd c481 29bd
00000100: 8be3 85be 98d4 913d 8899 15be 61de e9bd
00000110: ab76 acbd 1f07 503b 98b1 7aba b681 f53d
00000120: b55c 573d b407 253e ebc4 20bd d718 823d
00000130: e7ba 5ebd 71ca f1bd 8d7b 813e 5df4 973d
00000140: 61e2 113d 47b3 abbe 4194 95bd 0aee 073f
00000150: 6f58 be3d 23ce b43e d06d 1cbe a429 bfbc
00000160: 3a08 5b3d 6b01 5fbc cbe7 92bd c47b babd
00000170: 2960 a5be 4af9 d43e 5010 603b f8a0 023d
00000180: 30f3 4c3c f1fb de3c 69a3 0a3e c7ec 303e
00000190: 3b09 ffbe 445a 03be 674b 88bc 8ef1 0f3f
000001a0: b3b2 bb3e 1d5c 7d3d 2eb0 833d 4f5a ccbc
000001b0: e078 e83c 215f 0bbe 9134 9dbd de9d 40bd
000001c0: 04f0 dcbd e2de ae3e 8976 0bbd 49f9 05bc
000001d0: 63f9 073f 0b9b 9e3c 3882 d7bd 7d17 a03e
000001e0: c1b4 8a3e 51b8 3f3e 4072 80be a2cc 023e
000001f0: 8ba5 623d dcdd c6bd 0b9e be3d 2b6a 483e
00000200: 6f35 8dbe 3873 81bd 276e a43e 742b 553b
00000210: 8563 c63d c550 b6be 7655 c93d 7be0 1bbe
00000220: 0a13 6a3d 316b 9e3e 1d74 a1be c3bf 803d
00000230: 7be9 d43d 74b5 e0bd 7b97 c5be 2360 893d
00000240: 00f9 99bd bb4d cabc c114 eb3d fe11 1cbd
00000250: a4ec d1bc 1b15 0dbc 6f1d e83e 31ea 913d
00000260: 6b83 583e 1e7e bd3d 6706 a03e c5b4 7d3e
00000270: c29a 00bd 5e14 b4be 3e60 c5bc 405b 093d
00000280: eabe f5be 9255 3e3c 2a65 873e 3282 83be
00000290: e3eb 263c 7475 a1bb 99b0 913e 5f3a ba3e
000002a0: 1c2c 893e e0b1 b1be 9d3a b6be c6e2 56be
000002b0: 860b 99be 8948 fdbd 0c83 2f3e b315 d43d
000002c0: e498 cbbd 3264 423e 160c 91bd fca9 46bd
000002d0: 3b12 e9bc 5735 7fbe b3e8 2c3e 7ad3 c63d
000002e0: 0eaf 0e3b 0365 d7bd fe20 05be b44e 893b
000002f0: fb3b c93d e4da 0b3d be77 cf3c 73f0 7e3c
00000300: 3a45 58bd 593a 9c3d 472e 35bc b67b 56be
00000310: 1db5 debd c9e9 56bb 6ce4 0cbe bc99 92bd
00000320: b67f d43b 0255 5e3e c8f5 5e3e 0863 fd3e
00000330: f620 f3bd fa4b 8bbd d930 a93c 667d 523e
00000340: 4b2b babd c66c 21be 8e2e 2f3d 866a c73e
00000350: e537 4bbc cf79 57bd e79c 093e aa59 88bd
00000360: 2ded 4a3e d709 c83d acce 10be 1e28 71be
00000370: 3c94 1a3d 7b93 883e cc2b 93bd 14f1 7c3b
00000380: cffb 853c 1a82 a73c 63ec 373e 129d cf3d
00000390: a2e8 743d 1b62 07be c928 b23d 8395 6b3d
000003a0: e44c c0be ac9b c6bd 73ac 3c3e bfdf 46bd
000003b0: 8aed 3e3e 36f2 363e 871f 92bd 7580 2c3d
000003c0: 9533 e8be 42c5 903d 141c d93d 1b37 a8bc
000003d0: 6445 fe3d 2953 cf3e e1fc 58bd 81f9 9e3c
000003e0: c207 b9be d68a bd3c 22ef 89bd 26c7 f43b
000003f0: 278c fc3d fc0b 4fbb 3ed7 353e e66b 8fbd
0.3614299 0.11550448 0.048630692 -0.0034060555 0.2988932 0.04855269 -0.1597546 0.4818753
0.11631683 0.09707637 -0.13499072 0.18733345 -0.054066498 0.27386352 -0.097729914 -0.31365484
0.14956866 -0.04957392 -0.09008865 -0.2657948 -0.13424292 -0.03561162 0.07473574 -0.1350315
-0.14636223 0.37093338 -0.115080304 -0.04171835 -0.25931728 0.2567797 -0.1087952 0.08549541
0.34890148 -0.2880001 0.30576783 0.03913855 0.07825296 -0.2201747 0.43308157 -0.03784129
0.103491634 -0.10962517 -0.14616235 0.021187091 0.7618245 0.097883716 0.22225428 -0.0059255906
-0.033875644 0.09167496 0.06716792 0.04331557 -0.010964805 0.03724578 0.015413058 -0.011449909
-0.12866065 -0.0122453 0.12248233 0.034198053 -0.21426785 -0.30126628 -0.07747227 -0.04138352
-0.26150164 0.07120627 -0.14609349 -0.114193685 -0.084210716 0.0031742526 -0.00095632067 0.11987631
0.052578647 0.1611622 -0.039250296 0.06352394 -0.054377463 -0.11806191 0.25289574 0.074196555
0.035616282 -0.33535215 -0.07303668 0.53097594 0.09294211 0.3531352 -0.15276265 -0.023335285
0.053474642 -0.013611178 -0.07173117 -0.09105638 -0.32299927 0.41596442 0.003418941 0.031891793
0.012509152 0.027219744 0.13538899 0.17277823 -0.4981173 -0.12827402 -0.016637517 0.5622796
0.36659774 0.061855424 0.06430088 -0.024945406 0.02837795 -0.13610508 -0.07676042 -0.047025554
-0.10787967 0.3415442 -0.03404859 -0.00817711 0.5311491 0.01936104 -0.10522884 0.3126792
0.2709103 0.18722655 -0.25087166 0.12773374 0.055333655 -0.09710285 0.09307488 0.1957175
-0.2757983 -0.06320804 0.3211529 0.003252712 0.096869506 -0.35608497 0.098307535 -0.15222351
0.057147063 0.30941156 -0.315339 0.06286576 0.10396095 -0.109721094 -0.38592133 0.0670779
-0.07518196 -0.024695268 0.11478568 -0.038103096 -0.025625534 -0.008610989 0.45334956 0.071247466
0.21143882 0.092525706 0.31254885 0.2477599 -0.03139759 -0.3517179 -0.024093743 0.03353429
-0.47997218 0.011617081 0.2644437 -0.2568527 0.010188076 -0.0049273316 0.28455046 0.3637266
0.26791465 -0.3470602 -0.35591593 -0.20984945 -0.29891604 -0.123673506 0.17139834 0.10355701
-0.09941271 0.18983534 -0.07082383 -0.048501953 -0.028451076 -0.24922691 0.16885643 0.09708305
0.0021771821 -0.10517313 -0.13000867 0.0041902903 0.098258935 0.034144297 0.025325652 0.015560257
-0.052800395 0.076283164 -0.011058397 -0.2094563 -0.10874388 -0.0032793155 -0.13759011 -0.07158229
0.006484951 0.21712115 0.21773446 0.49489617 -0.11871521 -0.06801601 0.020653175 0.20555648
-0.09090289 -0.1576415 0.042769007 0.38948458 -0.012403463 -0.0526064 0.1343876 -0.06657727
0.19817038 0.09767502 -0.14141339 -0.2355046 0.037739024 0.2667502 -0.07186088 0.0038595842
0.016355423 0.02044778 0.17961268 0.10137381 0.05979217 -0.13221018 0.086991854 0.057515632
-0.37558663 -0.09697661 0.18425159 -0.048553225 0.18645301 0.17865834 -0.071349196 0.042114694
-0.45351854 0.07068874 0.106010586 -0.020534089 0.12415579 0.40493134 -0.05297554 0.019406082
-0.3613873 0.023137491 -0.06735064 0.0074700294 0.123314194 -0.0031592837 0.1775789 -0.07003002

bias f4 [64]
00000000: adc0 1fbd 74e2 933b 1fbb 22bd 49bd 84ba
00000010: 2c5f d53b cf15 92bc c955 513c c1b8 913b
00000020: 6319 7439 451a fa3c 25c7 47bd 8a08 be3b
00000030: 2000 cbbc 3e3e d73c 3dcd e93a 9090 bdbc
00000040: b3f3 f7bc a8ea 1b3d cc9c 283d 53cf 4cbd
00000050: c259 c93c 6aeb 89bd da8b 173d c9dc 22bd
00000060: de9d d83c 0125 aebd 986b 173c 3b3d 58bd
00000070: d82a d8bd e5e2 47bd 940b bdbc 38e7 c6bc
00000080: 6c2a 64bd 0ed5 b2bc f097 da3c 6344 2cbd
00000090: 20f9 40bd 98e0 c83b b6d1 ddbb d3af 01bd
000000a0: f561 ccbc 3863 233d fbaa f13c 4c67 74bd
000000b0: 1b2d 6fbd 26dc 94bd d049 df3b e149 fa3b
000000c0: b1b9 69bb 43b9 a6bc 9a57 6bbd e6ea a4ba
000000d0: 99de b1bc bf07 e03c 5232 12bd 834b 3dbc
000000e0: 0c6e 863d 4ecd 4c3c 3c02 833c 9512 723c
000000f0: aa52 753d b0f0 9dbd 41df c9bd 3513 a63c
-0.03900211 0.0045130793 -0.039729234 -0.0010127212 0.0065115895 -0.017832665 0.0127768 0.004447073
0.0002327911 0.030530104 -0.048773903 0.005799358 -0.024780333 0.026274797 0.0017837655 -0.023140222
-0.030267572 0.038065583 0.04116516 -0.050002407 0.024578933 -0.06734355 0.036998607 -0.03976134
0.026442464 -0.08503152 0.009241961 -0.05279277 -0.10555047 -0.048800368 -0.02307681 -0.024280176
-0.05570452 -0.021830108 0.026683778 -0.042057406 -0.047112584 0.0061302893 -0.0067693843 -0.03166182
-0.024949053 0.039889544 0.029500475 -0.059668824 -0.058392625 -0.072685525 0.006814219 0.0076382016
-0.003566366 -0.020352012 -0.05745659 -0.0012582212 -0.021712588 0.027347444 -0.03569252 -0.011553648
0.065639585 0.01250012 0.015992276 0.014774938 0.059893288 -0.07711923 -0.098570354 0.02027283

weight f4 [1, 64]
00000000: 6978 5cbe 0cc2 533e b75d 48be 298b 423e
00000010: 0b34 96be d499 9c3e d446 c0be fc6a 543e
00000020: 62af 763e 2507 6f3e 06c9 483e abc2 88be
00000030: d252 82be c47c 423e fee1 3b3e bc26 85be
00000040: f82a 64be faeb fab7 eab2 3bbe f017 32be
00000050: c54f 883e b914 8e3e 6257 993e 0db4 0ebe
00000060: 26d9 953e b6fb 7ebe 4c03 34be 96bb 4b3e
00000070: bf85 883e 18af 343e 0793 8f3e 9d02 8cbe
00000080: 6be7 643e 0f3f a63d 6b07 72be 7a09 3bbe
00000090: f668 453e e54d 963e ba4e 2a3e 4f8a 3a3e
000000a0: a22b 693e d77c 40be 61f2 32be 9b23 2f3e
000000b0: 19b4 623e 0851 8d3e b75d 3e3e 43ae 873e
000000c0: f232 8fbe 2c6e 84be a0bd 7abe 8477 793e
000000d0: 2c76 7c3e 85d3 f43d 099a 56be 1e00 8bbe
000000e0: 7905 4cbe 1988 713e 350d 50be eeb8 513e
000000f0: 9214 57be 7d78 8abe 8d1b 3a3e 926e 68be
-0.21530308 0.20679492 -0.19567 0.18998398 -0.2933658 0.30586112 -0.37554038 0.20743936
0.2409034 0.23342569 0.19607934 -0.2671102 -0.25453812 0.18992907 0.18347928 -0.26006114
-0.22282016 -2.9912208e-05 -0.18329969 -0.17391944 0.2662336 0.27750185 0.2994948 -0.13935871
0.29267234 -0.24900708 -0.17579383 0.19895777 0.2666454 0.17644918 0.2804186 -0.27345744
0.22353904 0.08117496 -0.23635642 -0.18265334 0.1927832 0.29356304 0.16631594 0.18216823
0.22770551 -0.18797623 -0.17475273 0.17103426 0.22139014 0.27600884 0.18590437 0.2650014
-0.27968556 -0.25865304 -0.24486399 0.24361998 0.24654454 0.11954407 -0.20957197 -0.27148527
-0.19923963 0.23587073 -0.20317538 0.20480701 -0.2100394 -0.2704505 0.18174572 -0.22698429
