test/ens_models/ens_model_3_HA.pt (torch, 654481 bytes, 6 tensors)

layer0.weight f4 [20, 10]
-0.48482057 1.01273 -0.35560986 0.12541722 0.44394225 0.8443981 0.65874195 -0.32182977
0.730112 0.51399416 -0.15469798 -0.2515911 -0.95371175 -0.575772 0.024760185 0.5333443
0.7631753 -0.2688795 -0.5995276 -0.7141114 0.7223525 -0.11363044 -0.38037148 0.5993871
0.6501143 0.09881716 0.6598045 0.48621678 -0.053653274 -0.055864926 -0.20333989 0.015520448
-1.1948236 0.74924207 0.88375926 0.36414695 -0.3789675 -0.64148206 -0.29055744 -0.07734789
0.1705353 0.52099633 1.4361743 -0.2992394 -0.32302365 -0.4028886 0.009624363 -0.24730486
0.3753039 0.41530263 0.010428231 -0.5109888 -0.8398333 0.7224777 -0.80228215 -0.27452582
-0.7690501 -0.27025717 0.50614566 0.26307863 -0.234894 0.27342913 0.033008862 0.58375305
-0.6665731 -0.4165506 -0.94161206 0.8735619 -0.44373277 -0.1823108 0.106455356 0.11674766
-0.6745206 -0.53171426 -0.602011 -0.12299263 0.40635815 -0.18766956 -0.10842052 -0.57297784
0.70991063 -0.73757565 0.07408196 -0.16719131 0.9371907 -0.04264133 0.0024748947 -0.7316297
-0.29170042 0.59390163 -0.082634635 -0.724526 0.38990092 -0.18643625 -0.75649166 -0.54464674
-0.45142424 1.152226 0.16759865 -0.20254366 0.40854695 -0.66906035 -0.09469028 -0.19169748
-0.743558 -0.17856117 -0.294285 -0.49605745 0.7505833 0.1269005 1.8637904e-05 -0.44628483
0.7914426 0.36070386 0.41599694 -0.15170395 -0.0061299535 -0.8934567 -0.24763691 0.05645558
0.38781285 0.7673901 0.14112124 0.3388381 0.602829 0.23897424 -0.2141159 0.6841784
-1.2184162 0.19686809 -0.12558138 -0.029442398 -0.16765709 -0.26456648 -0.9112783 -0.053458415
-1.0218349 -0.29987437 -0.46048734 1.2832173 -0.57173795 -0.4559529 -0.6777789 0.28853792
0.06683137 0.78627 -0.41477776 -0.69568557 0.12827495 -0.1695038 -0.43256682 0.022508482
0.8223133 0.29833326 0.42114297 0.87114453 -0.19617622 -0.40748802 0.89629674 0.098552324
0.044966098 -0.5693955 -0.3555378 -1.0048816 0.6673594 -0.16919741 -1.0398604 -0.059934054
-0.43561015 -0.8586945 -0.39970574 -0.83921623 -0.95534235 -1.1800833 0.5755369 0.22603317
0.45433998 0.4844227 0.04277615 0.06407642 -0.58751625 -1.3653907 1.0177146 -0.22249728
-0.023741122 -0.09041928 -0.021671321 -0.6554348 0.009757338 0.51588833 0.20866416 0.5984275
-0.5132425 -0.9205139 0.07753878 -0.04973483 -0.048978947 -0.28757155 0.38031033 0.267152
00000000: 673a f8be 23a1 813f 7f12 b6be 5f6d 003e
00000010: 664c e33e 792a 583f 50a3 283f dfc6 a4be
00000020: 9fe8 3a3f 1f95 033f 2669 1ebe 8cd0 80be
00000030: 7426 74bf cb65 13bf dfd5 ca3c 4189 083f
00000040: 755f 433f 93aa 89be a47a 19bf 01d0 36bf
00000050: 18ec 383f 13b7 e8bd 0dc0 c2be 6f71 193f
00000060: e46d 263f a760 ca3d f3e8 283f 68f1 f83e
00000070: 89c3 5bbd 9fd2 64bd 5538 50be 7a49 7e3c
00000080: fbef 98bf 54ce 3f3f 0c3e 623f 7871 ba3e
00000090: 0708 c2be 2b38 24bf f2c3 94be 9268 9ebd
000000a0: cea0 2e3e 0460 053f 8fd4 b73f e835 99be
000000b0: 5b63 a5be 6a47 cebe 81af 1d3c 7c3d 7dbe
000000c0: d527 c03e 8ca2 d43e 2cdb 2a3c 29d0 02bf
000000d0: 51ff 56bf 4cf4 383f 5d62 4dbf a68e 8cbe
000000e0: 78e0 44bf 265f 8abe c392 013f 3eb2 863e
000000f0: 0e88 70be e7fe 8b3e 4d34 073d d770 153f
00000100: 89a4 2abf 1f46 d5be 7d0d 71bf c1a1 5f3f
00000110: f130 e3be afaf 3abe 4405 da3d 6619 ef3d
00000120: 62ad 2cbf 6d1e 08bf 651d 1abf 8fe3 fbbd
00000130: 2d0e d03e 732c 40be 940b debd adae 12bf
00000140: b4bc 353f c2d1 3cbf 48b8 973d 3334 2bbe
00000150: bbeb 6f3f ada8 2ebd d831 223b 164c 3bbf
00000160: c259 95be f009 183f 593c a9bd 897a 39bf
00000170: 18a1 c73e 25e9 3ebe 70a9 41bf f86d 0bbf
00000180: 1421 e7be 247c 933f fb9e 2b3e 9b67 4fbe
00000190: 112d d13e 8a47 2bbf faec c1bd 584c 44be
000001a0: d159 3ebf bdd8 36be 86ac 96be 3efb fdbe
000001b0: 3a26 403f 34f2 013e 9858 9c37 727f e4be
000001c0: fb9b 4a3f 2dae b83e 8dfd d43e 4858 1bbe
000001d0: c7dd c8bb 94b9 64bf 8894 7dbe f73d 673d
000001e0: 688f c63e ad73 443f 1682 103e 307c ad3e
000001f0: 0053 1a3f aab5 743e 3341 5bbe 5126 2f3f
00000200: 10f5 9bbf ca97 493e 6898 00be 2f31 f1bc
00000210: 4dae 2bbe 4275 87be 8949 69bf 36f7 5abd
00000220: 7ccb 82bf 2289 99be ffc4 ebbe 7740 a43f
00000230: 6b5d 12bf a972 e9be eb82 2dbf 3ebb 933e
00000240: e3de 883d fe48 493f c05d d4be 7318 32bf
00000250: 825a 033e 6792 2dbe 6679 ddbe b563 b83c
00000260: 2083 523f 23bf 983e 0da0 d73e 5403 5f3f
00000270: 6be2 48be 45a2 d0be b473 653f cdd5 c93d
00000280: 5f2e 383d e7c3 11bf 0d09 b6be f69f 80bf
00000290: 11d8 2a3f 1642 2dbe 251a 85bf 697d 75bd
000002a0: 4b08 dfbe 67d3 5bbf 3ba6 ccbe e0d6 56bf
000002b0: 5191 74bf f80c 97bf 6356 133f 3d75 673e
000002c0: 409f e83e 4106 f83e 0b36 2f3d 803a 833d
000002d0: 7767 16bf 1fc5 aebf 7944 823f 54d6 63be
000002e0: be7c c2bc be2d b9bd 0e88 b1bc 93ca 27bf
000002f0: 3edd 1f3c 4211 043f 0fac 553e 8b32 193f
00000300: dc63 03bf cda6 6bbf a7cc 9e3d c0b6 4bbd
00000310: 269e 48bd 943c 93be 09b8 c23e 26c8 883e

layer1.weight f4 [256, 570]
-0.17439741 0.22335666 -0.14151451 -0.013096066 -0.018437713 -0.002560289 0.042635344 0.07021784
-0.039878465 0.006370624 0.011625715 -0.022988295 0.08570774 0.09440982 0.057947226 0.36698622
-0.046492882 0.0024596571 -0.023783278 -0.06974751 0.10203856 -0.07173794 -0.05496032 0.07728042
-0.0008419025 0.14893168 -0.20022118 -0.051292174 0.06647966 -0.054908257 -0.24236609 0.11651641
0.0043279934 -0.010585128 0.3719453 0.077719815 -0.08958703 -0.00906869 0.021213153 -0.0010468068
-0.14512049 -0.027349614 -0.12519102 -0.088669404 0.013333707 0.20786574 -0.17328225 0.22429343
-0.022469485 -0.5594643 -0.27078697 0.32437617 0.07562354 -0.0019477615 0.0030971675 -0.014781611
0.06653036 -0.027393179 0.022387475 0.041188236 -0.20012295 -0.5403659 -0.013810957 0.41309676
-0.023689277 0.0018330838 0.06899706 0.30308333 0.25868037 -0.49909207 0.17367026 -0.48897892
-0.022279792 0.037940197 0.017164476 0.070078135 -0.7021859 -0.9417063 -0.13235673 0.84316134
-0.03935517 0.06744697 0.0090158945 0.14366268 -0.20430069 -0.0990663 -0.11052912 -0.029411318
-0.15070114 -0.061282925 -0.074557796 -0.41714734 0.0111990785 0.072077975 -0.1043498 -0.4751458
0.07064431 -0.0499476 -0.026140537 0.12836151 -0.05747211 0.05611067 0.008474449 0.09188735
-0.08246864 0.06104884 0.1375537 -0.09973197 -0.49276698 -0.15154177 0.050350893 0.02731307
-0.46129674 0.06687571 0.09090723 0.002216312 -0.14394745 -0.008375444 -0.036442257 0.17155102
-0.084719114 0.011056907 -0.045758706 0.028268233 -0.03637884 0.05278946 0.006834818 -0.033710193
0.07211046 0.020474799 -0.030564914 -0.08525498 0.063328795 0.025935428 -0.062257536 0.098984055
-0.036502216 0.034215346 0.06912139 -0.0030687638 -0.061425157 -0.055890605 0.102694824 -0.22849171
-0.36379063 -0.0041177226 -0.28621233 -0.014223399 -0.052984834 0.14596182 -0.10123714 -0.120455384
-0.13718024 -0.03239549 0.1649241 0.024309685 -0.25386354 -0.13126212 0.032739744 0.12533534
-0.14270414 0.046367683 -0.068868876 0.13192248 -0.05265551 -0.049837895 0.058177058 0.00034351958
-0.1264785 -0.11091632 0.09852887 0.027335208 -0.22571449 -0.27121052 -0.06621831 0.42441753
-0.15252502 0.24463753 0.4628885 0.2909864 0.26655778 0.18579069 0.12359816 0.020037865
0.25741023 0.16913754 -0.0021498443 -0.26187217 0.1888566 0.36717469 -0.037517387 -0.28541836
-0.21941914 0.056817073 -0.014236092 0.076464914 0.1279959 0.020301241 -0.009243825 0.020914966
0.20180874 -0.055487216 -0.10142929 0.07234305 0.29378286 0.06365864 -0.05932887 0.26835254
-0.022934154 -0.016166547 0.03601637 0.015594261 0.029218052 0.1445591 0.665368 0.44850782
0.10089735 0.6321064 0.67677736 0.6936552 0.18342923 0.10212733 0.35215816 -0.38140395
0.53219795 -0.348481 -0.35865262 -0.6277304 0.27645257 0.26837826 0.23934801 0.24282017
-0.3136711 0.19532706 0.52015454 -0.28927237 -0.7029881 -0.13146085 0.5308479 -0.49957657
0.0037999828 -0.0063849124 -0.14423528 0.05071046 0.0073746396 0.03265096 -0.28748745 0.3645387
-0.026803927 -0.020209648 -0.19654343 0.2988932 -0.0039249873 -0.0016118864 -0.03409697 0.12248412
00000000: 3c95 32be 9cb7 643e 2ee9 10be e290 56bc
00000010: b00a 97bc 86ca 27bb 66a2 2e3d 5fce 8f3d
00000020: 9a57 23bd abc0 d03b c879 3e3c f351 bcbc
00000030: 8a87 af3d f059 c13d 125a 6d3d 9ee5 bb3e
00000040: 526f 3ebd 3332 213b 26d5 c2bc c8d7 8ebd
00000050: 98f9 d03d 57eb 92bd 131e 61bd 3245 9e3d
00000060: 1fb3 5cba 8c81 183e c806 4dbe be17 52bd
00000070: 7d26 883d 7be7 60bd d12e 78be 28a0 ee3d
00000080: d7d1 8d3b 3f6d 2dbc 9d6f be3e 912b 9f3d
00000090: 6879 b7bd d894 14bc 35c7 ad3c 0235 89ba
000000a0: 779a 14be 4c0c e0bc 1332 00be 4e98 b5bd
000000b0: 9f75 5a3c c2da 543e e770 31be 2dad 653e
000000c0: ed11 b8bc 0d39 0fbf 97a4 8abe a214 a63e
000000d0: 84e0 9a3d 084c ffba d9f9 4a3b 922e 72bc
000000e0: 1241 883d a967 e0bc f065 b73c ffb4 283d
000000f0: 08ed 4cbe 6b55 0abf 5a47 62bc 6b81 d33e
00000100: 0410 c2bc 1644 f03a 554e 8d3d bd2d 9b3e
00000110: c171 843e ff88 ffbe 9ed6 313e 725b fabe
00000120: 1c84 b6bc 2e67 1b3d 849c 8c3c 2085 8f3d
00000130: 75c2 33bf aa13 71bf 8688 07be 6cd9 573f
00000140: e332 21bd a321 8a3d 67b7 133c 4f1c 133e
00000150: 3334 51be 46e3 cabd 175d e2bd 01f0 f0bc
00000160: 6651 1abe ce03 7bbd c2b1 98bd 5694 d5be
00000170: 577c 373c 9e9d 933d 59b5 d5bd 4f46 f3be
00000180: f7ad 903d db95 4cbd ae24 d6bc 3371 033e
00000190: e067 6bbd 4dd4 653d 6ad8 0a3c 6f2f bc3d
000001a0: 51e5 a8bd 590e 7a3d e1da 0c3e 4640 ccbd
000001b0: f44b fcbe c42d 1bbe bd3c 4e3d a9bf df3c
000001c0: 162f ecbe 22f6 883d 922d ba3d 8c3f 113b
000001d0: f666 13be 2939 09bc 7a44 15bd 12ab 2f3e
000001e0: 3781 adbd 0728 353c 7b6d 3bbd c892 e73c
000001f0: fb01 15bd c339 583d 9cf6 df3b b313 0abd
00000200: a6ae 933d c4ba a73c 4563 fabc 2a9a aebd
00000210: 87b2 813d 8976 d43c c201 7fbd 27b8 ca3d
00000220: 5983 15bd 6425 0c3d 848f 8d3d 501d 49bb
00000230: f298 7bbd 8ced 64bd aa51 d23d bbf9 69be
00000240: c442 babe f6ed 86bb 6c8a 92be 4209 69bc
00000250: a006 59bd 0477 153e 6b55 cfbd 50b1 f6bd
00000260: fa78 0cbe 22b1 04bd dde1 283e 1b25 c73c
00000270: 67fa 81be 9469 06be 1c1a 063d e857 003e
00000280: 0921 12be 0aec 3d3d 200b 8dbd b016 073e
00000290: 4ead 57bd d222 4cbd 114b 6e3d 6b1a b439
000002a0: 9483 01be 1828 e3bd 81c9 c93d 16ee df3c
000002b0: b321 67be 1bdc 8abe 779d 87bd 414d d93e
000002c0: 852f 1cbe 4382 7a3e b9ff ec3e 2bfc 943e
000002d0: 437a 883e ea3f 3e3e 0821 fd3d 7326 a43c
000002e0: 46cb 833e 6432 2d3e 67e4 0cbb 1c14 86be
000002f0: a063 413e 52fe bb3e d5ab 19bd 5b22 92be
00000300: 69af 60be 05b9 683d 7f3e 69bc a399 9c3d
00000310: 5b11 033e ca4e a63c 6a73 17bc dd55 ab3c
00000320: f3a6 4e3e 9046 63bd 29ba cfbd 9828 943d
00000330: b56a 963e 765f 823d d402 73bd 8165 893e
00000340: 68e0 bbbc b56f 84bc e785 133d 127f 7f3c
00000350: b25a ef3c 4d07 143e 8f55 2a3f d1a2 e53e
00000360: 45a3 ce3d bad1 213f 4841 2d3f 6393 313f
00000370: dfd4 3b3e 2228 d13d 134e b43e 6147 c3be
00000380: 203e 083f 1a6c b2be 51a1 b7be f1b2 20bf
00000390: 318b 8d3e e068 893e a517 753e daa5 783e
000003a0: 8099 a0be d103 483e d928 053f 821b 94be
000003b0: 07f7 33bf ac9d 06be a6e5 073f 80c8 ffbe
000003c0: 2209 793b 8738 d1bb 6ab2 13be c5b5 4f3d
000003d0: f6a6 f13b 03bd 053d 8e31 93be d1a4 ba3e
000003e0: e993 dbbc b48e a5bc ae42 49be 8808 993e
000003f0: 2e9d 80bb ef45 d3ba 44a9 0bbd f4d8 fa3d

layer1.bias f4 [256]
0.00072989793 0.014860447 0.0030161461 -0.0127203055 0.025351806 -0.02274466 -0.0059670564 -0.047147702
-0.045084216 0.05261229 0.007194011 -0.00017202072 0.06958944 -0.022994867 -0.025189612 -0.01745475
0.006080732 0.043405738 -0.013289396 -0.053270746 -0.04329161 -0.026397241 -0.060393445 -0.04190629
-0.03305398 -0.010693687 -0.041203517 -0.03453239 0.0015423154 -0.0024624032 -0.04201069 0.019004142
0.010563535 0.0069168513 -0.016523367 -0.008898157 -0.0020951382 -0.009090463 -0.05738706 -0.022024428
0.001974242 -0.032073084 0.016858777 -0.01411565 0.023783922 0.023980023 -0.04055424 0.113978475
0.033826265 -0.027062964 0.004654057 -0.016630352 -0.010059923 -0.03570764 0.06590865 -0.014955227
0.037790276 0.0024784664 -0.0066788853 0.047920197 -0.0011238331 0.022725936 0.024352355 -0.0059069935
0.045767166 -0.01458987 -0.042926885 -0.0069830543 0.04057882 0.016384436 -0.034191977 0.00017204981
-0.050912566 0.019877184 0.007927891 -0.03908799 0.033113755 -0.035794105 0.027028235 -0.032152504
0.002926572 0.04385067 0.0015220693 0.016496414 0.07678004 0.0023525693 0.007829224 0.08648555
-0.0036045809 -0.0040642372 -0.027729725 -0.023264391 -0.05027461 0.011460778 -0.034817126 0.0059658536
0.05658994 -0.021516072 -0.00344002 0.03272993 0.05702579 -0.014524005 0.031400472 -0.04276213
0.07790223 -0.01303212 0.0024469597 -0.037669476 -0.032638043 0.009024929 0.07090131 0.046543404
-0.032418177 -0.023891263 -0.012617722 0.0436257 -0.09539583 -0.06425736 0.004365013 0.023377145
0.01839019 -0.0034569213 -0.0007085952 -0.00643524 -0.064956166 -0.05398597 -0.030297136 -0.00061460544
-0.009001393 -0.040256366 0.03945433 0.08966167 -0.039462227 0.02036785 0.00720035 0.029061876
-0.030827792 -0.020990811 -0.065228865 -0.016511867 0.06723841 0.019666512 -0.015186211 0.08395374
-0.045722798 -0.017595263 -0.022654582 0.009846246 -0.0005615061 -0.009776955 -0.019521732 0.038112234
-0.048875798 0.014227297 0.02417076 -0.027247278 0.006047285 -0.009624348 -0.015446851 0.03428929
-0.010197219 0.080976136 -0.028287161 0.012150584 0.056836747 -0.0042138305 0.025463868 -0.03573291
-0.00025259407 0.045180924 -0.047670882 -0.004275647 -0.022931648 0.007676921 -0.0031422991 -0.021862317
0.01383721 0.0052175764 -0.02506547 -0.021999072 0.0043904926 0.12713407 -0.0014784214 -0.03070768
-0.018239887 -0.028708512 0.009194845 0.001927283 -0.045562834 0.054364126 0.061609715 -0.032152068
0.00074969727 -0.0067270957 -0.008536395 -0.026174465 -0.024132436 -0.08961893 0.000608916 0.0073829843
-0.023432897 0.06857145 0.00036997834 0.037746884 -0.038441326 0.0006787133 0.02146695 0.023820618
0.0139693 0.0016314205 -0.0034039759 0.011623589 -0.00017994065 0.019625757 0.016530238 0.021789985
-0.009934143 -0.026325166 -0.043304216 -0.023150101 0.049388506 0.031453628 0.032561406 -0.008105387
0.057766613 -0.033091065 -0.007981966 0.001816222 0.0002719485 -0.12061433 -0.020221097 0.04724606
-0.04997677 0.03142369 0.011819276 0.0056692646 0.04734271 0.0045414353 0.008116042 -0.0065346537
-0.06632983 0.019198712 0.07042209 0.028837679 0.020593433 0.029535772 -0.04240999 0.008617306
0.022944134 0.010300947 0.011544649 -0.050587587 -0.010699848 0.010992442 -0.030975705 -0.019420335
00000000: 9f56 3f3a 3b79 733c 89aa 453b d468 50bc
00000010: 97ae cf3c 0253 babc 4c87 c3bb f31d 41bd
00000020: 3aaa 38bd fc7f 573d bdbb eb3b 7660 34b9
00000030: e984 8e3d bb5f bcbc 725a cebc 44fd 8ebc
00000040: e140 c73b 37ca 313d c4bb 59bc 6d32 5abd
00000050: 8b52 31bd 073f d8bc 1e5f 77bd eea5 2bbd
00000060: 9c63 07bd 9334 2fbc 05c5 28bd d671 0dbd
00000070: 8427 ca3a 4560 21bb 6713 2cbd 93ae 9b3c
00000080: ad12 2d3c c1a6 e23b 035c 87bc 93c9 11bc
00000090: 964e 09bb 2af0 14bc b20e 6bbd 936c b4bc
000000a0: 4962 013b 115f 03bd 6b1b 8a3c 5445 67bc
000000b0: 80d6 c23c c171 c43c 341c 26bd 8c6d e93d
000000c0: 698d 0a3d 26b3 ddbc 0f81 983b 603c 88bc
000000d0: 60d2 24bc 2d42 12bd 1dfb 863d c506 75bc
000000e0: fac9 1a3d c46d 223b 8dda dabb f847 443d
000000f0: 954d 93ba be2b ba3c 977e c73c 748f c1bb
00000100: 5a76 3b3d 5a0a 6fbc 1ad4 2fbd 1bd2 e4bb
00000110: fa35 263d a738 863c e30c 0cbd 4568 3439
00000120: b289 50bd 7ad5 a23c fce3 013c ba1a 20bd
00000130: 4aa2 073d d79c 12bd 516a dd3c 58b2 03bd
00000140: bbcb 3f3b c39c 333d 2c80 c73a 7d23 873c
00000150: db3e 9d3d 902d 1a3b 2546 003c 561f b13d
00000160: d53a 6cbb 4b2d 85bb 7329 e3bc f794 bebc
00000170: c0ec 4dbd fdc5 3b3c 679c 0ebd 357d c33b
00000180: daca 673d 7942 b0bc f571 61bb d20f 063d
00000190: e093 693d 18f6 6dbc c89d 003d 5827 2fbd
000001a0: 348b 9f3d ac84 55bc 2c5d 203b 4f4b 1abd
000001b0: 78af 05bd 4cdd 133c b534 913d 4ca4 3e3d
000001c0: ecc8 04bd 9cb7 c3bc 90ba 4ebc ddb0 323d
000001d0: e45e c3bd 5d99 83bd 6208 8f3b 6d81 bf3c
000001e0: 06a7 963c 848d 62bb 05c1 39ba b5de d2bb
000001f0: bd07 85bd 6420 5dbd b331 f8bc 791d 21ba
00000200: 947a 13bc dce3 24bd dd9a 213d 8aa0 b73d
00000210: 25a3 21bd 7ada a63c eaf0 eb3b 2c13 ee3c
00000220: 918a fcbc ecf4 abbc b696 85bd e543 87bc
00000230: 4bb4 893d aa1b a13c 96cf 78bc f0ef ab3d
00000240: d447 3bbd f123 90bc 1a96 b9bc 2652 213c
00000250: 0932 13ba 852f 20bc 0aec 9fbc 931b 1c3d
00000260: fd31 48bd 9c19 693c c201 c63c af35 dfbc
00000270: 4e28 c63b 71af 1dbc ca14 7dbc ed72 0c3d
00000280: 3d12 27bc d1d6 a53d 7aba e7bc 3e13 473c
00000290: a6cd 683d 2c14 8abb 9a99 d03c ac5c 12bd
000002a0: 9a6e 84b9 a20f 393d 8b42 43bd ba1a 8cbb
000002b0: 27db bbbc ae8e fb3b 08ef 4dbb 9a18 b3bc
000002c0: 77b5 623c 34f8 aa3b 1a56 cdbc 6637 b4bc
000002d0: 1fde 8f3b 6f2f 023e 97c7 c1ba ac8e fbbc
000002e0: d16b 95bc 1d2e ebbc faa5 163c e39c fc3a
000002f0: 18a0 3abd ebac 5e3d 785a 7c3d e3b1 03bd
00000300: 5587 443a f86e dcbb 3cdc 0bbc d56b d6bc
00000310: 63b1 c5bc 218a b7bd a99f 1f3a f6ec f13b
00000320: 59f6 bfbc 306f 8c3d a7f9 c139 7a9c 1a3d
00000330: a774 1dbd aeeb 313a 75db af3c 7523 c33c
00000340: 7edf 643c 63d5 d53a 3d15 5fbb de70 3e3c
00000350: 73ae 3cb9 32c6 a03c 6c6a 873c e980 b23c
00000360: d1c2 22bc e0a7 d7bc c35f 31bd 48a5 bdbc
00000370: 9a4b 4a3d 85d5 003d 1c5f 053d 75cc 04bc
00000380: af9c 6c3d 7f8a 07bd cbc6 02bc 4c0e ee3a
00000390: 4f94 8e39 a504 f7bd b7a6 a5bc 1685 413d
000003a0: 71b4 4cbd 21b6 003d a3a5 413c 3dc5 b93b
000003b0: 6eea 413d 52d0 943b 26f9 043c a620 d6bb
000003c0: efd7 87bd 9e46 9d3c 7539 903d ff3c ec3c
000003d0: 8fb3 a83c 01f5 f13c 19b6 2dbd 9a2f 0d3c
000003e0: 56f5 bb3c 4ec5 283c c425 3d3c ee34 4fbd
000003f0: 6a4e 2fbc a519 343c c3c0 fdbc 6517 9fbc

layer2.weight f4 [64, 256]
0.21572469 -0.051293798 -0.042155083 0.034195315 0.12735753 -0.0527149 -0.16319267 0.117798865
-0.008380366 -0.12774138 0.013364088 -0.009186724 0.12824926 0.0162311 -0.12466842 0.09903064
0.07745389 0.028081499 -0.18065387 -0.10857296 0.03944278 0.14541274 0.078696705 0.068081066
-0.13147856 0.06955137 -0.1462167 -0.039467715 -0.10346019 0.28160617 -0.017169366 -0.041481376
-0.110973455 -0.014524461 0.102273904 -0.22263442 0.040876646 -0.034926727 0.14461833 0.0077450634
-0.05841262 0.099351496 0.015312906 0.16784626 0.0676109 -0.034163617 -0.03439834 -0.08069943
0.024684133 -0.07312892 -0.027011545 0.068645984 0.039636094 0.01358822 -0.264213 0.064551234
-0.008767724 -0.08991332 -0.2054151 -0.030181583 0.028825087 0.0035054875 0.052297145 0.099797815
-0.11194881 -0.0534988 0.018639328 0.10904546 -0.14266516 -0.0053443834 0.13047034 0.0805663
0.16038994 -0.1831394 -0.028609738 0.095859565 -0.053422876 -0.02955614 -0.022487782 0.01751423
0.057032008 -0.063210644 -0.018372774 0.023577707 0.054262917 0.17401662 0.039128944 0.24614105
0.117279984 0.24342197 0.19669686 -0.013815579 -0.07110811 -0.0304811 -0.13548334 0.17235896
-0.2989438 0.023743656 0.035269845 0.005441767 0.09264757 -0.15804052 0.1546977 0.09663917
0.023196368 -0.02476791 0.06907664 0.06627768 -0.013504748 0.007593289 -0.112990126 -0.18279056
0.030372284 0.041493207 0.017751181 0.10609314 0.03630916 -0.011291879 -0.08707664 0.07451538
-0.17259869 0.109196395 -0.0048486805 -0.10786431 0.094942436 -0.10333676 -0.07509836 -0.26759803
-0.049333476 0.028336007 0.08533071 -0.11898923 0.096336015 0.085971735 -0.051084332 0.0024119366
0.015459237 -0.032630347 0.3017973 0.11283569 -0.038687035 -0.062052727 0.20119785 -0.10695789
-0.014694652 -0.04505793 0.0005164438 0.5465768 -0.03597077 0.10021947 0.18758075 -0.036214612
0.008170631 -0.18363003 0.08217532 0.27533168 -0.09819693 0.07199863 0.023716519 -0.10215266
0.3218381 -0.2769848 0.0064685545 -0.0035715979 -0.21926966 -0.12345099 -0.00069857616 -0.12638979
0.106640235 -0.04277482 -0.15518382 -0.025471618 -0.03711659 0.025854586 0.103045136 -0.07999222
0.19534922 0.07984487 -0.06806928 0.049065106 0.004892719 -0.10086386 0.13282414 0.16150977
-0.06785469 -0.046371482 -0.033507265 -0.04664524 -0.041423876 0.07932252 -0.12665705 -0.03918279
-0.10791513 0.070882104 0.05542049 -0.013507421 0.06724478 0.17275977 0.103101216 0.089826494
0.33198902 -0.06518029 0.021345854 -0.00933606 -0.04523371 0.005274806 -0.00049382576 0.014159547
-0.037669014 -0.17407957 -0.030042939 0.01599524 0.06996644 0.049808916 0.08475752 0.09854199
0.032156445 -0.20387472 0.036097705 -0.039082564 0.011428376 0.18568094 0.020037308 0.015494982
-0.008856589 -0.020987697 -0.013575923 0.15841664 -0.007558156 0.030245613 -0.10858522 -0.052656744
-0.066926755 -0.079799265 0.058099516 -0.0026087735 -0.20023325 -0.045256678 0.07194082 -0.12525044
0.18152136 0.14783506 -0.038817752 -0.08807183 0.14936166 0.03270982 -0.021691853 -0.36488965
-0.080270514 -0.082321465 -0.024120172 0.033255883 -0.032269124 0.117013894 0.008694332 -0.06984658
00000000: efe6 5c3e 7219 52bd cfaa 2cbd 6310 0c3d
00000010: 036a 023e 94eb 57bd fb1b 27be 8840 f13d
00000020: cd4d 09bc a3ce 02be 0cf5 5a3c ea83 16bc
00000030: c653 033e 15f7 843c 2852 ffbd 94d0 ca3d
00000040: 25a0 9e3d 2c0b e63c 54fd 38be 805b debd
00000050: c18e 213d 14e7 143e bd2b a13d 166e 8b3d
00000060: 51a2 06be f370 8e3d d5b9 15be e6a8 21bd
00000070: f0e2 d3bd af2e 903e c5a6 8cbc 60e8 29bd
00000080: 0d46 e3bd 01f8 6dbc fb74 d13d 47fa 63be
00000090: 456e 273d 540f 0fbd d416 143e 4dca fd3b
000000a0: 1242 6fbd cc78 cb3d fce2 7a3c e4df 2b3e
000000b0: 9577 8a3d 26ef 0bbd 46e5 0cbd be45 a5bd
000000c0: 6136 ca3c 9dc4 95bd 5147 ddbc 4496 8c3d
000000d0: 7559 223d 20a1 5e3c ed46 87be 7033 843d
000000e0: 80a6 0fbc 7a24 b8bd 5658 52be 5e3f f7bc
000000f0: 9722 ec3c 52bc 653b 8835 563d cc62 cc3d
00000100: 6b45 e5bd 8f21 5bbd 81b1 983c 3a53 df3d
00000110: d116 12be f01f afbb 049a 053e f2ff a43d
00000120: 433d 243e e588 3bbe f85e eabc 0552 c43d
00000130: f2d1 5abd b81f f2bc 4c38 b8bc 017a 8f3c
00000140: 659a 693d 9574 81bd 8082 96bc 0926 c13c
00000150: cb42 5e3d 6a31 323e ac45 203d 660c 7c3e
00000160: 7d30 f03d 9c43 793e e76a 493e bd5a 62bc
00000170: 21a1 91bd 80b3 f9bc 25bc 0abe de7e 303e
00000180: 290f 99be 0e82 c23c 1d77 103d da50 b23b
00000190: 02be bd3d 60d5 21be 1369 1e3e c2ea c53d
000001a0: 4f06 be3c 12e6 cabc 0e78 8d3d 98bc 873d
000001b0: 0543 5dbc 20d1 f83b 5e67 e7bd 732d 3bbe
000001c0: 4ccf f83c c8f4 293d ed6a 913c 5c47 d93d
000001d0: eab8 143d 9301 39bc 3d55 b2bd 859b 983d
000001e0: b6bd 30be 5ca2 df3d aee1 9ebb f7e7 dcbd
000001f0: 2e71 c23d 39a2 d3bd 2bcd 99bd 9c02 89be
00000200: e611 4abd ea20 e83c dec1 ae3d a0b0 f3bd
00000210: d14b c53d f311 b03d ce3d 51bd 9511 1e3b
00000220: bd48 7d3c 66a7 05bd 2d85 9a3e 6616 e73d
00000230: 4c76 1ebd 002b 7ebd cf06 4e3e bd0c dbbd
00000240: d6c1 70bc aa8e 38bd f561 073a 75ec 0b3f
00000250: 1656 13bd de3f cd3d 2b15 403e c655 14bd
00000260: 1cde 053c 8309 3cbe 894b a83d 46f8 8c3e
00000270: 791b c9bd 0574 933d 2549 c23c 6a35 d1bd
00000280: f7c7 a43e f4d0 8dbe 2bf6 d33b 7811 6abb
00000290: 3a88 60be dfd3 fcbd a720 37ba 536c 01be
000002a0: 3266 da3d a634 2fbd 82e8 1ebe dba9 d0bc
000002b0: 9107 18bd ffcc d33c 5409 d33d f6d2 a3bd
000002c0: a009 483e b585 a33d e867 8bbd 7ef8 483d
000002d0: 1a53 a03b b691 cebd 0d03 083e d162 253e
000002e0: 66f7 8abd 06f0 3dbd ea3e 09bd 140f 3fbd
000002f0: 15ac 29bd d873 a23d 63b2 01be 227e 20bd
00000300: 9c02 ddbd a32a 913d 9900 633d 3b4e 5dbc
00000310: a2b7 893d f0e7 303e bb26 d33d f4f6 b73d
00000320: 77fa a93e 3e7d 85bd 80dd ae3c 46f6 18bc
00000330: fc46 39bd 48d8 ac3b 1674 01ba 72fd 673c
00000340: d34a 1abd ea41 32be 9c1c f6bc 7308 833c
00000350: 914a 8f3d 6f04 4c3d 5a95 ad3d 62d0 c93d
00000360: 7ab6 033d 89c4 50be 30db 133d 0a15 20bd
00000370: 153e 3b3c 2523 3e3e 4825 a43c aade 7d3c
00000380: 3a1b 11bc 64ee abbc 8c6d 5ebc f937 223e
00000390: 68aa f7bb a6c5 f73c ee61 debd 99ae 57bd
000003a0: e510 89bd cc6d a3bd c2f9 6d3d f5f7 2abb
000003b0: f209 4dbe 115f 39bd b555 933d a741 00be
000003c0: bce0 393e 1362 173e 5dff 1ebd 015f b4bd
000003d0: 43f2 183e bbfa 053d 1db3 b1bc d1d2 babe
000003e0: de64 a4bd 2898 a8bd ab97 c5bc 5237 083d
000003f0: a12c 04bd fba4 ef3d ac72 0e3c b90b 8fbd

layer2.bias f4 [64]
-0.005048316 0.015653081 0.018050434 0.038213816 -0.025559014 -0.07276917 -0.030677715 0.06530427
0.037145436 -0.026790902 -0.065243065 -0.030091414 0.00028111166 -0.040519096 -0.020341575 -0.05069374
-0.10770606 -0.00709283 -0.003363133 -0.029059261 -0.12607321 -0.018636955 -0.066144235 0.008138932
-0.018263657 0.050175555 -0.040387288 -0.039215997 0.03343237 0.034507886 -0.07574068 -0.08198362
-0.06478294 -0.016379498 0.03253754 -0.053167053 -0.012769687 -0.014393746 0.014031457 0.04794625
-0.03401679 -0.06815969 -0.012616898 -0.08804469 0.03074476 -0.10520128 0.013632393 0.0012738331
-0.02528309 -0.008406417 -0.015258148 -0.07776675 0.027758779 -0.07232553 -0.025941692 0.019814786
-0.02864605 0.0017464695 0.019332381 -0.01870874 -0.027573992 0.015738336 -0.089101605 0.05424416
00000000: 586c a5bb e43a 803c 81de 933c 1786 1c3d
00000010: 2361 d1bc 0108 95bd d54f fbbc 3fbe 853d
00000020: d025 183d 9878 dbbc 289e 85bd 4582 f6bc
00000030: 2b62 9339 5af7 25bd 60a3 a6bc 3da4 4fbd
00000040: ff94 dcbd f86a e8bb 0268 5cbb b00d eebc
00000050: 5619 01be 87ac 98bc a176 87bd 2859 053c
00000060: aa9d 95bc e284 4d3d 246d 25bd f4a0 20bd
00000070: 61f0 083d 2458 0d3d ee1d 9bbd 07e7 a7bd
00000080: ebac 84bd 4c2e 86bc 1546 053d b2c5 59bd
00000090: f337 51bc bfd3 6bbc 32e4 653c 4963 443d
000000a0: 3155 0bbd 4f97 8bbd 1bb7 4ebc c650 b4bd
000000b0: 6fdc fb3c c573 d7bd 675a 5f3c bff6 a63a
000000c0: 7c1e cfbc 12bb 09bc 50fd 79bc 2c44 9fbd
000000d0: 6166 e33c 681f 94bd ac83 d4bc 9e52 a23c
000000e0: 1fab eabc cbe9 e43a f15e 9e3c 1243 99bc
000000f0: dae2 e1bc afed 803c e77a b6bd 202f 5e3d

layer3.weight f4 [1, 64]
0.17318955 0.23912662 0.1934375 0.23870617 -0.17878582 -0.15640414 -0.18974663 -0.2533685
0.26051402 0.27685264 -0.12410811 0.2065819 -0.17589988 0.31267482 0.4286713 0.22667736
0.2735319 0.20869851 0.18359746 -0.20488939 0.2488762 -0.212463 0.22434719 -0.13629061
-0.26888207 0.15040222 -0.25031495 0.24672963 -0.17196357 -0.229912 0.15242244 -0.2272305
-0.18095534 0.148106 0.22698236 0.25713164 0.34560263 -0.18442945 -0.17558828 0.13042717
0.27268526 -0.39489853 -0.12360222 0.25484067 0.23863795 -0.3226895 0.24261989 0.22386369
-0.20036684 -0.080902085 0.14347327 0.21989319 0.25429237 0.17458111 0.36043805 0.21936819
0.39344758 -0.19559318 0.13488089 -0.17135485 -0.1517863 -0.12759283 -0.22626746 0.33429697
00000000: 9a58 313e 9cdd 743e 7b14 463e 646f 743e
00000010: a113 37be 6828 20be f14c 42be 84b9 81be
00000020: 1862 853e a1bf 8d3e 652c febd 358a 533e
00000030: 191f 34be ea16 a03e ce7a db3e 1c1e 683e
00000040: 600c 8c3e 10b5 553e f900 3c3e 86ce 51be
00000050: 67d9 7e3e e78f 59be 45bb 653e c48f 0bbe
00000060: e9aa 89be 0a03 1a3e 4829 80be b1a6 7c3e
00000070: 3817 30be 0d6e 6bbe a114 1c3e 1daf 68be
00000080: 5b4c 39be 19a9 173e 106e 683e c2a6 833e
00000090: d4f2 b03e 13db 3cbe 6acd 33be b38e 053e
000000a0: 679d 8b3e 2430 cabe 2923 fdbd 7a7a 823e
000000b0: 825d 743e 8f37 a5be 5971 783e 863c 653e
000000c0: f72c 4dbe feaf a5bd a8ea 123e ae2b 613e
000000d0: 9c32 823e 64c5 323e 568b b83e 0ea2 603e
000000e0: f671 c93e 9449 48be 371e 0a3e a577 2fbe
000000f0: de6d 1bbe b2a7 02be a8b2 67be f928 ab3e
