test/ens_models/ens_model_3_CA.pt (torch, 654481 bytes, 6 tensors)

layer0.weight f4 [20, 10]
0.49204302 0.74191463 -0.56719136 -0.4173167 -0.5595626 -0.64400023 0.04910966 0.49947092
0.20722628 -0.06558224 -0.67686707 -0.45700538 -0.5145399 -0.0017483202 -0.1832458 -0.70832896
-0.011064352 0.10498136 0.027731098 -0.011049248 0.48773792 0.8627216 -0.07021035 0.8698311
0.11607671 -0.51678777 -0.80547905 0.20142101 0.75535476 0.069122516 0.53218824 -0.5023514
0.9358996 -0.18082613 -0.33894807 -0.13443771 -0.11487082 0.8153919 0.1426239 -0.44265884
0.09312845 -0.51386905 0.13400829 0.07634949 -0.32157072 -0.3390482 -0.88331395 -0.053393357
-0.38407308 0.32898447 0.43521625 -0.48679814 -0.91602033 -0.1085272 -0.43241525 -0.17447303
0.64946103 0.22488534 -0.07613232 0.3292802 -0.14301664 -0.4495464 -0.024151918 -0.2428069
0.0070871897 -0.381536 0.6408995 0.19581 -0.23760279 0.14217797 0.056133814 -0.061693978
-0.3907845 0.5525992 0.24334131 -0.057446904 0.00042311102 -0.5121218 -0.14762898 -0.4228793
-0.7303088 0.028549165 0.25418836 0.5004747 -0.159158 0.52303106 0.29719356 1.3393688
0.12901275 0.15774697 0.023253085 -0.71242315 0.32710686 0.2579363 -0.61582714 0.5537638
-0.06570348 -0.5284397 0.64716774 0.28273228 -0.69781005 -0.4084157 0.8268554 -0.15121484
-0.2002426 -0.9627332 0.18233038 -0.3981567 -0.09258656 0.38848746 -0.69767535 1.0987334
0.14546725 0.42439276 0.39380497 0.04081139 0.673918 -0.38693205 -0.5196938 -0.07604312
-0.5360548 0.9301288 0.029917952 -0.42585883 0.32433274 0.85835063 -0.15390494 -0.5074167
0.36930823 -0.26429686 -0.09139041 -0.31319085 -0.27155825 0.7673066 0.11986932 0.3925878
-0.24809398 0.58356655 -0.7891132 0.14347899 -0.06877026 0.23853876 -0.63368034 0.61765933
-0.13191716 0.106438525 0.12544897 0.40347844 0.15683505 -1.2670816 -0.07729956 -0.10604596
-0.93844646 0.08529533 1.0803118 -0.36610848 0.42617142 0.3984493 0.5817171 0.36110544
0.034640443 0.11433344 -0.4639523 0.23569289 0.6714368 0.24384435 0.23265931 0.11119651
-0.13325037 0.3202347 -0.9022725 -0.7854002 -0.28239924 0.1251192 -0.42025214 1.0929308
0.23784563 0.4684159 -0.1360681 -0.31080934 0.65202796 -0.37054512 0.21268626 0.8536349
-0.23212688 0.60633206 -0.009465832 0.7881484 -0.76085484 -0.017816482 -0.30829987 -0.014213028
0.12769182 -0.18500902 -0.3031726 0.4723631 -0.6541626 -0.4089686 -0.50801873 0.8769734
00000000: 10ed fb3e 1eee 3d3f 7433 11bf 89aa d5be
00000010: 7f3f 0fbf 33dd 24bf 3627 493d a7ba ff3e
00000020: 2033 543e fb4f 86bd 2947 2dbf 9cfc e9be
00000030: e3b8 03bf e427 e5ba c9a4 3bbe 0c55 35bf
00000040: 4147 35bc 7800 d73d 542c e33c e807 35bc
00000050: c9b8 f93e 53db 5c3f 72ca 8fbd 40ad 5e3f
00000060: a0b9 ed3d 344c 04bf e033 4ebf 4f41 4e3e
00000070: ee5e 413f 1b90 8d3d 7d3d 083f 1a9a 00bf
00000080: 1e97 6f3f 7c2a 39be 9a8a adbe 0aaa 09be
00000090: 6441 ebbd 86bd 503f 000c 123e 2ea4 e2be
000000a0: 21ba be3d ec8c 03bf 7839 093e 1f5d 9c3d
000000b0: eba4 a4be ba97 adbe dd20 62bf feb2 5abd
000000c0: 3aa5 c4be a770 a83e aad4 de3e 9b3d f9be
000000d0: 4f80 6abf 8243 debd 8865 ddbe 0fa9 32be
000000e0: 1443 263f 5848 663e 43eb 9bbd 6a97 a83e
000000f0: f472 12be f22a e6be 3eda c5bc 5fa2 78be
00000100: a83b e83b b058 c3be fd11 243f 6b82 483e
00000110: 254e 73be 1a97 113e 92ec 653d d3b2 7cbd
00000120: e814 c8be 2477 0d3f 772e 793e 724d 6bbd
00000130: 00d5 dd39 6a1a 03bf 0d2c 17be a383 d8be
00000140: 84f5 3abf f0df e93c fa24 823e 1c1f 003f
00000150: 51fa 22be 5de5 053f c129 983e 7070 ab3f
00000160: eb1b 043e 6c88 213e 417d be3c 5d61 36bf
00000170: 8d7a a73e 3a10 843e d9a6 1dbf 77c3 0d3f
00000180: 8c8f 86bd d347 07bf c9ac 253f 49c2 903e
00000190: aea3 32bf dd1b d1be ccac 533f 10d8 1abe
000001a0: 650c 4dbe af75 76bf d1b4 3a3e 32db cbbe
000001b0: 069e bdbd d4e7 c63e da9a 32bf 4ca3 8c3f
000001c0: 5ef5 143e 024a d93e cea0 c93e d829 273d
000001d0: e485 2c3f f51b c6be a70a 05bf 7fbc 9bbd
000001e0: e33a 09bf ec1c 6e3f 7e16 f53c 2b0a dabe
000001f0: f10e a63e debc 5b3f 4299 1dbe 10e6 01bf
00000200: f815 bd3e eb51 87be e52a bbbd 8d5a a0be
00000210: af09 8bbe 356e 443f 0c7e f53d 4501 c93e
00000220: 590c 7ebe 9e64 153f 5303 4abf 28ec 123e
00000230: 6cd7 8cbd 8143 743e e038 22bf ec1e 1e3f
00000240: 4b15 07be 71fc d93d b275 003e ba94 ce3e
00000250: 5e99 203e bb2f a2bf 3b4f 9ebd a02e d9bd
00000260: 073e 70bf 51af ae3d a847 8a3f 9272 bbbe
00000270: 2433 da3e 8c01 cc3e 69eb 143f d0e2 b83e
00000280: 23e3 0d3d a727 ea3d 288b edbe 7a59 713e
00000290: 48e3 2b3f 55b2 793e 3e3e 6e3e ffba e33d
000002a0: c972 08be cdf5 a33e 55fb 66bf fd0f 49bf
000002b0: a296 90be 3f1f 003e 4a2b d7be 28e5 8b3f
000002c0: ce8d 733e 35d4 ef3e 7055 0bbe 6722 9fbe
000002d0: 4eeb 263f 17b8 bdbe 6dca 593e d187 5a3f
000002e0: abb2 6dbe 9438 1b3f 9416 1bbc 18c4 493f
000002f0: 62c7 42bf dff3 91bc 7bd9 9dbe c3dd 68bc
00000300: a5c1 023e 0173 3dbe 7039 9bbe 94d9 f13e
00000310: 3377 27bf 5564 d1be 840d 02bf 5481 603f

layer1.weight f4 [256, 570]
0.026296105 0.0034111221 -0.021280304 -0.081404 0.00834356 0.008010608 0.029363237 -0.030119793
0.08227524 -0.025359543 0.03118127 0.0401843 -0.026731286 0.055415522 0.2479062 0.057590883
0.17173165 0.04570884 -0.007102455 -0.011123646 0.07522913 0.0132298125 0.05396441 -0.025376605
0.0843074 0.009550037 0.001600581 0.006557474 0.0030058513 -0.015389728 0.19708052 0.16641285
0.12679924 0.034782898 0.014076217 0.023309236 0.0071822475 0.021183608 -0.006480222 -0.011876224
-0.7001552 -0.0903428 0.14746232 -0.23310468 -0.009991554 0.07644193 0.12186672 0.04842392
-0.032286122 0.02901858 -0.069589 -1.5537593 0.05003437 0.12046983 -0.088058196 0.06423897
0.18927597 0.038451295 0.0042223143 0.18930155 0.07053242 0.083268344 -0.30531177 0.03366102
0.013837824 0.020899482 -0.0073571545 0.021682365 -0.026903216 0.39636564 -0.08917543 0.030410454
0.31230122 -0.61611724 -0.46219665 0.75199735 -0.06305789 0.22213136 -0.9162063 0.22154698
-0.019346748 -0.035317596 0.019359585 -0.006846338 0.0066438885 0.022296434 0.0050261063 -0.21372145
0.20512907 -0.03908416 0.04300178 -0.043365087 -0.07496951 -0.024678856 -0.014388369 0.025135383
-0.14912827 -0.036689952 -0.04007806 0.14468342 0.3015474 -0.016985798 -0.019123858 0.004926782
-0.050562106 0.082329676 0.027917922 -0.12927409 -0.6547429 0.08663643 -0.100750186 0.19456105
-2.1144102 0.06294908 -0.036568213 0.052400682 -0.5244501 0.03425559 -0.032241475 0.012849098
0.013448328 0.01867064 -0.0025664011 0.063209906 -0.020857675 0.0014269523 0.03607033 -0.11718489
0.07477607 -0.025814533 0.00028018063 0.061883748 -0.07048007 -0.037460625 0.08831377 -0.00849935
-0.055635158 -0.1048953 0.03438685 0.24187711 -0.30854115 -0.21752398 -0.10960299 0.682387
-0.11300426 0.05436646 0.020318054 -0.05466492 -0.090177156 0.035597157 -0.008107876 -0.0450292
0.0009956732 0.06267595 -0.016766556 0.035848968 0.03383295 -0.01760048 -0.019003533 -0.030582832
0.019663168 -0.004884976 -0.0375907 0.032250203 0.043410603 0.08729857 -0.080254234 0.120679885
-0.06234865 0.014671462 0.14981423 -0.01982725 0.31199992 0.07450084 -0.027336573 -0.510007
-0.25526303 -0.37247398 0.14884345 0.50563973 -0.3810201 -0.0604739 0.022730416 0.39178768
-0.09526128 0.0518445 0.009763308 0.070624754 -0.17171258 0.045334447 0.040322617 -0.02007978
-0.07516148 -0.010824468 0.036247388 0.17015637 0.21012107 -0.06333108 -0.0022870507 0.075521156
0.15121748 0.025346667 0.054349355 0.11619004 0.32948926 -0.018479824 0.13372266 0.4113796
0.0011631191 0.02383866 -0.0060299053 -0.026942274 0.050393783 0.09936335 0.022781648 0.00380872
-0.17755696 0.0015279676 -0.010133855 0.20110926 -1.1437945 0.07178544 0.11986182 0.19447897
-0.48351148 0.22352625 0.31451002 0.24039541 0.10051226 0.10619144 0.040325586 0.17770135
0.3066816 0.21284053 -0.047251076 0.10137584 1.5584868 0.19758785 0.41310292 1.3326153
-0.018549744 0.094744064 0.05833425 -0.029875496 0.111306585 0.028471356 0.010149712 -0.035342187
-0.038295098 0.027730837 -0.03596261 -0.06130274 -0.06639824 0.061434817 -0.04737465 0.061042283
00000000: ee6a d73c 228d 5f3b 0854 aebc 24b7 a6bd
00000010: 6db3 083c ed3e 033c 2c8b f03c c9bd f6bc
00000020: ec7f a83d d1be cfbc dd6f ff3c 4b98 243d
00000030: 92fb dabc 63fb 623d 1fdb 7d3e 6be4 6b3d
00000040: 6cda 2f3e 3139 3b3d b6bb e8bb f43f 36bc
00000050: bb11 9a3d dbc1 583c c909 5d3d 99e2 cfbc
00000060: 5ca9 ac3d c277 1c3c 96ca d13a 14e0 d63b
00000070: d1fd 443b 3325 7cbc 7acf 493e 2168 2a3e
00000080: a9d7 013e 8378 0e3d ef9f 663c 03f3 be3c
00000090: 0f59 eb3b 3f89 ad3c 0b58 d4bb 7e94 42bc
000000a0: 5f3d 33bf a505 b9bd 5d00 173e feb2 6ebe
000000b0: 9db3 23bc 968d 9c3d 4295 f93d 2958 463d
000000c0: 743e 04bd 60b8 ed3c ad84 8ebd 96e1 c6bf
000000d0: d7f0 4c3d e3b8 f63d db57 b4bd b98f 833d
000000e0: 8fd1 413e 1b7f 1d3d 575b 8a3b 44d8 413e
000000f0: 4d73 903d 9888 aa3d d351 9cbe 23e0 093d
00000100: 0ab8 623c 6435 ab3c 4914 f1bb 379f b13c
00000110: 2264 dcbc 70f0 ca3e 9ca1 b6bd 581f f93c
00000120: f2e5 9f3e dcb9 1dbf 0aa5 ecbe e682 403f
00000130: 7f24 81bd 6776 633e 7f8c 6abf 36dd 623e
00000140: 127d 9ebc 2fa9 10bd fe97 9e3c 3f57 e0bb
00000150: fab4 d93b 03a7 b63c 09b2 a43b ccd9 5abe
00000160: 5b0d 523e b616 20bd a222 303d 979f 31bd
00000170: 9d89 99bd 502b cabc 32bd 6bbc b8e8 cd3c
00000180: 15b5 18be 3448 16bd e428 24bd e427 143e
00000190: 6c64 9a3e cd25 8bbc a3a9 9cbc d870 a13b
000001a0: 361a 4fbd 769c a83d 20b4 e43c 6d60 04be
000001b0: 3b9d 27bf 716e b13d 1d56 cebd 033b 473e
000001c0: 7f52 07c0 72eb 803d 8dc8 15bd 19a2 563d
000001d0: 5d42 06bf 974f 0c3d a30f 04bd 0685 523c
000001e0: 6056 5c3c 2cf3 983c 1131 28bb 3274 813d
000001f0: b7dd aabc 9308 bb3a 7bbe 133d a2fe efbd
00000200: 3224 993d 0079 d3bc 35e5 9239 d079 7d3d
00000210: db57 90bd 5070 19bd dadd b43d dc40 0bbc
00000220: b1e1 63bd 59d3 d6bd 3ad9 0c3d a2ae 773e
00000230: 1bf9 9dbe 9bbe 5ebe 8877 e0bd eab0 2e3f
00000240: c76e e7bd 5daf 5e3d 0c72 a63c 53e8 5fbd
00000250: cdae b8bd 53ce 113d e6d6 04bc 8a70 38bd
00000260: 4081 823a 405c 803d 045a 89bc 5ed6 123d
00000270: 6b94 0a3d e22e 90bc 4cad 9bbc d988 fabc
00000280: a714 a13c 2612 a0bb b5f8 19bd ca18 043d
00000290: 51cf 313d 98c9 b23d 555c a4bd 0427 f73d
000002a0: 4c61 7fbd 9260 703c e768 193e c26c a2bc
000002b0: 74be 9f3e e593 983d f3f0 dfbc d28f 02bf
000002c0: d6b1 82be e9b4 bebe 6b6a 183e 9b71 013f
000002d0: 1115 c3be 7bb3 77bd 2335 ba3c 6598 c83e
000002e0: 5918 c3bd e65a 543d 48f6 1f3c b6a3 903d
000002f0: 6cd5 2fbe 9db0 393d 5429 253d 5a7e a4bc
00000300: 43ee 99bd 1c59 31bc 2478 143d 793d 2e3e
00000310: fa29 573e bab3 81bd 58e2 15bb d6aa 9a3d
00000320: c1d8 1a3e d0a3 cf3c 6e9d 5e3d 0bf5 ed3d
00000330: d1b2 a83e 0063 97bc 98ee 083e 59a0 d23e
00000340: cd73 983a 4b49 c33c 8396 c5bb 0bb6 dcbc
00000350: b669 4e3d 037f cb3d 94a0 ba3c b89b 793b
00000360: 7ed1 35be 1646 c83a 7808 26bc 96ef 4d3e
00000370: dc67 92bf 3f04 933d 1d7a f53d 7f25 473e
00000380: d18e f7be 11e4 643e 7507 a13e 372a 763e
00000390: 5fd9 cd3d e67a d93d 712c 253d 58f7 353e
000003a0: 5f05 9d3e def2 593e 588a 41bd 239e cf3d
000003b0: 7f7c c73f 7854 4a3e 3a82 d33e 2393 aa3f
000003c0: a2f5 97bc 2d09 c23d e5ef 6e3d 75bd f4bc
000003d0: b5f4 e33d c33c e93c fa4a 263c f8c2 10bd
000003e0: 52db 1cbd c82b e33c 884d 13bd 9518 7bbd
000003f0: cdfb 87bd 13a3 7b3d ec0b 42bd 7907 7a3d

layer1.bias f4 [256]
0.017126223 0.003050578 -0.013984314 0.042950917 0.034449637 0.06592025 -0.029261447 -0.055245157
0.0055155177 -0.015409091 -0.00043195687 0.050448377 0.006381039 0.055985335 0.07661613 0.036191575
-0.04154708 -0.009198049 -0.015826538 0.03495409 0.023114325 -0.012111296 0.036314502 -0.00927457
0.020476118 0.019563323 0.057509117 -0.016449433 0.03879182 0.012293552 0.035158996 -0.013660142
-0.022510467 0.020235252 -0.01595371 -0.008862503 0.012400957 -0.03689868 0.026607404 -0.03189843
0.023963444 -0.037491456 -0.01288293 -0.00042138965 0.006065084 0.015361893 0.02762724 -0.035461027
0.024834959 -0.009605203 -0.022376882 0.010315804 0.07711924 -0.0011978898 0.029499276 -0.013289242
-0.02399296 -0.0049242806 -0.028263252 -0.011278679 -0.020405857 -0.024840819 0.0074219755 -0.034149613
-0.027196536 0.010728643 0.00960768 -0.007045496 -0.019567676 0.058651943 0.009695714 0.06965868
-0.032258328 -0.025271233 -0.039298765 0.018286102 -0.0011721676 -0.02459644 -0.004514565 0.038247965
0.021742938 0.0018673391 -0.047394946 0.07082961 -0.00787083 0.0083394805 0.039832093 0.0028985606
0.026146142 0.014044512 -0.045108713 -0.0015285846 -0.03945689 0.00073638425 0.046479158 -0.0023354634
0.032204326 0.023259087 -0.0020993378 -0.006407028 -0.019754937 -0.017328708 -0.03210218 0.01801559
0.020661905 0.032552388 0.018243797 -0.005527371 0.0012951698 -0.045722052 -0.017652104 0.004704261
0.016196227 -0.0051754746 0.049121626 -0.035667647 -0.006188816 0.023578731 0.018086797 0.035821192
-0.022647507 0.023682257 -0.0028943901 -0.039856814 -0.015201027 0.03399332 0.04042151 0.030174816
-0.046592064 -0.019419916 0.0021132191 -0.043862347 0.019639863 -0.012033364 0.011564393 -0.0019067719
0.012078769 0.017475553 -0.0005693292 -0.019222232 0.029304605 -0.028556375 -0.02132759 0.03618639
-0.04663366 0.005650449 0.0029677476 -0.013761916 -0.011612503 0.038862955 0.025141235 -0.03328645
0.0490581 0.020151054 0.020714592 -0.022606729 0.0049147694 0.0075452216 0.015024432 -0.04704548
-0.0064657223 0.024645377 0.018606473 0.02309916 -0.00015296435 -0.031653747 0.025456384 0.0053042667
-0.012164108 0.031120056 0.023868598 -0.014870102 0.03963143 -0.012211057 0.00321501 -0.022728115
0.01675298 0.0029403006 0.021248274 -0.0021894635 -0.01839227 0.0030297283 -0.028417325 -0.009059029
-0.019798826 -0.040831264 0.019787723 0.02649549 -0.02244879 -0.011946247 0.016989017 0.015601321
-0.026338484 -0.012887964 -0.039604258 0.04842598 -0.047323126 -0.035977874 0.04894093 0.012652643
-0.03670623 -0.034729216 -0.03788224 -0.021578206 0.037139624 -0.014916479 -0.02977056 -0.040799607
0.038133774 -0.028223818 -0.012958305 0.038019773 0.02823909 0.010544841 -0.014113966 -0.00060038845
0.036345962 0.029644657 -0.0006144905 -0.00421559 -0.007142086 0.033297833 0.005945567 0.044349898
-0.019664867 -0.012081715 -0.017789911 0.054816123 0.078689165 0.03684272 0.014380948 0.018481195
-0.009917615 0.018518489 -0.027060952 0.007144015 0.0131893465 0.029934844 0.011567139 0.058461253
-0.06119562 -0.036215417 0.014511994 0.052980207 -0.018746682 0.039089773 0.013716839 0.028417127
-0.032222934 -0.035959236 -0.02934503 -0.018744817 -0.019744264 -0.020441527 0.012254993 0.009034494
00000000: 4b4c 8c3c 35ec 473b 771e 65bc 4ded 2f3d
00000010: 101b 0d3d 3201 873d b4b5 efbc bf48 62bd
00000020: 84bb b43b 6976 7cbc 4578 e2b9 f5a2 4e3d
00000030: 0918 d13b e150 653d ebe8 9c3d 9e3d 143d
00000040: 452d 2abd 6ab3 16bc a8a6 81bc 052c 0f3d
00000050: 415a bd3c 756e 46bc 84be 143d 5ef4 17bc
00000060: 88bd a73c 4343 a03c ae8e 6b3d f6c0 86bc
00000070: 2ce4 1e3d e56a 493c e102 103d cace 5fbc
00000080: df67 b8bc 66c4 a53c 5bb1 82bc 0834 11bc
00000090: 622d 4b3c 1223 17bd c5f7 d93c eea7 02bd
000000a0: fc4e c43c a490 19bd ed12 53bc f6ed dcb9
000000b0: 9dbd c63b 73b0 7b3c 8652 e23c 953f 11bd
000000c0: af72 cb3c 245f 1dbc b94f b7bc 9e03 293c
000000d0: b1f0 9d3d 8302 9dba 77a8 f13c 1fbb 59bc
000000e0: e28c c4bc dc5b a1bb 5688 e7bc 35ca 38bc
000000f0: 2f2a a7bc f97e cbbc 0b34 f33b 77e0 0bbd
00000100: 45cb debc 31c7 2f3c 8869 1d3c e7dd e6bb
00000110: 644c a0bc 053d 703d c6da 1e3c 36a9 8e3d
00000120: 4f21 04bd 9e05 cfbc bef7 20bd bccc 953c
00000130: 6ba3 99ba 797e c9bc ebee 93bb e6a9 1c3d
00000140: 3f1e b23c 81c1 f43a 3421 42bd 1d0f 913d
00000150: a7f4 00bc 51a2 083c fa26 233d c7f5 3d3b
00000160: 6f30 d63c f41a 663c eac3 38bd ca5a c8ba
00000170: 8c9d 21bd e909 413a ee60 3e3d 930e 19bb
00000180: afe8 033d d789 be3c 0b95 09bb 0cf2 d1bb
00000190: 1bd5 a1bc eff4 8dbc 937d 03bd 6e95 933c
000001a0: 2843 a93c a755 053d 0474 953c f31e b5bb
000001b0: b0c2 a93a 0c47 3bbd 259b 90bc 3426 9a3b
000001c0: f3ad 843c 0797 a9bb c233 493d 3d18 12bd
000001d0: 8dcb cabb 2f28 c13c c32a 943c 3eb9 123d
000001e0: 4487 b9bc 4b01 c23c cfaf 3dbb e640 23bd
000001f0: ba0d 79bc 943c 0b3d 0691 253d 2d31 f73c
00000200: 52d7 3ebd 8416 9fbc ef7d 0a3b 01a9 33bd
00000210: c7e3 a03c 9627 45bc 9478 3d3c a6ec f9ba
00000220: 07e6 453c e428 8f3c 093f 15ba f177 9dbc
00000230: 3610 f03c 0fef e9bc 33b7 aebc 2e38 143d
00000240: f002 3fbd 6727 b93b 8b7e 423b a979 61bc
00000250: 5e42 3ebc c32e 1f3d fef4 cd3c 5f57 08bd
00000260: 25f1 483d d313 a53c a6b1 a93c bf31 b9bc
00000270: 130c a13b e83d f73b 0929 763c c3b2 40bd
00000280: 69de d3bb 1ae5 c93c 9a6c 983c 733a bd3c
00000290: 0e65 20b9 5ca7 01bd e889 d03c 6acf ad3b
000002a0: f84b 47bc 7def fe3c 1488 c33c baa1 73bc
000002b0: 9154 223d e310 48bc ebb2 523b 5030 babc
000002c0: 8c3d 893c 0fb2 403b dc10 ae3c 1a7d 0fbb
000002d0: 63ab 96bc 688e 463b 73cb e8bc 526c 14bc
000002e0: 2631 a2bc af3e 27bd dd19 a23c 120d d93c
000002f0: 86e6 b7bc 31ba 43bc 8d2c 8b3c af9c 7f3c
00000300: cec3 d7bc 0a28 53bc 1338 22bd 525a 463d
00000310: e5d5 41bd 895d 13bd 4976 483d 084d 4f3c
00000320: 4659 16bd 3940 0ebd 682a 1bbd c7c4 b0bc
00000330: b81f 183d 3f64 74bc 64e1 f3bc 7d1d 27bd
00000340: 2932 1c3d a335 e7bc 124f 54bc 9fba 1b3d
00000350: aa55 e73c 45c4 2c3c 443e 67bc 6363 1dba
00000360: 81df 143d 5ad9 f23c c215 21ba ef22 8abb
00000370: 2908 eabb 4f63 083d 08d3 c23b 3da8 353d
00000380: 3718 a1bc 63f2 45bc 26bc 91bc df86 603d
00000390: c927 a13d 64e8 163d 119e 6b3c e065 973c
000003a0: 7e7d 22bc 16b4 973c eeae ddbc 5718 ea3b
000003b0: 2118 583c eb39 f53c 1984 3d3c 1175 6f3d
000003c0: 42a8 7abd 9e56 14bd b7c3 6d3c c601 593d
000003d0: a492 99bc 991c 203d 98bc 603c 09cb e83c
000003e0: 32fc 03bd fe49 13bd fd64 f0bc bb8e 99bc
000003f0: b9be a1bc fd74 a7bc 2bc9 483c 6a05 143c

layer2.weight f4 [64, 256]
0.028817693 0.10061408 -0.08789011 -0.026764086 -0.04114011 -0.06505954 0.15681219 0.039021935
-0.11518193 -0.09675544 0.1887641 -0.314477 0.09996627 -0.26154226 -0.045226153 0.14092575
0.09406798 0.094045036 0.061586376 0.10440081 -0.023684492 -0.019914439 0.12686874 0.20709032
-0.041866593 -0.071341574 -0.04973935 0.06301787 -0.14344154 0.18774794 -0.0007399734 0.10681233
-0.064506955 -0.34167627 0.45361105 -0.09123057 0.18175621 0.10880397 -0.27110717 -0.122044645
0.055234693 -0.25813836 -0.007811478 0.10651151 0.0041642026 0.059851967 0.01144083 -0.027391529
0.09522321 -0.107106596 -0.03268485 0.0819445 0.19501232 0.06275045 0.017383605 -0.0066248598
0.02267194 -0.060641326 -0.11951696 0.061935432 0.16533616 0.34239733 0.110575885 0.1327832
0.09406385 -0.028640375 0.01920483 0.06058283 -0.10613314 0.109414704 0.021534622 -0.009956101
-0.31941563 0.24356185 0.06592831 0.3174735 -0.0942623 -0.047187187 -0.06619274 0.08933776
-0.12111917 -0.06363041 0.011520584 0.013501649 0.17939308 -0.31807715 0.15185378 0.025413904
-0.10084475 0.12456804 -0.08444049 0.22233354 0.068000905 -0.038815763 -0.2022529 -0.10668854
0.029342782 -0.43639913 0.095531926 0.03929016 0.39181325 -0.07413743 -0.03357269 0.21041986
0.065059915 -0.31267977 -0.053288322 0.04384551 -0.21813554 -0.013513072 -0.03141152 0.1458408
-0.04932706 0.07924008 0.079470225 0.43118888 0.08957691 -0.10932011 -0.021745723 -0.086025074
0.10193677 -0.037694145 0.09872124 -0.05438423 -0.25087547 0.094908826 -0.14787318 -0.09560217
0.24817343 -0.018262412 0.049199406 -0.09628836 -0.052983176 0.051052142 0.033897165 0.14977238
0.02846913 0.14552204 0.20848104 -0.2287614 -0.30609682 -0.10662086 0.20025317 -0.11156228
0.1894743 -0.039972704 0.103620745 0.12734112 0.124868125 -0.04908426 -0.14503668 -0.07978488
0.109767415 0.04744526 0.036052164 0.27712998 0.026202459 0.094584376 -0.032760497 -0.040820483
-0.28682828 0.016400525 0.23528433 0.2112847 0.1692252 0.18539073 -0.17528981 -0.04905749
-0.16885091 -0.17659062 -0.040433995 0.079619385 -0.046251167 -0.0578169 0.23662655 0.15107515
-0.1481521 -0.386886 0.009997721 -0.37630087 0.16661602 -0.0962434 -0.022000922 -0.14384218
-0.088091925 0.28250724 -0.11175646 -0.061038584 -0.07573841 0.08104263 0.18011414 0.12926479
0.17323294 0.2232168 -0.091931865 0.15455766 0.027810575 -0.040043425 -0.061917845 -0.024703193
0.050756905 -0.23113124 0.09877956 -0.12256364 -0.17967658 0.122989446 -0.12088723 0.1328698
0.06693361 -0.04907333 -0.057017285 0.07668634 -0.18528838 -0.026241552 0.25251973 0.040089373
-0.18108813 -0.04044434 0.0065629696 -0.12662399 -0.06922182 -0.06310771 -0.02743638 -0.19354403
-0.01753983 0.11147932 -0.19623254 -0.008134679 0.052975807 0.045619443 0.024636395 -0.07149848
-0.33934015 0.086065136 0.18395902 0.12691696 -0.0704443 0.09960747 0.15889052 -0.04903655
0.10266967 0.20761071 0.01599405 -0.0036007343 -0.007785933 -0.10300617 -0.1363686 -0.063022636
-0.0709753 0.016746175 -0.08702498 -0.2168297 0.034132924 0.110100955 0.21252415 -0.10976567
00000000: 1513 ec3c c10e ce3d bbff b3bd 5b40 dbbc
00000010: 8882 28bd f03d 85bd 6093 203e 77d5 1f3d
00000020: 81e4 ebbd b727 c6bd 604b 413e 2103 a1be
00000030: 1ebb cc3d dee8 85be 0f3f 39bd d74e 103e
00000040: b7a6 c03d af9a c03d ff41 7c3d 18d0 d53d
00000050: fb05 c2bc 9b23 a3bc e1e9 013e 7c0f 543e
00000060: 4e7c 2bbd 881b 92bd 7dbb 4bbd 830f 813d
00000070: 57e2 12be ff40 403e c6fa 41ba 6cc0 da3d
00000080: 391c 84bd 31f0 aebe b53f e83e 18d7 babd
00000090: 4d1e 3a3e 9ed4 de3d 8fce 8abe 8bf2 f9bd
000000a0: c63d 623d b62a 84be 6df7 ffbb b522 da3d
000000b0: dd73 883b 5627 753d 5272 3b3c 3364 e0bc
000000c0: 6304 c33d b45a dbbd 8de0 05bd 85d2 a73d
000000d0: 4fb1 473e 4f83 803d 1068 8e3c 5a15 d9bb
000000e0: 81ba b93c 0a63 78bd 4fc5 f4bd 02b0 7d3d
000000f0: e24d 293e b44e af3e 9c75 e23d 52f8 073e
00000100: 8ca4 c03d 389f eabc 7353 9d3c b425 783d
00000110: 555c d9bd d114 e03d 6069 b03c ea1e 23bc
00000120: 728a a3be 4768 793e 6c05 873d e38b a23e
00000130: 980c c1bd 5a47 41bd 0f90 87bd b7f6 b63d
00000140: 540d f8bd a950 82bd d5c0 3c3c 0536 5d3c
00000150: d2b2 373e 02db a2be 8f7f 1b3e d230 d03c
00000160: b187 cebd 871d ff3d 23ef acbd 67ab 633e
00000170: 0f44 8b3d 47fd 1ebd 621b 4fbe 857f dabd
00000180: 4660 f03c b56f dfbe 3ea6 c33d b8ee 203d
00000190: bf9b c83e 5dd5 97bd 8483 09bd 4e78 573e
000001a0: 223e 853d 9017 a0be db44 5abd 5997 333d
000001b0: ec5e 5fbe ef65 5dbc 5ea9 00bd 4a57 153e
000001c0: 2c0b 4abd a048 a23d 49c1 a23d cac4 dc3e
000001d0: 1974 b73d 39e3 dfbd 1624 b2bc ea2d b0bd
000001e0: 3ac4 d03d 2d65 1abd 5d2e ca3d 00c2 5ebd
000001f0: c072 80be 8f5f c23d 116c 17be 12cb c3bd
00000200: 2d21 7e3e 0e9b 95bc 5185 493d d532 c5bd
00000210: e304 59bd 0d1c 513d c1d7 0a3d ee5d 193e
00000220: 1838 e93c bb03 153e 0e7c 553e 6e40 6abe
00000230: b9b8 9cbe 0a5c dabd 2b0f 4d3e c47a e4bd
00000240: 8d05 423e 6bba 23bd 1d37 d43d b665 023e
00000250: dcba ff3d 940c 49bd 7f84 14be 4166 a3bd
00000260: bdcd e03d f655 423d 6fab 133d fbe3 8d3e
00000270: 8aa6 d63c 74b5 c13d df2f 06bd 6133 27bd
00000280: 28db 92be 655a 863c 60ee 703e 045b 583e
00000290: 5f49 2d3e 11d7 3d3e 2c7f 33be 82f0 48bd
000002a0: 41e7 2cbe 2cd4 34be 1e9e 25bd 7d0f a33d
000002b0: dd71 3dbd 6ad1 6cbd 3b4e 723e 72b3 1a3e
000002c0: 2fb5 17be ec15 c6be 7bcd 233c 82aa c0be
000002d0: 649d 2a3e 421b c5bd 473b b4bc 5d4b 13be
000002e0: 8a69 b4bd caa4 903e 92e0 e4bd 9803 7abd
000002f0: bd1c 9bbd aef9 a53d d76f 383e fd5d 043e
00000300: fa63 313e f292 643e c646 bcbd 5d44 1e3e
00000310: 01d3 e33c 9304 24bd 919d 7dbd 5a5e cabc
00000320: 79e6 4f3d abad 6cbe f04c ca3d a502 fbbd
00000330: 23fd 37be e4e1 fb3d b993 f7bd 050f 083e
00000340: 7d14 893d 1e01 49bd f58a 69bd ba0d 9d3d
00000350: 3dbc 3dbe 86f8 d6bc 444a 813e c134 243d
00000360: 2b6f 39be f7a8 25bd 2e0e d73b b8a9 01be
00000370: 2bc4 8dbd 9d3e 81bd 42c2 e0bc 6830 46be
00000380: b1af 8fbc 454f e43d 2ff1 48be 5147 05bc
00000390: 29fd 583d 74db 3a3d 44d2 c93c cc6d 92bd
000003a0: febd adbe eb42 b03d c15f 3c3e 85f6 013e
000003b0: 1a45 90bd 00ff cb3d 32b4 223e 8dda 48bd
000003c0: 7a44 d23d e797 543e f405 833c 4cfa 6bbb
000003d0: 2421 ffbb e6f4 d2bd 36a4 0bbe 0312 81bd
000003e0: 805b 91bd 462f 893c 273a b2bd 9b08 5ebe
000003f0: f7ce 0b3d 9c7c e13d ee9f 593e d3cc e0bd

layer2.bias f4 [64]
0.03829414 0.008234691 0.01411353 -0.0509236 -0.07919716 -0.009026069 -0.08941115 -0.04114341
0.04923873 -0.009384054 0.018215507 -0.027390625 -0.042777814 0.0011515483 -0.024302213 -0.04093008
-0.032819916 0.018131638 0.02842814 -0.0991044 -0.01564393 -0.037396546 0.018990783 -0.021918146
0.022887176 0.031364363 -0.022279492 0.007186916 0.014353733 0.03195536 -0.0715965 0.004976911
0.021205444 -0.006942905 -0.11797186 -0.07073196 -0.006669581 -0.02893069 0.018329497 -0.037074454
-0.008359914 -0.06225199 -0.00593833 -0.028446374 -0.0010845077 -0.02184053 -0.0017683133 -0.046514083
-0.033176553 -0.052780952 0.00214326 0.021105407 -0.0065030875 0.016318077 -0.064010344 -0.037030175
0.061986294 0.02778952 0.04223005 0.01615269 0.007817506 -0.04788298 -0.047046915 -0.034191187
00000000: 51da 1c3d ccea 063c 6f3c 673c 4495 50bd
00000010: 1f32 a2bd 14e2 13bc 311d b7bd fe85 28bd
00000020: 8dae 493d 93bf 19bc b038 953c 4e62 e0bc
00000030: ca37 2fbd 8def 963a 6f15 c7bc 4da6 27bd
00000040: 2d6e 06bd cd88 943c 21e2 e83c 3ff7 cabd
00000050: b327 80bc 1f2d 19bd 8f92 9b3c af8d b3bc
00000060: e37d bb3c eb77 003d 7b83 b6bc 3980 eb3b
00000070: eb2b 6b3c a0e3 023d 30a1 92bd 5b15 a33b
00000080: 0ab7 ad3c 4f81 e3bb 3b9b f1bd ebdb 90bd
00000090: 808c dabb 0e00 edbc be27 963c 62db 17bd
000000a0: 05f8 08bc f1fb 7ebd 5396 c2bb 5f08 e9bc
000000b0: 0a26 8eba e9ea b2bc c0c6 e7ba 8d85 3ebd
000000c0: 23e4 07bd d730 58bd f075 0c3b 3fe5 ac3c
000000d0: da17 d5bb 7dad 853c db17 83bd f4ac 17bd
000000e0: 57e5 7d3d d9a6 e33c 6bf9 2c3d a552 843c
000000f0: ff14 003c f220 44bd 44b4 40bd 0f0c 0cbd

layer3.weight f4 [1, 64]
-0.18941157 0.099762686 0.14460729 0.29240564 0.17346458 0.15446956 0.2691971 0.23735666
0.059096437 0.19536918 -0.18352216 0.11990997 -0.31940907 0.13511583 -0.2735112 -0.26429957
0.1478216 0.2899828 0.19640286 0.27275878 0.35247555 0.10201134 -0.24943456 0.22252928
-0.31367522 -0.19249237 0.2275539 -0.21086073 0.09491911 -0.22612707 0.2366584 -0.21101469
0.19722554 -0.19815801 0.29972142 -0.3064567 -0.00020778815 -0.2290922 0.30977464 0.27207017
-0.10824595 0.25930133 -0.25213945 -0.3075228 -0.256761 -0.2661427 0.23866478 -0.18691339
0.24803162 0.20165356 0.035949413 -0.30060166 0.19292092 0.25121692 0.27580053 0.3805854
0.21803723 -0.18202627 -0.2996758 -0.22490078 -0.00017767692 -0.25164932 0.3478795 -0.14216451
00000000: 1bf5 41be 6150 cc3d ef13 143e 31b6 953e
00000010: b3a0 313e 452d 1e3e 34d4 893e a00d 733e
00000020: 1b0f 723d dc0e 483e 3ced 3bbe 5c93 f53d
00000030: 9689 a3be ce5b 0a3e a909 8cbe 4652 87be
00000040: 8c5e 173e a078 943e d51d 493e 0aa7 8b3e
00000050: ad77 b43e 52eb d03d c66b 7fbe b7de 633e
00000060: 0a9a a0be b81c 45be e403 693e e0eb 57be
00000070: f364 c23d db8d 67be 9456 723e 3c14 58be
00000080: 7ef5 493e efe9 4abe 1675 993e e5e7 9cbe
00000090: b5e1 59b9 2597 6abe c89a 9e3e c84c 8b3e
000000a0: 0db0 ddbd 25c3 843e 6c18 81be a173 9dbe
000000b0: 2e76 83be db43 88be 8a64 743e 3966 3fbe
000000c0: 00fc 7d3e 457e 4e3e b13f 133d 76e8 99be
000000d0: 108d 453e 819f 803e ba35 8d3e 17dc c23e
000000e0: 2745 5f3e 1865 3abe 1b6f 99be 644c 66be
000000f0: c94e 3ab9 2ed8 80be 431d b23e 9393 11be
