test/ens_models/ens_model_4_C.pt (torch, 654470 bytes, 6 tensors)

layer0.weight f4 [20, 10]
0	0xbe139df3	-0.14415722
1	0x3ee7992a	0.45234042
2	0x3eb62c81	0.3558083
3	0xbe9f87a4	-0.31158173
4	0x3f03e4e1	0.51521116
5	0xbeae0d11	-0.33994344
6	0x3f4a7a91	0.7909327
7	0xbf06ce94	-0.52658963
8	0x3c1bf725	0.009519373
9	0xbe08fde6	-0.13378105
10	0xbed033d9	-0.40664557
11	0x3f28c816	0.65930307
12	0x3f37095a	0.71498644
13	0x3ee74a57	0.45173904
14	0x3df50402	0.11963655
15	0xbf88f0d5	-1.0698496
16	0x3ed9f8be	0.42572588
17	0xbe73d673	-0.23812275
18	0xbbe50f23	-0.00699033
19	0xbf0d218c	-0.55129313
20	0xbf50a140	-0.8149605
21	0xbec1fcde	-0.37888235
22	0xbdcbf69e	-0.09959148
23	0xbf4c315c	-0.79762816
24	0x3da332dc	0.07968685
25	0xbec5c806	-0.38629168
26	0xbf230c38	-0.6369052
27	0xbd6330ff	-0.05546665
28	0x3f27dead	0.6557415
29	0xbeba7ab3	-0.36421737
30	0x3f17b974	0.59267354
31	0xbefb2cc9	-0.49057606
32	0xbf7b8a5d	-0.98258
33	0x3ec3c9dc	0.38239944
34	0x3eaa1d2c	0.3322538
35	0xbe952ef5	-0.29137388
36	0xbf056813	-0.5211193
37	0xbea13afc	-0.31490314
38	0x3edc3f73	0.43017158
39	0xbe8afe28	-0.2714703
40	0x3d8f36ad	0.069928505
41	0xbeda9a6c	-0.4269594
42	0x3f1f6a2a	0.6227137
43	0x3e965f76	0.29369706
44	0x3eb73baf	0.35787722
45	0xbfb62af0	-1.4231853
46	0xbe47fd62	-0.19530252
47	0x3f88ed8a	1.0697491
48	0xbd50a10b	-0.050934833
49	0x3c4997e0	0.012304276
50	0x3e1638ed	0.14670153
51	0xbed9890c	-0.4248737
52	0x3df49e15	0.11944214
53	0xbe7d362e	-0.24727699
54	0xbed34e46	-0.41270655
55	0xbc9ba369	-0.018998818
56	0xbe3f7a28	-0.18698943
57	0xbf8563d3	-1.0421089
58	0x3d95a274	0.07306376
59	0x3e81e379	0.2536886
60	0x3cbddc3a	0.023176301
61	0xbef43aa4	-0.4770099
62	0x3dd9595c	0.10612747
63	0x3ee70cee	0.45127052
64	0xbf2d662e	-0.6773404
65	0xbfbc4c7d	-1.4710842
66	0xbf48d551	-0.78450495
67	0xbef9fcf8	-0.48825812
68	0x3e6bf938	0.23044288
69	0x3e27edca	0.16399303
70	0xbea626b5	-0.32451406
71	0xbec4422d	-0.38331738
72	0xbe1600b1	-0.14648701
73	0x3edbdc9d	0.42941752
74	0xbdae723f	-0.085178845
75	0x3f4f9bbd	0.8109701
76	0x3f067f1b	0.525377
77	0x3f120784	0.5704272
78	0x3dfb14df	0.1225984
79	0x3e4467ab	0.19180171
80	0xbf4c2c1b	-0.797548
81	0xbe14b9aa	-0.1452395
82	0x3eb258c7	0.34833357
83	0x3dda4daa	0.106593445
84	0xbf05a2d1	-0.52201563
85	0x3e80583a	0.25067312
86	0xbecbe4c9	-0.39822987
87	0xbf4b649b	-0.79450387
88	0x3e87a45a	0.26492578
89	0xbdb6eeba	-0.08932252
90	0xbf7311ca	-0.9494902
91	0xbe965806	-0.29364032
92	0x3eb5bbf1	0.3549495
93	0x3f354740	0.70811844
94	0xbd9a61e4	-0.075382024
95	0x3ee6982c	0.45037973
96	0xbe8371cd	-0.2567276
97	0x3f6f8d00	0.93574524
98	0xbe188f8e	-0.14898512
99	0x3e83ea26	0.2576458
100	0x3cff6a1c	0.031178527
101	0xbee1ebdd	-0.44125262
102	0x3f028279	0.50980335
103	0x3f3802fa	0.7187954
104	0x3e3ced81	0.18449976
105	0x3f22c4e2	0.6358167
106	0x3e3af286	0.18256578
107	0xbe807cfb	-0.25095353
108	0xbefc5b01	-0.4928818
109	0xbd98c0b1	-0.07458628
110	0xbe13529e	-0.14386985
111	0x3f5fd769	0.87438065
112	0x3ed52c74	0.41635478
113	0x3eaf5115	0.34241548
114	0xbc8f4d32	-0.017492864
115	0x3e5a2dc8	0.21306527
116	0x3ebad59e	0.36491102
117	0xbe950472	-0.29104954
118	0x3ca1e26d	0.019761289
119	0xbdd6a423	-0.10480525
120	0x3edb5785	0.4284021
121	0x3f0a0fdc	0.5393045
122	0xbe4fa167	-0.20276414
123	0xbe572628	-0.21010649
124	0xbf2102b4	-0.6289475
125	0x3f107868	0.56433725
126	0x3e08168c	0.13289851
127	0x3e2b131c	0.16706508
128	0x3dcdf7f3	0.10057058
129	0xbe65aab0	-0.22428393
130	0x3db01181	0.085970886
131	0x3fb0724f	1.3784884
132	0xbf0963cb	-0.53667897
133	0xbf49c240	-0.78812027
134	0x3d795196	0.060868822
135	0x3f057aa7	0.5214028
136	0xbdab10fe	-0.083528504
137	0x3dafe48c	0.08588514
138	0xbebb42e5	-0.36574474
139	0x3e96b96f	0.2943835
140	0x3fab70e9	1.3393832
141	0xbda96679	-0.08271498
142	0x3f15c92e	0.585101
143	0x3d5a4f1b	0.053298097
144	0xbe547392	-0.20747212
145	0x3dad39e2	0.08458306
146	0xbdd66405	-0.10468296
147	0x3f17978e	0.5921563
148	0x3c9a5678	0.01884006
149	0x3f37ef4f	0.7184953
150	0xbdab99a2	-0.083789125
151	0xbed6183f	-0.41815373
152	0xbf324d21	-0.6964894
153	0xbeef4443	-0.46731767
154	0x3d85bbf5	0.065299906
155	0x3ebb08da	0.3653019
156	0x3ed32f2d	0.4124693
157	0x3f0aebea	0.54266226
158	0xbf974678	-1.181838
159	0xbd8c429d	-0.06848643
160	0xbd599faa	-0.053130783
161	0x3f0213a7	0.5081124
162	0x3ee77bb3	0.45211563
163	0x3ee57297	0.44813988
164	0xbf5693d3	-0.8381931
165	0xbe9b0e4e	-0.3028435
166	0x3db746a0	0.089490175
167	0x3f2dd5b2	0.679042
168	0x3e7ba86a	0.24575964
169	0xbf700911	-0.93763834
170	0xbd25abf1	-0.04044718
171	0xbd0dbb55	-0.034602482
172	0xbea2c215	-0.31788698
173	0xbeed7674	-0.46379435
174	0xbe2aa99a	-0.1666626
175	0x3ee9a13f	0.45630834
176	0xbecf0d36	-0.40439767
177	0x3d322566	0.043492697
178	0xbf79118f	-0.9729242
179	0x3ef5c9a2	0.48005396
180	0xbf1673db	-0.5877053
181	0x3f7b42cb	0.98148793
182	0xbf81097f	-1.0081023
183	0x3ebac924	0.36481583
184	0xbe27c875	-0.16385062
185	0xbf38cd33	-0.7218811
186	0x3da55f5c	0.08074829
187	0xbf3053c7	-0.68877834
188	0xbe4e9745	-0.20174892
189	0x3f2e5ff5	0.6811517
190	0xbe68bafa	-0.22727576
191	0x3da179fb	0.07884594
192	0xbe7327e0	-0.2374568
193	0xbda0f3dd	-0.07859013
194	0x3fab6440	1.3389969
195	0x3eafa4d3	0.34305438
196	0xbebcd274	-0.36879313
197	0x3d3df0ab	0.046372097
198	0xbe0388cf	-0.12845157
199	0xbe737dad	-0.2377841

layer1.weight f4 [256, 570]
0	0xbba9f13f	-0.0051862295
1	0x3c97747f	0.018488167
2	0x3e7440f9	0.2385291
3	0x3bcdaa4e	0.0062764054
4	0xbbeea4ee	-0.0072828447
5	0x3cc02861	0.023456754
6	0xbc14bd69	-0.009078362
7	0x3d902d56	0.07039897
8	0xbd9eadb8	-0.07747978
9	0xbe3bce5a	-0.18340436
10	0xbe138f3a	-0.14410105
11	0xbec8a19a	-0.39185792
12	0xbe4aded3	-0.19811563
13	0xbd915dca	-0.07097967
14	0x3e50c1ff	0.20386504
15	0xbe6d5a81	-0.23179056
16	0xbddd0d17	-0.10793512
17	0x3d1f00c4	0.03881909
18	0x3da6c920	0.0814383
19	0x3b0cfd86	0.0021513416
20	0xbe2dea7a	-0.16983977
21	0x3d8b55a1	0.06803442
22	0xbc779360	-0.0151108205
23	0xbc57c6b1	-0.01316993
24	0xbc0e6b48	-0.00869257
25	0xbe33e630	-0.17568278
26	0x3d0b8413	0.034061503
27	0xbde4e470	-0.111763835
28	0xbefd7488	-0.4950297
29	0xbf1d4f5c	-0.6144922
30	0xbe3a12c2	-0.18171218
31	0xbcaeaa24	-0.021321364
32	0xbe67854f	-0.22609447
33	0xbdcba6ba	-0.0994391
34	0x3c2ad0eb	0.0104257865
35	0x3e2879fb	0.16452782
36	0xbe46d2a6	-0.19416294
37	0xbe95a257	-0.29225418
38	0x3d2455bf	0.040120836
39	0xbd531bec	-0.0515403
40	0xbec27ade	-0.37984365
41	0xbeb7d2bf	-0.35902974
42	0xbefcd01f	-0.49377534
43	0xbf0ec074	-0.5576241
44	0xbe31dee2	-0.1737018
45	0x3d9de6fc	0.077100724
46	0xbde6cbbe	-0.112693295
47	0xbec9523e	-0.39320558
48	0xbd8901e5	-0.066898145
49	0xbbc640bf	-0.006050199
50	0xbc8e2687	-0.017352356
51	0xbe0a02e8	-0.13477671
52	0xbe8c5ff5	-0.2741696
53	0x3fdd8d58	1.730876
54	0x3eed71bd	0.46375838
55	0x3dc119de	0.09428762
56	0x3d8dc964	0.06923178
57	0x3dab5806	0.083663985
58	0xbd2447cb	-0.04010753
59	0xbd5f0b3d	-0.054454077
60	0x3bed4bb6	0.0072416915
61	0xbddd98bd	-0.10820148
62	0x3e4bc40e	0.19899008
63	0x3f9cdc97	1.2254819
64	0xbb978a6a	-0.0046246545
65	0x3cf18828	0.02948387
66	0x3c8d68d0	0.017261893
67	0x3d02671a	0.031836607
68	0xbb08957c	-0.0020841053
69	0x3c56efff	0.013118743
70	0xbe4ad694	-0.19808418
71	0xbfb81e10	-1.4384174
72	0x3deebee0	0.116575
73	0x3f83ea09	1.0305797
74	0xbe97ba08	-0.29634118
75	0xbe747862	-0.23874047
76	0xbeedc356	-0.46438092
77	0x3f02ea24	0.5113852
78	0x3e46b324	0.19404274
79	0xbfd6cc4a	-1.6781094
80	0x3b00ac16	0.0019633821
81	0xbc88a4a0	-0.016680062
82	0x3c4c6dc6	0.012477344
83	0x3c29c15e	0.010361044
84	0x3d3a4e19	0.045484636
85	0xbe144079	-0.1447772
86	0xbeb02a8a	-0.34407455
87	0xbdd62b7e	-0.10457514
88	0x3e1319dc	0.14365333
89	0xbde084f7	-0.10962861
90	0xbe0e65fa	-0.13906088
91	0xbf29cd07	-0.6632847
92	0x3e39d0cb	0.18146054
93	0x3b1f6326	0.0024320572
94	0x3c543a76	0.012953391
95	0xbedf7c1c	-0.43649375
96	0x3e14f759	0.1454748
97	0x3d98b550	0.074564576
98	0xbdcb4a4b	-0.0992628
99	0x3ce2cec2	0.02768648
100	0x3e088d83	0.13335232
101	0x3d9a13c3	0.075233005
102	0x3d3b62c9	0.045748506
103	0xbdcc862a	-0.09986527
104	0x3c7efafe	0.015562771
105	0x3e10529c	0.14094013
106	0x3c94ba7f	0.018155335
107	0xbe67e270	-0.22644973
108	0xbe155813	-0.14584379
109	0x3f019f07	0.5063328
110	0x3d69756a	0.05699674
111	0xbf088f12	-0.5334331
112	0xbdc23a48	-0.094837725
113	0x3c8c88cb	0.017155072
114	0x3d8657f0	0.065597415
115	0x3d76346b	0.060108583
116	0xbd12e5ee	-0.03586381
117	0x3d0a82c4	0.033816114
118	0x3e082154	0.13293964
119	0x3f83cda0	1.0297127
120	0x3d45aa5a	0.048258163
121	0x3d2277ed	0.03966515
122	0x3c8c16ef	0.01710078
123	0x3d79d4fd	0.060994137
124	0x3d0491d4	0.032365635
125	0x3d809dd8	0.06280106
126	0xbd70c69f	-0.05878317
127	0x3b79bd44	0.0038107196
128	0xbbebc886	-0.007195535
129	0x3d7877e0	0.060661197
130	0xbcef734c	-0.029229783
131	0xbcb27f85	-0.021789322
132	0xbd55f320	-0.052233815
133	0x3bcf46ec	0.006325593
134	0xbbd5ae53	-0.006521025
135	0x3dab6142	0.0836816
136	0xbb841cf9	-0.004031774
137	0xbdf40ebe	-0.11916874
138	0xbd511b4b	-0.05105142
139	0xbd1ca422	-0.038242467
140	0x3f02d537	0.5110659
141	0xbdced112	-0.10098471
142	0xbdc7b679	-0.09751601
143	0xbe3dd302	-0.18537524
144	0x3e06a9e2	0.13150743
145	0x3ca27aa0	0.019833863
146	0xbf0b26b9	-0.5435596
147	0xbe85bec8	-0.26122117
148	0x3d8232ab	0.063573204
149	0xbd01e840	-0.03171563
150	0xbdd2612e	-0.10272442
151	0xbdeeddd5	-0.11663405
152	0x3c91f05a	0.017814804
153	0xbd36cba9	-0.04462782
154	0x3cbf98d1	0.023388298
155	0xbd89b482	-0.06723882
156	0x3d49820b	0.049196284
157	0x3d3e7580	0.046498775
158	0x3be81189	0.0070821685
159	0x3d24a418	0.040195554
160	0xbd66bc76	-0.056332074
161	0x3dbdfafb	0.09276386
162	0x3d3bbf0e	0.0458365
163	0x3d4878af	0.048943218
164	0x3e4355d1	0.19075705
165	0xbda98717	-0.082777195
166	0xbcb4998a	-0.02204587
167	0x3e768402	0.24073794
168	0x3dbf67c9	0.09345967
169	0x3c6e8528	0.014558114
170	0x3e0c104f	0.13678096
171	0xbf04618a	-0.5171133
172	0xbe1f049d	-0.15529104
173	0x3d472a81	0.04862452
174	0x3ebcd82f	0.36883685
175	0xbfe10176	-1.7578571
176	0x3d683691	0.056692664
177	0x3e42bfe8	0.19018519
178	0xbe81bbd4	-0.25338614
179	0xbdf57317	-0.11984842
180	0x3e6fe277	0.23426233
181	0x3e107470	0.14106917
182	0xbd320585	-0.043462295
183	0xbd730df0	-0.059339464
184	0x3ebeaef4	0.37242854
185	0x3cbf09e1	0.02332014
186	0x3d479239	0.048723433
187	0x3b879765	0.0041379207
188	0xbc31d042	-0.010852875
189	0x3c2099ec	0.009802323
190	0x3c868373	0.016420102
191	0x3d30b3ca	0.04314021
192	0xbdf79046	-0.12088065
193	0x3d13feec	0.036131784
194	0x3d229b2b	0.03969876
195	0x3d3b6e87	0.045759704
196	0x3f240552	0.6407062
197	0x3e951476	0.29117173
198	0xbe9a2af4	-0.30110896
199	0x3e427875	0.18991263
200	0x3ee85ae1	0.45381835
201	0xbe5aaa55	-0.21354039
202	0xbd4298b6	-0.047508918
203	0x3dd94d4e	0.10610448
204	0x3f8fb77d	1.1227871
205	0xbda8cfee	-0.082427844
206	0x3e37c548	0.1794635
207	0x3f912abe	1.1341169
208	0x3c27c437	0.010239652
209	0x3c1ad0c7	0.00944919
210	0x388e8b54	6.7970395e-05
211	0x3d0407ec	0.032234117
212	0x3a990d21	0.0011676886
213	0x3c7e2bfa	0.0155134145
214	0xbc2e2cf4	-0.010630835
215	0xbc794295	-0.015213628
216	0x3c091562	0.0083669145
217	0xbcafc758	-0.02145736
218	0xbce871bd	-0.028374547
219	0xbc2cbe46	-0.010543412
220	0xbc345523	-0.011006626
221	0xbda0c222	-0.07849528
222	0xbe46ef9b	-0.1942734
223	0xbcd2ad3a	-0.025717366
224	0x3d6198aa	0.055077232
225	0xbd8ca098	-0.06866568
226	0xbff1dcc4	-1.8895497
227	0xbea61acb	-0.32442316
228	0x3d44eec5	0.04807927
229	0x3ebf5a16	0.37373418
230	0x3dc1c086	0.09460549
231	0xbeec85c1	-0.46195796
232	0x3e4acd04	0.1980477
233	0x3e86ccc7	0.26328108
234	0x3f57b596	0.84261453
235	0xbfa9d668	-1.3268557
236	0x3fb4e892	1.4133475
237	0x3eac5bac	0.3366369
238	0xbefe40b9	-0.49658754
239	0xbfae66ba	-1.36251
240	0xbbc93c09	-0.00614119
241	0xbcddbfc5	-0.027068982
242	0xbcc7b53d	-0.024378413
243	0x3cf4e696	0.029895108
244	0x3e427a7c	0.18992037
245	0x3e4c265d	0.1993651
246	0xbd9824a3	-0.07428863
247	0xbcd49946	-0.025951993
248	0x3e2e8f0a	0.17046753
249	0x3dbab594	0.091166645
250	0xbd942dec	-0.072353214
251	0x3c28da23	0.010305914
252	0x3dfc1d92	0.123103276
253	0xbd5fe6f1	-0.054663602
254	0xbda30329	-0.07959587
255	0x3d1193f5	0.035541493

layer1.bias f4 [256]
0	0xbcf02a8d	-0.029317165
1	0xbc576d44	-0.01314861
2	0x3ce69115	0.028145352
3	0x3c9ff160	0.019524276
4	0x3ca91afa	0.020642746
5	0xbd664843	-0.056221258
6	0xbbbb320d	-0.0057127536
7	0xbca36896	-0.019947331
8	0xbcc74c88	-0.024328485
9	0x3c9c8874	0.019108035
10	0xbcdaa654	-0.02669064
11	0xbc219bc3	-0.009863797
12	0x3d3fad27	0.04679599
13	0xbd488665	-0.048956294
14	0xbcfe16b3	-0.031016683
15	0xbb318017	-0.0027084404
16	0xbcb77df7	-0.022398932
17	0xbc71ca0e	-0.014757646
18	0xbd4b37c8	-0.049613744
19	0x3aca3fa2	0.0015430341
20	0x3cfa303f	0.030540584
21	0xbd0a6c5a	-0.03379474
22	0x3d4bd3b4	0.049762443
23	0x3c21227a	0.00983488
24	0x3a5f783e	0.00085246924
25	0x3c2e6f8a	0.01064671
26	0x3cc2763a	0.023738015
27	0x3d4aba22	0.049493916
28	0x3cbf9bce	0.023389723
29	0x3c76855c	0.015046444
30	0x3cad7648	0.021174565
31	0x3bdb1efe	0.006687044
32	0xbcd9e21a	-0.026597071
33	0xbad27278	-0.0016055843
34	0x3cf6fecd	0.030150795
35	0xbc9b3f21	-0.018951
36	0xbcb7a3ef	-0.022417037
37	0x3bce5dcb	0.006297802
38	0xbcb59e0c	-0.02217009
39	0x3ce3aed6	0.02779333
40	0xbcab0046	-0.020874154
41	0x3d04ccb7	0.032421794
42	0x3c9c94fa	0.019114006
43	0x3d39bbf4	0.04534526
44	0x3d2e5223	0.0425588
45	0xbb031e65	-0.002000713
46	0xbd3264de	-0.043553226
47	0xbd20a76c	-0.039222166
48	0xbb8ff80d	-0.0043935836
49	0x3b0d0e19	0.0021523295
50	0x3cae2844	0.021259435
51	0x3b97cdc5	0.004632684
52	0x3c897710	0.016780406
53	0xbae24946	-0.0017264269
54	0x3c5b4f23	0.013385567
55	0xbc48ad89	-0.012248405
56	0x3b4440a6	0.002994576
57	0xbc6310a1	-0.013858945
58	0xbc86f913	-0.01647619
59	0xbd107442	-0.035267122
60	0x3c722a8e	0.014780654
61	0xbca89561	-0.020579042
62	0x3d213b37	0.039363112
63	0x3cdc269c	0.02687388
64	0xbd836a37	-0.06416743
65	0xbba79128	-0.0051137395
66	0xbd3985e7	-0.045293715
67	0xbd49d60c	-0.049276397
68	0x3d365432	0.04451389
69	0x3c927890	0.017879754
70	0xbbad2f26	-0.0052851615
71	0x3cfcaf84	0.030845411
72	0xbcb29794	-0.021800794
73	0xbc6d63cc	-0.014489125
74	0xbc84985e	-0.016185936
75	0xbb8a5928	-0.004222054
76	0x3c9f0949	0.019413607
77	0x3c8f87f6	0.017520886
78	0x3d0a6a38	0.033792704
79	0x3d3b5308	0.04573348
80	0xbb8c6eb5	-0.0042856582
81	0x3c146cf6	0.009059181
82	0x3dc612e9	0.096715756
83	0xba6a06f2	-0.00089274265
84	0xbc56787e	-0.013090251
85	0xbcb2665e	-0.021777328
86	0xbc956ad5	-0.018239418
87	0xbd54df4c	-0.051970765
88	0xbd55908d	-0.052139807
89	0xbd0f45d7	-0.034978714
90	0xbc8ebbad	-0.017423475
91	0x3d832f6d	0.0640553
92	0xbd5e514b	-0.054276746
93	0xbc2956cc	-0.010335635
94	0x3d0c5618	0.034261793
95	0x3ab1ff18	0.0013580052
96	0xbc5d27ad	-0.013498229
97	0xbd261249	-0.04054478
98	0xbc70ca74	-0.014696706
99	0x3c91dee7	0.017806483
100	0xbd31964b	-0.04335622
101	0xbce5ad41	-0.028036715
102	0xbc72365b	-0.014783467
103	0x3c1550f5	0.00911354
104	0xbc164568	-0.009171821
105	0x3c9100f3	0.017700648
106	0xbc9801ea	-0.0185556
107	0x3c7ea985	0.015543346
108	0x3c5938ee	0.013258202
109	0xbcc36cf6	-0.023855668
110	0x3a646346	0.00087123027
111	0x3992242c	0.0002787424
112	0x3cceb561	0.025232973
113	0xbb2cd650	-0.0026372857
114	0xbca6b067	-0.020347787
115	0xbd5b157a	-0.05348728
116	0xbd0f2555	-0.034947712
117	0x3d6174bf	0.05504298
118	0xbc852c4f	-0.01625648
119	0x3cb8f196	0.022576135
120	0x3993ff32	0.0002822816
121	0xbcd8a57a	-0.026446093
122	0xbc098be3	-0.008395168
123	0x3d1e785e	0.03868901
124	0x3c451a4b	0.0120301945
125	0x3d32c960	0.043649077
126	0x3ac95d5f	0.001536291
127	0xbd886ac6	-0.066609904
128	0xbcda6cb2	-0.026663158
129	0xbc787df7	-0.015166751
130	0xbd81bbad	-0.063346244
131	0x3d05e03c	0.03268455
132	0x3c3f22e1	0.011666031
133	0x3d823f99	0.063597865
134	0xbd5b8952	-0.053597756
135	0xbc9766f4	-0.018481709
136	0xbd1b0a3c	-0.037851557
137	0xbd0548d1	-0.032540146
138	0x39e8ffb7	0.0004444101
139	0x3d29dcd1	0.041470353
140	0x3cc8e5e9	0.024523692
141	0x3d0ff28a	0.035143413
142	0xbb11ab56	-0.0022227368
143	0x3d061098	0.03273067
144	0xbbf5330f	-0.0074828933
145	0xbc314611	-0.010819928
146	0xbc78acfe	-0.015177963
147	0xbcb20ef9	-0.021735655
148	0x3d0d74c9	0.034535203
149	0xbb8a02b9	-0.0042117503
150	0x3d361848	0.04445675
151	0xbccbcd88	-0.024878278
152	0x3b7999f8	0.0038086157
153	0xbc7565d4	-0.014977891
154	0x3bdebfa3	0.006797747
155	0xbcb1cdcc	-0.021704577
156	0x3c66a801	0.014078141
157	0xbbb7eb60	-0.0056127757
158	0xbc008a55	-0.007845481
159	0xbb55e5ef	-0.0032638272
160	0x3c81de43	0.015853053
161	0x3a877943	0.0010335821
162	0x3c854e93	0.016272819
163	0xbcba92a7	-0.022775007
164	0xbd147013	-0.036239695
165	0x39561c0b	0.00020419077
166	0x3d301aeb	0.04299442
167	0x3dbbe328	0.09174186
168	0xba8bfba0	-0.0010679848
169	0x3ca0c7b9	0.019626485
170	0x3ac08be3	0.0014690127
171	0xbb96fef1	-0.004608028
172	0x3cf5470e	0.029941108
173	0x3d25306e	0.04032939
174	0x3c8bc480	0.017061472
175	0xbb31d011	-0.0027132074
176	0x3c2ada26	0.010427987
177	0xbd1b58fe	-0.037926666
178	0x3b8eaf8e	0.004354424
179	0xbce1e0f2	-0.027573083
180	0xbd0fc16a	-0.035096563
181	0xbd3b5d34	-0.045743182
182	0xbc3e769b	-0.011624957
183	0xba6d96e9	-0.000906332
184	0xbc0bd628	-0.008534946
185	0x3c616aba	0.013758356
186	0x3d3e5e79	0.046476815
187	0x3baaffba	0.0052184733
188	0x3c29de59	0.010367953
189	0x3a1eec47	0.000606243
190	0x3c229f97	0.0099257445
191	0x3aefea3a	0.0018304058
192	0xbb784e12	-0.003788833
193	0xbc7b8a75	-0.015352835
194	0xbd87fb43	-0.06639721
195	0xbd8a90bf	-0.067658894
196	0xbcc5ed19	-0.024160909
197	0xbcfdd997	-0.030987544
198	0xbd7e6825	-0.06211104
199	0x3c0fff6e	0.0087889265
200	0x3d094ad3	0.033518624
201	0xb9867c01	-0.00025650862
202	0x3d228d3a	0.039685465
203	0x3c9e7fb1	0.019347997
204	0xbc443e24	-0.011977706
205	0x3c872025	0.01649482
206	0x392c11a7	0.00016409774
207	0x3d219367	0.039447214
208	0x3b15893d	0.0022817396
209	0x3cb79687	0.022410644
210	0xbd34ad1d	-0.044110406
211	0x3d057870	0.03258556
212	0x3c590c50	0.013247564
213	0x3b826666	0.003979492
214	0xbd35cdb9	-0.044385646
215	0xbc138f54	-0.00900634
216	0xbd17be95	-0.037046988
217	0xbb1b007a	-0.0023651407
218	0xbd929761	-0.071577795
219	0x3d083678	0.03325507
220	0x3c6279ee	0.013823016
221	0x3d057136	0.03257867
222	0xbacd7a2e	-0.0015676671
223	0xbca63e7a	-0.020293463
224	0xbb811ce7	-0.003940213
225	0xbcad4389	-0.021150367
226	0x3c34e9cb	0.011042069
227	0xbd285354	-0.041095093
228	0xbd002acd	-0.031290818
229	0xbd302625	-0.043005127
230	0xbc6bcff6	-0.0143928435
231	0x3ab26fe3	0.0013613667
232	0x3cff3e3d	0.031157607
233	0x3b1226c8	0.0022300947
234	0xbd62295f	-0.055215236
235	0xbc7266e7	-0.014795042
236	0x3d152877	0.036415543
237	0xbcd789ef	-0.026310889
238	0x3bfc9236	0.0077078594
239	0xbd8ca354	-0.0686709
240	0x3d74beae	0.05975216
241	0x3d0692b4	0.03285475
242	0x3cea7bae	0.028623428
243	0x3d544154	0.051820114
244	0x3d1bf8ca	0.03807906
245	0xba4d4eb6	-0.0007831858
246	0x3d0a9acd	0.033839036
247	0x3cb03e22	0.021514002
248	0xbc9406b8	-0.01806961
249	0xbcabf77e	-0.020992037
250	0xbcb9bce2	-0.022673074
251	0xbd1d74a3	-0.03844131
252	0xbd85f71f	-0.06541275
253	0x3d11283d	0.035438765
254	0xbcd4c3b0	-0.025972217
255	0x3d253459	0.040333126

layer2.weight f4 [64, 256]
0	0x3c0230f9	0.007946246
1	0x3e18422a	0.1486899
2	0xbf1cc2ea	-0.61234915
3	0xbc236b19	-0.009974265
4	0xbcc6ad2d	-0.024252499
5	0x3dd954a5	0.10611848
6	0xbd7e941d	-0.06215297
7	0xbd2455a8	-0.04012075
8	0xbd39a82b	-0.045326393
9	0x3d244db6	0.040113173
10	0x3e792aa1	0.24332668
11	0xbd55336e	-0.052051
12	0xbdb08312	-0.0861875
13	0xbd05f90a	-0.032708205
14	0xbe0e0e42	-0.13872626
15	0x3e18c214	0.14917785
16	0xbda5d717	-0.08097666
17	0x3e536eee	0.20647785
18	0x3d85541f	0.065101855
19	0xbd6f542d	-0.058429886
20	0xbe9fb40e	-0.31192058
21	0x3db54755	0.08851496
22	0xbe748b11	-0.23881175
23	0xbec3318f	-0.38123748
24	0x3db229cc	0.08699378
25	0x3e537888	0.20651448
26	0x3e84dcd3	0.25949726
27	0xbd969880	-0.07353306
28	0x3e0ca9f7	0.13736711
29	0xbe2e5b8f	-0.17027114
30	0xbe1bcf84	-0.1521588
31	0x3eb2f0fc	0.3494948
32	0x3d7d37a2	0.061820634
33	0x3eadbca4	0.33932984
34	0xbe977513	-0.29581508
35	0x3da054f6	0.07828705
36	0xbeaedb37	-0.34151623
37	0xbe806bbc	-0.25082195
38	0x3d868d74	0.06569949
39	0x3e178a8e	0.14798948
40	0x3decf567	0.11570244
41	0xbe0df502	-0.13862994
42	0x3d33181f	0.043724176
43	0xbe46e1bd	-0.1942205
44	0xbdf41c26	-0.119194314
45	0x3edfd8ac	0.43719995
46	0x3eb83eda	0.35985452
47	0x3db2231c	0.08698103
48	0xbef4d5b2	-0.47819287
49	0x3e853ddd	0.2602376
50	0x3dada877	0.08479398
51	0xb9888675	-0.0002604012
52	0xbdfb3bbc	-0.12267253
53	0x3ec79629	0.3898175
54	0x3dc83839	0.097763486
55	0xbdf94ab5	-0.12172452
56	0x3e25c588	0.16188633
57	0xbce5ea12	-0.028065715
58	0x3e0fb7b8	0.14034927
59	0xbe2596f7	-0.1617087
60	0xbda946a6	-0.08265428
61	0xbeb43e5f	-0.35203835
62	0xbde216cf	-0.11039507
63	0xbe4fcd4d	-0.2029316
64	0x3de208b3	0.110368155
65	0xbda2a4c8	-0.07941586
66	0x3df0905c	0.11746284
67	0x3e53bc1c	0.20677227
68	0x3d0c0d33	0.034192275
69	0xbd4a792c	-0.049431965
70	0xbbc219aa	-0.0059234696
71	0x3e504a6f	0.20340894
72	0xbdba2d01	-0.09090615
73	0x3e996153	0.29957065
74	0xbcad15ee	-0.021128621
75	0x3e4be9ac	0.19913357
76	0x3dbd4b22	0.09242846
77	0xbd3c321d	-0.04594623
78	0xbf528d5a	-0.82246935
79	0xbba2e624	-0.0049712826
80	0xbeab12de	-0.33412832
81	0x3deecb96	0.11659925
82	0xbe20e890	-0.15713716
83	0x3e8bbbc3	0.27291688
84	0x3e2ce2dd	0.16883416
85	0x3e008ce5	0.12553747
86	0xbd119ea5	-0.035551686
87	0x3d8db8cc	0.06920013
88	0xbcc01c45	-0.02345098
89	0xbe14d954	-0.14536029
90	0x3d2b4e85	0.04182293
91	0xbe1b702b	-0.15179507
92	0xbd5f781a	-0.054557897
93	0x3e69abff	0.22819518
94	0x3c28ffaa	0.010314861
95	0x3ae2edd1	0.0017313306
96	0xbe64c319	-0.22340049
97	0x3e2adab9	0.16684999
98	0xbe8561ca	-0.2605117
99	0xbcb67e33	-0.022276973
100	0x3e123f59	0.14281978
101	0x3e39cc93	0.18144445
102	0xbdc88ca5	-0.09792451
103	0xbd96c36c	-0.073614925
104	0xbb97a6ad	-0.0046280236
105	0x3d2cc336	0.042178355
106	0x3e770c3a	0.24125758
107	0x3e4e20ad	0.20129652
108	0xbdb7c08c	-0.08972272
109	0x3e7ceb42	0.24699119
110	0x3d49dcf8	0.049282998
111	0x3dc8b65e	0.09800409
112	0xbdb91784	-0.090376884
113	0xbec8614d	-0.39136735
114	0x3d58f8ca	0.05297164
115	0x3e8552ab	0.26039633
116	0xbe2de798	-0.16982877
117	0x3ab1d69b	0.0013567986
118	0xba70e39e	-0.0009189191
119	0x3c193293	0.009350437
120	0x3f323d65	0.6962493
121	0xbdedf379	-0.11618704
122	0x3db28101	0.08716012
123	0xbf067c25	-0.5253318
124	0xbc9ea08d	-0.019363666
125	0xbe902059	-0.2814968
126	0xbeebc8af	-0.46051547
127	0x3e746b87	0.23869143
128	0xbdd6429f	-0.10461926
129	0xbe32b75e	-0.17452762
130	0x3d4e70d9	0.05040059
131	0xba5df345	-0.0008466731
132	0xbdc59917	-0.0964834
133	0x3db0bd9f	0.08629917
134	0x3e35b0e5	0.17743261
135	0xbe231a22	-0.15927938
136	0xbd686b2f	-0.056742843
137	0xbb01b9c7	-0.001979457
138	0xbf0f5014	-0.55981565
139	0x3be78edc	0.0070665907
140	0x3c461b56	0.012091478
141	0x3dc79f8a	0.097472265
142	0x3cb9d062	0.022682372
143	0xbe0db92f	-0.13840173
144	0xbe24a2c8	-0.16077721
145	0x3e1c5e46	0.15270337
146	0x3eb1ecb6	0.3475091
147	0x3db0b525	0.086283006
148	0xbeb9f9fd	-0.36323538
149	0xbcc5826f	-0.024110047
150	0x3cb725fb	0.022356978
151	0x3dd6fb96	0.10497205
152	0x3d8e2766	0.069411084
153	0xbcbce642	-0.023059014
154	0x3e8e2264	0.27760613
155	0x3d0be379	0.03415248
156	0xbddd1649	-0.10795266
157	0x3d51cd7c	0.051221356
158	0xbdf25027	-0.11831694
159	0x3ddd48b7	0.10804885
160	0x3cec7b1a	0.028867293
161	0x3e36c7ce	0.17849657
162	0x3d552040	0.05203271
163	0xbd87773f	-0.06614541
164	0xbe81d014	-0.25354064
165	0xbe128486	-0.14308366
166	0xbe59a252	-0.21253327
167	0xbe8ce8a7	-0.2752125
168	0x3d0f7d89	0.03503183
169	0xbdc7c8cc	-0.09755096
170	0x3ab31ac4	0.0013664593
171	0x3de610a7	0.11233645
172	0x3bad3807	0.00528622
173	0x3d885af9	0.06657977
174	0xbc7330e9	-0.014843204
175	0x3c899db2	0.016798828
176	0xbd0d3d15	-0.03448208
177	0xbd87676b	-0.06611522
178	0xbd62efcf	-0.05540448
179	0xbe08f900	-0.13376236
180	0x3e4e14b6	0.20125088
181	0x3de36715	0.11103646
182	0xbc0dbdfd	-0.008651254
183	0x3db53777	0.0884847
184	0xbe131382	-0.1436291
185	0x3ec5117a	0.38489896
186	0xbe3cf7f3	-0.1845396
187	0x3e219d37	0.15782629
188	0xbc280374	-0.01025473
189	0x3c79fc15	0.015257855
190	0x3cbae002	0.022811893
191	0x3cbf0dac	0.023321949
192	0x3e6693bc	0.22517294
193	0x3f663e61	0.8993893
194	0x3e72dff7	0.23718248
195	0xbd830eeb	-0.0639933
196	0xbe0b08d8	-0.13577592
197	0xbd9d804a	-0.07690485
198	0x3e7e7489	0.24849142
199	0xbd962514	-0.07331291
200	0xbbf17cc8	-0.0073696114
201	0xbe0fe6ad	-0.1405284
202	0x3e200a99	0.15629043
203	0xbe34c75b	-0.17654173
204	0xbd5b1072	-0.05348248
205	0x3d147666	0.036245726
206	0x3d1eaee4	0.038741007
207	0x3d91bbc6	0.07115893
208	0xbda4d28a	-0.0804797
209	0x3dd6daf4	0.10490981
210	0x3e0dcb73	0.13847141
211	0xbdd3ca6e	-0.10341345
212	0xbe9212f3	-0.28530082
213	0xbeca9b13	-0.39571437
214	0xbce8f8fe	-0.028439041
215	0xbcf6c7e1	-0.030124607
216	0x3d083296	0.033251368
217	0xbe39c200	-0.18140411
218	0x3e5e14a2	0.21687558
219	0xbe65a7d2	-0.224273
220	0xbbbdf538	-0.0057970546
221	0xbe23ec03	-0.16008
222	0xbd86a6ca	-0.06574781
223	0xbe8d7392	-0.27627236
224	0xbd948c1f	-0.072532885
225	0x3e2b1785	0.1670819
226	0x3d49b20a	0.049242057
227	0x3e4266c6	0.18984517
228	0x3e116a1e	0.14200637
229	0xbe809168	-0.25110936
230	0xbe022028	-0.12707579
231	0xbd426e7e	-0.047468655
232	0x3d74b55d	0.059743274
233	0x3e92864f	0.28618094
234	0x3f102b6c	0.56316257
235	0x3e9fb959	0.31196097
236	0x3e8971e9	0.2684472
237	0xbed3bffd	-0.41357413
238	0xbea9ed90	-0.33189058
239	0xbec9bca7	-0.39401743
240	0xbe86e6d5	-0.26347986
241	0xbe46587f	-0.19369696
242	0xbe84c838	-0.25934005
243	0x3edc881c	0.43072593
244	0xbd261633	-0.040548515
245	0x3f087a00	0.5331116
246	0xbf29c80b	-0.66320866
247	0xbd8d13dd	-0.06888554
248	0x3da88ae0	0.08229613
249	0x3e68d545	0.22737606
250	0xbdcbb2b0	-0.09946191
251	0xbe839942	-0.25702864
252	0x3daec258	0.08533162
253	0xbe3abad7	-0.18235336
254	0x3d2a2363	0.041537654
255	0x3eae5758	0.34051013

layer2.bias f4 [64]
0	0xbd6d3c0f	-0.057918604
1	0x3dd16bf8	0.102256715
2	0xbc9d79da	-0.019223142
3	0xb88e243a	-6.7778354e-05
4	0x3d9f02f9	0.07764239
5	0xbd727f2c	-0.05920331
6	0xbd605aff	-0.05477428
7	0xbbb1d39e	-0.005426838
8	0xbcbcb265	-0.023034284
9	0xbd5a2185	-0.053254623
10	0xbd2d5bf4	-0.04232402
11	0x3d44531a	0.047930814
12	0x3bf38120	0.0074311644
13	0x3cdc5f64	0.026900955
14	0xbdb0b527	-0.08628302
15	0xbd19bdba	-0.037534453
16	0xbc4c862a	-0.012483159
17	0xbdaa8da8	-0.083278
18	0xbd92ed46	-0.071741626
19	0x3c9bcc0a	0.019018192
20	0xbcce74cc	-0.025202177
21	0xbbc503bc	-0.006012408
22	0xbca500a9	-0.020141916
23	0x3c50e431	0.012749718
24	0x3ce3b08b	0.027794143
25	0xbd427803	-0.047477733
26	0x3caf1f24	0.021377154
27	0xbd9cae24	-0.07650402
28	0x3cd96da2	0.026541535
29	0x3cf233b1	0.029565664
30	0x3d35b0a8	0.044357926
31	0x3c946c58	0.018118069
32	0x3cbad55e	0.02280682
33	0xbd6a41a1	-0.057191495
34	0xbb20dd32	-0.0024545905
35	0x3d411f6a	0.0471491
36	0x3cd9ca32	0.026585672
37	0xbd6c6763	-0.057715785
38	0x3d000c82	0.03126193
39	0xbda765a0	-0.0817368
40	0xbd378620	-0.044805646
41	0xbd3d26ab	-0.046179455
42	0xbd266c01	-0.040630344
43	0xbd2f2edc	-0.042769298
44	0xbb4a3049	-0.0030851534
45	0xbcf23e66	-0.02957077
46	0xbda9a1b9	-0.08282799
47	0x3d3f7bdb	0.046748977
48	0xbb823601	-0.003973723
49	0x3bd98c3f	0.006639033
50	0xbd937346	-0.07199721
51	0x3d2cf6ad	0.042227436
52	0x3c43f1ed	0.011959535
53	0x3d50946b	0.050922792
54	0x3de3a041	0.111145504
55	0xbc209b21	-0.009802611
56	0x3b2844c6	0.0025675758
57	0xbd0bdf68	-0.034148604
58	0xbd8a618c	-0.06756887
59	0xbc562367	-0.013069964
60	0xbbae62dd	-0.005321844
61	0xbccb370d	-0.024806524
62	0xbdb63463	-0.08896711
63	0xbb049e07	-0.0020235793

layer3.weight f4 [1, 64]
0	0xbec465d2	-0.38358933
1	0xbe3a2be6	-0.18180808
2	0xbe912e24	-0.28355515
3	0xbec764f4	-0.3894421
4	0x3e92fef5	0.28710142
5	0xbea6dee0	-0.32591915
6	0x3e253c91	0.16136386
7	0xbec1bb2a	-0.37838107
8	0x3e41955e	0.18904635
9	0x3e6618f8	0.22470462
10	0xbea141ad	-0.3149542
11	0xbe8a9fcd	-0.27075043
12	0x3eca373e	0.3949527
13	0x3df3e115	0.11908165
14	0x3f2a5d7e	0.6654891
15	0x3e70b3f7	0.23506151
16	0x3e73401a	0.23754922
17	0xbe8c39be	-0.27387804
18	0x3ec12add	0.37728015
19	0x3e53e26a	0.20691839
20	0xbeb9389c	-0.36176002
21	0xbef1d595	-0.47233263
22	0x3e82780f	0.25482222
23	0xbe6d7bf7	-0.2319182
24	0xbe944c71	-0.2896457
25	0x3ed3a419	0.41336134
26	0x3eaa1d10	0.33225298
27	0xbeb2e7ce	-0.34942478
28	0xbe651497	-0.22371136
29	0x3e927217	0.2860267
30	0xbe0b5b55	-0.13609059
31	0x3e64a02a	0.22326723
32	0xbebc684e	-0.36798328
33	0xbedc9c29	-0.4308789
34	0x3e271706	0.16317376
35	0xbe0b0409	-0.13575758
36	0xb8e304d4	-0.00010825103
37	0xbedc7b19	-0.43062666
38	0xbe7cad1a	-0.24675408
39	0xbeb19832	-0.34686428
40	0x3e55b40c	0.20869464
41	0xbead7d75	-0.3388478
42	0x3e850ef6	0.25987977
43	0x3dcf385d	0.10118172
44	0x3e31ec3c	0.17375273
45	0x3e836bc7	0.25668165
46	0xbf0598ff	-0.5218658
47	0xbeaae737	-0.33379528
48	0x3ec1696b	0.3777574
49	0xbe85d979	-0.2614248
50	0x3ea28785	0.31744018
51	0x3e1aa92b	0.15103595
52	0x3ef02cde	0.4690923
53	0xbecb6c46	-0.39731044
54	0x3ea26bd6	0.31722897
55	0x3e983c21	0.29733375
56	0x3dae6f32	0.085173026
57	0xbeb630c0	-0.35584068
58	0xbf051a0b	-0.51992863
59	0xbe573747	-0.2101718
60	0x3e874989	0.2642329
61	0xbe90ea58	-0.2830379
62	0x3eb271bb	0.34852394
63	0xbe64d0ae	-0.2234523
