test/ens_models/ens_model_2_H.pt (torch, 654470 bytes, 6 tensors)

layer0.weight f4 [20, 10]
00000000: cd29 ad3e c0aa ac3d a66b 2abf 87da 173e
00000010: 2a1c 5abd 9c2d 7bbe 2702 303f f402 64be
00000020: 7e08 d43d 1b2f 243e 9edc 9b3e 4e83 783e
00000030: 8983 0f3f 9cfb 9a3e 950e eb3e a6f4 413f
00000040: 9525 773e 1930 913d d8e8 7f3d 339b aa3e
00000050: 0b48 2bbf 5bf5 a0be 8e0a 22bf b4dd 18bf
00000060: b3ba c3be 7669 91bf eff7 32bd e963 eebe
00000070: 689c e3bd c2dd 3f3e 380f b8be b786 e93e
00000080: a658 b9be 1d99 76bf 5308 4e3e d5ec 58be
00000090: c96e dcbe 6949 073f 6c00 493f 5b63 1a3f
000000a0: be7f 9bbe 6ab7 633f 50a5 603d 64dd 99be
000000b0: 08fe 97be ae55 ae3f 7a2b cebe 332e 183f
000000c0: a199 3fbf e3d2 5a3d 60ea 4dbf f25d c03e
000000d0: 28e2 573f 4f26 82bf 1b85 913e bbf0 7e3d
000000e0: fa1a e83c baa4 923d 996b 3d3e 0664 e6be
000000f0: 59ef 17bd 6288 823e 66b4 803f 7641 74bd
00000100: b81c 2d3f 50b5 7fbd c17e 8dbe ff60 3b3e
00000110: 1666 3e3f 1281 0d3f 810f ec3e 32ad 79be
00000120: b08d a03e 7c45 b9be 12c4 83bf 80c2 c6be
00000130: 91b8 54bf d8c6 0a3f 9098 02bf 1e7b 853e
00000140: 7a91 94bd 5738 2ebf 9b5a 25bf ebe4 633e
00000150: 59ae 61bf c5bd 2fbd 8591 b2be d3d8 e8be
00000160: 488e 463f 5c94 c63d 5ee2 c53e 7bfb 96bf
00000170: 9463 06bf 1a40 f63e fec3 bfbd 4e04 9dbe
00000180: ab15 823d 7087 5abd 8d18 95bf 72bc 78be
00000190: 605d cd3e 109c 243f e939 17be 0754 243e
000001a0: 6459 5b3f 6ffe 8bbe 7797 06be 05be eebe
000001b0: f750 c9be f1cf a7be a7e8 083d 2297 05bf
000001c0: 4715 c33d 8da8 1bbe 54f0 5abe 04b8 b33e
000001d0: 6a15 08be 6849 49bf 3f34 e43e 6dee b4be
000001e0: e62d 1f3e e0cb 343f b7f7 40bf a2c3 0abf
000001f0: cc68 fe3e 5506 203e 70b2 173e 13d1 28bf
00000200: 9eb7 4d3d 4fff 3dbf 3c7e 02bf 584c 31bf
00000210: e2fe 433e 58e9 243f 1a8d 7d3e a34a bb3d
00000220: 7aca 7ebd 2d34 c1be d8a5 c0be 4eae d93e
00000230: f07e debe 6294 e9bf 6f27 0d40 60f7 2e3f
00000240: 2d0a aa3d 94a8 94bf 2111 8f3f 4a23 f7bc
00000250: 4dbf 2e3f 93b6 19bf e3ec 633e 5a8e 413e
00000260: ee8c 4a3f 39f3 a83e dfd2 f4bd 5ad0 54be
00000270: ba69 363f 5b29 703f e44e 163f c160 93be
00000280: 7add e3be 8e76 2e3f fdaf 7dbd 026f 3d3f
00000290: baca 56be a23e 02be 163c 0b3f 47a6 cc3e
000002a0: df30 36be 7866 7bbe 1e58 913e f5d8 1ebf
000002b0: 6139 9bbf 2e2f 9a3d 261d 383f 2226 2d3e
000002c0: a124 9cbe 0df7 bebe 6016 8e3f f79d 5c3e
000002d0: b365 44be 95d2 a93d ae7c 89bc d7a1 213f
000002e0: 5b57 01be 7c46 d1be b686 8fbf d484 f7be
000002f0: 18a6 a63e ea66 c83c 5144 d1be 62b4 17bf
00000300: 7487 1fbe 2b19 06bf 3e15 1b3f 3478 1a3e
00000310: 7424 17bf ae9a 253f 3947 0fbe 6a70 95be
0.33820954 0.084310055 -0.6657051 0.14829455 -0.053249516 -0.24529117 0.68753284 -0.22266752
0.10353182 0.16033594 0.30441755 0.24268839 0.5606008 0.30270088 0.45909563 0.7576393
0.2413543 0.07089252 0.062477916 0.33321533 -0.66906804 -0.3143719 -0.63297355 -0.5971329
-0.38228378 -1.1360309 -0.04369348 -0.465606 -0.111138165 0.18736938 -0.3594911 0.45610592
-0.36200446 -0.9632738 0.20120363 -0.21184094 -0.43053272 0.5284639 0.7851627 0.60307854
-0.30370897 0.8895174 0.054845154 -0.3005172 -0.29685998 1.3619897 -0.40267545 0.59445494
-0.74843794 0.053423773 -0.8043575 0.37571675 0.8432946 -1.0167941 0.28421864 0.062241297
0.028333176 0.07160325 0.18498076 -0.44998187 -0.037093494 0.25494677 1.0055053 -0.05963274
0.67621946 -0.062428772 -0.27635768 0.1829872 0.7437452 0.5527507 0.4610558 -0.24382475
0.313581 -0.36185825 -1.0294211 -0.38820267 -0.83094126 0.5420966 -0.5101404 0.26070493
-0.0725431 -0.6805472 -0.6459138 0.22255294 -0.8815666 -0.042905588 -0.34876648 -0.45477924
0.77560854 0.09696266 0.38649267 -1.1795496 -0.52495694 0.4809578 -0.093635544 -0.30667347
0.06351789 -0.05335182 -1.1648117 -0.24290636 0.40110302 0.6430063 -0.14768185 0.16047679
0.85683274 -0.27342555 -0.13143717 -0.46629348 -0.39319584 -0.32775834 0.033425 -0.52183735
0.09525543 -0.15201016 -0.2138074 0.3510133 -0.13289419 -0.78627634 0.4457111 -0.35338154
0.15544853 0.7062359 -0.7537798 -0.5420476 0.4968933 0.15627415 0.14814162 -0.6594402
0.05022394 -0.74217695 -0.5097387 -0.69257116 0.19140199 0.64418554 0.24760857 0.09145095
-0.062204815 -0.3773512 -0.3762653 0.42515796 -0.4345622 -1.8248408 2.2055318 0.68346214
0.08302722 -1.1613946 1.1177102 -0.030168194 0.6826065 -0.6004421 0.22258334 0.18901959
0.7912129 0.32998064 -0.11954283 -0.20782605 0.71255076 0.93813103 0.5871413 -0.28784755
-0.4450491 0.6814965 -0.061935414 0.7399751 -0.20975772 -0.12719205 0.5438856 0.3997061
-0.1779208 -0.24550807 0.2838754 -0.620498 -1.2126886 0.0752853 0.71919477 0.16909078
-0.30496696 -0.3729786 1.1100578 0.21544634 -0.1917942 0.082921185 -0.016783085 0.63137573
-0.1263098 -0.40874088 -1.1212986 -0.48343527 0.32548594 0.024463136 -0.40872434 -0.5925962
-0.15579015 -0.52382153 0.6057929 0.15084916 -0.5904 0.6468915 -0.13992013 -0.29187328

layer1.weight f4 [256, 570]
00000000: f783 d83c a407 423d 276c 13bf d5ca ff3d
00000010: 7ce1 283e 56da a4bc aa52 9bbc abe6 d4bc
00000020: 9224 b4bc 94aa 613e beed 633e fb59 a83e
00000030: 07bb 3e3e 84da c73e 71ed 213f 144a 653f
00000040: 86ed d93b 9bfa 763d 4a99 9f3e 8dd3 793e
00000050: 2f94 bebb d8b3 b5bd 1884 41bc 053d 233c
00000060: 5a59 863e 3fe4 793e 098b d13e 28f7 1b3f
00000070: d822 d53d e090 333f 9835 093f 7cea 0540
00000080: bd72 65bd fdff c7bd 3f41 9fbd 506f 173e
00000090: a8d7 033e e873 7cbe c334 ccbd 9033 193d
000000a0: cf8f c8be 48ea 843e 417e c7bd 28f0 453e
000000b0: f836 043e 3c74 903e 7cf7 553c 724c 73bf
000000c0: 90e7 30bf 7e2f cb3e b81c 4cbd c569 b4bc
000000d0: b3a6 36be cada c7bd 9268 07bc 9f8e 583d
000000e0: b650 f43d d93e 113e ca36 ba3e cdd5 0d3e
000000f0: 7e57 343f a692 613d 79e6 f83d b1b4 a93e
00000100: 04ee 883c b5b7 9abc e247 b2bc 7939 3b3e
00000110: 3745 a93e 3514 ff3d 5a0e c5be 96bc 1c3e
00000120: 221b a5be d034 23be ea58 943e cdc5 023f
00000130: 426d 373f 43af 8cbf 207a 983f 3264 bf40
00000140: d8e2 533d f311 f9be 42ac efbe 6a3a 2a3c
00000150: 51f7 143c 2521 c9be 4a0f c0bd 5a22 3d3d
00000160: ba72 d7be d59e 0bbf a922 99bd 9e40 4abf
00000170: a366 62be 03f2 693c 20be abbd 7c1f 7b3c
00000180: 3bdc 4dbd 25f2 9a3d 966a 1c3d 2013 d7bb
00000190: 6b8d 48be a092 d63c 5e1f 85bd f863 a83d
000001a0: 2701 e1be 1bcd 4b3e ca78 573e 620a a03d
000001b0: a0b2 a63d a726 9d3c a9c0 e83d a00a 0cbe
000001c0: 3346 2dbf bfe9 62be 9113 6cbe 498b adbe
000001d0: ab65 53be a04d a93e 5381 60bd e14f babd
000001e0: 8c4d d5bc b0ac d23e 5ea7 3fbd 1fd9 273e
000001f0: b215 cbbd be8c 1ebd 2e8b 16bc 4728 613d
00000200: da3b 4b3d 34ab 653d a304 ca3d eaa7 713d
00000210: f80d 09be fc07 2d3d 6acf 9d3d c590 aa3d
00000220: 3b4d 13be 749c ebbc b6bf 9b3d bf4b 363c
00000230: 6cd1 943d c347 003e 721f 17bc 28ba d03d
00000240: 6461 bf3f e6c0 4ebe 1456 17bd 15c7 b8bd
00000250: e192 873f 9e06 f33e 83a5 d13c 5b4e 84be
00000260: 9149 17be 1d08 193d 921a 8cbd d68e e3bc
00000270: df73 a6bd def2 773c 9c74 07bc d772 1b3d
00000280: 9905 833d d66c 9dbd 3221 87bd 4f08 0e3e
00000290: d8f9 20be 2a71 02be 07d8 35bd 29a7 53bd
000002a0: 3d8f 2b3e f9f8 60be 0497 423c a4db 00bf
000002b0: 3631 203f 8e9d a1bd 646e b83e b9f9 b2be
000002c0: 9725 9c3e 7b31 d43c d64f 293d 6b76 113c
000002d0: 3c0b 743d f81f 07bf 1cac 9f3f 0ad1 a03f
000002e0: d017 8bbe b1c3 4f3d 322b 883f ed1f c53e
000002f0: b956 053d 1694 b1bd fa42 b53d 4d1f f4bd
00000300: 77e0 fcbe ecf0 07be b87a 053e 7ff9 e7bd
00000310: d33d ad3d 31e6 03bd e407 c23c 24a6 c6bd
00000320: 586d 073e da00 aabd 779f 2cbe c937 dd3d
00000330: 4d92 b03e f31d a6bd ecc2 f03d f368 a23e
00000340: 902c 05bd 76a4 dfbc 1cfd 063b 76b3 473c
00000350: fe06 e03b 86bc ec3c 7977 a13c b790 57bc
00000360: 2ca9 9e3a 7aa2 a23d f975 b23c d577 b73b
00000370: f0f7 643e c550 8c3e 517b 2ebe 4a35 39be
00000380: 2540 193e abd9 d7bd 2926 cebe 8a61 ab3d
00000390: 1cb5 de3e 4810 433d 3ae3 b8bd e646 79bd
000003a0: ffc3 7a3f cbb6 293f 6d25 bf3e 52c7 5ebf
000003b0: 4d0a 083e 5317 343f 4951 473f 4312 84be
000003c0: 9331 943c 8d5d 7dbc 1a6c 08bd a970 8bbc
000003d0: 7591 683e 6e76 23be 35c1 bcbe ab11 2f3e
000003e0: bd8e 3f3e fadf 1cbb 08fe 8ebe d981 acbc
000003f0: f5f6 a5bd 2834 ee3c 2c58 15be d7da c0be
0.026430113 0.047370568 -0.575869 0.12489859 0.16492265 -0.020123642 -0.018960316 -0.025988897
-0.021990094 0.22037727 0.2225866 0.3288115 0.18626033 0.39033902 0.6325293 0.8956616
0.0066506295 0.06029759 0.31171638 0.24397106 -0.0058160047 -0.08872193 -0.011811279 0.009963279
0.26240045 0.24403475 0.40926388 0.60924006 0.104070365 0.70142937 0.535974 2.0924368
-0.056017626 -0.09765623 -0.077761166 0.14788556 0.12875235 -0.2465359 -0.09971001 0.03740269
-0.39172217 0.25959992 -0.09740878 0.19329894 0.12911594 0.2821368 0.013059493 -0.9503852
-0.69103336 0.3968467 -0.049832076 -0.022023091 -0.17837028 -0.097585276 -0.008264678 0.05287039
0.11929457 0.1418413 0.36369926 0.1385109 0.70446 0.055071495 0.12153334 0.3314567
0.016715057 -0.018886426 -0.021762792 0.18283643 0.3306062 0.12455026 -0.38487512 0.15306315
-0.32247263 -0.15938115 0.28974086 0.5108307 0.7165109 -1.0990986 1.191227 5.980981
0.051730007 -0.48646507 -0.4681111 0.010389904 0.009092168 -0.392831 -0.09377916 0.04617534
-0.42079717 -0.54539233 -0.07477314 -0.7900485 -0.22109465 0.0142788915 -0.08385873 0.015327331
-0.050258856 0.07565717 0.038187586 -0.006563559 -0.19585197 0.026192963 -0.065001234 0.082221925
-0.43946192 0.1990246 0.21042171 0.0781448 0.08139539 0.01918347 0.11364872 -0.13675928
-0.6768524 -0.2215948 -0.23054339 -0.3389533 -0.20644252 0.33067036 -0.054810833 -0.09097267
-0.026037954 0.41147375 -0.046790473 0.16391419 -0.099162474 -0.03870844 -0.009188456 0.054970052
0.049617626 0.056071475 0.09864166 0.058998026 -0.13384235 0.042243943 0.07705577 0.08328394
-0.1438493 -0.028761126 0.07604925 0.011126458 0.072665066 0.12527375 -0.009223806 0.101917565
1.4951596 -0.20190772 -0.036947325 -0.09022347 1.0591699 0.47465986 0.025591617 -0.2584103
-0.14774157 0.037361253 -0.068410054 -0.02777807 -0.081275694 0.015133588 -0.008267548 0.037951317
0.06397552 -0.076867744 -0.065981284 0.13870357 -0.15720308 -0.12738481 -0.044395473 -0.05167309
0.1675386 -0.21969976 0.011876825 -0.50335145 0.6257509 -0.07891379 0.3602172 -0.34956148
0.3049743 0.0259025 0.041335903 0.008878331 0.059581026 -0.52783155 1.2474399 1.2563794
-0.27166605 0.050723735 1.0638182 0.3850092 0.03255341 -0.08670823 0.088506654 -0.11920033
-0.49390003 -0.13275498 0.13035095 -0.113268845 0.08459058 -0.03220195 0.023685403 -0.096996576
0.13225305 -0.08300944 -0.16857706 0.10801656 0.3448662 -0.08111181 0.117559284 0.31720695
-0.0325132 -0.0273001 0.0020597642 0.012188783 0.006836771 0.028898489 0.01971029 -0.013157061
0.001210486 0.07941146 0.02178477 0.005599002 0.22360206 0.27405372 -0.17039229 -0.18086734
0.14965875 -0.10539564 -0.4026349 0.083682135 0.4349755 0.04762295 -0.09027715 -0.06085863
0.97955316 0.66294545 0.3733324 -0.8702289 0.1328518 0.7034809 0.77858406 -0.25795183
0.018090045 -0.015464199 -0.03330622 -0.017021494 0.22711737 -0.15963146 -0.36866155 0.17096584
0.18706794 -0.0023937211 -0.27928185 -0.02105801 -0.08103744 0.029077604 -0.14584416 -0.37666962

layer1.bias f4 [256]
00000000: 28a8 b7bd cd38 36bc 1b89 1ebc 8dad 183d
00000010: d310 f2bc 9e4b fabb 8b8f 433c c5ae 7e3b
00000020: f1f5 213d 861a 653c 7194 21bd f937 91bc
00000030: 77a2 e1bc f147 e23a 2533 373c 5d80 4cbc
00000040: 4b69 4ebc 7ed2 873d f3b7 0dbd 059d d23c
00000050: 2fce 393d e4dc f9bb 55ef 983c 2cff 31bc
00000060: e594 043c 0c36 cf3c 6139 4d3c ed86 e2bc
00000070: df80 9bbc 798f 9bbc b563 79bc 96d8 febc
00000080: d850 453c a17a 11bd 0b7c f03c 8826 b53b
00000090: 1fcd 223d c976 ac3c 2a6a 10bc 7695 ce3b
000000a0: b480 96bb 2f9a cebd 7d2c 32bd 9220 1abc
000000b0: eb82 46bb 61a4 ad3c 1466 9d3b 6ff1 f0bc
000000c0: 8471 39bb 6872 33bb 4f11 f0bc 43e1 703c
000000d0: 18ee c73b 2713 f73c eda2 14bd 6965 103d
000000e0: 223e 343c 0cbc 8f3c 27fc 8bbd 74c0 85bb
000000f0: e96a 653c 4434 febc 91db 2f3e e7df 1fbd
00000100: e7a3 84ba d41d e0bb 5a80 f43c 34a9 2ebc
00000110: b947 6abd ee30 16bd 801d 173d 4e5b e5bc
00000120: 0e3f fd3d f29b f23b 323f b2bc 60b8 8b3c
00000130: 12a4 da3c 0a81 f53b 7d66 96bb 75d9 14bc
00000140: afdf 5d3b ef6b 83bc 53e7 3cbc fbf6 54bc
00000150: 977f 9e3c dfe0 e33c 0bb6 a5bc 5f91 1439
00000160: d4de 5abd c536 c93b 4d14 febc ea44 33bd
00000170: 6913 2b3d 1462 d1bc a36b 10bd 5e3f 53bc
00000180: 008f 74bd faaf 3a3c 860f 56bd b4cf 09be
00000190: 58d2 3fbc c394 37bc 44c3 75bb c1b9 4a3c
000001a0: 1586 433d c563 0dbb ba66 f4bc 598b 153c
000001b0: 5108 64bd f57c 833c db24 073d 2315 91bd
000001c0: 1d7b 023c fa29 b83c f418 f1bc 4a52 22bb
000001d0: 81b9 01bd ee31 24bd eaa9 f9bc 1951 823d
000001e0: fbfe db3c 7f3c 1f3d e04e 31bd eb36 91bc
000001f0: 40ba 663b 2a39 e4ba 60b3 aebc b211 dfbc
00000200: 6f91 7bbc f783 21bd d488 df3c 6f24 da3c
00000210: 1a31 53bc c43c 2bbd 4d50 2bbd f300 b839
00000220: 8225 763c 31a1 373d 77a0 a1bd 25ec e13b
00000230: 7080 54bc e26a 34bd 9e74 62bc b291 f7bc
00000240: ca1a 643c 6c3f c0bd ddb8 043d 6a68 d2bc
00000250: bcca fc3b 283b 673c 080f 1a3d dd10 1b3c
00000260: ec33 0cbd 0f4b 0cbd 54a3 48bd dc4d 483c
00000270: 8ad9 bdbc dd6b 0a3d 1267 083d 3b42 743c
00000280: da31 01bc f731 abba 52f9 2f3d 6a32 f0ba
00000290: 51c6 b3bb ee52 1fbd 562c 2f3c e5a6 923b
000002a0: a618 a9bb a430 513c 9e4b 88bb d6fd d7bc
000002b0: ac18 79bc 6f55 05bd bd0e 21bd 69ee 20bc
000002c0: bdfc 0abd 3d75 b93d 748e e83d d1be 73bd
000002d0: c9ec 91bd c4f7 523d 2393 c6bc b2e8 cf3c
000002e0: f574 fdbc deb0 7a3c 225d a7bc 961b bc3c
000002f0: c383 0f3d 01c4 843c f12e 32bd 6bcc 813b
00000300: 31bd 4f3d e0d0 5fbd 1021 59bd 2b9a 85bd
00000310: e8ea d13c bb20 f43c 1131 d9bc 56ba ecbb
00000320: fe20 66bd 3919 fcbc 5a18 443c fed9 e23c
00000330: 8c85 9fbd 4471 b83b 56bc 2e3d 4c44 a7bb
00000340: 0a71 b53a 1bc1 d73c 5be7 3ebc a23d 8c3c
00000350: a89e 3ebd b76d 8d3c e86e ad3c 0b5c b83c
00000360: c04c b8bc 5d15 98bc dea5 3dbd e583 4bbd
00000370: 336d abbc ab0d 433d 91e1 c03c dbe0 a63c
00000380: 6446 583a c23f 02bc ccd9 36bb b43d b8bc
00000390: ff3e c1bc 5f6f 413c e551 94bb 6bfb 84bc
000003a0: 8a43 0e3e 3443 953c 7121 523d 110e b3bb
000003b0: 8239 2b3c a86c 413c ad5c 2cbc 124a 25bd
000003c0: 2504 d63b c731 ba3a bce8 a03c 24d4 c0bc
000003d0: a02e afbd 1615 1e3d 1f1c 05bd 1ef2 cebc
000003e0: 433a c5bb 1730 53bc 495e 543c bd01 caba
000003f0: 89a5 d63d 01f7 35bc f1b3 4ebc 10a2 d83c
-0.0896762 -0.011121941 -0.009676243 0.037274886 -0.029549038 -0.007638409 0.011936079 0.0038861495
0.03954119 0.013983374 -0.039448205 -0.017726885 -0.02754329 0.0017263872 0.011181627 -0.012481776
-0.012598346 0.06631945 -0.034599256 0.025709638 0.045362648 -0.007625209 0.01866881 -0.01086406
0.00809214 0.025294326 0.012525887 -0.027652228 -0.018982349 -0.018989312 -0.015221526 -0.031109136
0.0120432 -0.03551734 0.029356023 0.005528275 0.0397464 0.021052735 -0.008814374 0.006304438
-0.0045929793 -0.10088002 -0.04349946 -0.009407179 -0.0030290436 0.021196546 0.0048034284 -0.029412
-0.002829642 -0.0027381424 -0.029305128 0.014702144 0.006101381 0.0301605 -0.03628819 0.035252962
0.011001142 0.017545722 -0.068352036 -0.00408178 0.01400254 -0.031030782 0.17173602 -0.03903189
-0.0010119647 -0.0068394933 0.029846359 -0.010660458 -0.057197306 -0.036667757 0.036893368 -0.027997639
0.12365542 0.007403844 -0.02175865 0.01705569 0.026689563 0.0074921893 -0.0045898543 -0.009085049
0.003385525 -0.016042678 -0.011529761 -0.012998338 0.019347949 0.027817188 -0.020228406 0.00014168535
-0.05343516 0.0061405622 -0.03101554 -0.043766893 0.041766558 -0.025559463 -0.0352589 -0.012893526
-0.059706688 0.011394495 -0.052260898 -0.13458139 -0.011707865 -0.011204901 -0.003750042 0.012373389
0.047735292 -0.002157436 -0.02983414 0.009127461 -0.055671994 0.016050795 0.032994132 -0.0708411
0.007963923 0.022480953 -0.029430844 -0.0024768286 -0.03167105 -0.04008668 -0.03047653 0.063631244
0.026854983 0.038876053 -0.04328811 -0.017726382 0.0035206228 -0.0017412056 -0.021325767 -0.027230117
-0.015354498 -0.039432492 0.027286924 0.026628701 -0.012890125 -0.041805997 -0.041824628 0.00035095922
0.015023591 0.04483146 -0.07891934 0.0068946057 -0.012970075 -0.044047244 -0.013821749 -0.03022084
0.013922403 -0.09387097 0.032402862 -0.025684554 0.0077145975 0.014113225 0.03761199 0.00946447
-0.034229204 -0.03425127 -0.048983887 0.012225594 -0.02317502 0.033794273 0.03330142 0.014908369
-0.007885421 -0.0013061155 0.04296238 -0.0018325571 -0.0054862876 -0.038897447 0.010691723 0.004475462
-0.005160409 0.0127679445 -0.004159405 -0.026366156 -0.015203636 -0.03255218 -0.039320696 -0.009822466
-0.033932436 0.090555646 0.11355296 -0.05950815 -0.07125241 0.05150582 -0.024240082 0.025379512
-0.030939559 0.0153009575 -0.020430151 0.022962373 0.035037767 0.016206743 -0.043501798 0.003961136
0.050717536 -0.054642558 -0.053010046 -0.06523546 0.025624707 0.029800763 -0.026512654 -0.0072243614
-0.056183808 -0.030773746 0.0119686965 0.027691837 -0.07789144 0.0056287367 0.04266008 -0.005104577
0.0013842892 0.026337197 -0.011651839 0.017119233 -0.046538025 0.01726423 0.021171048 0.022504827
-0.022497535 -0.018564874 -0.04630076 -0.04968633 -0.020926094 0.047620457 0.023545058 0.020370891
0.0008250235 -0.007949771 -0.0027900813 -0.02249036 -0.02358961 0.011806338 -0.004526364 -0.016233167
0.13892952 0.018220522 0.051301423 -0.0054643233 0.010450723 0.011805691 -0.0105201425 -0.040353842
0.006531256 0.0014205509 0.019642226 -0.023538657 -0.08553815 0.038594328 -0.03249752 -0.025261935
-0.006018908 -0.0128898835 0.012961932 -0.0015411895 0.10480792 -0.011106254 -0.012616144 0.026444465

layer2.weight f4 [64, 256]
00000000: 324d 183e cc60 5c3e d76e 1fbd 45b0 28be
00000010: 98e7 183e 1bb6 9e3d 6669 823d f61c 833e
00000020: 4aa7 a0bd 18c9 423e c332 633d c226 1c3e
00000030: 1a91 75be 0a05 b83b 69d0 2d3e 3155 863e
00000040: 73ad 9c3d d61a f8bd d96b 04bb 0fde 8d3e
00000050: ed93 8a39 8421 e2bd a887 3ebe 8d85 953b
00000060: 39a0 c83c 9e53 18be f834 6f3c afa8 793e
00000070: 252a f23d b64c 913c b299 033f aa38 813d
00000080: 4dbe 2cbc 59ab 1dbe 7468 0e3d 3b5f 27be
00000090: c8ec 2abd 6fb9 c03b a240 643e 3b63 4fbe
000000a0: 415f df3c 5bd8 ad3e f869 26be 6b3f 97bd
000000b0: fe24 a3be 1259 9c3e 30a2 96bd adf7 1d3e
000000c0: f8e7 9dbd c3c9 783d 62ec 1dbe 47c2 063e
000000d0: 2688 d83c b9bc 13bd c46d 04bc 3694 763d
000000e0: 2b2f 213e 1a6d a83c 2313 bf3d 588a 103e
000000f0: 0d36 413e 62cb 863d b7e9 803d 584b cb3d
00000100: e07b 363d 4fb6 85be 65ae 3d3d e7f6 a63d
00000110: e4dc 073e d5a9 343e 9917 d53d 37b8 47bd
00000120: 16cd aabd 65ee dbbc d6e1 cd3c 5a6d 6bbd
00000130: e27b 233e 6aac ef3d c092 dabc 58a1 a7bd
00000140: c27f 52be 2ee6 9abe 6abf 29bd 6894 153e
00000150: 41ee 8d3e 51cc dbbd 97bb bf3e dfb9 7ebd
00000160: 6bc6 df3d 2367 c4bd 838f 22bd 0889 babd
00000170: 041e cfbc cfa5 90bd 0315 c13d 1bea fcbd
00000180: fe9e 43bc e8f9 cdbc 8da6 0b3e c1cf 053e
00000190: 373d 433e 6a8f 053e bfb0 08bd 8a9d 893b
000001a0: 1e6f c4bd b1d9 a03d d724 c1bc 87bb 18be
000001b0: 8c0a f6bc bac8 d93d 62e6 8e3d ffe8 50be
000001c0: dcca 01be ea2a 943d 33d8 83bd 0455 243d
000001d0: 6bd8 9dbe 1c4a 063c dd1f 8a3e c7c9 d3ba
000001e0: 7aed 863e 6e26 42bd e4f1 48bb 5f9a 9bbc
000001f0: dd50 5fbe cbe5 ae3d 635f 3ebb 9cb6 e1bc
00000200: 22ed 933d a485 3f3d f7fb 663d 6b19 a23e
00000210: 8519 95bc 4abc 64bd 7455 8e3d 8173 9abc
00000220: eb31 233e be9f f93d 5426 dcbc a36d ff3d
00000230: 9325 443d f8b6 64bc d472 39be 4b39 893d
00000240: ee6d d6bd 5476 6dbe 8fce 773c ed2a 783d
00000250: 8a52 aa3c 4d4f a9bd 8189 183d 9daf 0d3d
00000260: 552f 573d a0ab 25be c54b 90bd 173a 1dbe
00000270: f2fe b1bc 6345 403e 7938 7d3e 1bb4 cfbd
00000280: 1398 07bd 7b00 6fbd 4dcf d83d 44cd c4bc
00000290: 58ae 4ebe 293d 63bd 30a8 78be f795 5d3d
000002a0: dcc9 bdbd 6661 253e 501a 543d 3da8 2b3c
000002b0: 5f81 3a3e 56a1 a83d dece 5fbc 2703 79be
000002c0: 370f 8ebe 8f37 c1bc e24e 063e 74e6 0d3c
000002d0: 8e00 b33d 4fe8 e53d a5b7 24bd c2d3 9d3d
000002e0: a873 903d 6409 f4bd 3e8d f13c 9481 0a3e
000002f0: 9fd7 f23d e3bf d83b b14d c5bc 7b03 133d
00000300: 9468 0dbe 02b4 62be 51be 25be c455 7b3e
00000310: 3780 9b3d acbb 493e 7a9e e7bd 886a a6be
00000320: 8f54 ef3d de08 453c 2363 afbe 3513 5d3e
00000330: 1a21 e63e fbf8 f63d a5b7 2b3e 2f9d 36bd
00000340: 998b 92bc 3860 ec3c 2b45 6bbe 3af0 523e
00000350: de0d bd3d 6040 883e 6968 02be 0927 1e3e
00000360: 080b e83d 4e56 3b3e dfe8 3e3e 14b6 dc3d
00000370: ca73 c13a 964e 273d 457a bfbc e6f4 6c3d
00000380: cebb 313e 9bbf d93b 56fc 9ebc ce06 9e3e
00000390: 6924 323d 683f a83d fbc7 e13d 7f96 813d
000003a0: d192 d6bd 28f6 7e3c ecd7 d0bd a048 273d
000003b0: 6b38 d43d 5177 413e cfa8 ebbd cfd2 163d
000003c0: ebde 753d 09fe c73b 4c48 7abd 59e7 843d
000003d0: ea6b a73e 8bf7 3b3d f6cb 603c 1f95 9c3d
000003e0: 7967 3b3e 6e2b 87bd 0169 febd dc75 023e
000003f0: 2def dabd aba7 a13d ef57 4d3c 8f55 423e
0.14873198 0.215213 -0.038924064 -0.16473491 0.14932096 0.077495776 0.063677594 0.25608033
-0.07844408 0.19022024 0.055468332 0.1524916 -0.23981133 0.005615835 0.16974033 0.2623687
0.0765027 -0.121144935 -0.0020205884 0.2770848 0.00026431624 -0.11041549 -0.18606436 0.0045630396
0.024490463 -0.14875647 0.014600031 0.24380754 0.11824445 0.017736774 0.51406395 0.06309636
-0.010543418 -0.15397395 0.034767583 -0.16344921 -0.04172972 0.0058814804 0.2229028 -0.20252697
0.0272671 0.3395413 -0.16251361 -0.07385143 -0.3186416 0.30536705 -0.073551536 0.15426512
-0.0771026 0.06073929 -0.15422204 0.13160048 0.026432108 -0.03606865 -0.008082811 0.06019994
0.1574065 0.020559836 0.09329822 0.14115274 0.18868275 0.06581761 0.062945776 0.0992648
0.04455173 -0.26115653 0.046308894 0.08152562 0.13267857 0.17642911 0.104048915 -0.048759665
-0.08339898 -0.026847074 0.025132101 -0.057477333 0.15965226 0.11702807 -0.026681304 -0.08185071
-0.20556548 -0.30253738 -0.041442312 0.14607394 0.27720836 -0.1073233 0.37447807 -0.06218898
0.10926517 -0.09589984 -0.039687645 -0.09108168 -0.025282867 -0.070628755 0.09427836 -0.123493396
-0.011939762 -0.025143579 0.13637753 0.13067533 0.1906632 0.1304299 -0.033371683 0.0041996883
-0.095915064 0.07854021 -0.023577137 -0.14915286 -0.030034326 0.10633989 0.06977536 -0.20401381
-0.12675041 0.07234748 -0.06437721 0.04012014 -0.30829176 0.00819638 0.26977435 -0.0016158157
0.26353055 -0.04739993 -0.0030661756 -0.018994508 -0.2180819 0.08539923 -0.0029048554 -0.027552895
0.07222964 0.04675831 0.056392636 0.31660017 -0.018200645 -0.05584363 0.06949893 -0.018853905
0.15937011 0.121886715 -0.026873745 0.124720834 0.047887396 -0.013959639 -0.1811021 0.06700381
-0.10470186 -0.2318967 0.015124931 0.060587812 0.02079131 -0.082670785 0.03724051 0.034591306
0.052535374 -0.16178751 -0.07045702 -0.15354191 -0.021728013 0.18776469 0.24728574 -0.10141774
-0.033104014 -0.058350068 0.105864145 -0.02402366 -0.20183694 -0.05547825 -0.24282908 0.054098096
-0.09267017 0.16150436 0.051782906 0.010477123 0.18213414 0.082338974 -0.013660161 -0.24317609
-0.27745983 -0.023586063 0.13116029 0.008660901 0.0874034 0.1122595 -0.0402142 0.07706405
0.0705331 -0.119158536 0.029486295 0.13525993 0.11857533 0.0066146716 -0.024084898 0.03589199
-0.13809425 -0.2213898 -0.16185881 0.24544436 0.075928144 0.19700497 -0.11309524 -0.32503152
0.1168605 0.01202604 -0.34255323 0.21589358 0.4494713 0.12059208 0.16769274 -0.044583496
-0.017888831 0.028854474 -0.22975604 0.20599452 0.092311606 0.26611614 -0.12735142 0.15444578
0.11330229 0.18294641 0.18643521 0.10776916 0.0014759239 0.04084643 -0.023373732 0.05785074
0.17356798 0.0066451556 -0.019407433 0.30864567 0.043491755 0.08215219 0.11024471 0.06327533
-0.10477222 0.015561618 -0.10197434 0.040840745 0.103623234 0.18893172 -0.11506807 0.036822136
0.060027044 0.0061032814 -0.061104104 0.064894386 0.3269952 0.045890372 0.013720503 0.0764563
0.1830119 -0.066000804 -0.12422372 0.12740272 -0.106901504 0.07893308 0.012533172 0.1897795

layer2.bias f4 [64]
00000000: 0835 e23c b60f 433d 907e 1fbc fed8 1ebc
00000010: d261 e13b 26bd 023d ae08 23be d175 8b3c
00000020: 906e b83c 9028 9f3c 60bf d23b 18c5 01bc
00000030: f4ec be3c ab60 393c 5dc9 64bc 0344 79bd
00000040: 643d 203c 51b7 01be df44 f63c 4478 e63c
00000050: 7d14 55bd 3689 54bd b67a ba3b 68b7 29bd
00000060: fdec 6bbd b0e5 aebc c7a2 b3bc 1651 e13c
00000070: 22f5 2ebd 425c 993c 0c81 90bd f4e8 d03c
00000080: b4fa 0e3d fa64 393c 4642 abbd 8779 c5bc
00000090: 708b 6bbd b93f 6abd 30d7 bdbb 871a 38bd
000000a0: 4591 9cbd 0f7c 913c 0e3f 83bd f685 f1b8
000000b0: 3a3f 8abd 4148 20bd 662d 803c 2461 0dbd
000000c0: 3472 1a3c 29b3 2fbd bfc3 44bc 4378 93bc
000000d0: db56 473b 0081 2bbd 13c1 1dbd f871 78bd
000000e0: 3676 ba3c 6e0d a63c af4a 53bd 4b24 b6bc
000000f0: c609 adbc f711 9c3c 6e3a e3bb 54c1 42bc
0.027613178 0.047622405 -0.009734765 -0.00969529 0.006878116 0.031918667 -0.1592128 0.017023953
0.022513658 0.019428521 0.006431505 -0.007920526 0.023306347 0.011314551 -0.013964024 -0.060855877
0.009780262 -0.12667586 0.030062137 0.028133519 -0.052021492 -0.051888667 0.005690898 -0.041434675
-0.057599057 -0.021349758 -0.021928204 0.027504485 -0.042714246 0.01872075 -0.07055864 0.025501706
0.034907058 0.011315579 -0.0836225 -0.0241058 -0.057506025 -0.057189677 -0.0057934746 -0.044947173
-0.076448955 0.017759351 -0.06408511 -0.00011516728 -0.06750341 -0.039131407 0.015646648 -0.03451647
0.009426642 -0.04289547 -0.01200956 -0.018001681 0.003041676 -0.04187107 -0.038514208 -0.060655564
0.022761445 0.020270076 -0.051584896 -0.022234103 -0.021122824 0.019051535 -0.0069344556 -0.011886913

layer3.weight f4 [1, 64]
00000000: c92d 1bbe 44cd 2f3e 6b0a 89be a5cb 54be
00000010: e06e a139 cdd6 3d3e c40e b23e 597a acbd
00000020: 340c 82bd 795a 6d3e cdb6 4d3e fccb 403e
00000030: 9b25 98be 32bd c93e 43a3 ac3e 9855 b43e
00000040: a863 f93d e436 543e 6d7f 91be d1fa 333e
00000050: 2c6f 53be d6ca 6cbe 8250 e43d 5e76 c2be
00000060: e797 073e d310 723e 077a 113e f2df 9e3e
00000070: a7d0 3c3e 8c92 dcbe 1429 a7be 54cc 26be
00000080: 68f2 6abe 315c 8ebe 323d 693e 37bf 643e
00000090: 3506 1d3f dd48 0ebe 3c3c b7bd 546c d5be
000000a0: 639f 383e e4cf 86be a62d 7d3e e0c7 1b3e
000000b0: dad1 7e3e 63d2 293e cc57 4fbe 10bf e7be
000000c0: 55a6 07bf b4ab c43d 06d1 1f3e 619c 0b3e
000000d0: a5ce 303e 4940 263e 2f01 90be e7ee 513e
000000e0: a5f5 8a3e fdc8 79ba e64f ddbe ce14 87be
000000f0: 274f 563e 22fb 86be 8ad9 69be 1680 62be
-0.15154184 0.17168146 -0.2676576 -0.20780809 0.0003079092 0.18538971 0.3477689 -0.084217735
-0.06349984 0.23179044 0.20089264 0.18827814 -0.2971619 0.39402157 0.3371831 0.35221553
0.12177211 0.20724064 -0.2841753 0.17576148 -0.20647877 -0.23124251 0.11148168 -0.37980932
0.1324154 0.2363923 0.14206706 0.31030232 0.1843897 -0.43080556 -0.32648528 -0.16288882
-0.22944033 -0.2780471 0.2277725 0.22338568 0.61337596 -0.13894983 -0.08947036 -0.4168421
0.18029551 -0.26330483 0.24724445 0.15212965 0.2488474 0.16584162 -0.20248336 -0.45262957
-0.5298818 0.09603062 0.1560708 0.13633873 0.17266329 0.1623546 -0.28125903 0.2050129
0.27140537 -0.0009528546 -0.4322502 -0.2638306 0.20928632 -0.26363474 -0.22836891 -0.22119173
