test/ens_models/ens_model_1_N.pt (torch, 654739 bytes, 6 tensors)

weight f4 [20, 10]
000000 8e cf f9 3d ac 27 a7 bc 7c 10 87 be e2 ee 8b 3f
       0.12197791 -0.02040466 -0.26379764 1.0932276
000010 46 2a c7 3d f0 a5 e1 3e bb af 67 bd ad a5 46 3e
       0.0972486 0.44071913 -0.056564074 0.19399138
000020 f7 ef 48 bf e2 82 14 3d 7c 68 0c bf 15 f9 cc bd
       -0.7849116 0.036257632 -0.5484693 -0.10008446
000030 fb a5 73 bf d2 a5 19 bf 5c 20 8d bd 9d 27 2b be
       -0.9517514 -0.60018647 -0.06890938 -0.1671433
000040 0b 75 e4 3d 5a 8f ed 3e d4 ad 5f be aa 40 a8 3e
       0.11155137 0.4639843 -0.21843654 0.32861835
000050 5a d1 39 be c8 62 8e 3b 49 d6 1f be 39 db 6d bf
       -0.18146268 0.0043452717 -0.15609087 -0.9291263
000060 ea 4e c2 be b7 fd 93 bc 2f 32 b5 3f 0d 3d b9 be
       -0.37950832 -0.018065317 1.415594 -0.3617939
000070 04 e8 29 3e c4 3a 32 3f 5c 13 86 bd 8a 04 ef 3e
       0.16592413 0.6962092 -0.06546661 0.4668315
000080 11 25 0a 3f 93 47 54 bd e9 ee 6e 3e cd dd 5b be
       0.5396281 -0.05182607 0.23333324 -0.21471329
000090 83 55 a0 3f 6f c7 b8 3e 01 87 6f 3d 6c d6 08 bf
       1.2526096 0.36089656 0.05847836 -0.5345218
0000a0 59 d1 85 3e bf e9 f8 3d cb 68 a5 3e 74 1b 93 3e
       0.26136282 0.121539585 0.32306513 0.28731883
0000b0 ae 51 0b 3f 87 4a 1f be e4 25 25 3c a0 03 b6 be
       0.5442151 -0.15555774 0.010079835 -0.3554964
0000c0 02 69 51 bd b9 91 b5 3c 02 05 f1 3e 4f d6 4a bf
       -0.051125534 0.022164213 0.47074133 -0.7923326
0000d0 7a a3 9c 3f b9 8b 21 bf be 42 9c 3c f6 46 46 be
       1.2237389 -0.63103825 0.019074794 -0.19363007
0000e0 70 0d 3e bd 09 cc 62 3f b9 52 b0 3e 82 05 34 3e
       -0.046399534 0.8859258 0.34438112 0.17580226
0000f0 0e 2f ce 3e a5 b1 dc 3e 85 57 d0 3d 26 96 92 3e
       0.40270275 0.43104282 0.10172943 0.2863018
000100 7b 92 1b bf 58 13 01 3f fb a4 da be 5b 0f c7 3e
       -0.60770386 0.5042014 -0.42703995 0.38878903
000110 49 47 a4 be b8 81 f9 3e 8c 54 df 3e c2 c9 06 3e
       -0.32085636 0.4873178 0.43619192 0.13162902
000120 b4 6c 9b bb b0 4e 82 bf eb b5 02 bd ec e1 3e 3f
       -0.004743183 -1.0180264 -0.03191177 0.7456348
000130 47 09 94 3d 5e 51 c6 be 91 89 8b be 6c 04 0e bf
       0.07228332 -0.38733953 -0.27253392 -0.554755
000140 b7 cd 44 3e c7 73 fb be 91 99 94 3e de 0e 95 3e
       0.19219099 -0.4911177 0.29023412 0.29112905
000150 51 51 18 bf 75 e9 0c 3e 80 7c 3c be b5 35 ae bf
       -0.5949908 0.13760932 -0.18406868 -1.361014
000160 94 fb 94 3e b8 db 31 3f b3 be 28 bd 42 3e 84 3f
       0.2909819 0.6947589 -0.04119749 1.03315
000170 87 76 8c be cb 28 0a 3f 62 b5 b9 3f 8c 93 7b bd
       -0.2743418 0.53968495 1.4508479 -0.06142001
000180 6f be 0c bc 8f 2c 78 3e ab 24 f2 3e e3 d4 ac 3e
       -0.008590325 0.24235748 0.472936 0.3375617
000190 b9 8a 3b be f5 b8 88 3e 36 68 d8 be ae 96 c9 be
       -0.18314637 0.2670361 -0.42267007 -0.39372772
0001a0 be 54 31 bf 85 09 cd be fb 07 bb be 5a a1 48 3f
       -0.6926993 -0.40046325 -0.36529526 0.783712
0001b0 81 96 00 be 7d 7f ff bc 7a 2d b5 bf c5 c9 74 3e
       -0.12557413 -0.03118872 -1.4154503 0.23905094
0001c0 e3 a2 2a be a9 4c 03 3f 46 c3 84 be ec 02 d5 3e
       -0.16663699 0.5128885 -0.25930232 0.41603792
0001d0 7f 2c 10 3f 05 45 3d be f1 b6 48 be 32 e9 d6 3e
       0.56317896 -0.1848336 -0.19601037 0.4197479
0001e0 28 77 fe be 9a d9 2b bf 47 89 aa 3e 30 0c 87 be
       -0.49700284 -0.6712891 0.3330786 -0.26376486
0001f0 5c 08 92 3e 94 34 60 be 20 ff 2c 3f b9 fd 04 be
       0.28522003 -0.21895057 0.6757679 -0.12987413
000200 30 1a b4 be cd 94 00 3f 81 0f 9e bd 6a 73 9e be
       -0.3517623 0.5022705 -0.07717801 -0.3094743
000210 8f 4e 0c 3f 1b b5 a7 3f 1f 78 f7 be 66 a4 06 bf
       0.5480737 1.3102144 -0.48333833 -0.525946
000220 7e e2 2f bf 59 27 0a bf b8 96 33 3d 25 17 21 bf
       -0.68704975 -0.5396629 0.04384491 -0.6292594
000230 34 bf 41 3e 7a 0e 9d bf 00 a0 b4 bc cb e4 7a 3e
       0.18920594 -1.2270043 -0.02204895 0.2450134
000240 59 a3 2a 3e da b4 20 bf 9b 90 e6 3e d0 f6 78 3e
       0.16663875 -0.6277596 0.450322 0.24312901
000250 44 38 a6 be ac b9 02 3f cc 61 70 3f 97 69 93 3e
       -0.32464802 0.5106456 0.93899226 0.28791496
000260 55 1a a6 be 73 98 0f be 12 26 54 be ec e7 0d be
       -0.32441965 -0.14022999 -0.20717648 -0.13858002
000270 25 9f bc bd 15 a9 cc be ec e9 79 bf 76 7b 88 3e
       -0.09210042 -0.3997275 -0.9762256 0.26656693
000280 5f f4 25 bd f0 5a 1e bf a8 cc 87 be 62 eb 29 bd
       -0.040516254 -0.6185751 -0.26523328 -0.041484244
000290 7b 80 93 3f 61 63 1c bf ef 80 a3 3c 88 b0 3f bf
       1.1523584 -0.6108914 0.019958941 -0.7487874
0002a0 d8 b4 11 3f e0 1b a4 3c 3d 5a e4 be bf de 87 be
       0.5691657 0.020032823 -0.44600096 -0.2653713
0002b0 09 44 a9 bf 37 91 fd bc 49 eb 07 bf 1c 5f d8 3e
       -1.3223888 -0.030953033 -0.5309339 0.42260063
0002c0 7a c7 be be d6 0f fe bd 7e c0 5f 3e 06 28 03 3e
       -0.37261564 -0.12405364 0.21850774 0.12808236
0002d0 9a 83 31 3f 50 66 39 3c f7 da 18 bf 70 57 81 3e
       0.69341433 0.011315897 -0.59709114 0.25262022
0002e0 c4 34 03 bf 42 c0 ac 3e 61 2d c0 be b3 5f 7f 3e
       -0.5125239 0.3374043 -0.3753462 0.2493885
0002f0 6d 6c 12 3f 96 62 7c 3c b1 65 78 be 23 c3 4f 3f
       0.57196695 0.015404364 -0.24257542 0.8115713
000300 42 ee 3c be 12 52 e3 be 41 4a 82 3f 55 9e cc be
       -0.18450263 -0.44398552 1.017891 -0.39964548
000310 09 49 56 bf 7b 69 79 be 2c 0d a9 bd 17 b4 e3 3e
       -0.8370519 -0.24356644 -0.082544655 0.44473335

weight f4 [256, 570]
000000 58 04 5c bd be 46 a1 bd 93 2a ea bc dc 5a 26 3f
       -0.05371508 -0.07874821 -0.028584754 0.6498239
000010 32 59 5d 3e e3 3f 30 be 57 2b 89 ba e0 32 f3 3d
       0.21616057 -0.17211871 -0.0010465187 0.11874938
000020 cd 4e 24 be b1 ab d4 3d bf 1f 52 be 24 30 6b bd
       -0.16045685 0.1038431 -0.20519923 -0.057418957
000030 55 66 64 3e e1 e0 ef 3d bd 2e 95 be b4 f0 21 bf
       0.22304662 0.11712814 -0.2913722 -0.6325791
000040 af e8 b6 3e 99 6c 0d 3e d9 cf 1d 3c 59 8b 28 bd
       0.35724398 0.13810958 0.009632074 -0.041148517
000050 6b 63 1b bd e6 0a a7 3d 3b 14 1b 3d 2a 7b 59 bc
       -0.03793661 0.081563756 0.03786109 -0.0132739935
000060 f1 89 c0 bd 46 9a 02 bc 46 3f d0 3e 9f 60 32 3f
       -0.0940131 -0.007971352 0.40673274 0.6967868
000070 9d ce 0a 3d b5 a1 da 3e 25 74 14 3f e8 51 e6 3c
       0.033888448 0.42701498 0.5798972 0.028115228
000080 9b ce 6a 3c c8 2b fc 3b 8b ad 58 3c c9 95 93 bc
       0.014331485 0.007695649 0.01322497 -0.018015759
000090 9e 42 28 c0 bb a9 96 bf 49 7b a9 3e ec a6 b0 bc
       -2.629066 -1.1770548 0.33101872 -0.02156397
0000a0 e9 70 cd bd 4a 7e 8d 3b c3 c2 6c be 4a 11 0a 3f
       -0.100313015 0.0043180333 -0.2312117 0.5393263
0000b0 97 e6 8e 3f 8d 0f d7 3f 69 2d f1 3c 04 a8 ab bf
       1.116412 1.6801621 0.029440599 -1.3410649
0000c0 f5 dc 61 3b 47 d7 a9 3b 77 ca 53 3c 42 83 68 3f
       0.0034463976 0.0051831338 0.012926689 0.90825284
0000d0 16 85 61 3e 29 c2 cd bc 0b 1f cc ba ea 18 54 3d
       0.22023425 -0.025116997 -0.0015573216 0.051781572
0000e0 55 b6 e1 3c db 00 b2 bb c4 6b 74 3e 2f 59 c5 be
       0.027552763 -0.005432231 0.23869234 -0.38544604
0000f0 b4 cd 38 bf f8 32 8c 3e 63 31 7f be 8a 40 bc be
       -0.7218888 0.27382636 -0.24921183 -0.3676799
000100 ba 7d 91 bc 57 4a 65 bb c6 be 58 3c 83 f7 e0 3c
       -0.017760146 -0.0034986937 0.013229078 0.027461773
000110 cd 1c e5 3c 21 d7 a5 bc b8 c8 68 3f cd d0 cd 3f
       0.027967835 -0.020244183 0.9093127 1.6079346
000120 c7 c6 b9 3e b0 20 ac bf cc c3 d2 bf a0 b5 01 40
       0.36284468 -1.3447475 -1.6466002 2.0267105
000130 cb f4 8d 3e 2f 4b e0 3f 57 c3 21 be bb 02 c6 3f
       0.27725825 1.7522944 -0.15797172 1.5469583
000140 25 a9 7b 3e 24 9d 06 3e f5 e9 12 3d 6d 67 11 3e
       0.24576242 0.13145882 0.03586765 0.1419961
000150 f5 07 8c be 8f 94 66 3e 0d 1b 88 3e 71 95 cc bd
       -0.2734982 0.22517608 0.26583138 -0.09989441
000160 ca a7 72 3e 79 68 64 bd 33 3c 39 3d 8b 6d 12 be
       0.23696819 -0.055763695 0.045223426 -0.142996
000170 1d 98 7e 3d fb 62 ee bc ce 56 de 3d ca fb f9 bd
       0.062156785 -0.029099932 0.108564004 -0.12206228
000180 19 cd 0e 3e 72 92 3c bd 51 b4 be 3d e3 a0 9e 3e
       0.13945426 -0.0460381 0.093117364 0.30982122
000190 9b 07 62 3f 79 fa 41 3e c6 01 ef bc 0a fd db bd
       0.88292855 0.18943204 -0.02917565 -0.10741623
0001a0 d8 cb 20 3d 35 bd d1 bc aa 6c 98 be be 7e 5e 3e
       0.0392569 -0.025602916 -0.29770404 0.21728036
0001b0 f5 a0 af be 6e ac 9d 3e 5e 98 2b 3e e2 56 c4 3e
       -0.34302488 0.30795616 0.16757342 0.38347536
0001c0 b8 dc 6b 3e b1 2b 7e 3d 00 d4 e9 3c bb 6a d5 3c
       0.23033416 0.062053386 0.028543472 0.02605187
0001d0 55 4d b3 3e aa 95 fb bc db 63 a5 ba fd 29 09 bd
       0.35019937 -0.030711014 -0.001261826 -0.03348731
0001e0 9b 4b c5 3d a6 fd d3 3d 29 e7 b7 b8 3b 4e 4d bd
       0.09633561 0.10351114 -8.769177e-05 -0.050123435
0001f0 d2 50 f2 3c 2e 5e 8d bd 52 01 a3 3b f5 67 09 bd
       0.029579554 -0.06902729 0.0049745226 -0.033546407
000200 40 80 d2 3d f8 11 91 bd 21 a4 6c bd 22 1d e0 3c
       0.10278368 -0.070835054 -0.057773713 0.027357642
000210 af 37 13 3d c4 b0 e9 3c 16 dc 4c bd 23 bb 04 3c
       0.035941776 0.028526671 -0.050014578 0.0081012575
000220 99 85 71 3e bb a9 f9 3d 99 6c 9f be 47 d9 64 bd
       0.2358612 0.12190577 -0.3113754 -0.055871274
000230 29 09 8c be 56 a2 a8 3e b9 26 d9 be 2d 61 a5 be
       -0.2735074 0.32936352 -0.42412356 -0.32300702
000240 d3 a9 77 bd 6d 61 28 be 35 b3 0d 3c 72 83 c5 3c
       -0.06046469 -0.16443415 0.008648683 0.02411053
000250 7f fd 8d be 8e d2 29 be 32 f5 66 3d e1 87 8f 3e
       -0.27732465 -0.16584226 0.05638618 0.28033355
000260 a3 5d 89 3e 9f 3d 9f 3d 6a c0 43 3d 23 b6 c5 bd
       0.26829252 0.07775425 0.047790922 -0.096538804
000270 cb 03 92 3e 5c 21 2f ba a1 ae 6a bd da 9e 67 be
       0.2851852 -0.0006680691 -0.057295445 -0.22619191
000280 a8 65 59 be 4a 14 2d bd 8b e9 80 3e 8e 33 1a 3e
       -0.21230185 -0.042255677 0.2517818 0.15058729
000290 36 0d da be 03 66 e0 bd 57 06 8c 3e 0a 51 3e 3d
       -0.42588204 -0.10956957 0.27348587 0.046464004
0002a0 60 0c e8 be a1 36 9d 3d b0 10 16 3e 76 b5 6a 3d
       -0.4532194 0.07676435 0.14654803 0.05730196
0002b0 cc 3d a1 3d e9 65 28 3f 00 85 02 3f d7 23 6c 3f
       0.07873115 0.657805 0.5098419 0.9224219
0002c0 7d ae 53 3f bd dd 37 be d0 aa 9c 3d ca d1 43 3e
       0.82688123 -0.1795568 0.076497674 0.19122997
0002d0 7f 83 b3 3f f9 fb 6f bf 00 1b 08 3d 0c 5a 3f 3d
       1.4024504 -0.93743855 0.033228874 0.046716735
0002e0 f0 18 b9 3d 11 30 a2 be b4 e1 be 3c 6b 9a 21 3c
       0.090379596 -0.31677297 0.023300983 0.009863476
0002f0 97 76 61 be 79 ae ba 3d 3c e2 f2 3c 95 db 6b bd
       -0.22017895 0.09115309 0.029648893 -0.057582457
000300 c7 ab 58 3e 44 60 69 3c 46 dc df 3c 6f 27 5e be
       0.21159278 0.014244143 0.027326714 -0.2169473
000310 97 51 ba 3e 5e 98 4c be b3 2a 1f 3e 73 25 85 bc
       0.36390373 -0.19979998 0.15543632 -0.016253209
000320 28 7e eb be 6b 67 59 3d e7 f9 8b 3e 1d 1f 9b be
       -0.45994687 0.053077143 0.27339098 -0.30297175
000330 21 8e 3c 3f de 4c 01 3f 8e 4e 5d be e1 b8 e9 be
       0.7365437 0.50507915 -0.21611997 -0.45648864
000340 32 8b 54 bc b0 ba e6 bc 2f e0 bf 3c 1c 53 d6 ba
       -0.01297264 -0.028165191 0.023422329 -0.0016351673
000350 62 6e f5 3a a5 35 ac 3d 7e 58 70 3d 78 1c a3 3b
       0.0018724913 0.084086694 0.058678143 0.004977759
000360 10 6d a2 be 13 1a 60 3f 57 68 be 3f 71 b2 a3 3e
       -0.31723833 0.87539786 1.4875592 0.31972077
000370 09 98 98 bf 0a d4 a2 3d 4c b7 bc 3f 70 a9 31 3f
       -1.1921397 0.079505995 1.4743438 0.69399166
000380 9d 70 01 c0 82 78 21 bf 98 54 90 3f 26 77 bd be
       -2.0224984 -0.63074505 1.1275816 -0.37004966
000390 c4 03 d8 bf d5 f5 40 be de 06 5b 3f 34 ee 2a c0
       -1.6876149 -0.18843777 0.85557353 -2.6707888
0003a0 d4 5a 3d bf ae 1e 38 bf b6 94 af be 2c 42 0c c0
       -0.7396672 -0.71921813 -0.34293145 -2.1915388
0003b0 40 94 66 bf f8 4f 67 bf a4 93 07 3f c6 b6 cb 3f
       -0.9006996 -0.903564 0.52959657 1.5915153
0003c0 db 90 5e bc ff f7 69 3e 63 5b 06 3e 36 b2 7b 3e
       -0.013584341 0.22848509 0.13120799 0.24579701
0003d0 0f 54 b6 bd 1b 64 2a 3e 64 22 18 3c 88 d7 12 3e
       -0.08902752 0.1663975 0.009285543 0.14340031
0003e0 33 16 4c 3c 89 30 2a 3d 59 e2 df bc bd 73 ec 3c
       0.012456465 0.041550193 -0.02732961 0.028863782
0003f0 f7 9f 3c bb 46 cb ef 3c e6 68 ec bd 8a 56 08 3e
       -0.002878187 0.029271733 -0.11543445 0.13314262

bias f4 [256]
000000 9b 9f 3b bd a0 44 d1 bb 03 b1 48 bd f9 2b 64 bd
       -0.04580651 -0.0063863546 -0.048996937 -0.055705998
000010 c7 8a 35 3d cc 26 09 bd 5c 25 28 3d a3 2a 2c 3d
       0.0443218 -0.033484265 0.041051254 0.04203285
000020 20 c6 85 3b 7b b5 6f bb 11 4c 22 3d 59 6e 88 3d
       0.004082456 -0.0036576677 0.039623324 0.06661672
000030 7f 6b e3 ba ee 17 a6 bc 50 e2 5a bd 3f e8 f4 bc
       -0.0017350762 -0.020275082 -0.053438485 -0.0298959
000040 e1 f2 9b 3c 22 d4 ab bc 40 0d 98 3d d3 ed 07 3d
       0.019036712 -0.020975176 0.07424402 0.03318579
000050 6c 9d 35 bd 29 fb bb bd f2 a0 c8 bc e3 2f bb 3c
       -0.044339582 -0.091787644 -0.024490807 0.022849983
000060 2b 04 11 3c e8 4e 73 bb 62 07 a6 bc 90 97 c7 bd
       0.008851091 -0.003712589 -0.020267192 -0.09745705
000070 50 0e 6e 3d fc fa b3 bc 5f b9 38 3b 88 56 87 3d
       0.05811912 -0.021970265 0.0028186662 0.066083014
000080 98 2a 88 3d 12 ec 37 3a bd 8b 2b bd a8 cc 6b 3d
       0.06648749 0.0007016073 -0.04188131 0.057568222
000090 28 6f 92 3d 1a b4 c7 3d 5b 8b c2 3c 19 55 9d bd
       0.071501076 0.097511485 0.02374809 -0.07682247
0000a0 1b 5f 93 3b 83 97 8d bb c1 ae 1e bd cd a4 e4 bb
       0.0044974214 -0.00432104 -0.038740877 -0.0069776536
0000b0 ce 5f da 3c 6d c0 08 bd be e5 e2 bb 7a 95 33 bd
       0.026657011 -0.033386637 -0.00692436 -0.043843724
0000c0 94 60 3d bd 07 ff 2e bb dc e1 21 3d 13 9f a2 bc
       -0.046234682 -0.00267023 0.039522037 -0.019851243
0000d0 a1 6e 62 bd e9 c8 c4 bd d1 36 a0 bd cf 36 60 bd
       -0.055281285 -0.09608633 -0.078229554 -0.05473977
0000e0 f4 26 24 3d a5 63 82 bc f2 da 60 bc 62 2a 77 3c
       0.04007621 -0.015916655 -0.013724076 0.015085788
0000f0 fe 23 95 3c ca d1 14 bd 06 21 33 3d 96 bc 23 bd
       0.018205639 -0.036332883 0.043732665 -0.03997477
000100 47 b3 50 bd 9e c5 72 3c 45 7a e4 bc 1f 96 d0 3c
       -0.050952222 0.014817623 -0.027890334 0.025462208
000110 7b 5e 66 bc ff 7b ab 3b 06 70 89 bc 3b 6e 04 3a
       -0.014060612 0.0052332873 -0.01677705 0.0005051826
000120 d2 c3 04 be 74 7d 83 3b 9b af f3 bc 68 88 d0 3c
       -0.12965325 0.004012758 -0.029746821 0.025455669
000130 a2 57 80 bc 97 0f 67 bd 3f cd 30 bc 5d 3b ce bc
       -0.015666787 -0.056411352 -0.010791122 -0.025174791
000140 11 a7 69 bd f3 5b 24 bb 9b a8 e7 bb 71 c7 31 3b
       -0.057044093 -0.002507922 -0.00706966 0.0027126933
000150 6a 4c 1c bd ea 40 16 3d 1e e3 0c bd 0a d8 e7 3c
       -0.03815881 0.036683 -0.034396283 0.028301258
000160 89 38 f3 3c 90 cd c4 3c a5 8e 6a 3d c5 bb 37 3d
       0.029690044 0.024023801 0.057264943 0.044856805
000170 1b c7 ea bb 72 e0 c7 ba 10 e9 01 3c a0 d3 26 bd
       -0.0071648485 -0.0015249385 0.007929102 -0.040729165
000180 ad b0 be bc 35 8d 38 3d 48 e8 83 bd 8a 0e 97 bc
       -0.023277605 0.04505654 -0.064407885 -0.01843955
000190 b2 e1 18 3d aa 28 f0 3b 38 75 eb bc e2 14 c2 bd
       0.037324615 0.0073290663 -0.028742418 -0.09476639
0001a0 b5 1e cb 39 2b 1a 25 3b e2 65 00 be f7 64 ab 3d
       0.00038742056 0.00251926 -0.12538865 0.08368867
0001b0 49 88 0c bc 5a f1 09 3d e9 d5 b0 bb 69 85 95 3d
       -0.008577415 0.033677436 -0.005396594 0.073008366
0001c0 2f ea e9 3c ec 6a 04 3d 64 e0 39 3d be 8b ad 3c
       0.02855405 0.03232853 0.04538001 0.021184798
0001d0 a6 5f 2f 3d ed 6d 72 bd e3 ca 20 bd a0 0f 72 bd
       0.042815827 -0.059186865 -0.039255988 -0.059096932
0001e0 b1 66 b9 3c 12 d0 19 3c a1 4a a3 bd d6 ad e4 bd
       0.022631975 0.009387987 -0.07973219 -0.11165969
0001f0 c6 f3 13 3d 4f 05 14 3d 7a 8a e2 3c f8 97 45 3c
       0.036121152 0.036137875 0.027653921 0.012060158
000200 07 a5 89 3b 63 3d fa 3d e5 be 29 3d 97 a4 18 bc
       0.004200581 0.1221874 0.041441817 -0.009316585
000210 57 03 a0 bd 61 c0 3f 3c ce 7e bb bc 5c 12 aa bc
       -0.07813137 0.011703582 -0.022887614 -0.020760708
000220 ca ca 23 3d c1 60 65 bd 5f 8b 63 bd f1 60 4b bd
       0.039988317 -0.056000475 -0.055552837 -0.049652997
000230 93 c5 38 bc 75 fe 98 bc 7f f9 a2 bd 5e b6 c2 3b
       -0.011277574 -0.018676022 -0.07957744 0.00594215
000240 6a cd 7e 3c b9 c4 b2 3d 5f f2 2d bc 64 59 c1 bb
       0.015551904 0.08728928 -0.010616868 -0.005900549
000250 98 06 61 bb 72 86 cc bc b2 92 2d bd 1c 03 b8 3b
       -0.0034336206 -0.024966452 -0.042376228 0.005615605
000260 3b 3b b9 3c 33 43 3c 3b 5b 83 06 ba c3 10 6e 3d
       0.022611251 0.0028726577 -0.0005131268 0.058121454
000270 3c bc 04 bc 17 51 82 bd 95 b5 d2 bb 13 21 50 3d
       -0.008101519 -0.06363123 -0.0064303377 0.050812792
000280 25 bb ca bc 1d 0c e2 3c 33 b2 ef bc bf 66 38 bd
       -0.02474744 0.027593667 -0.029259777 -0.04501986
000290 c1 aa 8e bd d3 e8 74 bd 50 bb 8a 3d f9 af aa ba
       -0.069661625 -0.05979235 0.06774008 -0.0013022415
0002a0 1c 38 11 3b 4e 2d 53 bd 03 11 fa 3c 06 0d 9e bc
       0.0022158688 -0.051556878 0.03052569 -0.01929332
0002b0 ef f3 36 bd dd ce fa 3d ef cd e1 39 2a 90 2f bc
       -0.044666227 0.12246487 0.00043068777 -0.010715524
0002c0 59 ef 0d 3d 1f e3 b9 3d c3 48 9b bc ae ab 21 3c
       0.034652088 0.09076523 -0.018955594 0.009867592
0002d0 da f5 95 bd f3 69 0e 3d f8 af 4d bd 95 a2 0e 3d
       -0.07322283 0.03476901 -0.050216645 0.03482302
0002e0 fb 68 fe 3c eb c0 ad 3c 90 ff 05 bc 6b ca 13 3d
       0.031055918 0.021210155 -0.008178607 0.036081713
0002f0 a6 75 89 bb 3c 6d 2e 3d 23 ac 48 bd c1 fa 60 bd
       -0.004194933 0.042584643 -0.048992287 -0.054926638
000300 b6 58 03 3d 37 5b 3e 3b 56 f7 d9 bb d1 1f 0a bd
       0.032067023 0.0029046068 -0.006651799 -0.03372175
000310 09 ea fc bc ee f2 7f 3b 9e f5 03 bd 71 01 39 bd
       -0.030873315 0.003905471 -0.03221666 -0.04516739
000320 65 b9 0c bc bd d9 d9 3b fe 49 00 3d cf da 65 3b
       -0.008589123 0.006648271 0.031320564 0.0035073047
000330 1b 0b 3d bd 35 11 40 bd 43 d3 06 3d c4 a9 48 bd
       -0.04615317 -0.04689141 0.03291632 -0.048990026
000340 7b 92 1b 3e a9 d5 1e bd b7 13 d8 bd 9f 84 49 bd
       0.15192597 -0.03877798 -0.10550635 -0.049198743
000350 43 d8 93 bb 23 09 83 3d e1 af 58 bd 1a 55 f6 3c
       -0.0045118644 0.06398227 -0.052902106 0.030069876
000360 7c 5a 60 bd 45 9e 5d 3c 40 52 0f 3d 35 6c 07 3c
       -0.054773793 0.013526504 0.03499055 0.008265545
000370 00 f0 1e 3b ff da 46 3d 96 fc 94 3d d9 c6 34 bd
       0.0024251938 0.048548695 0.072747394 -0.04413495
000380 e6 1c 6c 3c 76 75 94 3c 18 cd b4 3c 46 32 5a 3c
       0.014411187 0.018122416 0.022070453 0.01331765
000390 4b 02 d7 bc cb 05 fc bc e2 d4 91 bc 80 ba 1d bd
       -0.02624621 -0.030764481 -0.017801706 -0.03850794
0003a0 14 8d 7c 3c f3 21 a5 3b b8 8f b5 bc 5e 9b 42 bd
       0.015414495 0.0050394475 -0.022163257 -0.04751145
0003b0 cf 87 50 3c dc f8 10 bc 86 b3 1a 3d 85 86 33 bd
       0.012727692 -0.008848395 0.037768863 -0.04382946
0003c0 98 3a 3d 3c 09 c3 4e 3d b8 61 0d bc 30 cc a8 3c
       0.011549614 0.05047897 -0.008629255 0.020605177
0003d0 3c b6 ae 3d c3 72 09 bc bf f4 16 bc 45 37 ab 3c
       0.08530852 -0.008389178 -0.009213625 0.020900378
0003e0 6f 50 3a 3b c2 a2 55 3b 1a 83 b6 3c 68 9d c5 bb
       0.002842929 0.0032598232 0.022279311 -0.006030727
0003f0 91 2e a4 bc e5 38 1f bc d6 dc 39 bd 57 a6 53 bd
       -0.020041736 -0.009718155 -0.04537662 -0.051672306

weight f4 [64, 256]
000000 f7 ea 85 be 72 86 7d 3e e6 42 4c be 68 65 20 bd
       -0.26155826 0.24758318 -0.19947395 -0.03915921
000010 a6 d2 3a be 0e 3e bc bd 9f 34 1c be b3 d0 61 3d
       -0.18244419 -0.091915235 -0.15254448 0.05513067
000020 8a 5c 98 be 58 92 31 bd 93 b8 41 be 19 ee ff 3d
       -0.29758102 -0.043352455 -0.18918066 0.124965854
000030 c2 ec 16 3e da a1 21 3e 68 65 98 bd ff d0 8a be
       0.14738753 0.15784398 -0.07441217 -0.27112576
000040 60 48 69 bd 60 3d 62 bd e2 3c 09 bf fd bc 90 3e
       -0.056953788 -0.055234313 -0.53608525 0.28269187
000050 ac 53 06 be 14 17 47 3e 59 6d 47 be 6f 0f 08 3e
       -0.13117856 0.19442397 -0.19475307 0.13287137
000060 83 e2 05 bd 2d 8e 88 be 41 ec 9a be 00 7b 71 bd
       -0.03268672 -0.26670972 -0.30258372 -0.058955193
000070 37 f4 d4 bd 58 f2 89 3d cd fe 2d be 9e dd 0c bf
       -0.10398143 0.067356765 -0.1699173 -0.5502566
000080 53 75 63 bc 6b 77 b5 3d 36 18 05 3d 9b 11 e0 bd
       -0.013882953 0.08860668 0.032493792 -0.10940858
000090 97 14 bf 3c f3 72 79 be b9 0d 81 3e 35 0e a2 3e
       0.023325248 -0.24360256 0.25205782 0.31651464
0000a0 bb 99 1e be 65 23 4a 3d 8e 0d 62 3c e5 66 59 3e
       -0.15488331 0.04935016 0.013797177 0.21230657
0000b0 8a f3 c1 bc 76 5d a0 3d 03 c9 5c be 4d c7 fb bc
       -0.023675699 0.07830326 -0.21561055 -0.030734682
0000c0 09 23 68 bc 37 b9 40 be dc fb 7f 3c 51 90 a5 be
       -0.014168509 -0.18820654 0.015624013 -0.32336667
0000d0 db f0 c1 3e 5c 20 d8 be d1 a8 20 3e d1 8e f3 3d
       0.3787907 -0.42212188 0.15689398 0.118924744
0000e0 75 d0 d5 be a4 b5 e2 3c 03 9c 17 be 73 fd 4d be
       -0.41760603 0.027674504 -0.14805607 -0.20116214
0000f0 dd 3c 17 3e ed 79 b9 3b e0 8a 98 3d c8 a1 02 bc
       0.14769311 0.0056602866 0.07448363 -0.007973142
000100 16 dd 96 bd 92 4b 28 3e 76 c0 ce 3d f5 88 90 be
       -0.073663875 0.16435078 0.10095303 -0.2822949
000110 8a 6d 33 3e 01 70 c6 3c a4 bc 59 bd 93 2c 4d be
       0.17522255 0.02422333 -0.053158417 -0.20036535
000120 bc b7 15 3e 7e eb 1f 3d 2e 43 56 be e3 95 92 bd
       0.1462087 0.039042942 -0.20924065 -0.07157495
000130 c6 60 8e be 70 1a 0b 3e a2 fd 2a 3e 85 e3 69 bb
       -0.27808207 0.13584304 0.16698316 -0.003568859
000140 4f d2 1f bd af 90 12 3e 64 8c be 3c 07 31 b9 3d
       -0.039018925 0.14313005 0.023260303 0.09042554
000150 04 e6 9c 3d 71 70 03 be 2d b0 07 3e e0 c5 29 bd
       0.076610595 -0.12835862 0.132508 -0.041448474
000160 a5 8d 03 be 1c de d0 3e a4 0c cc 3a 27 6c 8e be
       -0.12847002 0.40794456 0.0015567732 -0.2781689
000170 ef bc 8d 3d af db 69 bd e8 e5 56 bd c5 59 0c bf
       0.06920802 -0.057094272 -0.05246535 -0.5482448
000180 c8 d8 bf bd 0a 7e 91 3c a5 6e 98 be ef 2f 8c 3d
       -0.093675196 0.017760295 -0.29771915 0.0684508
000190 5b c4 44 be 6d 14 77 3d da 79 17 3e ca 5c fc 3e
       -0.19215529 0.060322214 0.14792576 0.49289542
0001a0 3d 02 73 3d 2c 15 f2 3d 56 b4 97 3e 65 ad 7d bc
       0.059328306 0.118204445 0.29629773 -0.015483235
0001b0 f9 b5 42 3c 81 d9 80 be d1 e4 26 3d a0 5c 0d be
       0.011884206 -0.25165942 0.04074556 -0.13804865
0001c0 77 2f 3a be 99 69 86 be 9d e1 db bd 9f 74 1e be
       -0.18182169 -0.2625244 -0.10736392 -0.15474175
0001d0 3b a8 b2 3e c5 04 a2 bd 0a d6 ac bd 44 be 6e bd
       0.34893975 -0.07911066 -0.08439262 -0.05828692
0001e0 cd 67 7d 3b 69 f2 9c bc eb 79 81 3e 86 8f 2d 3e
       0.0038666606 -0.019158559 0.2528833 0.16949281
0001f0 a4 e6 bc be 0c ca cb 3d 0e c2 01 3e 60 7f 90 be
       -0.36894715 0.09950647 0.12671682 -0.2822218
000200 71 60 19 3e 53 49 3d 3e 13 75 6c 3d 54 ca aa be
       0.14978196 0.18485002 0.05772884 -0.3335749
000210 97 8e e4 bd 96 81 0f bf 5c 0b b6 bd d9 08 83 bd
       -0.11160009 -0.5605711 -0.088888854 -0.06398172
000220 3f d9 bc 3d 54 3c 92 3d 34 ac b9 3d 56 c2 d1 bc
       0.09221124 0.07140413 0.09066048 -0.025605362
000230 7b 0c bd bd 5b 50 3c bd a3 9c f9 3e 53 e6 4f 3e
       -0.09230896 -0.04597507 0.48752317 0.20302705
000240 70 75 22 3d a8 f8 cd 3e 76 3a 4b bd 07 37 08 3e
       0.03966278 0.40228772 -0.0496163 0.13302241
000250 8e f0 19 be ad 0d 3d bf 41 b2 38 3d 57 da a8 3d
       -0.1503317 -0.7384899 0.04509187 0.0824477
000260 17 6e 49 be 2f 2a 9d bd 5a 06 2f 3e 61 a4 9e be
       -0.19670902 -0.076740615 0.17092267 -0.30984786
000270 2b c0 38 3e 56 62 bb 3d c9 25 98 3e 79 ad 0c 3e
       0.18042056 0.091496155 0.29716328 0.1373805
000280 06 70 d7 bd 92 99 67 3d b3 8d 5e 3e 49 a4 6d 3e
       -0.10519414 0.05654294 0.21733741 0.23207201
000290 86 4c 91 be 68 b3 20 be 42 09 62 3e 1a 07 93 be
       -0.28378695 -0.15693438 0.22073844 -0.28716356
0002a0 5f 14 5c 3e 67 3c 7d 3e 01 b9 28 3e e5 8f 3e be
       0.21492146 0.24730073 0.16476823 -0.18609579
0002b0 d0 18 87 3e 2e c1 2c 3d 72 ff 9e 3e 52 54 a5 3e
       0.26386118 0.042176418 0.31054264 0.32290894
0002c0 81 fc c7 3d 37 b3 a4 bd fb 7f 57 be 58 8e 8e 3d
       0.09764958 -0.08041995 -0.21044914 0.06960744
0002d0 16 2e a7 3d 8f 71 07 bf cb 4b d1 3c 7d 70 85 bd
       0.08163087 -0.5290765 0.025548836 -0.06515596
0002e0 f5 a2 56 be df dc 00 3e f8 26 67 bd 85 27 e1 be
       -0.209606 0.12584256 -0.056433648 -0.43975464
0002f0 21 04 87 be 7e bc 36 3b 6a e3 c6 3d 66 89 01 3e
       -0.26370338 0.0027883346 0.097113445 0.1265007
000300 96 67 98 be 87 c1 b6 be 55 f3 2e be 74 04 d5 bc
       -0.2976653 -0.35694525 -0.17085011 -0.0260031
000310 4c 55 74 3d f4 35 a5 3d b1 07 67 3c 17 c2 7f 3d
       0.059651658 0.08066931 0.014100955 0.062440958
000320 82 f6 06 be bc 6d f1 bd 9a ac 38 3e 8d ef 89 3d
       -0.13179973 -0.11788508 0.18034592 0.06735144
000330 37 15 2c be b5 c0 a4 bd b8 c3 8e bc df 96 29 bd
       -0.16804968 -0.080445684 -0.01742731 -0.041403648
000340 3e 82 2b bf 22 09 13 3e e8 41 b0 3e e8 73 a2 3e
       -0.6699561 0.14358953 0.34425282 0.31729054
000350 7c 9a 22 bf e7 2b 84 bd ad 7c 24 bc f2 e6 0f bc
       -0.63516974 -0.06453686 -0.010039491 -0.008783089
000360 5f 36 2c 3d a3 88 26 bd 94 a3 a5 bd a5 53 ce 3c
       0.04204404 -0.04065765 -0.08087841 0.02518637
000370 56 93 1b 3e 7e 9a d0 bd ff b0 20 be 57 2f e2 bd
       0.15192923 -0.10185717 -0.15692519 -0.110441856
000380 c4 1f 41 be 59 49 cb bd f5 2a 85 3d 6d 4a a9 3d
       -0.18859774 -0.09926099 0.06502334 0.08266149
000390 eb b5 9a 3c 30 03 1c be 2c 35 95 bd dd b4 3f 3d
       0.018885573 -0.15235591 -0.07285532 0.046803344
0003a0 ee 3d fb 3c 3e 33 14 be 86 11 92 3d 7d f9 bb 3d
       0.030669179 -0.14472672 0.071322486 0.091784455
0003b0 31 2a 8e bc 90 98 8d bd f2 b1 bd bc b5 33 e4 bd
       -0.017354103 -0.069138646 -0.02315614 -0.11142675
0003c0 fa d0 8e 3e 57 91 6f 3d 2f bb 25 3d bd 67 2d 3e
       0.2789381 0.058488216 0.040461715 0.16934104
0003d0 2f ad 42 be ab 6e c7 3e 8d e2 2a 3f 6a f7 d3 3c
       -0.19011377 0.3895162 0.6675194 0.025874812
0003e0 86 d7 76 3e 9c 23 65 3d 07 4e ae bd f7 0d a3 bb
       0.24105653 0.055942163 -0.08510976 -0.00497603
0003f0 2e e4 00 3e 2a 16 dd be ce 66 f8 bd ee 2b 84 bd
       0.12587044 -0.43180972 -0.121289834 -0.064536914

bias f4 [64]
000000 c3 5d f2 3b d1 fd 93 bd 46 c6 84 bd 90 37 d8 3c
       0.007396431 -0.07226146 -0.0648313 0.026393682
000010 94 83 9b bd 7e 62 0c 3d 20 83 36 3c bf c4 9e bc
       -0.07593456 0.034273617 0.011139661 -0.019380925
000020 82 4e 2c bd f7 81 c6 bc da f1 f7 3c 1c 55 88 bd
       -0.04206706 -0.024231894 0.030266691 -0.06656858
000030 a2 1e a0 3d f1 c9 3e 3c 31 d4 b0 bc e2 bb 6a bd
       0.07818343 0.011644826 -0.021585556 -0.057308085
000040 41 d3 5f 3c 5c 69 3f bd f3 f3 4c bd 61 f3 84 bc
       0.013661207 -0.046731338 -0.050037336 -0.016229333
000050 38 24 69 bd e6 22 97 3c f4 e5 67 bd c9 37 a7 bd
       -0.056919307 0.018449258 -0.056615785 -0.08164937
000060 a5 66 06 be e3 ca 2e bc a9 25 0f bd 5b d9 5c bd
       -0.13125093 -0.010668489 -0.034948025 -0.053918224
000070 f8 b7 1c 3c 45 ba 43 bb c7 94 a0 bd 8c b7 ff 3c
       0.009565346 -0.0029865664 -0.07840877 0.031215452
000080 b5 b3 6c 3c ef b2 16 bd 88 39 49 bd df 63 6f 3b
       0.014447142 -0.036791738 -0.04912713 0.0036528034
000090 e3 6f 92 bc 7c 48 79 3c 63 99 b3 3c 15 92 8e bd
       -0.017875617 0.0152150355 0.021923726 -0.06961457
0000a0 e3 c0 03 be 80 79 f4 3c 19 85 38 bd 0d 3f be 3c
       -0.12866549 0.029843092 -0.045048807 0.023223424
0000b0 d4 c7 a8 bd cf b9 c9 3c fb 8e 95 3a dc 31 11 3b
       -0.08241239 0.024624733 0.0011410409 0.0022154963
0000c0 21 9b ca b9 45 e0 b1 3d c5 81 b8 3b e9 de ad bc
       -0.00038644022 0.08685354 0.005630704 -0.021224456
0000d0 76 f7 fd bc df b8 21 bd 1d a0 3c bd ec 9f 64 3d
       -0.031001788 -0.039482947 -0.046051133 0.055816576
0000e0 30 91 71 bd 0c 56 d3 bc be b7 62 3d f7 b4 0b 3c
       -0.058976352 -0.025797866 0.05535101 0.008527032
0000f0 23 ef 1c 3d fa b2 3f bc 91 92 f2 3c b3 fd 31 39
       0.038313996 -0.011700386 0.029610904 0.00016974546

weight f4 [1, 64]
000000 5b 01 57 be 2e 75 8d 3e 18 43 d7 3e 87 e5 d3 3d
       -0.20996611 0.27628464 0.42043376 0.10346513
000010 3d 13 8c 3e db bc a0 be e4 54 8a 3e 73 b9 89 3e
       0.27358428 -0.31394085 0.2701789 0.268993
000020 89 a0 c9 3e cc c0 70 be 88 6d 73 3e f9 1c 93 be
       0.3938029 -0.23511046 0.23772252 -0.28733042
000030 ab 52 99 be 57 e6 c0 3e 84 14 5c be 82 b5 ae be
       -0.29945883 0.37675735 -0.21492201 -0.34122854
000040 fa 38 a0 3e 27 0d 82 be 63 9f 73 3e 2f d2 ab be
       0.3129347 -0.2540066 0.2379127 -0.33558795
000050 18 ed bc 3e 62 29 96 3e a9 77 ac 3e c1 fa a6 3e
       0.36899638 0.29328448 0.33685043 0.32613185
000060 f0 a2 a0 be 40 0c a5 3e c0 57 c0 be 06 55 6c 3e
       -0.3137431 0.32235909 -0.37566948 0.23079309
000070 1c 22 d3 3e b3 0c 2f 3e 38 3a e0 3e 48 ab cb be
       0.4123696 0.17094688 0.43794417 -0.39779115
000080 ed 2b 9d be 39 c6 9e be f2 2c 9c 3e ce d3 db 3e
       -0.30697575 -0.31010607 0.3050304 0.42935032
000090 9e 07 a4 be 2c e6 74 be 75 66 46 3e 62 46 9e 3e
       -0.3203706 -0.23915929 0.19375022 0.30913073
0000a0 11 e6 ac 3e c2 69 7a be b5 35 bd 3e c1 ae 95 3e
       0.33769277 -0.24454406 0.36955038 0.2923489
0000b0 f0 c7 ed 3e a2 29 bd be 99 7c 58 3e c1 e1 cf 3e
       0.46441603 -0.36945826 0.2114128 0.40601924
0000c0 67 11 46 3e bd 7f 8f be 42 56 a3 3e cf 2b 74 3e
       0.19342576 -0.28027144 0.31901747 0.23844837
0000d0 f4 1d 81 be 8b aa 61 3e ba c2 82 3e 60 08 aa be
       -0.25218165 0.22037713 0.2553919 -0.33209515
0000e0 11 b0 8f 3e b7 18 96 be d8 77 05 bf 6b f0 bb be
       0.28064016 -0.2931573 -0.5213599 -0.36706862
0000f0 67 3a 2b be 8d 3c 81 3e 9c 96 b8 be 3d 3f c6 be
       -0.16721497 0.2524151 -0.36052406 -0.38720122
