test/ens_models/ens_model_2_HA.pt (torch, 654481 bytes, 6 tensors)

layer0.weight f4 [20, 10]
0	0x3e83b986	0.2572748
1	0x3f8fc99f	1.1233405
2	0x3f3a5f03	0.72801226
3	0xbdb8628d	-0.09003172
4	0x3f1e8a28	0.6192956
5	0x3ecdc228	0.40187192
6	0xbdcfeddc	-0.1015279
7	0xbf695ab1	-0.9115401
8	0xbe3b9790	-0.18319535
9	0x3ebcb84b	0.36859354
10	0x3ea269dd	0.31721392
11	0xbf345160	-0.7043667
12	0x3ed271f7	0.41102573
13	0xba134164	-0.0005617349
14	0x3ebe1b67	0.3713028
15	0xbfb0fc25	-1.3826948
16	0xbf02adfe	-0.5104674
17	0x3e78109f	0.2422509
18	0xbf4fc579	-0.81160694
19	0xbee8bb8a	-0.4545558
20	0x3e2d3020	0.1691289
21	0x3eb5bfe3	0.3549796
22	0x3d8ef517	0.06980341
23	0xbe35b5c9	-0.17745127
24	0xbf978687	-1.183793
25	0xbebbacad	-0.3665518
26	0xbf06f0a7	-0.52710956
27	0x3e37a2fd	0.17933269
28	0x3fb2e45c	1.397594
29	0xbdcd09cf	-0.100116365
30	0xbe58d504	-0.21175009
31	0x3f54a5d1	0.83065516
32	0x3d890543	0.06690457
33	0x3e97e794	0.29668868
34	0x3dd51f2f	0.104063384
35	0xbf5fc5af	-0.87411016
36	0x3eeadf06	0.45873278
37	0x3ef27a7d	0.47359076
38	0x3f4979be	0.7870139
39	0xbf1c85a6	-0.6114143
40	0x3f967ac3	1.1756214
41	0xbec9b5a4	-0.39396393
42	0xbea8b437	-0.32949993
43	0x3e33059b	0.17482607
44	0xbf0285b4	-0.50985265
45	0x3f777030	0.9665556
46	0xbe8ba989	-0.27277783
47	0x3f4709fb	0.77749604
48	0x3d93f512	0.07224478
49	0x3e8cf370	0.27529478
50	0x3e8cef07	0.27526113
51	0x3f3c723a	0.73611796
52	0xbeb322f9	-0.3498762
53	0xbf0d04bd	-0.55085355
54	0x3f22aead	0.63547784
55	0xbecb69dc	-0.39729202
56	0x3efc5467	0.49283144
57	0x3e38b2a4	0.18036896
58	0xbdd246f9	-0.10267443
59	0xbdca1046	-0.09866385
60	0xbbdd6c14	-0.0067572687
61	0xbf22d34c	-0.63603663
62	0xbefab7f5	-0.48968473
63	0xbf1390db	-0.57642907
64	0xbeb4c18c	-0.35303915
65	0x3dad73b5	0.08469335
66	0xbf4cdb2f	-0.8002195
67	0x3f224fe9	0.63403183
68	0xbf19e102	-0.6010896
69	0xbf411ab7	-0.7543139
70	0xbe66a5b6	-0.22524151
71	0xbf2fe7e8	-0.68713236
72	0x3f0d2ae2	0.5514356
73	0x3f34c374	0.7061074
74	0x3c7e01ea	0.015503386
75	0xbe902ea5	-0.28160587
76	0xbea0fa5a	-0.31441003
77	0xbe6e66ef	-0.23281454
78	0xbf1084b2	-0.56452477
79	0x3eb3b9b1	0.3510261
80	0xbdc06495	-0.093941845
81	0xbea64219	-0.32472304
82	0xbf12d420	-0.5735493
83	0xbf543d63	-0.8290617
84	0x3e7cf28d	0.24701901
85	0xbedcbba3	-0.43111905
86	0xbf133d9c	-0.57515883
87	0xbe57b6e1	-0.21065857
88	0x3e3adbd0	0.18247914
89	0xbf82c07c	-1.0214992
90	0x3f78a05e	0.971197
91	0xbe9dcc2d	-0.30819836
92	0x3ed056a4	0.40691102
93	0xbdf28ceb	-0.11843284
94	0x3f3a8264	0.7285521
95	0x3dffeb3b	0.124960385
96	0x3d814ae3	0.06313112
97	0xbdf5bc25	-0.11998776
98	0x3d570952	0.052499123
99	0x3edbb32d	0.42910138
100	0x3ec15cc9	0.37766102
101	0xbf20924b	-0.62723225
102	0x3ec2b7e1	0.38030913
103	0x3efb2dbf	0.4905834
104	0x3e0db18c	0.1383726
105	0x3e28bae7	0.16477548
106	0x3eef3edf	0.46727654
107	0x3ef1f9ba	0.4726084
108	0xbf0bf74e	-0.5467423
109	0x3ebb2b63	0.3655654
110	0x3f1d5696	0.61460245
111	0x3e8c635a	0.2741955
112	0x3ecc17f0	0.39862013
113	0xbe8e02f1	-0.2773662
114	0x3d39850a	0.04529289
115	0xbd0ba81d	-0.034095872
116	0xbe3f778d	-0.18697949
117	0xbe77e6a8	-0.24209082
118	0x3d8615b9	0.06547112
119	0xbf7e339c	-0.992975
120	0x3f73ddcb	0.95260304
121	0x3f0bf7dd	0.54675084
122	0xbfc4ba6f	-1.5369395
123	0xbee257f1	-0.4420772
124	0x3e1ffeda	0.15624562
125	0xbeb6ce2b	-0.3570417
126	0xbdb523d0	-0.08844721
127	0xbe381b33	-0.17979126
128	0x3e35e363	0.17762522
129	0xbde41957	-0.11137646
130	0x3d40e0ed	0.047089506
131	0xbefd93a5	-0.49526706
132	0x3ef7b261	0.4837828
133	0x3d82db42	0.06389476
134	0x3eb6d062	0.35705858
135	0xbf20ae14	-0.6276562
136	0x3f29b5a3	0.6629278
137	0xbfa6e8dd	-1.3039814
138	0x3ea8c75b	0.32964596
139	0xbe860d4c	-0.2618202
140	0xbf87a538	-1.0597296
141	0x3f019c74	0.50629354
142	0x3f00a432	0.5025054
143	0xbeb6a416	-0.35672063
144	0xbdc85097	-0.09780996
145	0x3ef1e5c6	0.47245616
146	0x3ebd8c38	0.3702104
147	0xbdc4142b	-0.09574159
148	0xbf28556f	-0.6575536
149	0xbf1705c0	-0.5899315
150	0x3d70884d	0.058723737
151	0x3c572f0e	0.013133777
152	0x3df4ee68	0.11959535
153	0x3f6e79cb	0.9315459
154	0xbf6146f2	-0.8799888
155	0xbdd64da5	-0.10464028
156	0x3d985a5a	0.07439108
157	0xbf471fe1	-0.7778302
158	0xbf7f481b	-0.997194
159	0x3f0758a2	0.5286962
160	0xbf5274ae	-0.8220929
161	0xbf94d294	-1.1626763
162	0x3e6d1bb1	0.23155095
163	0x3f6e23e4	0.93023515
164	0xbed30a2a	-0.41218692
165	0xbe331fba	-0.17492571
166	0xbf2d78f8	-0.6776271
167	0xbf00bf47	-0.50291866
168	0x3dde897c	0.10866067
169	0x3eb6d6c6	0.35710734
170	0xbf6cf6c8	-0.9256406
171	0xbf940172	-1.1562941
172	0xbee69245	-0.4503347
173	0xbef9a382	-0.4875756
174	0x3ea90655	0.33012643
175	0xbe358225	-0.17725427
176	0x3f15244f	0.5825853
177	0x3f1564e5	0.5835708
178	0x3ea2e1aa	0.31812793
179	0x3f2a9868	0.66638803
180	0x3f19eb94	0.6012509
181	0xbe85ca27	-0.26130792
182	0x3f069491	0.52570444
183	0xbef1cdb8	-0.47227263
184	0x3ed05cf8	0.4069593
185	0x3e6eecf0	0.23332572
186	0x3f332cd8	0.699903
187	0xbf364232	-0.71194756
188	0x3ed9723a	0.4246996
189	0x3f1545a9	0.5830942
190	0x3f236ea6	0.6384071
191	0xbf1d731e	-0.6150378
192	0x3eb56679	0.35429743
193	0x3f5bb378	0.8582072
194	0xbe2618fc	-0.16220468
195	0x3ee8e78d	0.4548916
196	0x3f0aab07	0.54167217
197	0xbe675b07	-0.22593318
198	0x3e2e0fb0	0.16998172
199	0xbda9eb4b	-0.08296832

layer1.weight f4 [256, 570]
0	0x3ec3f8e3	0.38275823
1	0xbf3b9174	-0.7326882
2	0xbe90c1b1	-0.28272775
3	0x3ac02c5a	0.0014661655
4	0x3d773898	0.060356706
5	0xbe04b7c5	-0.12960728
6	0xbd5d7883	-0.054070007
7	0x3ddaecfd	0.10689733
8	0xbd3fa005	-0.046783466
9	0x3e718c75	0.23588736
10	0x3d663f02	0.056212433
11	0xbd56666e	-0.05234378
12	0xbd95e111	-0.07318319
13	0xbe0f17ae	-0.13973877
14	0x3e71c7be	0.23611352
15	0x3f80b1fe	1.0054319
16	0xbd2ec00a	-0.04266361
17	0xbccc8e01	-0.024970056
18	0xbc3159f7	-0.010824672
19	0x3e5d377c	0.21603197
20	0x3db74781	0.08949185
21	0xbc56d04f	-0.013111188
22	0xbb6e33df	-0.0036346836
23	0x3cc63de3	0.024199432
24	0x3e19f046	0.15033063
25	0xbea6ebff	-0.32601926
26	0x3e3e112d	0.1856124
27	0xbce33aa6	-0.027737927
28	0xbd8ab112	-0.06772055
29	0x3d80e549	0.06293733
30	0xbe286ddb	-0.16448157
31	0x3f1bd76c	0.6087558
32	0x3cef6cf6	0.029226761
33	0x3d1070b6	0.03526374
34	0x3b845ed9	0.004039627
35	0x3df4d2cb	0.11954268
36	0xbcb2e912	-0.021839652
37	0xbc8c888e	-0.017154958
38	0x3dc5b6d6	0.09654014
39	0xbd65825f	-0.056032535
40	0xbe54bfd5	-0.20776303
41	0xbe91c700	-0.28472137
42	0x3ac03366	0.0014663755
43	0x3e294ddc	0.16533607
44	0x3ee8b037	0.4544694
45	0x3efb4fbe	0.49084276
46	0xbeaf2916	-0.34211034
47	0xbd75b384	-0.059985653
48	0xbcdcba0e	-0.026944187
49	0xbe67d5c0	-0.22640133
50	0x3df01d43	0.11724331
51	0x3db0dfd3	0.08636441
52	0x3e3e7509	0.18599333
53	0x3e205d38	0.1566056
54	0xbdf4b877	-0.119492464
55	0xbd12482f	-0.03571337
56	0x3db41bd0	0.08794367
57	0xbd616695	-0.05502947
58	0x3b9fcf22	0.004876987
59	0x3c60ec5d	0.013728228
60	0xbdc5574f	-0.096357934
61	0xbe829c47	-0.25509855
62	0xbeac7a6b	-0.33687147
63	0x3e58cffd	0.21173091
64	0xbd18aee8	-0.03727618
65	0xbcf4174c	-0.029796265
66	0x3d760129	0.0600597
67	0x3db19ff6	0.08673088
68	0xbd658599	-0.05603561
69	0xbeb623c3	-0.3557416
70	0xbd576d96	-0.052594744
71	0x3eaab75f	0.33343026
72	0xbe1dfff7	-0.15429674
73	0x3d701499	0.058613393
74	0x3f924a3c	1.1428905
75	0xbe1e8e9d	-0.1548409
76	0x3f4f6df9	0.8102718
77	0x3f14e352	0.58159363
78	0x3f1209aa	0.57045996
79	0x3f0be122	0.546404
80	0xbd388e2e	-0.045057468
81	0xbd37ce2d	-0.04487436
82	0x3cc6f4e3	0.024286693
83	0x3e062d12	0.1310313
84	0xbd07d614	-0.033163145
85	0xbe13a986	-0.14420137
86	0xbda70faa	-0.081572846
87	0x3e1dd415	0.15412934
88	0x3dbbb5f7	0.091655664
89	0x3e919642	0.2843495
90	0x3e528fdc	0.2056269
91	0xbf5b8187	-0.8574452
92	0x3dec9cd4	0.1155335
93	0x3ee9d0dd	0.45667163
94	0xbdc83937	-0.09776538
95	0xbeac01dc	-0.3359517
96	0x3dd4fa82	0.10399343
97	0x3dac57e9	0.08415205
98	0xbc11134e	-0.0088547
99	0xbe8a27fa	-0.26983625
100	0xbe2cdca6	-0.16881046
101	0xbdc886fd	-0.09791372
102	0x3e47a1c9	0.1949531
103	0xbe42a4c6	-0.19008169
104	0xbdb9d1d0	-0.09073222
105	0x3da88825	0.082290925
106	0x3e8c419a	0.273938
107	0x3cde23d8	0.027116701
108	0xbe8cdfe1	-0.27514556
109	0x3e895212	0.26820427
110	0x3da66c15	0.08126084
111	0xbd986358	-0.07440823
112	0x3e4c0855	0.19925053
113	0x3d9b3be9	0.07579786
114	0x3dbc1e36	0.0918545
115	0x3c18c88b	0.009325157
116	0xbc887044	-0.016655095
117	0x3c84efcd	0.016227627
118	0x3e05ff53	0.1308568
119	0xbd178525	-0.03699221
120	0xbdcd7894	-0.10032764
121	0x3c365f02	0.01113105
122	0xbd5934de	-0.053028934
123	0x3dd86db6	0.10567801
124	0xbe8d61cf	-0.27613685
125	0x3cfb4d86	0.030676614
126	0x3d3778fa	0.044793107
127	0x3d7fb130	0.06242484
128	0xbd5374ee	-0.051625185
129	0x3c7cdca0	0.0154334605
130	0xbc322101	-0.010872127
131	0x3dac060a	0.08399589
132	0xbcc51118	-0.024056002
133	0xbbfc7bfc	-0.00770521
134	0xbd8c91f2	-0.06863774
135	0x3dbb0312	0.09131445
136	0x3e01fd06	0.12694177
137	0x3db72f8c	0.08944616
138	0xbe0b0760	-0.13577032
139	0xbe1d9b2d	-0.15391226
140	0x3d987a74	0.07445231
141	0x3d83a35c	0.06427643
142	0xbe613e90	-0.21996522
143	0xbed68262	-0.4189635
144	0xbe1ef1e0	-0.15521955
145	0xbdf5e13a	-0.12005849
146	0xbe17400e	-0.14770529
147	0xbeb58584	-0.35453427
148	0x3ec82fab	0.39098868
149	0x3d49dfee	0.04928582
150	0xbde29113	-0.11062827
151	0x3e76d565	0.24104841
152	0x3ebacd6a	0.36484843
153	0x3db92410	0.090400815
154	0xbe19c490	-0.15016389
155	0x3ec5af7c	0.38610446
156	0x3eac5740	0.33660316
157	0xbb8ba30c	-0.00426138
158	0x3dc0b20b	0.09408959
159	0xbe1f4cc5	-0.15556629
160	0x3db0cd96	0.086329624
161	0xbd54e384	-0.05197479
162	0xbd09c303	-0.033633243
163	0xbd4fe1e8	-0.05075255
164	0xbe29deec	-0.16588944
165	0x3c968f68	0.018378928
166	0xbd868c89	-0.06569774
167	0x3d833546	0.064066455
168	0xbd24bd47	-0.04021957
169	0x3e0db8d0	0.13840032
170	0x3e76380e	0.2404482
171	0x3e6d0f5b	0.23150389
172	0xbf00d233	-0.5032074
173	0xbdbcad53	-0.092127465
174	0x3ebcdb52	0.36886078
175	0xbd983bfa	-0.074333146
176	0x3e2d5671	0.16927506
177	0x3e56f7cb	0.20992963
178	0xbcb68a79	-0.022282826
179	0x3eaa8783	0.33306512
180	0x3e79cade	0.24393794
181	0x3e8e05f1	0.27738908
182	0x3e6368bd	0.22207923
183	0x3e2ec18f	0.17066024
184	0xbde42e68	-0.11141664
185	0x3e8d0413	0.2754217
186	0x3e4b504a	0.19854847
187	0xbe92ce3e	-0.28672975
188	0x3f07b390	0.53008366
189	0x3e7b3b41	0.24534322
190	0x3dd31de4	0.103084356
191	0xbe2fd797	-0.17172085
192	0x3f0ecfe4	0.55785966
193	0x3ebc7619	0.3680885
194	0x3b431c94	0.0029771673
195	0xbed5890e	-0.41706127
196	0x3e06e8ba	0.13174716
197	0x3d894bb7	0.067038946
198	0xbd8e37b6	-0.0694422
199	0xbdb05822	-0.0861056
200	0xbd5b32c0	-0.053515196
201	0x3da473aa	0.08029874
202	0xbd1c5fea	-0.03817741
203	0xbe03e6eb	-0.12881057
204	0xbe94126a	-0.289203
205	0xbd4b80fa	-0.04968355
206	0x3dc4ba67	0.09605866
207	0x3d91436a	0.07092936
208	0xbc4ce030	-0.012504622
209	0x3c300dae	0.010745449
210	0xbce16fc7	-0.02751912
211	0x3cf9a862	0.030475799
212	0xbc5c61a1	-0.013451011
213	0x3d32f62b	0.043691795
214	0x3f310f50	0.6916399
215	0x3ed33c02	0.4125672
216	0x3d0241e5	0.031801123
217	0x3ecd225f	0.40065286
218	0x3f934250	1.1504612
219	0x3f7eca43	0.99527377
220	0xbe13ebfa	-0.14445487
221	0xbda45743	-0.08024456
222	0x3f34cb28	0.7062249
223	0xbf3cad41	-0.73701864
224	0xbea1d98f	-0.31611297
225	0xbe0b8e41	-0.13628484
226	0xbe55c4b4	-0.20875818
227	0xbf4c763e	-0.79867923
228	0xbe8046a8	-0.25053906
229	0xbe721056	-0.23639044
230	0xbe9282df	-0.28615472
231	0x3eea0617	0.4570777
232	0xbee14c97	-0.44003746
233	0xbe41cf31	-0.18926693
234	0x3d78acf5	0.06071182
235	0xbf167b1e	-0.5878161
236	0xbf13e9ea	-0.577788
237	0xbe1df048	-0.15423691
238	0x3d076930	0.0330593
239	0xbfd19a17	-1.637515
240	0x3dc1fed5	0.094724335
241	0x3e0d8581	0.13820459
242	0xbd0c1145	-0.034196157
243	0x3da8bc48	0.08239037
244	0x3ae9cfe7	0.0017838449
245	0x3d97fb70	0.07421005
246	0x3e85632f	0.26052234
247	0x3f1cfafd	0.6132048
248	0xbdab7a8b	-0.083729826
249	0x3d2bf7d3	0.04198439
250	0x3d5dbec9	0.054137025
251	0x3e9e2841	0.30890086
252	0xbd3086ea	-0.043097414
253	0x3d0ec5b3	0.03485651
254	0xbdcc9c08	-0.09990698
255	0x3d720a75	0.059092004

layer1.bias f4 [256]
0	0x3c0bca5b	0.008532132
1	0xbd6464e8	-0.055760294
2	0x3cca4358	0.024690315
3	0x3c44f94b	0.012022327
4	0x3c83fac9	0.016110795
5	0x3cf1f188	0.029534116
6	0xbc772346	-0.015084093
7	0xbcf263de	-0.029588636
8	0xbba6395c	-0.0050727557
9	0xbcd5fe50	-0.026122242
10	0x3c534cb9	0.01289671
11	0xbc6d9056	-0.014499744
12	0x3bec4743	0.0072106435
13	0xbcd9b975	-0.02657769
14	0xbcc1f64d	-0.023677016
15	0xbd2450a3	-0.040115964
16	0x3d280e74	0.04102941
17	0xbce19f7f	-0.027541874
18	0xbcb9fb45	-0.022702822
19	0xbbe1c484	-0.0068898816
20	0xbd0c2c58	-0.034221977
21	0x3d66cc0b	0.056346934
22	0x3d22a605	0.03970911
23	0xbbcb5081	-0.006204665
24	0x3cba4d22	0.022741858
25	0xbcb21e20	-0.02174288
26	0x3c7f5a9b	0.015585567
27	0xbcf665e2	-0.030077878
28	0x3d5ce22b	0.053926628
29	0xbcd4cce5	-0.025976608
30	0x3d06c5dd	0.03290354
31	0xbc6a1f77	-0.014289728
32	0x3ba24f64	0.0049533118
33	0xbc2e3179	-0.010631912
34	0xbb13eb4b	-0.0022570665
35	0x3d4dad12	0.05021388
36	0xbc830287	-0.015992416
37	0xbe003172	-0.12518862
38	0x3cce1006	0.025154125
39	0xbd289ab9	-0.04116318
40	0xbd23de85	-0.040007133
41	0xbc254d29	-0.010089197
42	0xbda998f1	-0.082811244
43	0x3b8906f5	0.0041817375
44	0xbcdd58d9	-0.027019905
45	0x3c8e48a4	0.017368622
46	0xbca14d4d	-0.01969018
47	0xbba74624	-0.005104797
48	0x3c32f158	0.010921799
49	0xbb6060fc	-0.0034237495
50	0xbd2edefe	-0.04269313
51	0xbc863d58	-0.016386673
52	0xbcf288df	-0.02960628
53	0x3ca33837	0.019924266
54	0xbcc89705	-0.024486074
55	0x3bcc2858	0.0062303953
56	0xbd2225b5	-0.03958674
57	0xbd17a869	-0.037025843
58	0xbd71d6bd	-0.05904268
59	0x3d4185fd	0.04724692
60	0xbd0f7756	-0.035025917
61	0xbbe39628	-0.0069453903
62	0xbc92c2f7	-0.017915232
63	0x3c6d9788	0.01450146
64	0x3cc5ff98	0.024169728
65	0x3cd4248c	0.025896333
66	0xbcdae868	-0.026722148
67	0xbd062051	-0.032745663
68	0xbb5052a3	-0.0031787537
69	0x3ce447e6	0.027866315
70	0x3d296033	0.04135151
71	0x3cf15ab3	0.029462194
72	0x3b48574e	0.0030569616
73	0x3d596f07	0.0530844
74	0x3c1d1693	0.009587902
75	0x3caa1b6a	0.020765025
76	0x3c82a1cb	0.01594629
77	0xbd7caf01	-0.061690334
78	0xbc5d9330	-0.013523862
79	0xbd15e74c	-0.036597535
80	0x3b8c2687	0.0042770538
81	0x3d97ab0d	0.07405672
82	0x3b7862f1	0.003790077
83	0xbcb69957	-0.022289915
84	0xbc8b83f1	-0.017030688
85	0xbcbb906e	-0.022896018
86	0xbd3b60bd	-0.045746554
87	0xbadc7a8c	-0.001682119
88	0x3d1b4cc1	0.037914995
89	0x3d0b46ba	0.034002997
90	0xbbf415f5	-0.0074489065
91	0xbcc6c58f	-0.024264125
92	0x3d274047	0.040832784
93	0xbca9a05d	-0.02070635
94	0x3c089650	0.008336619
95	0xbd284ede	-0.04109084
96	0xbd3ab223	-0.04558004
97	0xbb1291f0	-0.0022364818
98	0xbc6c210a	-0.014412174
99	0xbd03fad7	-0.03222164
100	0x3c93c44a	0.018037934
101	0xbce62558	-0.028093979
102	0xbb9e58db	-0.0048323697
103	0xbc9ced94	-0.019156255
104	0xbca2c487	-0.019869102
105	0xbc2d9a28	-0.010595836
106	0x3cebce05	0.028784761
107	0xbd2d3a81	-0.04229212
108	0x3da9e233	0.08295097
109	0xbc6e3865	-0.014539813
110	0xbb8f6679	-0.0043762294
111	0xbce18536	-0.02752934
112	0x3c484bf2	0.012225138
113	0xbc26ec0b	-0.010188113
114	0xbcf9bd13	-0.030485665
115	0x3c3a582a	0.011373559
116	0x3a256b16	0.00063102075
117	0x3c7ed6d2	0.015554147
118	0x3d0bd4f2	0.034138627
119	0xbcc5b1c1	-0.024132611
120	0x3d4d419e	0.050111406
121	0x3b06530c	0.0020496277
122	0xbc5c7a7a	-0.013456935
123	0x3ce9a295	0.028519908
124	0xbd3e5bc0	-0.04647422
125	0xbc936976	-0.017994624
126	0xbd0b9e33	-0.034086417
127	0xbc9735d3	-0.018458283
128	0x3c2f2ab5	0.0106913345
129	0x3cd8f890	0.026485711
130	0x3c412533	0.011788654
131	0xbd5b4b23	-0.053538453
132	0x3c1bcff2	0.009510027
133	0x3c3443c1	0.011002482
134	0xbdb60852	-0.08888306
135	0x3ca76a35	0.020436386
136	0xbcb9961d	-0.022654587
137	0xbab4c659	-0.0013792022
138	0xbd2a1d5b	-0.0415319
139	0xbcc14cd4	-0.023596205
140	0xbd0c8b8d	-0.034312773
141	0x3b830e8b	0.0039995364
142	0xbd54b9ee	-0.05193513
143	0x3cd4d7fb	0.025981894
144	0x3c74c410	0.014939323
145	0x3d898847	0.06715446
146	0x3ce36035	0.027755836
147	0xbce462d5	-0.027879158
148	0xbc714060	-0.014724821
149	0xbd10a241	-0.035310987
150	0x3b3e7ce4	0.002906614
151	0xbd587da2	-0.052854188
152	0xb994596b	-0.0002829538
153	0x3bbdcbf8	0.0057921372
154	0xbd481dfb	-0.048856717
155	0xbcf45029	-0.02982338
156	0x3c28373a	0.010267073
157	0xbc4a8fe0	-0.012363404
158	0x3d04034b	0.032229703
159	0xba038faf	-0.0005018664
160	0xbcd2c589	-0.025728958
161	0xbb497d55	-0.003074487
162	0x3d220970	0.03955978
163	0xbc9c35cd	-0.019068623
164	0x3d87b22a	0.06625779
165	0xbd1d8510	-0.038456976
166	0x3c07d1f7	0.008289806
167	0xbaebd27a	-0.0017991804
168	0xbbdaa087	-0.0066719684
169	0x3b8f301f	0.00436975
170	0x3c8917bf	0.016734956
171	0xbd0e604e	-0.034759812
172	0x3dbcfbc8	0.09227711
173	0xbc879b70	-0.01655361
174	0x3e04b606	0.12960061
175	0xbd799f7a	-0.060943104
176	0xbd4cf09d	-0.050034154
177	0x3d8158b4	0.06315747
178	0x3bb83e46	0.005622658
179	0x3cc01a67	0.02345009
180	0xba9eac25	-0.0012105746
181	0x3c007fbe	0.007842956
182	0x3e0e90c2	0.13922408
183	0x3d801603	0.062541984
184	0xbd095c14	-0.03353508
185	0x3d578b98	0.05262336
186	0xbd3b09db	-0.045663696
187	0x3bcf4c16	0.006326209
188	0xbd142e67	-0.036177065
189	0xbd287736	-0.041129313
190	0xbc41537e	-0.011799691
191	0xbd2b6873	-0.041847657
192	0xbcbdf304	-0.023187168
193	0x3cbd88a2	0.02313644
194	0x3cbda864	0.023151584
195	0xbb0c76c2	-0.002143309
196	0x3b8b7660	0.0042560548
197	0x3ce1541a	0.027505923
198	0xbd166161	-0.03671396
199	0x3dd58189	0.104250975
200	0x3cfbcd7d	0.030737633
201	0x3c9ab108	0.018883243
202	0xbcecc9af	-0.028904764
203	0x3d0a50b6	0.03376838
204	0x3c459da2	0.012061508
205	0x3cb31fa7	0.021865679
206	0xbc4fa8a6	-0.012674486
207	0xbc9e64d0	-0.01933518
208	0xbc152973	-0.009104121
209	0xbbc7bb33	-0.006095314
210	0xbc4cd77c	-0.012502547
211	0xbce7c499	-0.028291987
212	0xbca376fc	-0.019954197
213	0xbd8d92c8	-0.06912762
214	0xbc40d9fe	-0.011770723
215	0xbd82d9a7	-0.0638917
216	0xbce60976	-0.028080683
217	0x3d06e67b	0.032934647
218	0x3d176172	0.036958165
219	0xbc9c3e18	-0.019072577
220	0xbdf0c0a0	-0.1175549
221	0x3b043f94	0.0020179497
222	0xbc251fef	-0.010078414
223	0xbcd56e88	-0.026053682
224	0x3dee20b1	0.11627329
225	0xbdb94fbb	-0.090484105
226	0x3d1712f1	0.0368833
227	0xbcee1293	-0.029061591
228	0x3ca1ecb4	0.01976619
229	0xbcbcc8b4	-0.023044921
230	0xbd7a087e	-0.061043255
231	0x3cf699b5	0.03010259
232	0xbcc9b924	-0.024624415
233	0xbd365978	-0.044518918
234	0xbcca2c0f	-0.024679212
235	0xbc318667	-0.010835267
236	0x3bffac7c	0.007802544
237	0x3d295433	0.041340064
238	0x3ae37122	0.0017352442
239	0xbd7e7cf6	-0.06213089
240	0x3d3dbdbf	0.046323534
241	0x3a93ee26	0.0011286184
242	0xbb7f6f7c	-0.0038976362
243	0x3cbe7fe5	0.023254344
244	0xbcbf945a	-0.02338617
245	0xbd392603	-0.045202266
246	0xbca73c5d	-0.020414526
247	0x3c4490df	0.011997431
248	0x3cf38804	0.029727943
249	0x3d02a6f5	0.031897504
250	0xbd73ff89	-0.05956987
251	0x3dad82a7	0.084721856
252	0xbd2befe6	-0.04197683
253	0x3bf1edff	0.0073831077
254	0x3cb07ca2	0.021543805
255	0xbcbfcfdd	-0.023414547

layer2.weight f4 [64, 256]
0	0x3e6c32c1	0.23066236
1	0x3f209beb	0.6273791
2	0xbddcae6f	-0.10775458
3	0xbe997c4c	-0.29977643
4	0x3dbbb0eb	0.09164604
5	0xbe227415	-0.15864594
6	0x3f69974d	0.9124649
7	0xbe221116	-0.1582683
8	0xbda0f1f2	-0.078586474
9	0x3e436b5a	0.1908392
10	0x3f4001de	0.7500285
11	0xbdc92f55	-0.09823481
12	0x3dd52400	0.10407257
13	0xbdc89848	-0.0979467
14	0xbc50f907	-0.012754685
15	0x3ecda554	0.40165198
16	0xbecc96ac	-0.39958704
17	0x3e73c9ac	0.238074
18	0xbdffdf4f	-0.124937646
19	0x3d38c791	0.045112196
20	0xbe75cc09	-0.24003614
21	0xbe398e9d	-0.18120809
22	0x3e6d18be	0.2315397
23	0x3d104ae6	0.03522768
24	0x3ef58298	0.47951198
25	0xbe2ff3e3	-0.17182879
26	0x3ee0b9c8	0.4389174
27	0x3d687de1	0.056760672
28	0x3d334b07	0.043772724
29	0x3ebebd7b	0.37253937
30	0xbe544801	-0.20730592
31	0xbae4efe1	-0.0017466509
32	0xbc26ae34	-0.010173369
33	0x3c54a62f	0.012979074
34	0x3e174cad	0.14775343
35	0xbe3850d9	-0.17999591
36	0xbb0cd6b3	-0.0021490275
37	0x3e4acecd	0.1980545
38	0x3d616007	0.05502322
39	0xbd4271f2	-0.047471948
40	0xbe4295ec	-0.19002503
41	0x3dcb421e	0.0992472
42	0x3e450595	0.1924041
43	0x3e88fc8d	0.2675518
44	0x3e721f0a	0.23644653
45	0x3eafb3b3	0.34316787
46	0xbe333c7d	-0.17503543
47	0x3d44fb42	0.04809118
48	0x3e96d5f1	0.294601
49	0x3e25d327	0.1619383
50	0xbe418fe4	-0.18902546
51	0xbe651dbf	-0.22374628
52	0x3d862d09	0.065515585
53	0x3e96b9fc	0.2943877
54	0x3e237f12	0.15966442
55	0xbe045b9c	-0.12925571
56	0xbce37ece	-0.027770426
57	0x3e01c5a7	0.12673055
58	0xbc70004d	-0.014648509
59	0xbe9c04a9	-0.30472305
60	0xbdb783d5	-0.08960692
61	0x3e59fa16	0.21286806
62	0x3d9db6fb	0.077009164
63	0xbbb3d5fa	-0.0054881545
64	0xbc76e014	-0.015068073
65	0xbe7b3688	-0.24532521
66	0xbdeed407	-0.11661535
67	0xb99e6a72	-0.00030215416
68	0x3c91af3a	0.01778375
69	0x3e5f53da	0.2180933
70	0xbdc20cc8	-0.09475094
71	0xbe821a83	-0.25410852
72	0xbdd86c12	-0.10567488
73	0xbedbdcd0	-0.42941904
74	0xbda99361	-0.082800634
75	0x3ef0c2bd	0.47023574
76	0xbd0326da	-0.032019474
77	0x3e0abe6c	0.13549203
78	0x3e7eeb36	0.24894413
79	0x3e1eb6a9	0.15499367
80	0xbe27ac3d	-0.16374297
81	0xbdb6bebb	-0.08923098
82	0x3e54d5f4	0.20784742
83	0x3dd77dd3	0.10522046
84	0x3ebfcd10	0.37461138
85	0xbb54e551	-0.0032485316
86	0xbd667b1f	-0.05626976
87	0xbe24b2a7	-0.16083775
88	0xbe756826	-0.2396551
89	0xbe3c26ab	-0.18374126
90	0xbd445978	-0.047936887
91	0x3e498fa5	0.19683702
92	0xbdbf6e5d	-0.09347222
93	0xbccd8984	-0.025089987
94	0x3e5bc181	0.21460535
95	0x3ec4a160	0.3840437
96	0x3e9747c9	0.29546955
97	0x3ed2ac8e	0.41147274
98	0x3eb8b511	0.36075643
99	0x3ea2e090	0.31811953
100	0xbdaf1a96	-0.08549993
101	0x3e824ad3	0.2544771
102	0x3c635961	0.01387629
103	0xbdcc57d2	-0.09977688
104	0x3f3b88c0	0.7325554
105	0xbe46a373	-0.19398288
106	0x3e081666	0.13289794
107	0xbd728f98	-0.059218973
108	0xbe87a7d1	-0.2649522
109	0x3e87ae50	0.26500177
110	0x3e9e84df	0.30960748
111	0x3e8a75ca	0.2704299
112	0xbd896842	-0.06709339
113	0x3f03b9e3	0.51455516
114	0x3f5159cb	0.8177764
115	0x3e54af2f	0.20769952
116	0xbd1e1279	-0.038591836
117	0x3de6dc33	0.112724684
118	0x3e876933	0.26447448
119	0xbe088e2a	-0.13335481
120	0x3d3951f2	0.045244165
121	0x3d710151	0.058839146
122	0xbdc67942	-0.09691097
123	0xbebf2d5d	-0.37339297
124	0xbe737899	-0.23776473
125	0xbd291f8d	-0.041289855
126	0x3d28a449	0.0411723
127	0xbd9688c6	-0.07350306
128	0x3da6ae1c	0.081386775
129	0xbec33fcf	-0.3813462
130	0xbe9a7576	-0.3016774
131	0x3eb5fbb6	0.35543603
132	0x3e5f4c71	0.21806504
133	0x3d4a73ac	0.04942672
134	0x3f57cc2f	0.84295934
135	0xbe324edb	-0.17412893
136	0xbe7b13e7	-0.24519311
137	0x3ed6a276	0.41920823
138	0x3ded4b2f	0.11586606
139	0x3e80832d	0.2510008
140	0xbd5b1cff	-0.05349445
141	0x3eb96b92	0.36214882
142	0x3d45d11e	0.048295133
143	0x3e22a750	0.15884137
144	0x3db7c64a	0.089733675
145	0xbe4adfef	-0.19811986
146	0x3def339f	0.11679768
147	0xbddb3bc6	-0.1070476
148	0xbe514c82	-0.20439342
149	0xbd85f018	-0.06539935
150	0x3df3d28f	0.11905395
151	0x3e04298f	0.12906478
152	0xbd443f24	-0.047911778
153	0x3f0d9e3b	0.55319566
154	0xbd2df1d5	-0.042466957
155	0x3e3fea66	0.1874176
156	0x3d38f458	0.0451549
157	0xbe279098	-0.16363752
158	0xbec7500b	-0.38928255
159	0xba3a12eb	-0.0007098156
160	0x3d03758a	0.032094516
161	0xbdd6d689	-0.10490138
162	0xbf1037c6	-0.56335104
163	0x3f1ccb26	0.6124748
164	0xbe3f5bd7	-0.18687378
165	0x3e2d5454	0.169267
166	0xbd44e764	-0.048072234
167	0x3eaa112a	0.3321622
168	0x3d52d983	0.051476967
169	0xbc02830d	-0.007965815
170	0x3eb12c96	0.3460433
171	0x3e9a7359	0.30166128
172	0xbe0204e6	-0.12697181
173	0x3d347947	0.04406097
174	0xbe616ad5	-0.2201341
175	0x3d62eb90	0.05540043
176	0xbca433e1	-0.020044269
177	0xbe5fcaf2	-0.21854761
178	0x3e073ed9	0.13207568
179	0xbe1406c7	-0.1445571
180	0xbc8ec72e	-0.01742896
181	0x3d9018c0	0.07035971
182	0xbe2a7d0c	-0.16649264
183	0xbdade320	-0.08490586
184	0xba4adfeb	-0.0007739055
185	0x3e63262e	0.22182533
186	0xbec3054c	-0.3808998
187	0x3d858082	0.065186515
188	0xbe12bd53	-0.14330034
189	0xb948ebbc	-0.00019161304
190	0x3d7d5994	0.061853006
191	0xbdd4e6df	-0.10395598
192	0xbdbf89d9	-0.09352464
193	0x3adaa4f9	0.0016681246
194	0xbb5e5564	-0.0033925408
195	0x3e07a324	0.13245827
196	0x3e25da32	0.16196516
197	0xbd8d2e26	-0.06893568
198	0xbe8bd2ed	-0.2730936
199	0xbea5c24b	-0.32374796
200	0xbeee929d	-0.46596232
201	0xbdcb244f	-0.09919035
202	0xbd80c333	-0.06287231
203	0xbe2b30a4	-0.16717774
204	0x3e686849	0.22696032
205	0xbe6da9dd	-0.23209329
206	0xbd98dca6	-0.0746396
207	0x3ddd5d65	0.10808829
208	0xbece6b4c	-0.40316236
209	0xbe9f67ad	-0.31133786
210	0x3d250def	0.04029649
211	0x3ef5244a	0.4787925
212	0xbe3e0402	-0.18556216
213	0x3f60c8ea	0.8780657
214	0xbd77938e	-0.060443453
215	0xbde326e6	-0.11091404
216	0xbd91686c	-0.07099995
217	0x3ddea7ae	0.10871826
218	0xbe549279	-0.20759
219	0xbdd875f0	-0.1056937
220	0x3e6e20fd	0.23254772
221	0xbe263c07	-0.16233836
222	0x3c820370	0.01587078
223	0xbc245e31	-0.010032223
224	0xbe9d3e82	-0.30711752
225	0x3e095284	0.13410383
226	0xbe218860	-0.15774679
227	0xbdb00527	-0.08594733
228	0xbd33be0d	-0.04388242
229	0xbdc6f34f	-0.09714376
230	0xbdabf49e	-0.083962664
231	0xbebe79dc	-0.37202346
232	0xbcc1d718	-0.023662135
233	0x3d904e30	0.07046163
234	0xbe726ce3	-0.2367435
235	0x3dbcd077	0.09219449
236	0x3dd9c45a	0.10633154
237	0xbab0a26b	-0.0013476139
238	0x3d689a01	0.056787495
239	0x3f137791	0.5760432
240	0xbe7979c8	-0.24362862
241	0xbd10d0af	-0.035355266
242	0xbe2ced78	-0.16887462
243	0xbe641b3c	-0.22276014
244	0xbd18fdd6	-0.03735145
245	0x3f340274	0.70316243
246	0x3ec99e96	0.39378804
247	0x3e0be6b9	0.13662232
248	0xbbc7b4ee	-0.0060945665
249	0x3cf425a5	0.029803107
250	0x3d600356	0.05469068
251	0xbda28a2c	-0.079365104
252	0x3e5562cd	0.20838471
253	0xbdb14470	-0.086556315
254	0xbd6c8052	-0.057739563
255	0x3e58490a	0.21121612

layer2.bias f4 [64]
0	0xbdca4b95	-0.098776974
1	0xbc976248	-0.018479481
2	0xbd992300	-0.07477379
3	0xbd3faead	-0.046797443
4	0xbd28dc1e	-0.041225545
5	0xbd40a4ea	-0.047032274
6	0xbcf4f3fc	-0.029901497
7	0xbc20b71d	-0.009809283
8	0xbc6b81de	-0.0143742245
9	0x3c9b80d6	0.018982332
10	0x3d49d912	0.04927928
11	0xbd477ed7	-0.04870495
12	0x3c8aadf5	0.016928652
13	0x3ceff03f	0.029289363
14	0xb96fc74d	-0.00022867061
15	0xbcd36c59	-0.0258085
16	0x3d687ba0	0.056758523
17	0x3a7e8d7e	0.0009710415
18	0x3d0f83ad	0.035037685
19	0xbca879c3	-0.020565873
20	0x3d4b743d	0.0496714
21	0xbd249ea7	-0.040190365
22	0xbd8c0a81	-0.06837941
23	0xbda4ba89	-0.08043391
24	0xbbf9252b	-0.0076033077
25	0xbbe68931	-0.0070353975
26	0x3c20787f	0.0097943535
27	0x3c2e08cb	0.010622214
28	0xbd4f4e19	-0.05061159
29	0x3ba3837f	0.004990041
30	0xbd8d0c69	-0.06887133
31	0xbcb91db2	-0.022597168
32	0xbd92fcfa	-0.07177158
33	0x3cb2e8c2	0.021839503
34	0x3cc879d7	0.02447216
35	0xbc018141	-0.007904352
36	0xbcafbf4f	-0.021453528
37	0xbd5aa270	-0.05337757
38	0xbde58352	-0.11206688
39	0xbd98d228	-0.07461959
40	0x3c7a78ef	0.015287622
41	0xbd1aecc8	-0.03782347
42	0xbcbb79aa	-0.022885162
43	0xbd5e3e8d	-0.05425887
44	0xbd99d334	-0.07510987
45	0x3ba61b34	0.005069161
46	0xbc584db2	-0.013202118
47	0xbd17a63d	-0.03702377
48	0x3c1f8ad2	0.009737687
49	0xbc1d0758	-0.00958427
50	0xbb37765a	-0.0027994127
51	0xbcd6e65d	-0.026232893
52	0xbaef9ff3	-0.0018281922
53	0xbd6c1870	-0.057640493
54	0xbc41f713	-0.011838692
55	0xbcab992f	-0.020947067
56	0xbd41945b	-0.047260623
57	0xbd08271f	-0.033240434
58	0xbc040d80	-0.008059859
59	0xbc8c41d4	-0.017121233
60	0xbb9478f4	-0.0045310203
61	0x3c3bf4ab	0.011471908
62	0xbc3a00a4	-0.011352692
63	0x3cd921eb	0.026505431

layer3.weight f4 [1, 64]
0	0x3e6ac7d3	0.2292779
1	0x3e404d78	0.18779552
2	0xbe77523f	-0.24152468
3	0xbe26c1b3	-0.16284828
4	0x3e3344e8	0.17506754
5	0x3e67bf6b	0.22631614
6	0xbe2d7ac3	-0.16941361
7	0x3e56ea38	0.20987785
8	0xbe3aff7c	-0.18261522
9	0xbe7eab4c	-0.24870032
10	0x3e95a872	0.29230076
11	0xbe6f6128	-0.23376906
12	0x3e896dfb	0.2684172
13	0xbe93e4b1	-0.28885415
14	0xbe668ce1	-0.22514679
15	0x3ef06095	0.46948686
16	0x3e95cdd5	0.292586
17	0x3e354613	0.17702512
18	0x3ea0e503	0.31424722
19	0xbe4c5972	-0.19955996
20	0x3eb3326c	0.34999406
21	0x3e26276d	0.16225977
22	0xbdfb326f	-0.12265479
23	0xbe3e8310	-0.18604684
24	0xbe68821f	-0.22705887
25	0x3e991d92	0.29905373
26	0x3e13654f	0.14394115
27	0x3e764c7e	0.24052617
28	0xbe7a72ef	-0.24457906
29	0x3e76afac	0.24090451
30	0xbe12e3b8	-0.1434468
31	0xbda28107	-0.07934766
32	0xbe2d4cf8	-0.16923892
33	0x3e319e4d	0.17345543
34	0x3e2b6a93	0.16739874
35	0xbe820b83	-0.25399408
36	0xbe07241a	-0.13197365
37	0x3e8670a5	0.26257816
38	0xbe0ec536	-0.13942418
39	0xbe0d852b	-0.13820331
40	0xbe4f2d30	-0.20232081
41	0x3e30a8d8	0.17251909
42	0x3e702887	0.2345296
43	0xbe45a70b	-0.19302003
44	0xbe0c20d6	-0.13684401
45	0x3e3c928a	0.18415275
46	0x3e929c2e	0.2863478
47	0xbe61b923	-0.2204328
48	0x3e9ec496	0.31009358
49	0xbe95df4b	-0.29271922
50	0xbdfb52a9	-0.122716255
51	0x3e85b250	0.26112604
52	0xbd8cf6e3	-0.068830274
53	0x3e8b5e00	0.27220154
54	0xbeafc434	-0.3432938
55	0x3e400399	0.18751372
56	0x3e304ccb	0.17216794
57	0xbe6791f3	-0.22614269
58	0x3e6ea3c0	0.23304653
59	0xbe697f16	-0.22802386
60	0x3e58a517	0.21156727
61	0x3e730172	0.2373102
62	0x3e43fcdc	0.19139427
63	0x3e4a71f2	0.19770029
